500_ML/models/weights_7299_10-04_04:16.pt (torch_old, 39980 bytes, 7 tensors)

encoder.encoder.0.weight f4 [16, 1, 3, 3]
00000000: ac6c c3bd e25b a33d 22b5 2fbe 0397 b13e
00000010: ac5b a33e 1e8c c63e bc7e ce3e 5fc0 fc3d
00000020: b49a b23e c85e 493e beb8 96bd cf7a 2cbe
00000030: dc6c e63e 2b05 ef3e 5d2b e9bc 6240 703e
00000040: 77dd 9d3e 2faa 863d 28e1 2c3e 0d54 383e
00000050: 8afb e5bc 88c5 d13e ca87 443e 0cfc 9c3e
00000060: ce58 823e 41d3 ca3d 378e 963e 5a81 8abe
00000070: a99f 853e 5e69 43be e0a8 70bc 50c5 8abc
00000080: 702b 84be b292 5a3e 3839 04be 2be5 5cbe
00000090: b5fa 723e be3f 81bd d0c0 c4bc 0a03 9e3e
000000a0: 0356 c0bc a754 9c3c bff7 fb3d d285 82bd
000000b0: 17f3 b1bd b596 63be 9798 853d d636 673e
000000c0: fa94 c5bd 7af2 da3e 8141 bf3e 4053 843e
000000d0: b4c6 b03e c1e5 b63e 6ee6 f33d 6b79 afbd
000000e0: 90ee 8e3e 5d14 7bbd e28d c4bc ef92 7abe
000000f0: a2cd 9e3e c3fd 09be 5a34 4cbe 7054 b1bd
00000100: 0059 81bb ba46 333e 8ca6 86bd 3e34 47be
00000110: 903b 1cbe 081e 5cbd 7e53 a6be 3264 683e
00000120: dd23 63be 948d 27be eb40 203e c2b3 da3c
00000130: 195d 97ba 7928 a63d 2a5b 443e 7e64 6f3e
00000140: dbf6 5f3e 0c18 df3d a282 8fbe 8039 1cbc
00000150: e3f5 2fbe 80b1 7c3d 8c0a c2bd d68c d9bd
00000160: cc6d 9fbe 91e9 9d3e b67f bf3e 18f0 433e
00000170: b1dc 39be 54f5 3f3a ba32 983e 553d 37bc
00000180: bc4b b9bd d91b 8e3e 20ff 61be c5f4 7d3c
00000190: 4353 04be 8975 963e 5d7e 4ebe fda1 42bc
000001a0: e230 40bc 0ca1 853d bea7 8f3e cb3b 6d3d
000001b0: 3957 51be 7805 01be 719c 3f3e 50a4 58be
000001c0: f670 6e3c 9dd8 b63e 126a be3e 54dd 433e
000001d0: b080 973e c071 323d 1099 923d 582e 8abe
000001e0: f89d 22bd 20c4 d53d 6cfe 86be ead0 283e
000001f0: 88b7 2e3d d0bd 23be 1096 c2bd f4ae a0bd
00000200: 36a9 453e fbf1 81be 74cb bb3d 584d 6bbe
00000210: 7043 e23d 8848 1b3d 0fa1 91be 1c8b 993e
00000220: d563 a33e bca3 683c fbf8 22be a9e8 993e
00000230: 1582 a3bc 4e62 493e c6f1 aabb 9bc2 7f3e
-0.09542212 0.0797651 -0.1715894 0.34685525 0.31905878 0.38778776 0.40331066 0.123413794
0.34883654 0.19665062 -0.073594555 -0.16843723 0.45004928 0.4668363 -0.02846306 0.2346206
0.30833027 0.06575429 0.16882765 0.18000813 -0.028074045 0.40971017 0.19192424 0.30661047
0.25458378 0.09903575 0.29405376 -0.27051812 0.26098374 -0.19083163 -0.0146887 -0.016939789
-0.2581439 0.21345022 -0.12912452 -0.21571796 0.2372845 -0.06310986 -0.024017721 0.30861694
-0.023478514 0.019083334 0.12303113 -0.063731804 -0.08688944 -0.22225459 0.06523245 0.22579512
-0.09647556 0.4276312 0.37354663 0.25844765 0.34526598 0.35722163 0.11909185 -0.085680805
0.27916384 -0.061298717 -0.023993436 -0.24470113 0.3101626 -0.13475709 -0.19941846 -0.08658683
-0.003947377 0.17507449 -0.06574735 -0.19453523 -0.15257096 -0.053739578 -0.32485574 0.22694471
-0.2218165 -0.16362602 0.15649764 0.026697043 -0.0011548131 0.08113188 0.19175401 0.23378178
0.21871512 0.108932585 -0.28029352 -0.009535193 -0.17183642 0.061692715 -0.09474668 -0.106225654
-0.31138456 0.3084226 0.37402123 0.19134557 -0.18150593 0.00073226285 0.297262 -0.011184056
-0.09047648 0.2775562 -0.22069979 0.015500252 -0.12922387 0.29386547 -0.20165391 -0.011879441
-0.011730405 0.06524858 0.28057665 0.05791835 -0.20443429 -0.12599742 0.18712021 -0.2115643
0.014553299 0.35712138 0.371903 0.19127399 0.29590368 0.04356551 0.071581006 -0.26988482
-0.039701432 0.104377985 -0.26365983 0.16485944 0.042655498 -0.15990376 -0.095012784 -0.0784587
0.1930283 -0.2537993 0.09169665 -0.22978723 0.11048019 0.037910968 -0.2844319 0.29988945
0.31912103 0.014199194 -0.15915291 0.30060318 -0.019959489 0.19666407 -0.00521681 0.2497658

encoder.encoder.0.bias f4 [16]
00000000: ead7 ad3e 5d68 e0bb d973 3cbc ca5e 82be
00000010: 96c7 773e fa37 9abc 6caa 3dbe 8e02 7fbe
00000020: d417 713e 6ba1 3cbe c266 eb3d 1391 343e
00000030: e011 4b3e 5bda 42be 7098 7bbe 4699 c9bd
0.33953792 -0.0068483786 -0.01150223 -0.25462943 0.2419723 -0.01882552 -0.18522042 -0.24903318
0.23544246 -0.18420951 0.11494209 0.17633466 0.19831038 -0.19028609 -0.24569869 -0.09843688

encoder.encoder.2.weight f4 [32, 16, 3, 3]
00000000: e578 0f3e c973 1d3e 9a0b 143e 5bfd 6b3d
00000010: 3582 193d 9e12 143e 0fc6 bb3d 11cd 373d
00000020: 0c80 203e c698 95bd ce17 45bd 5c03 a5bd
00000030: 051b 48bd 8430 d8bd 3797 0bbe 7e2e 09bd
00000040: 561e bdbd 01b6 28be 99ef 963b 4ac7 a6bc
00000050: e2a4 c4bd 72a4 19bb bd4c 2fbc a035 f8bc
00000060: 1a08 98bd c804 5bbd 6bec 13be fc90 e3bc
00000070: 1055 be3c 8ca3 b7bc 0a26 a9bd 7c5c 943c
00000080: 9915 943d 500f babc 006d 023d 1313 74bd
00000090: 2812 d53d f747 dd3d 50da 353d fed8 7b3d
000000a0: 450d 893d e2b7 0d3e 8e5b c53d f514 723d
000000b0: f30e 8c3d 2bb0 d7bd 3aac 04bd e584 55bb
000000c0: 7490 ef3b 9578 2bbd d435 ecbd bdef 11bd
000000d0: 0207 1abe 796b 22be 05ed b5bd c90f 9cbd
000000e0: e69c a3bd 198a 883d 8190 c5bc f5c2 8dbc
000000f0: c070 9a3b 5d21 e6bc fb7a 0abc bc11 f53c
00000100: 646a bd3c a412 8ebd 9048 b33b 4800 1c3d
00000110: aae2 563d 5695 85bd 8b5b 99bd 00f3 adbc
00000120: c69f 053e 3f79 e03d c0fb cf3d 3dc7 d03d
00000130: 39a1 2f3e 8c1e 9e3d 02ba 973c 3edd 843c
00000140: 5c80 d13d 7b1f 0cbd b601 123d 9fed 99bd
00000150: e6ec f9bc 2b9d 56bd 3a27 80bd 46df 30bd
00000160: e08a f03c 800b c13b 2e11 3a3e da6c 733d
00000170: 6e9a 063e e589 5e3d bf7c db3d 0167 e33d
00000180: f140 f63d 1212 2b3e ca89 b53d 6a93 ef3c
00000190: 80b6 1a3e c0df 583d 35f4 983c e6bf 1f3d
000001a0: cde8 2c3e 0de2 733d 8330 013d fd51 863c
000001b0: 7b9f 043e eab3 233e 6c3e 133e c434 153e
000001c0: 51ac 973d 95c8 2a3e 3abb 0a3e a243 8b3d
000001d0: 65dc 9d3d 24c6 933c 6860 0bbd e230 283d
000001e0: ace5 95bc b046 263d 0018 1f3b a4db e83c
000001f0: 006f deb9 401b 85ba 5316 8a3d 03b4 a9bd
00000200: 44d8 e43c 7807 57bd 3697 80bd d8eb 4c3c
00000210: 8e52 353d 0060 12bc 4155 a13d d11c 47bd
00000220: 572a 79bd ff95 1dbe 2c95 4a3c 0da2 11be
00000230: 0ffb 1bbd c078 d0bd 81a8 87bd b6e2 0cbe
00000240: 708f eabb c43a 8c3b 78fa ef3d 6c21 4ebc
00000250: d269 b0bc d740 0dbc 7bbb 583d 145c 563d
00000260: 2140 c33d 769c 1bbb c760 933d b60e 80bc
00000270: 992f 363d 83bf bb3d dc10 943d 3d37 dc3d
00000280: bae7 d93d ff4e 193e 9386 83bc 1be5 eb3d
00000290: 9fc5 bf3d 22b5 413d 9d38 573d 02b8 2d3e
000002a0: f082 d8bc 5c9e 923c c5e7 663d 9438 853c
000002b0: 0e60 1b3d 10e5 d43b da74 a5bd 1c23 9bbd
000002c0: 7a76 7e3d ca6b 5c3d 3622 3b3d d834 053d
000002d0: 8ec4 96bc 33ae 93bd b51f ca3c 8277 4c3d
000002e0: ee52 6c3d 5429 66bd 38af a63c ac9f 09bd
000002f0: 79e4 cfbc 99e2 b73c 1692 013e 6b00 e03d
00000300: 88b3 ac3d 30c3 293e e0d0 803d 5f86 8ebb
00000310: 9f62 943d a0c2 c73d f3ad 5ebd 600d 5d3c
00000320: 50ca 0fbd 2027 0d3c 70d1 94bc 98c4 4bbb
00000330: 1fd6 a1bd 82de 88bd 49ea 173d c8de 113d
00000340: 8057 7f3c c774 9fbd 1657 04bd 20c3 f63c
00000350: c0e7 a03b cc4a f93c f2d4 503d 7c12 85bc
00000360: 0f5a 413b de75 933d cc4d 603d 029c 97bd
00000370: 5c50 fe3c 1197 adbc 8a1c ce3b 3763 e0bc
00000380: 5d05 893c 68c9 0ebd 3a25 2b3d 03f4 2ebd
00000390: 00fd f7ba 20e7 2cbd a03c 663b 80e1 34ba
000003a0: 538c 2abd e4f6 8fbd a62e 6cbd 1b24 4f3c
000003b0: 9e51 363d e70d 93bc cb76 663d c27f 6abc
000003c0: 73a4 9b3d 0e31 1dbd cfff 87bb e7e5 2a3d
000003d0: ce6e b63d 5361 89bc 6de6 1fbd 0aab 15bd
000003e0: d575 32bd 0d97 573d 9ca0 0bbd d9bd 033d
000003f0: 73c1 adba 4f32 503d 1fbf 683d e23e 263b
0.14010961 0.153762 0.1445755 0.057614665 0.03747769 0.14460227 0.09168636 0.0448733
0.15673846 -0.0730453 -0.048118405 -0.080572814 -0.048853893 -0.105561286 -0.13631903 -0.033491604
-0.09234302 -0.16475679 0.004606199 -0.0203587 -0.096017614 -0.0023443964 -0.010699448 -0.030299008
-0.0742342 -0.053471357 -0.14445655 -0.027779095 0.02323392 -0.022416852 -0.082592085 0.018110506
0.07230682 -0.02271238 0.03184223 -0.059588503 0.10403854 0.10804742 0.044397652 0.061486237
0.06691984 0.13839677 0.09636603 0.059102017 0.06838789 -0.10531648 -0.03239081 -0.0032580432
0.0073109213 -0.041863043 -0.115337044 -0.035629023 -0.15041736 -0.1586131 -0.088830985 -0.07620198
-0.079889104 0.06666965 -0.024116756 -0.017304877 0.004713148 -0.02809208 -0.008452172 0.029915683
0.02312202 -0.06937149 0.0054712966 0.038086206 0.052462257 -0.06522624 -0.074881636 -0.021234035
0.1304923 0.10960626 0.101554394 0.10194252 0.17151345 0.0772067 0.018521313 0.016218778
0.10229561 -0.03420971 0.035646163 -0.07516026 -0.03050847 -0.05239598 -0.06257482 -0.04318168
0.029363096 0.0058912635 0.18170616 0.05942998 0.13144848 0.054330725 0.10717153 0.11103631
0.12024105 0.16706112 0.08864172 0.029245097 0.1510868 0.05294776 0.018671134 0.039001368
0.16885681 0.05954175 0.031540405 0.016396517 0.12951462 0.159866 0.14379281 0.1457091
0.074059136 0.16678078 0.13547984 0.06800009 0.077080525 0.018038817 -0.034027487 0.041062243
-0.018297993 0.040594757 0.002427578 0.028425045 -0.0004242584 -0.0010155216 0.06742539 -0.08286288
0.027935155 -0.052497357 -0.06278841 0.012507401 0.044268183 -0.008934021 0.07877589 -0.048611466
-0.060831394 -0.1538925 0.012364667 -0.14221974 -0.038081225 -0.10179281 -0.066239364 -0.13758358
-0.0071582124 0.0042794663 0.11717695 -0.012581211 -0.021534834 -0.008621416 0.05291317 0.052333906
0.09533716 -0.002374438 0.07196193 -0.015632015 0.044478986 0.09167387 0.07229778 0.10752723
0.106399015 0.14971541 -0.01605538 0.11518308 0.09363865 0.047291882 0.052544225 0.16964725
-0.026429623 0.017897777 0.056373376 0.01626233 0.0379334 0.006497033 -0.08078928 -0.07575056
0.062124707 0.053813733 0.045686923 0.0325211 -0.018404271 -0.0721096 0.024673322 0.04991866
0.057696275 -0.056191757 0.020347223 -0.03359954 -0.025377499 0.022446917 0.12653384 0.1093758
0.0843268 0.16578364 0.0628984 -0.0043495144 0.07245373 0.09753919 -0.05436511 0.013491958
-0.03510505 0.008615285 -0.018166274 -0.003109252 -0.079021685 -0.06683065 0.037088666 0.03561285
0.0155848265 -0.077859454 -0.032309614 0.03012234 0.0049104393 0.030431174 0.05098433 -0.016244166
0.0029503142 0.07200216 0.054761693 -0.07402803 0.031044178 -0.021190198 0.006290023 -0.02739106
0.01672619 -0.034860045 0.04178355 -0.042713176 -0.0018920004 -0.042212605 0.003513135 -0.0006900057
-0.04163773 -0.070295125 -0.057661675 0.012642886 0.04451143 -0.017950965 0.056265634 -0.014312686
0.075997256 -0.03837686 -0.004150368 0.04172316 0.08907853 -0.01677004 -0.03903811 -0.03654007
-0.043569405 0.052634288 -0.034088716 0.032163475 -0.0013256505 0.050829228 0.056822892 0.002536707

encoder.encoder.2.bias f4 [32]
00000000: 336c 123d 4ac4 f2bc d4c6 0d3e bd22 f93d
00000010: b7e3 0c3e b0af 4ebd f90b 0d3e 6bea 1d3e
00000020: a0ad 16bc 64cc b13d 202b f5bc 8f31 233e
00000030: 382b 2e3e f7eb fabe c770 b43d ec29 bebd
00000040: 0325 87bd 1dfa e43c 3191 b5bd f67d db3d
00000050: 1819 323c 6d50 76bd c15a 38bd 5626 22bd
00000060: a8ba a03d 05c3 a53d 8086 02bd 92a1 0c3f
00000070: f5ef c73d d8c6 de3c ab5b 0b3e 43a9 1d3e
0.035747718 -0.029634614 0.13845378 0.12164829 0.13758741 -0.050460517 0.13774098 0.15421455
-0.009196669 0.086815625 -0.02992779 0.15936874 0.17008674 -0.49008152 0.08810573 -0.0928534
-0.06598856 0.027951295 -0.08865584 0.107173845 0.010870241 -0.060135294 -0.045008425 -0.03958734
0.07848102 0.08093838 -0.03186655 0.54934037 0.09762565 0.027194425 0.13609187 0.153966

decoder.decoder.0.weight f4 [32, 16, 3, 3]
00000000: a3a5 a63d 5a45 bb3c 10db 22bb 69e9 1f3c
00000010: 9f52 183d 5f06 9f3d 80ba 0dbc f0f4 d23c
00000020: 12c9 043d c4d9 9d3d 9031 6a3d 9f90 083e
00000030: fe6e 073d 7679 293e 79b1 233e 3cad 723d
00000040: 03ba 373e d2da 0d3e 24fe 003e 1131 123e
00000050: 3607 113e 986d f43d f708 8f3d 9c21 283e
00000060: 065a a43d 5e48 6e3d 7345 b43d 2d58 603c
00000070: 16e0 81bd a8bc b83c 3d52 a0bd 1ee2 79bd
00000080: e558 c4bc 2a98 aebd 8ba5 9dbd 1c04 d6bd
00000090: 3aa5 063e dda0 503d a513 093e 4572 1c3e
000000a0: 79fb 423e 6e00 df3c 7df7 783d c9eb 933d
000000b0: 14ed 8c3d d720 b13c bc76 243c ba68 833c
000000c0: 9d9c cd3d d9ae fa3d 90b6 163e d002 8a3d
000000d0: 927c 013e fd04 103d a669 933d aa68 d83c
000000e0: ae81 a6bd 37ab c7bc 95bf ab3a 852f 2cbd
000000f0: b825 9fbc c9cd 87bd 91e1 663b 7bd7 813d
00000100: 0321 ee3c a20d 9f3d d216 9f3c 82b6 643d
00000110: 658a c73c 1c0f e8b8 0bff d8bb be76 a73c
00000120: d253 06bd 8c4f 103c 6857 0a3d 7aa3 af3c
00000130: 34a8 473d 1aae 053d 5d17 5ebd d83b 813d
00000140: b16b d2bd d74a 063e ce3a 95bb 3881 97bc
00000150: 1542 cbbb 82c8 983c 78ae 2e3d dc9f 0e3e
00000160: 6b50 d83d e770 c93d 85ab 933d ecbb 5e3d
00000170: fadd 023e 347f 6dbd 5324 2c3d 01e7 863d
00000180: d39e a23d 8785 8fbd 5989 d23d 012b 953c
00000190: 8001 ffbb a908 383d 0ba0 4ebd 4494 4bbd
000001a0: 1910 833d 78ff 263d f069 813c b25b e2bc
000001b0: 18ba a5bd 43ae 173c c5a6 5dbd 8723 553d
000001c0: 28b6 95bd 5c85 79bb 03c1 6bbb d38d debc
000001d0: ee7c 65bd 0059 da3d a550 e13d 3e3a 1cbd
000001e0: 5480 f13c 76cf 313d 6ee5 73bd de3c 8e3d
000001f0: 8c51 ee3d 9c09 4b3c 6163 693d ed16 32bd
00000200: f3d5 243d 2779 493d b2fa 83bd 8d2b 773c
00000210: cbda 64bc d6b7 1e3d b0a7 8bbd 77b9 003d
00000220: 4c8b f0bc 8ab1 14bb 4725 213e 2392 5d3d
00000230: 9bac 843c e3e9 0b3e d037 b53d 84c8 093c
00000240: fecd ab3d e5c1 9c3d e574 143c ec22 d93d
00000250: e446 14bd 3bc9 693d b3df 353d a2b6 823c
00000260: 0fe0 0dbd c6b9 09be 161c 66bc 73b7 1abe
00000270: 83e7 89bc 012b e1bd 7e65 b1bd af0f edbd
00000280: 8dee 56bd 036b 75bd c311 953c 798e a7bd
00000290: 71fd a0bd fce3 b3bd ce66 06bd 4df1 33bd
000002a0: 2fc1 8cbd 7592 3fbb 768d 00be b84d 073d
000002b0: 8b64 f43c 37a7 80bd 5881 463d e08a 1dbc
000002c0: 98eb 4bbd 1016 2abd a9cf 02bd e872 75bd
000002d0: e8c1 45be 219b b9bd 549a c2bc 0d5d 91bd
000002e0: 292e 8cbe 9f98 08be b967 49be c66e d83b
000002f0: 3bfa 23be 7c8f 25bd bd84 bdbc 58b7 80bd
00000300: 0f3a 0dbe 445e 73bd 916f 43be 95c2 adbd
00000310: d763 003b 06d0 96bd 5775 91bd acee a23d
00000320: a558 fb3c bc86 883d 6c59 b13b b56c 203e
00000330: 1ec5 11bd d1be da3d 1a7d 933d 453b 753d
00000340: f80b c83c c92e 8ebb ef5d 063e 1fd0 ea3d
00000350: 8339 f33d c371 a93c c70e 083e b76b 363e
00000360: 60ad 3d3d a993 6fbc 6a91 c03d 143f 703d
00000370: c929 f23d 347a c8ba c2c8 febc aff7 8dbd
00000380: ec07 313e fa07 68bd 093c 74be 22a6 d13b
00000390: e864 74bd 692c b9bd c241 0ebe 866c b3bc
000003a0: da70 13be 217d b7bd f695 e8bd 0a33 5b3d
000003b0: fabb 2e3e 9f24 503d b367 a93d 1b7f d13d
000003c0: b219 a3be 78c9 633d a2eb 94bd ce54 5e3d
000003d0: 43ed a53d 0c9d d5bc d4dc bb3c b155 873d
000003e0: b071 7ebd 6eeb 4fbd a5a0 84bd a8ef 7bbd
000003f0: 8f5e 983d 635c 78bd ea92 913d 65dd 8f3d
0.081370614 0.022860218 -0.002484981 0.009760239 0.03718817 0.07764887 -0.008650422 0.02575156
0.032418318 0.07707551 0.057176173 0.13336419 0.033064835 0.1655024 0.15985669 0.05924724
0.17942052 0.13853005 0.12596947 0.1427653 0.14162907 0.11934966 0.06984132 0.16419071
0.08024983 0.058174483 0.08802309 0.013692898 -0.06341569 0.022550896 -0.07828186 -0.061006658
-0.02396817 -0.08525117 -0.076975904 -0.104500026 0.13148966 0.05093466 0.133864 0.15277965
0.19041242 0.027221885 0.0607829 0.07222707 0.068811566 0.021622105 0.010038074 0.016041148
0.10039637 0.12240381 0.1471808 0.06738818 0.12645176 0.035161007 0.07197885 0.026417095
-0.08130203 -0.024373634 0.001310336 -0.042037506 -0.019427165 -0.06631047 0.0035229663 0.06339928
0.029068476 0.07766272 0.019420061 0.055838116 0.024357984 -0.000110654364 -0.0066222004 0.020442363
-0.03279478 0.008808028 0.033774763 0.021440256 0.048744395 0.03263674 -0.0542215 0.063102424
-0.10274447 0.13114487 -0.004554129 -0.018494233 -0.006202946 0.018650297 0.042646855 0.13928169
0.105622135 0.098359875 0.07210449 0.054378435 0.1277999 -0.05798264 0.04202683 0.06587029
0.079404496 -0.0700789 0.10280103 0.018208982 -0.0077821612 0.044930134 -0.050445598 -0.049701944
0.06399555 0.040770978 0.015797585 -0.027631614 -0.08092135 0.009257856 -0.054114122 0.052035835
-0.07310134 -0.0038073873 -0.0035973198 -0.027167236 -0.056027345 0.10661507 0.1100171 -0.03814148
0.029480137 0.04341074 -0.059544973 0.06945203 0.116366476 0.012392428 0.05697954 -0.043478895
0.0402431 0.049187806 -0.06444301 0.015086067 -0.01396818 0.03874954 -0.06819093 0.031426873
-0.029363297 -0.002268883 0.15736876 0.054094445 0.016195586 0.1366344 0.08848536 0.008409623
0.08388899 0.0765417 0.009061073 0.10602364 -0.03620042 0.057076674 0.04440279 0.015956227
-0.034637507 -0.13449773 -0.014044782 -0.15109043 -0.016834026 -0.109945305 -0.08661936 -0.11575257
-0.052473594 -0.059916507 0.018196946 -0.081814714 -0.0786084 -0.08783719 -0.032812886 -0.043931294
-0.06872784 -0.0029231582 -0.12553963 0.033033103 0.029833099 -0.06281894 0.048463196 -0.00961563
-0.049785227 -0.041524947 -0.03193632 -0.059924036 -0.1931225 -0.090627916 -0.02375523 -0.07097826
-0.27378967 -0.1333947 -0.19668473 0.006605002 -0.16013424 -0.04042004 -0.023134584 -0.0628497
-0.13791679 -0.05941607 -0.19085528 -0.08484379 0.001959076 -0.07363896 -0.07102459 0.07955679
0.030681917 0.066663235 0.0054122712 0.15666468 -0.035588376 0.106809266 0.072015956 0.059870977
0.02441977 -0.0043390733 0.1312177 0.11465477 0.11876204 0.020684129 0.13286887 0.17814527
0.04630792 -0.014622607 0.094027355 0.058653906 0.11824376 -0.0015295208 -0.031101588 -0.069320075
0.17288178 -0.056648232 -0.23851027 0.0063979784 -0.059666544 -0.09041674 -0.13892272 -0.021902334
-0.14398518 -0.08959413 -0.11356728 0.05351547 0.17063895 0.050816175 0.08271732 0.102293216
-0.3185554 0.055612057 -0.07271506 0.054280095 0.08101895 -0.026075862 0.022932447 0.06608141
-0.06212014 -0.050761633 -0.06475953 -0.06150785 0.074399106 -0.06063498 0.071081 0.070246495

decoder.decoder.0.bias f4 [16]
00000000: 0091 98bd 6222 b33d e9f6 d73d e353 233d
00000010: 9c38 863d 7771 c13d f875 42bd d289 a3bc
00000020: aee9 bebc 0085 ca3d a4c4 97bd 5eda a2bd
00000030: 8c8e 4f3d 42f8 893d c860 163d 3920 ea3d
-0.074495316 0.087467924 0.10545141 0.039874922 0.06553766 0.0944547 -0.047475785 -0.019963179
-0.023304787 0.09888649 -0.07410553 -0.079518065 0.050673053 0.067368045 0.03671339 0.11431927

decoder.decoder.2.weight f4 [16, 1, 3, 3]
00000000: 6180 af3e 10a2 40be 3dbd 9a3e db60 303e
00000010: 830d 59be cd02 eebc a607 d4bc d669 783e
00000020: ca60 5b3e 6af6 3fbd c736 783d 8ae3 513e
00000030: 9273 e93d 8a76 bebe 0a2f cabe f4db 493d
00000040: 2052 71be a0d5 43be ab51 8ebe 75ad d7bb
00000050: 6558 3ebe d73a 9cbe bc08 c1be b13a 0ebe
00000060: 1bac 1b3d a5a0 b23d b9fe b9be 03c8 c7bc
00000070: e00b 083d 7f51 983e e85c 85bd 6552 93be
00000080: ffe4 253e b935 76bc fdb3 65be 1ca8 493e
00000090: a6ac 72be b96e 85be ef5a babe 20bb 9c3d
000000a0: 747f e8be 030a a03d 09d7 3bbe 0883 a1be
000000b0: 264b a7bd 31a7 29bd 698f 94bd c209 33bc
000000c0: 5cf5 15be fbf4 32be 20ff aabd 5ff7 a1be
000000d0: b3bc 003e 06fd 8fbe 804d d3bd dafc aa3e
000000e0: 69d8 bf3e d5e7 593c 7443 4cbd 87fb 8a3e
000000f0: aa03 8d3e ddeb ba3e af24 ec3e c8e7 c3be
00000100: ea13 4e3d 5b99 803c 8bba 6c3e dbdc b73e
00000110: 25b1 b53e 0fe9 fc3d e5b8 a33e fe35 ffbd
00000120: 4314 08be 86f5 973d 4c1f 6bbe 23c3 523d
00000130: 874c 503e a82b 8f3e 820a 75be 2827 0d3e
00000140: 06ac 643e 7140 a9be a181 293b 9a8b 9dbe
00000150: e457 2dbc 40d2 023c 2b81 b8be 67ce a8bd
00000160: fc9c debe 41c3 a1be 8286 343e 0935 02be
00000170: 8967 c23e a324 11be f186 723e c836 cbbb
00000180: fe3a b73e fa9a ae3d 2e58 013f 2b80 27bf
00000190: 1d48 9a3e a325 9abe b169 4bbe 4b0a 623e
000001a0: ee2e 0ebd 3360 85be 73ca b7be 5478 edbe
000001b0: 1cb1 4a3e 22e1 133e 7835 9f3e e5a2 a2be
000001c0: 2217 95be db54 9b3e 0876 8a3d c34b 843e
000001d0: 7c70 d4bd 37bb 573e 23b4 c3be 309a 8f3e
000001e0: 52bc c13d 7249 d73d e022 09be 5818 98be
000001f0: dfed 9cbe 137d a8be b05b 0fbe c59e 8f3e
00000200: 2494 85be 7b03 40be 76bc 863e 7fe5 88be
00000210: 906d cf3c c994 fe3d 648d 8b3d c505 063e
00000220: fc83 b0be 5795 56be 7add 74be 0db6 3f3e
00000230: afe2 2ebe 1178 bcbc c222 c83b 347b 79be
0.34277633 -0.18811822 0.30222502 0.17224447 -0.2119656 -0.02905407 -0.025882553 0.24259123
0.21423641 -0.04686586 0.060599115 0.20496956 0.113989964 -0.37199813 -0.39489013 0.04928203
-0.23566484 -0.1912446 -0.27796683 -0.006581957 -0.18588407 -0.3051364 -0.37701976 -0.13889576
0.03800593 0.08722047 -0.3632715 -0.024387365 0.03321445 0.29749677 -0.06511861 -0.287738
0.16200636 -0.015027457 -0.22431941 0.19693035 -0.23698673 -0.26061037 -0.36397502 0.07652879
-0.4540974 0.078144096 -0.18343748 -0.3154528 -0.0816863 -0.04141921 -0.07253916 -0.010927619
-0.14644378 -0.17476265 -0.083494425 -0.31634042 0.12571983 -0.2812273 -0.10317516 0.33396035
0.37469795 0.013299902 -0.049869016 0.27145025 0.27541858 0.36508074 0.46121737 -0.38262773
0.05031196 0.015698126 0.23118035 0.35910687 0.35486713 0.1234914 0.31977 -0.1246147
-0.13288979 0.07419877 -0.22961158 0.051455628 0.20341693 0.27962995 -0.2392979 0.13784468
0.22331247 -0.33056977 0.0025864618 -0.3077057 -0.010580037 0.007984698 -0.36036047 -0.08242493
-0.43479145 -0.3159428 0.17629436 -0.12715544 0.37969616 -0.14174132 0.23684289 -0.006201599
0.35787195 0.08525653 0.50525177 -0.65429944 0.30133143 -0.3010684 -0.19864537 0.22074239
-0.034712724 -0.26049957 -0.35896644 -0.46380866 0.19794124 0.1444135 0.3109548 -0.31764904
-0.2911921 0.30338177 0.06760794 0.25839052 -0.10373017 0.2106751 -0.3822337 0.28047323
0.094597474 0.105120555 -0.1339221 -0.29706073 -0.3065023 -0.32907924 -0.1399982 0.2805082
-0.26089585 -0.18751328 0.2631566 -0.26737592 0.025320798 0.12430722 0.068140775 0.13088138
-0.34475696 -0.20955406 -0.23912612 0.1872179 -0.1707866 -0.02300647 0.006107659 -0.24363405
