500_ML/models/weights_199_10-04_04:16.pt (torch_old, 39980 bytes, 7 tensors)

encoder.encoder.0.weight f4 [16, 1, 3, 3]
00000000: 3b16 cdbd ad49 9d3d 9ede 32be f664 af3e
00000010: b4e2 a13e 7132 c53e dc1e cd3e 7a3c fb3d
00000020: 9e7c b23e d6d3 403e a8ee ccbd c11e 45be
00000030: f00f d73e 8ac7 d53e 22c2 a0bd 0fc9 4c3e
00000040: 62fb 813e af11 223c 8131 203e 85f2 f73d
00000050: f036 abbd 3a79 be3e 273e d73d 59d9 603e
00000060: cb96 4e3e 51d1 bebb 64eb 3e3e 5a81 8abe
00000070: a99f 853e 5e69 43be e0a8 70bc 50c5 8abc
00000080: 702b 84be b292 5a3e 3839 04be 2be5 5cbe
00000090: f513 733e 5c5e 58bd 7172 7cbc 9648 a03e
000000a0: 60cd f7bb 8b15 0e3d 15fa 043e 8b6d 34bd
000000b0: cb99 88bd dee4 58be dfc0 2c3d 27fa 523e
000000c0: 108a e1bd efc2 c13e a4cf a53e 09d4 6f3e
000000d0: 8a82 903e 341a 953e 6ee6 f33d 6b79 afbd
000000e0: 90ee 8e3e 5d14 7bbd e28d c4bc ef92 7abe
000000f0: a2cd 9e3e c3fd 09be 5a34 4cbe 7054 b1bd
00000100: 0059 81bb ba46 333e 8ca6 86bd 3e34 47be
00000110: 903b 1cbe 081e 5cbd 7e53 a6be 3264 683e
00000120: 9405 5cbe 53bf 1abe 3b01 2c3e ac89 053d
00000130: dc73 2d3c 80d9 bd3d ae46 483e 7827 7a3e
00000140: bdb4 6a3e 0c18 df3d a282 8fbe 8039 1cbc
00000150: e3f5 2fbe 80b1 7c3d 8c0a c2bd d68c d9bd
00000160: cc6d 9fbe 91e9 9d3e 0d56 b93e 4a60 383e
00000170: ba62 45be 1dde f3bb 4603 943e a045 94bc
00000180: 9632 c4bd 9da5 8b3e c635 65be a34e a13c
00000190: dad9 f8bd 91f5 993e 1bfe 46be 3212 19ba
000001a0: 4a48 aab9 fcdc 943d 92cd 953e b202 903d
000001b0: 12a8 52be 3a34 04be 3e06 3d3e e5de 5bbe
000001c0: 5e06 113c a847 b43e 448e bc3e 87bc 3d3e
000001d0: 8ecb 943e c071 323d 1099 923d 582e 8abe
000001e0: f89d 22bd 20c4 d53d 6cfe 86be ead0 283e
000001f0: 88b7 2e3d d0bd 23be 1096 c2bd f4ae a0bd
00000200: 36a9 453e fbf1 81be 74cb bb3d 584d 6bbe
00000210: 7043 e23d 8848 1b3d 0fa1 91be fbac 983e
00000220: a236 a23e 52ec 423c 0943 25be 7d5b 983e
00000230: 245c bcbc e117 473e ad3a 07bc 5ba6 7c3e
-0.10014006 0.07680068 -0.17467734 0.34256715 0.31618273 0.38515046 0.40062606 0.12267394
0.348607 0.18830809 -0.100064576 -0.19250013 0.42004347 0.417538 -0.07849528 0.19998573
0.25387102 0.009891911 0.15643884 0.12106804 -0.08360088 0.37201864 0.105099015 0.21957912
0.2017471 -0.0058232923 0.18644482 -0.27051812 0.26098374 -0.19083163 -0.0146887 -0.016939789
-0.2581439 0.21345022 -0.12912452 -0.21571796 0.23738082 -0.052824363 -0.015408144 0.3130538
-0.0075623244 0.034688514 0.12986024 -0.04404978 -0.06669959 -0.21181056 0.042176124 0.20603238
-0.110126615 0.37844035 0.3238498 0.23420729 0.28224593 0.29121554 0.11909185 -0.085680805
0.27916384 -0.061298717 -0.023993436 -0.24470113 0.3101626 -0.13475709 -0.19941846 -0.08658683
-0.003947377 0.17507449 -0.06574735 -0.19453523 -0.15257096 -0.053739578 -0.32485574 0.22694471
-0.21486503 -0.15112047 0.16797344 0.032601997 0.010586705 0.092700005 0.19558212 0.24429119
0.22920509 0.108932585 -0.28029352 -0.009535193 -0.17183642 0.061692715 -0.09474668 -0.106225654
-0.31138456 0.3084226 0.36198464 0.18005481 -0.19275942 -0.0074422495 0.28908747 -0.018099606
-0.09579961 0.2727479 -0.22383794 0.019690817 -0.12150927 0.30070165 -0.19432871 -0.0005839198
-0.00032478786 0.07268712 0.292584 0.07031764 -0.20571926 -0.12910548 0.18459412 -0.21471746
0.008851616 0.3521092 0.3682729 0.18528949 0.2906155 0.04356551 0.071581006 -0.26988482
-0.039701432 0.104377985 -0.26365983 0.16485944 0.042655498 -0.15990376 -0.095012784 -0.0784587
0.1930283 -0.2537993 0.09169665 -0.22978723 0.11048019 0.037910968 -0.2844319 0.29819474
0.31682307 0.011897163 -0.16138853 0.297573 -0.022993155 0.19442703 -0.0082537355 0.24672835

encoder.encoder.0.bias f4 [16]
00000000: d359 aa3e a603 88bd b005 a4bc ca5e 82be
00000010: 7f1b 703e acfd 9dbd 6caa 3dbe 8e02 7fbe
00000020: fd61 683e 6ba1 3cbe 9dd1 d43d 3e46 2c3e
00000030: d5c1 433e 5bda 42be 7098 7bbe 86d0 cfbd
0.33271655 -0.06641321 -0.020022243 -0.25462943 0.23447989 -0.077144 -0.18522042 -0.24903318
0.2269363 -0.18420951 0.10391543 0.1682367 0.1911691 -0.19028609 -0.24569869 -0.101471946

encoder.encoder.2.weight f4 [32, 16, 3, 3]
00000000: 1c58 103e fb7d 1c3e fde9 123e d7b2 6b3d
00000010: 3ff8 0d3d 1726 113e 9869 bb3d 4b03 2c3d
00000020: fb90 1d3e ba83 d6bd 533a 88bd 1b88 d0bd
00000030: 93a7 71bd 4a40 c1bd 7bfd f5bd 2203 4ebd
00000040: f639 adbd 70f1 15be 9812 b0bc f3b3 1bbd
00000050: 336b f3bd ae55 6bbb 5d7b b63b 1cb7 60bc
00000060: 0a13 9fbd f3e7 12bd dcd7 fcbd fc90 e3bc
00000070: 1055 be3c 8ca3 b7bc 0a26 a9bd 7c5c 943c
00000080: 9915 943d 500f babc 006d 023d 1313 74bd
00000090: 3706 d73d 669a da3d 6f89 303d 27cd 7a3d
000000a0: 2843 813d cfed 093e 9fbc c43d 1669 623d
000000b0: 498a 843d c82d f4bd 46dd 1cbd f23b 8abc
000000c0: d1bf 163c bd5f d3bc 254a d5bd 6e3d 0dbd
000000d0: 2456 07be e515 14be 05ed b5bd c90f 9cbd
000000e0: e69c a3bd 198a 883d 8190 c5bc f5c2 8dbc
000000f0: c070 9a3b 5d21 e6bc fb7a 0abc bc11 f53c
00000100: 646a bd3c a412 8ebd 9048 b33b 4800 1c3d
00000110: aae2 563d 5695 85bd 8b5b 99bd 00f3 adbc
00000120: 293d 073e 45ce de3d 6d0f ce3d fed4 d03d
00000130: 1ddc 2b3e 2b71 963d c99a 973c d4d5 4c3c
00000140: ebbe c93d 7b1f 0cbd b601 123d 9fed 99bd
00000150: e6ec f9bc 2b9d 56bd 3a27 80bd 46df 30bd
00000160: e08a f03c 800b c13b 294e 3a3e 966d 5e3d
00000170: 2a91 003e 96dc 593d a52e c83d 2a39 cf3d
00000180: 60ba f33d dda8 213e 30d8 a23d 27d8 fc3c
00000190: aa67 193e 96ec 523d c465 993c 207b 0d3d
000001a0: 3222 283e ae7a 743d d7f2 de3c 1aad 423c
000001b0: 4e35 063e 5fc4 223e 8e0e 123e 475d 153e
000001c0: bb47 903d 27ea 263e a2da 0a3e a7e2 833d
000001d0: 7a23 963d 24c6 933c 6860 0bbd e230 283d
000001e0: ace5 95bc b046 263d 0018 1f3b a4db e83c
000001f0: 006f deb9 401b 85ba 5316 8a3d 03b4 a9bd
00000200: 44d8 e43c 7807 57bd 3697 80bd d8eb 4c3c
00000210: 8e52 353d 0060 12bc 4155 a13d 3826 45bd
00000220: 6fc6 75bd 6997 1cbe d1f3 553c a62f 10be
00000230: 34a0 15bd ddc0 cebd c13b 84bd 02da 0abe
00000240: dc24 64bc 1f15 00bc 3f03 d43d 7037 a2bc
00000250: 4b3e 17bd b4bb e5bc 0d9b 793d ce8a 5b3d
00000260: 2afb bb3d c2f0 9a3c 2753 a53d a3e7 6dbc
00000270: 43c3 483d 7397 993d d074 2f3d 69c7 0f3e
00000280: e724 fc3d a5a0 163e 6209 183c b424 033e
00000290: 50fd ce3d 0f13 2b3d 2294 c23c a636 073e
000002a0: 6eee 0ebc e283 573c 8565 1b3d 9438 853c
000002b0: 0e60 1b3d 10e5 d43b da74 a5bd 1c23 9bbd
000002c0: 7a76 7e3d ca6b 5c3d 3622 3b3d d834 053d
000002d0: 5959 bcbc de23 96bd a608 983c a706 483d
000002e0: 18c0 793d 573a 7dbd 476c 9f3c 5f10 f3bc
000002f0: 6a3e 00bd dff9 0b3d 0ed8 fb3d e2bf de3d
00000300: a46c 9d3d 0b8b 0d3e 9c4e 153d 65ec 393c
00000310: 84c6 873d ad6d bd3d f3ad 5ebd 600d 5d3c
00000320: 50ca 0fbd 2027 0d3c 70d1 94bc 98c4 4bbb
00000330: 1fd6 a1bd 82de 88bd 49ea 173d c8de 113d
00000340: 8057 7f3c c774 9fbd 1657 04bd 20c3 f63c
00000350: c0e7 a03b cc4a f93c f2d4 503d 7c12 85bc
00000360: e82c 7cbc cffa 493d 2ea7 033d 2164 aebd
00000370: fe35 833c c6a9 16bd 1891 4e3c 0c48 bbbc
00000380: 0cf7 b13c 68c9 0ebd 3a25 2b3d 03f4 2ebd
00000390: 00fd f7ba 20e7 2cbd a03c 663b 80e1 34ba
000003a0: 538c 2abd e4f6 8fbd 1f89 0cbd a105 bb3c
000003b0: 5dd9 4b3d 21a1 8dbc b59f f73c 9408 59bd
000003c0: d429 833d ed65 9fbd b739 85bd f020 fc3c
000003d0: bd83 953d c0f6 f7bc 6532 49bd e8c2 51bd
000003e0: a7bd 5fbd bd97 4d3d 057e 27bd 4c1c ec3c
000003f0: a274 95bc 0b8f c63c 7039 fb3c e30e 69bc
0.14096111 0.15282433 0.14347072 0.0575436 0.034660574 0.14174686 0.09151 0.041995328
0.15387337 -0.104743436 -0.066517495 -0.1018221 -0.0589977 -0.0943609 -0.12011238 -0.050295956
-0.08458321 -0.14642882 -0.021493241 -0.03801341 -0.11885681 -0.0035909223 0.0055689053 -0.013715532
-0.07767303 -0.035865735 -0.123458594 -0.027779095 0.02323392 -0.022416852 -0.082592085 0.018110506
0.07230682 -0.02271238 0.03184223 -0.059588503 0.10499232 0.106739804 0.043099817 0.061230805
0.06311637 0.13469623 0.09606289 0.055276 0.06471688 -0.119227946 -0.03829696 -0.016874287
0.009201006 -0.025802488 -0.104145326 -0.034482412 -0.13216454 -0.14461477 -0.088830985 -0.07620198
-0.079889104 0.06666965 -0.024116756 -0.017304877 0.004713148 -0.02809208 -0.008452172 0.029915683
0.02312202 -0.06937149 0.0054712966 0.038086206 0.052462257 -0.06522624 -0.074881636 -0.021234035
0.13206924 0.108791865 0.10061536 0.10196875 0.16783185 0.07345804 0.018506425 0.0125021525
0.09850868 -0.03420971 0.035646163 -0.07516026 -0.03050847 -0.05239598 -0.06257482 -0.04318168
0.029363096 0.0058912635 0.18193878 0.054303728 0.12555376 0.053188883 0.09774522 0.10118325
0.119007826 0.15787072 0.07951391 0.030864788 0.14980951 0.051495157 0.018725283 0.03454125
0.16419294 0.05968731 0.027215404 0.011882091 0.13106272 0.15895222 0.14263365 0.14586364
0.070449315 0.1630026 0.13559964 0.06439715 0.07330985 0.018038817 -0.034027487 0.041062243
-0.018297993 0.040594757 0.002427578 0.028425045 -0.0004242584 -0.0010155216 0.06742539 -0.08286288
0.027935155 -0.052497357 -0.06278841 0.012507401 0.044268183 -0.008934021 0.07877589 -0.04813215
-0.060003694 -0.15292133 0.013058619 -0.14080676 -0.036529735 -0.100953795 -0.0645671 -0.13559726
-0.013924804 -0.007817536 0.10352182 -0.019801825 -0.03692464 -0.028043605 0.060938884 0.05359917
0.09178765 0.01891363 0.08072501 -0.0145205585 0.04901434 0.0749959 0.04283601 0.14040913
0.12311726 0.14709719 0.009279581 0.1280697 0.10106909 0.041766223 0.023752276 0.1320444
-0.008723838 0.013154002 0.037938613 0.01626233 0.0379334 0.006497033 -0.08078928 -0.07575056
0.062124707 0.053813733 0.045686923 0.0325211 -0.022991823 -0.0733106 0.018558811 0.04883447
0.06097421 -0.061823215 0.01946081 -0.029670892 -0.031309523 0.034173843 0.122970685 0.108764425
0.07686737 0.13822572 0.03645192 0.011347865 0.06629661 0.092494346 -0.05436511 0.013491958
-0.03510505 0.008615285 -0.018166274 -0.003109252 -0.079021685 -0.06683065 0.037088666 0.03561285
0.0155848265 -0.077859454 -0.032309614 0.03012234 0.0049104393 0.030431174 0.05098433 -0.016244166
-0.015391566 0.049311455 0.032141857 -0.08515192 0.016016956 -0.036783002 0.012607835 -0.022861503
0.021724246 -0.034860045 0.04178355 -0.042713176 -0.0018920004 -0.042212605 0.003513135 -0.0006900057
-0.04163773 -0.070295125 -0.034310456 0.022829833 0.04976784 -0.017288746 0.030227521 -0.052986696
0.064044625 -0.07783113 -0.06505149 0.030777425 0.07300518 -0.030269027 -0.049120326 -0.051211268
-0.054624226 0.050193537 -0.040891666 0.028822087 -0.018244091 0.02423813 0.030667037 -0.014224741

encoder.encoder.2.bias f4 [32]
00000000: 3379 073d f7a0 dcbc fa99 073e 20ce f03d
00000010: f613 093e 58a6 27bd bb04 0a3e ba5e 1b3e
00000020: a0ad 16bc 15e5 ad3d 202b f5bc 6099 203e
00000030: 05d9 2a3e f7bb 21be e3fe a93d 6bb3 a1bd
00000040: 06a0 86bd 2eff ec3c 3191 b5bd 98c9 d43d
00000050: 1819 323c 6d50 76bd f406 f3bc de5b 1cbd
00000060: 637b 9c3d a81e a13d e394 01bd 88e9 003e
00000070: 5c61 c03d 18aa c63c 5371 073e 2013 1a3e
0.03307457 -0.026932223 0.13242331 0.11758065 0.1338652 -0.040930122 0.13478367 0.15172854
-0.009196669 0.084909596 -0.02992779 0.15683508 0.16684349 -0.15794359 0.08300569 -0.078955494
-0.06573491 0.028930273 -0.08865584 0.103900135 0.010870241 -0.060135294 -0.029666401 -0.03817355
0.07640722 0.07867175 -0.03163613 0.12589085 0.0939357 0.024251029 0.13226824 0.15046358

decoder.decoder.0.weight f4 [32, 16, 3, 3]
00000000: 1756 b23d 7706 bc3c b260 6cbb a1b9 b6bb
00000010: 7d0f 0e3d 4bd9 783d a7a0 68bc e7e5 d33c
00000020: 9257 803c 3924 a13d 9112 693d 2eb0 063e
00000030: ad32 083d d5d3 253e af61 1b3e f53d 6f3d
00000040: ae9d 303e 0c3f 073e d1a1 003e 91dc 123e
00000050: 95c8 103e 20f8 f53d 5f4b 8c3d 3ed3 243e
00000060: c1ba a23d 83f0 693d 9a4e b23d 2d58 603c
00000070: 5527 82bd a8bc b83c 3d52 a0bd 1ee2 79bd
00000080: e558 c4bc 2a98 aebd acbb 8dbd 1c04 d6bd
00000090: e8a2 063e c60f 503d 11af 083e 5db5 1d3e
000000a0: 5520 3f3e 9c42 dc3c e43d 7c3d 814c 883d
000000b0: 30e5 8a3d 33df c13c e14b 3e3c f30e 833c
000000c0: 634d d03d 9146 fe3d eef6 143e 28f8 723d
000000d0: f252 023e 6875 ed3c 06fd 933d b6a4 d43c
000000e0: 25aa a5bd de8c f1bc 12c2 1b3b 2293 3cbd
000000f0: 3f19 6abc b4bc 8dbd 3c19 823c fb29 bd3d
00000100: 1b47 ba3c 9190 b63d 9d6f 613c 5079 703d
00000110: fcc7 bb3c 4639 203d 7505 0cbc bc0a 1dbc
00000120: ffa3 48bd b88d 103c 3153 533d 4806 243c
00000130: dc72 263d bdb6 ff3c 022b 02bd a921 863d
00000140: e4d6 93bd 7273 063e de42 64bb 7e6f 9ebc
00000150: d697 bdbb e7e7 893c b8e6 263d 9e4b 0f3e
00000160: ccf6 cf3d cfd4 c93d eab0 e53d 3a53 573d
00000170: 0c9c 353d a094 83bd 7291 153d c02f 6b3d
00000180: 822e 953d 6cd4 a0bd bc70 e3bc 012b 953c
00000190: 8001 ffbb a908 383d 0ba0 4ebd 1f43 18bd
000001a0: 1910 833d 78ff 263d 01e7 843c b25b e2bc
000001b0: 4fb5 a5bd 43ae 173c 13aa 5dbd 8723 553d
000001c0: ecb5 95bd 5c85 79bb 7383 6bbb d38d debc
000001d0: 3031 65bd 3717 d63d 09be df3d a4f3 fbbc
000001e0: 83a7 eb3c 797f 233d 6965 62bd 1658 8e3d
000001f0: dccb d93d 857d 633c 16f7 693d 9f41 91bd
00000200: f98d 143d 0d1d 63bc b2fa 83bd 8675 e6bb
00000210: 132e 4ebc 7e60 273d 7c5d a3bd f3a0 053d
00000220: c72c f2bc 3dbe 36bb 4e87 223e 52f9 643d
00000230: 5f8b 813c dec7 0a3e 76ee b43d 8b22 ca3b
00000240: 2d96 ac3d e426 9c3d 1143 313c 5f91 db3d
00000250: 5fb9 96bc 66fa 7e3d ec44 a23d 4783 603c
00000260: 0c79 34bc 22b4 03be a343 c1bc 1ac7 0cbe
00000270: e451 9fbd f0a5 c4bd f281 25bd 6a53 d6bd
00000280: c5c3 32bd 48e9 05bd 9894 013a 774e febd
00000290: 42e1 b4bd adfe b4bd 7ff1 e5bc cde4 0cbd
000002a0: a002 aebd d865 d63b 8234 f7bd b84d 073d
000002b0: d644 583c 37a7 80bd 5881 463d e08a 1dbc
000002c0: 98eb 4bbd 1016 2abd 014a 69bd 2c6d 75bd
000002d0: 0abb 5cbd 231a 20be fb5c 6ebd f571 b6bd
000002e0: 5546 e0bd a936 0dbe f52f 71bd 4d58 a2bc
000002f0: 5851 04be f018 86bb 1b69 d7bd 4f3a ddbc
00000300: b33d 15be aa31 64bd 7aca 18be 7b5a 6abd
00000310: 6755 31bd c6d1 30bd 97b0 8dbd ce9e ab3d
00000320: a0b9 4ebc 765e 923d 262d b13b b40b 213e
00000330: 76a9 c4bc d7cf d73d a4ce d43c ffcc 6a3d
00000340: a3bf f03c c8ec 77bc 1c02 063e 5fc5 dd3d
00000350: a21f dc3d c94c ae3c c3b5 e03d 8ca4 223e
00000360: 8bf9 743d c615 f5bc 79b0 b53d b518 893d
00000370: 9b9b d23d 0cde 9fbc e0dc 6abc 56f3 85bd
00000380: af61 fb3d 5df3 c73c aea2 79bd 285f 533b
00000390: eac6 d0bd a4a3 56bd 4b7f 15be 7738 55bd
000003a0: 2cff 46bd b498 afbd 5b34 29bd d51f 843d
000003b0: f55a 033e 5e80 853d 21c8 af3d 2aec e13d
000003c0: f5cf c33d 8824 7f3d 46d4 0fba ce54 5e3d
000003d0: 43ed a53d 0c9d d5bc d4dc bb3c 1d45 783d
000003e0: b071 7ebd 6eeb 4fbd 7f1e 6abd a8ef 7bbd
000003f0: a038 3a3c 635c 78bd 00d6 d93c 65dd 8f3d
0.087078266 0.022952301 -0.0036068377 -0.005576328 0.03468274 0.0607541 -0.014198459 0.025866462
0.015666757 0.07868237 0.056902472 0.13153145 0.033251453 0.16194089 0.15173982 0.058408696
0.1724765 0.13207644 0.12561728 0.14341952 0.14139016 0.12010217 0.068503134 0.16096207
0.07945777 0.057114135 0.08706398 0.013692898 -0.06355158 0.022550896 -0.07828186 -0.061006658
-0.02396817 -0.08525117 -0.06920561 -0.104500026 0.13148081 0.050796293 0.13348033 0.15401216
0.18664677 0.02688723 0.06158246 0.06655217 0.06781995 0.023666 0.011614771 0.01599834
0.1017101 0.12415803 0.14547321 0.05931869 0.12726954 0.028986648 0.07225995 0.025957447
-0.08089093 -0.029486116 0.0023766798 -0.046038754 -0.014288246 -0.06920758 0.015881173 0.09236523
0.022738984 0.089142926 0.013759521 0.058709443 0.022922508 0.03911712 -0.008546223 -0.009585079
-0.048984524 0.008822851 0.05159301 0.010011263 0.040636882 0.031215066 -0.031779297 0.06549389
-0.072187215 0.13129976 -0.0034829895 -0.019340273 -0.0057859225 0.016834212 0.040747374 0.1399369
0.10154495 0.09855043 0.11215384 0.052569605 0.04433827 -0.06424832 0.03651566 0.057418585
0.07284261 -0.07853016 -0.027763717 0.018208982 -0.0077821612 0.044930134 -0.050445598 -0.037173387
0.06399555 0.040770978 0.016223432 -0.027631614 -0.080912225 0.009257856 -0.054117274 0.052035835
-0.073100895 -0.0038073873 -0.0035936504 -0.027167236 -0.055955112 0.10453647 0.10924918 -0.030755825
0.0287664 0.03991649 -0.055272494 0.06950395 0.10634586 0.013884907 0.057120405 -0.07092594
0.03626821 -0.013861907 -0.06444301 -0.007033053 -0.012584227 0.040863506 -0.07976815 0.032624196
-0.029562367 -0.0027884387 0.15871927 0.055901833 0.015813528 0.13552806 0.08834545 0.0061686686
0.08427081 0.07624605 0.0108192125 0.10721087 -0.018398939 0.062250517 0.07923302 0.013703174
-0.011015188 -0.12861684 -0.023591822 -0.13747826 -0.07779291 -0.096019626 -0.04040713 -0.10465129
-0.04364373 -0.032693177 0.00049431017 -0.1241731 -0.08832027 -0.08837638 -0.028069256 -0.03439789
-0.084965944 0.0065429024 -0.12070562 0.033033103 0.0132000055 -0.06281894 0.048463196 -0.00961563
-0.049785227 -0.041524947 -0.05695534 -0.059918568 -0.05388931 -0.1563497 -0.05819414 -0.08908454
-0.10950915 -0.13790382 -0.058883626 -0.019817496 -0.12921655 -0.0040923283 -0.10518094 -0.027005343
-0.14574318 -0.055711426 -0.14920989 -0.057215195 -0.043294337 -0.043168806 -0.069184475 0.08379899
-0.012617499 0.07146923 0.0054069934 0.1572712 -0.024006587 0.10537689 0.02597744 0.057324406
0.029388255 -0.015132137 0.13086742 0.10828661 0.10748221 0.021276848 0.10972168 0.15883082
0.059808295 -0.029917609 0.0887155 0.066941656 0.10283586 -0.01951506 -0.014334887 -0.06540553
0.12274491 0.024408037 -0.06094616 0.0032252762 -0.1019419 -0.052402154 -0.1459934 -0.052055802
-0.048583195 -0.08574048 -0.041309696 0.06451384 0.12827666 0.06518625 0.085830934 0.11031373
0.09561149 0.0622907 -0.00054866483 0.054280095 0.08101895 -0.026075862 0.022932447 0.060612787
-0.06212014 -0.050761633 -0.05715799 -0.06150785 0.0113660395 -0.06063498 0.026591301 0.070246495

decoder.decoder.0.bias f4 [16]
00000000: b2e6 99bd 9799 ab3d 502b d63d 8e25 233d
00000010: 88a9 833d 16f6 c03d aa26 42bd bef3 8dbc
00000020: b344 9bbc fd86 c93d 1759 96bd a0ab 8cbd
00000030: 8c8e 4f3d e4de 873d 0969 1c3d 57de e93d
-0.07514705 0.08378904 0.1045748 0.039830737 0.0642882 0.09421937 -0.047400154 -0.01732814
-0.018953657 0.098402 -0.07341211 -0.06868672 0.050673053 0.0663431 0.038186107 0.11419361

decoder.decoder.2.weight f4 [16, 1, 3, 3]
00000000: e77a b53e 87fd 3abe 81e5 983e 7dae 453e
00000010: b64f 25be 8daa 813d 2700 febd b64e 923e
00000020: 5b8c 163e 3000 86bd d90d 883d 2a3e 403e
00000030: f52d f13d 05bc b7be 3d3b c6be 3404 ac3c
00000040: d9aa 60be 800c 5dbe af9c 94be dd7f 3bbb
00000050: f8c8 48be 41ab 9abe 4d60 bbbe 5489 07be
00000060: c9cd 943c ed58 cb3d 973a c0be 5441 d8bc
00000070: 6a75 343d 35b3 993e fb45 73bd cfc2 8cbe
00000080: 3bc6 293e f0b8 e5bb ddd3 63be 5ba0 4d3e
00000090: b839 80be 48f8 82be 05d3 c1be 54e2 a23d
000000a0: de2f e2be d72b af3d 9aab 50be ac33 9abe
000000b0: 33d8 ccbd e67b 32bd 99c7 8cbd a4ab 8dbc
000000c0: 1640 13be 3b39 2abe 03e1 98bd fcf6 a6be
000000d0: 77a9 0c3e dcce 90be 6688 a6bd 23ba b13e
000000e0: 213e c93e 1c2a f4bb ec5b 45bd 95fe 823e
000000f0: 9efc a03e ffad ae3e e3ce d13e 9a32 86be
00000100: 78b9 513d 7e6d 473d aa13 523e 67b7 9c3e
00000110: 0a15 a93e 98d3 823e e522 773e 0bc9 debd
00000120: 9c6e d73c 9621 053e befc 67be 7d69 49bb
00000130: 58cd 093e 26e8 893e e478 2dbe 06ac 423d
00000140: 04ab 493e fe11 b1be a112 1d3c a623 a2be
00000150: 81f2 c1bb 2e43 b53c cf8a b4be f245 c7bd
00000160: e5bd d7be fd2b a5be 14cb 563e 825d b3bd
00000170: 7fb9 9f3e 29eb e8bd 8e00 923e 688a 6c3d
00000180: 6fcd af3e d954 0a3e 5f67 a63e c737 82be
00000190: 98f3 8e3d 72ff 95bd 5d8b 623e a689 bd3e
000001a0: d438 a43e 2e30 eabd 4fb9 71be 3eda 003d
000001b0: 9bdf 493e 22e1 133e 2335 9f3e e5a2 a2be
000001c0: 9838 95be db54 9b3e 4b5f 8a3d c34b 843e
000001d0: cb70 d4bd 478c 463e 997d c0be 34c3 893e
000001e0: f671 ca3d 7e77 ec3d 54a0 05be ed4c 9fbe
000001f0: e62b 96be dcac aebe ccbf 0cbe 826a 903e
00000200: 9755 84be 3138 41be b925 8a3e 39b1 77be
00000210: 6b8f cf3b c082 e83d a792 943d e2f2 033e
00000220: f155 b0be 432e 56be d89b 73be 53c0 433e
00000230: cbae 2abe fdf6 eabc 0c18 243c 431b 76be
0.3544533 -0.18260776 0.29862598 0.19304843 -0.16143689 0.06331358 -0.12402373 0.28575677
0.14701979 -0.065430045 0.06643266 0.18773714 0.11776344 -0.35885635 -0.3871707 0.020998098
-0.21940173 -0.215868 -0.2902579 -0.0028610148 -0.19607913 -0.3020878 -0.3659691 -0.1323598
0.018164532 0.099290706 -0.375447 -0.026398338 0.044057287 0.30019537 -0.05939291 -0.27492377
0.16579525 -0.0070105717 -0.22248788 0.20080702 -0.25044036 -0.2558005 -0.37856308 0.07953325
-0.44177145 0.08553284 -0.20377961 -0.30117548 -0.10002174 -0.04357519 -0.06874008 -0.017293759
-0.14379916 -0.16623394 -0.074647926 -0.3261031 0.1373652 -0.2828282 -0.08131485 0.34712324
0.39305213 -0.007451309 -0.048183367 0.25584856 0.31442732 0.34117123 0.40978155 -0.2621048
0.051202267 0.048688404 0.20515314 0.30608675 0.33023864 0.25552058 0.24134405 -0.1087819
0.02629786 0.13001093 -0.22655007 -0.0030733042 0.13457239 0.26934928 -0.16940647 0.047527336
0.19694144 -0.3458404 0.009586961 -0.31667823 -0.0059188013 0.02212676 -0.35262153 -0.09730138
-0.42137066 -0.32260123 0.20975906 -0.087580696 0.3119621 -0.11372978 0.28516048 0.057749182
0.3433642 0.1350893 0.3250074 -0.2543318 0.069800556 -0.07324113 0.22123475 0.3701908
0.32074606 -0.11434971 -0.23605846 0.031458132 0.19714205 0.1444135 0.31095228 -0.31764904
-0.2914474 0.30338177 0.06756457 0.25839052 -0.10373076 0.19389449 -0.37595823 0.2690674
0.098850176 0.11546229 -0.13049442 -0.31113377 -0.29330367 -0.34116256 -0.1374504 0.2820626
-0.2584655 -0.18869092 0.26981905 -0.24188699 0.0063342354 0.113530636 0.07254534 0.12885621
-0.34440568 -0.20916085 -0.23789918 0.19116335 -0.1666824 -0.028682226 0.010015499 -0.24033837
