500_ML/models/weights_99_10-04_05:17.pt (torch_old, 743228 bytes, 11 tensors)

encoder.encoder.0.weight f4 [32, 1, 3, 3]
00000000: 9d89 6c3e 5668 64be 1237 74be 39cd 80be
00000010: d418 84be 8848 3a3d 9ce7 4e3e f15f d13d
00000020: cbb4 8abe fdaf 193e 7102 0cbe 589c 883e
00000030: 7392 6abe 158c 933e 0899 25be 805e 35be
00000040: 5e5c 403d d574 10be ebca 613e 1329 d13d
00000050: bcb9 4d3e ecc5 95bd aef2 903e 49dd 0abe
00000060: 70df 023e d345 153e f337 f03d 00ae 0bbd
00000070: 36e4 00be 5e11 90be 1d65 ae3e 35c8 8c3e
00000080: 732e ebbd c39b 25be 38d1 06be 3f8f 0f3e
00000090: 8abf 49be caaa 62be 5712 993e 0bb4 62be
000000a0: 094c 413e 9ee5 2abe 24a3 27be 76d9 063e
000000b0: e777 843e ede3 5fbe 09fb 243e 23e5 363b
000000c0: 4646 f63b 3f11 583d ef4c 4abd acc7 023e
000000d0: 2673 75be e477 bf3d c42b 47bd 189f 8d3e
000000e0: d4c8 9f3e 9eb9 e2bb fef9 0c3e 2fa9 2bbc
000000f0: 0bd7 90bd b042 f2bc 19e5 9d3d 181f 743e
00000100: ee59 913e eef0 0e3e 0467 7bbe 374f 87be
00000110: 9546 9ebe 3ee7 4abe 2960 293e 98b1 a93d
00000120: b48a ff3d 23a0 28be 541c 26be 86b5 103d
00000130: d908 5cbe 900e cb3d 5b27 813e cc86 4fbb
00000140: 4a73 abbd b530 77be 85c4 0a3d 9e3e cabd
00000150: 2aa6 253e 4c40 4bbd 9b57 8a3e 5f83 a33e
00000160: 3e20 46be 6118 b43d 73a7 90be 4944 87be
00000170: e2aa 943d 9f4f 7f3e 173f be3c 56b5 e93d
00000180: e756 24be 60fa 44be 40ff 79be ab2d 3abe
00000190: 1abb 243e 432c a33e f37b 17be 4453 88bd
000001a0: 186c 96be ae5f 09be db64 98be 98fc 263d
000001b0: 65ff 763e 3dd6 fcbc 0198 573e 2437 9fbe
000001c0: 11e5 ea3d 65ba a63d ee42 123d 600b 85be
000001d0: 1836 933e fde2 923e 4c69 71be 2ab8 b43d
000001e0: 0e33 223e 64b7 3fbe 67ac 67bd 3e06 02be
000001f0: 86c5 8abe ba70 91be 6711 12be 9522 54be
00000200: 2b20 913e 434c 8b3e 7623 35be 1c7c 89bd
00000210: 690d 653e a9b5 46be c55e dd3d 7631 43be
00000220: e8c1 52be bbb1 6f3e 4a0c 0d3e 2be3 f0bd
00000230: f0ba 49be 310e 6f3e 6fb5 64be 9f08 623e
00000240: a310 a13e 4531 95be ca68 883e 8236 adbe
00000250: 29bf bfbd 6bc8 993e d53f 663e 7809 98be
00000260: 598c 8b3d abe6 643e ba96 733d 2d66 cebd
00000270: 7ac0 bebc 179e 9c3e 2476 a7be 7030 c0bd
00000280: 247f a4be 171b 493e e0e2 9dbe ffe4 92be
00000290: 7eb1 74be 8028 1ebc 0258 553e 7cda a3bd
000002a0: f89a 32bd 2b09 12be 800e ccbc dab6 8dbe
000002b0: d8b0 223d c775 bc3d 5cd5 e93d dcd9 953d
000002c0: 9e12 533e b408 96bd 2901 553e 80fb a7bd
000002d0: 553a f8bd 7f9a b03e e81d 53be 8613 65be
000002e0: a9ff 22be 05e7 33bd c5da 3b3e 05ec 54be
000002f0: 4a3a 57be 0831 2bbd 6410 9a3d d023 8ebc
00000300: 9654 0f3e 48b5 a6be 0084 e73c e4ff 8bbe
00000310: 002a 2a3c f3dc a2be 6f8c e1bd 133d 293e
00000320: 7a44 a33e f379 5b3e 3dcc 6f3d d816 dc3c
00000330: dbd6 ddbd 2cf7 1abd c41e 05be 49a7 a43e
00000340: ae22 0dbe 5a5f 9abe a084 81be 4075 d33c
00000350: 3804 67bd d67e 3f3e a699 75be 8ce4 9cbd
00000360: 1bff 7ebc 55a3 5cbe b7aa 8b3e aa47 21be
00000370: 5ff3 09be e54c 5dbe 6203 9cbe e2f9 e6bd
00000380: 410e 0e3d 906f 95be b897 7ebe 9084 dabd
00000390: e86b 1c3e bb94 8d3e ae58 2cbe b6f0 41be
000003a0: 7c9c fbbd 80c3 8b3c 7bf0 89be 8d37 1c3e
000003b0: 3ffe b0be 79dc c33c c20d ddbd cbf0 4f3e
000003c0: 6279 273e 5ea2 5d3e f8c3 b4bd 0b08 883d
000003d0: 1821 1ebe 5cdd 333e 5260 ac3d 1c05 9f3e
000003e0: f706 353e 8ea1 a53b 1241 2e3d 842f 83be
000003f0: 0159 e83d 1676 383e 6bb9 4e3d 913c 8c3e
0.2309937 -0.22305426 -0.23849133 -0.25156572 -0.25800192 0.045479327 0.2020554 0.102233775
-0.2709106 0.1500854 -0.13672806 0.2668178 -0.22907428 0.28817812 -0.16171658 -0.1771183
0.04696309 -0.14107068 0.22050063 0.102129124 0.20090383 -0.07313141 0.2831015 -0.13560976
0.12780547 0.14577417 0.117294215 -0.034101486 -0.12587056 -0.2813825 0.34061518 0.27496496
-0.11483469 -0.161727 -0.13165748 0.14019488 -0.19701973 -0.22135463 0.29896805 -0.22138993
0.18876661 -0.16689155 -0.16370827 0.13168892 0.25872728 -0.2186429 0.16111387 0.0027907572
0.0075157015 0.052750822 -0.049389776 0.12771481 -0.23969707 0.09349039 -0.048625723 0.2766044
0.31207907 -0.0069191 0.1376724 -0.010477348 -0.07072266 -0.029572815 0.077097125 0.23839986
0.28388923 0.13959095 -0.24551016 -0.26427624 -0.30913225 -0.19814774 0.16540588 0.082858264
0.124776274 -0.16467337 -0.16221744 0.035329364 -0.2148775 0.09914887 0.25225338 -0.0031666039
-0.08371599 -0.24139674 0.033878822 -0.098752245 0.16176668 -0.049621865 0.27019963 0.31936166
-0.19348237 0.087937124 -0.28252754 -0.26419285 0.07259156 0.24932717 0.023223443 0.1141154
-0.16048776 -0.19236135 -0.24413776 -0.18181483 0.16086999 0.31869707 -0.14793377 -0.06656507
-0.29379344 -0.13415405 -0.29764447 0.040768236 0.24120863 -0.030863876 0.21054079 -0.31096756
0.11469472 0.08141021 0.03570836 -0.2598524 0.28752208 0.28688803 -0.23575324 0.08824189
0.15839788 -0.18722302 -0.0565609 -0.12697694 -0.27103823 -0.28406316 -0.14264451 -0.20716317
0.28344855 0.2720662 -0.17689309 -0.06713125 0.22368397 -0.19405235 0.108090915 -0.19061837
-0.20581782 0.23407643 0.13774219 -0.11762079 -0.19700217 0.23345257 -0.22334836 0.22073601
0.31458005 -0.29139152 0.26642448 -0.3383065 -0.09362633 0.3003572 0.22485287 -0.29694724
0.068138786 0.22353618 0.059469916 -0.10078082 -0.02328514 0.30589363 -0.32707322 -0.09384239
-0.3212825 0.1963924 -0.30837154 -0.28690335 -0.23895833 -0.009653211 0.20834354 -0.08000657
-0.04360482 -0.1426131 -0.024909258 -0.27678567 0.039719433 0.09202152 0.11417648 0.07316944
0.2061257 -0.07325879 0.20801224 -0.08202267 -0.12120501 0.3449287 -0.20616877 -0.22370729
-0.15917839 -0.04392149 0.18345173 -0.2079316 -0.2101833 -0.041794807 0.075226575 -0.017351061
0.1399711 -0.32560182 0.028261185 -0.27343667 0.01038599 -0.31809196 -0.11013114 0.16527204
0.3188818 0.21433239 0.058544386 0.026866361 -0.10831996 -0.037833378 -0.13000017 0.32158878
-0.1378276 -0.30150872 -0.25296497 0.025812745 -0.056400508 0.18700728 -0.23984393 -0.07660779
-0.015563752 -0.21546681 0.27278683 -0.15749994 -0.13471745 -0.21611364 -0.3047133 -0.1127813
0.034681562 -0.29186678 -0.24862564 -0.106698155 0.15275538 0.27652535 -0.16830704 -0.1893948
-0.122857064 0.017060995 -0.26941285 0.15255566 -0.34568974 0.02390884 -0.1079364 0.20306699
0.16354898 0.2164397 -0.088264406 0.06642159 -0.15442312 0.1756491 0.08416809 0.31058586
0.17678438 0.005054659 0.042542525 -0.2562219 0.11345101 0.18013796 0.050469797 0.27389959

encoder.encoder.0.bias f4 [32]
00000000: a6aa cd3d c0c3 ef3d e40c b53e bdd7 82be
00000010: c102 d63d 7070 ce3d 4b6a 89be 10f7 813e
00000020: 468e a33e a2c7 273e 1fde 423e 76a8 a2be
00000030: 989c bd3d c98f bf3d e21e 963e efbc 883e
00000040: ba13 a33e 2b7b 673e b054 98bd 4793 03be
00000050: 7bfe a03e c6eb 2dbe f560 39be 9411 8bbe
00000060: 2aa9 833e 10a0 95be 83d1 9e3e 69e8 89be
00000070: e459 46bd 1c60 b63e a55d 0a3e 1896 993e
0.10042314 0.11707258 0.35361397 -0.2555522 0.10449744 0.100800395 -0.26838908 0.25383806
0.31944484 0.16384748 0.19030045 -0.3176915 0.092583835 0.09353597 0.29320437 0.26706645
0.31850988 0.22605579 -0.07438028 -0.1284915 0.31444153 -0.16984472 -0.18103392 -0.2716185
0.25715 -0.2922368 0.3101922 -0.26935127 -0.04842557 0.356202 0.13512285 0.29997325

encoder.encoder.2.weight f4 [64, 32, 3, 3]
00000000: 1ba6 153d b87d e7bc 06bb 98bc 2056 443d
00000010: 58c9 c6bc 0973 213d 6016 0c3d d514 a83c
00000020: 1c18 373c aea2 a13b 6e79 f53c 09c6 703c
00000030: ee17 a73c 33a6 eaba f20b 063c af71 65bd
00000040: 1b63 1b3d 4efb dcbb f2b7 7bbd 317d 5fbd
00000050: a6db dcba 4381 fc3c fd7d 29bd f4a0 b6bc
00000060: fc81 37bc 8850 463d c7ab 2dbd 5b28 443d
00000070: 81db 3c3d fd44 4d3d 48f4 263c ef2c dabc
00000080: 9fab 57bd 74bb 15bd aa49 cf3c 7d06 1c3d
00000090: 1c62 3c3d 36db c6bb 173a 93bb 1e67 603c
000000a0: 3a1f 0fbd b14d 02bd 6ac7 69bd 9581 3e3d
000000b0: 8123 303c 1f28 1bbc 45e3 003d 0adc fa3c
000000c0: 148d 13bd b64e cd3a 0128 86bc 6062 3f3d
000000d0: 2fa1 f4bc 2371 9f3c 8dfb 173d 28a9 ebbc
000000e0: 35bb ac3c 5ce6 613c 5eb1 1bbb adb6 39bd
000000f0: f19f 273c 859b 46bc 6de8 23bd ae69 423d
00000100: c36f 723a f294 ccbc 36c0 53bd 2097 d3bc
00000110: 5acf 80bd 8f1a 3d3d e0c6 e53c 6adc bbbc
00000120: 8054 ee3c 1deb 7dbd 34f1 57bd 9592 0fbd
00000130: ae13 a2bc 0aea 9c3c 2dda 113c d830 71bc
00000140: ed11 98bb f96d 03bd 21bd 543d c940 2ebd
00000150: be5c 12bd 80eb dc3a 8cfc 81bd c9cf 953b
00000160: 89aa 77bd 0929 f73c 9376 37bc 8fd5 8fbb
00000170: 2fca 3a3d 6d7f 6ebd 22f9 103d 873c 5f3c
00000180: 42de 283d daa4 10bc 1a66 f93c 281c d9bc
00000190: 1c8a f4bc 0d89 1fbd f533 1f3d b28a 97bc
000001a0: a2a5 c1bc 09b4 2e3d d66e ee3c 18aa d03b
000001b0: 98c0 9bbc 5662 543d a58e 2cbc ff8b 60bd
000001c0: 305c 053d 4787 23bc 3201 733c 74bd 04bd
000001d0: 4341 2a3c a50b fb3c de03 28bd be6f 653b
000001e0: a92c 2fbd a73d 34bc fe3e 4ebd b821 073d
000001f0: 1113 22bd 4f26 75bc ee40 cebc fdab 093c
00000200: ac42 debc a6db 7cbc 08de ed3a 0382 e03c
00000210: fc81 8cbc 8c31 0a3d 4cad 0f3c d634 11bd
00000220: cf4a 70bd 5d48 0d3c 0560 62bd 4ee2 65bd
00000230: 5987 2a3d a264 2e3d 0679 af3c 652b 32bd
00000240: 8159 053c de32 74bd 6bd2 60bc 98cd c2ba
00000250: 726f f9bc 0921 c23a 8acb 193d e340 81bd
00000260: 2009 2f3c dd9d 27bd 4f79 83bd 04e2 d1bb
00000270: 3402 81bd 1238 77bd c981 61bd 8315 913c
00000280: c0f3 e33c a585 0ebd 5679 be3c 6ed8 d7bc
00000290: 1e23 e03c 54b5 5abd 6e30 9c3c f015 233b
000002a0: 7e37 d13c f9e2 5a3d 3fd2 033d 8dc8 4a3d
000002b0: a355 113d 4748 4f3d b1ce 323d fb63 003d
000002c0: 058c 90bc 61bc 69bd 6c2f 2c3d f024 b7bb
000002d0: e222 4c3d 0e29 c53c 8202 1c3d 02c2 57bd
000002e0: 9d60 46bd dd1a 313d 2bff eebc ab34 40bd
000002f0: e09b 1f3d 611e 2e3d dd46 243d 1cfc 0cbd
00000300: 68bb dc3b b2db b83c 62b7 01bd f86e d73b
00000310: fd2a 153d 30af 8cbb a46d dcbc 38a2 a63c
00000320: 3a3b 05bd c72a 41bd 45b0 e2bc d84f 1a3d
00000330: 6d5c d3bc 8774 303d 57cc 42bc 6081 3e3b
00000340: 2cfb 6a3c 52e5 ff3c 0b70 6c3d bb69 6f3d
00000350: 8ce8 543c 8cd7 333c 28d2 3bbd be5c 95bc
00000360: 6570 5dbd c1b0 a23c f569 1f3d 7134 f23c
00000370: 0744 5fbd fd28 21bd 571e 363d d497 3bbd
00000380: 81e0 37bd 44a4 613c f0e9 3abb 7e6f d9bc
00000390: 184a dd3b 68db 873b 9c6a 64bc f10a 363d
000003a0: 9e37 a03c 3b44 13bd 01c4 8c3c 35e0 c43c
000003b0: b181 c8b7 2564 483d 8d0e 453d 1539 adbc
000003c0: 06f1 3e3b 83d0 4abd 0159 34bd e4d1 09bc
000003d0: efe2 29bd e825 2fbd 4741 32bd d7f4 203d
000003e0: c6d8 453c f9b6 b73b 9154 963c 02a0 2cbd
000003f0: ec6f 2fbd 1a88 0b3d 7b98 853d b938 11bd
0.036535364 -0.02825819 -0.018643867 0.047933698 -0.02426593 0.039416347 0.034201026 0.020517746
0.011175182 0.004932723 0.029965129 0.014695653 0.020397153 -0.0017902314 0.008181559 -0.05601662
0.03793631 -0.006743825 -0.06145472 -0.05456275 -0.0016850128 0.030823356 -0.041379917 -0.022293545
-0.011200424 0.048416644 -0.042400148 0.04789005 0.046107773 0.05011462 0.010190077 -0.026632754
-0.052653905 -0.036555722 0.02530368 0.038092125 0.045992002 -0.0060686124 -0.004493009 0.01369646
-0.03494189 -0.031812374 -0.05707494 0.046510298 0.010750652 -0.009470015 0.03146674 0.0306225
-0.036023214 0.0015663716 -0.016376497 0.046724677 -0.029862015 0.019463127 0.037105132 -0.028767183
0.021085361 0.013787832 -0.0023756842 -0.04534023 0.010231004 -0.01212204 -0.04001658 0.047464065
0.0009248221 -0.024973366 -0.05169698 -0.025828898 -0.06289549 0.046167906 0.028048933 -0.02293225
0.029093027 -0.0619918 -0.052720264 -0.0350519 -0.019784775 0.019154567 0.008902115 -0.014721118
-0.004640809 -0.0320873 0.05193818 -0.042542253 -0.035732977 0.0016854852 -0.063469976 0.004571889
-0.06046537 0.030170934 -0.011197704 -0.004389472 0.045602974 -0.05822699 0.03539384 0.013625271
0.041227587 -0.008828366 0.030444194 -0.026502684 -0.029851012 -0.03894906 0.03886791 -0.018498752
-0.02363855 0.042652164 0.029105585 0.006367933 -0.019012734 0.051851593 -0.010532056 -0.05482101
0.03255862 -0.009980983 0.014831828 -0.03240724 0.010391536 0.030645201 -0.041019313 0.003500923
-0.0427672 -0.011001027 -0.050353043 0.03299114 -0.039568964 -0.014962747 -0.025177445 0.008402822
-0.027131401 -0.015433228 0.0018147836 0.027405744 -0.017151825 0.033738658 0.008769345 -0.03545078
-0.058665093 0.00862321 -0.055267353 -0.056124024 0.041632984 0.04257644 0.021420013 -0.043498415
0.008139015 -0.059618823 -0.013722043 -0.0014862297 -0.03044865 0.0014810871 0.037547626 -0.06311204
0.010683328 -0.040922035 -0.06419622 -0.006405117 -0.06299248 -0.060356207 -0.055055413 0.017710453
0.02782619 -0.034795422 0.023251217 -0.026348319 0.027360495 -0.053395584 0.019066062 0.0024884902
0.025539156 0.053439114 0.03218293 0.049507666 0.03548206 0.05060604 0.043654148 0.03134535
-0.017644892 -0.057064418 0.042037413 -0.00558912 0.049837954 0.024067428 0.03808833 -0.052675255
-0.04843198 0.04323851 -0.029174408 -0.046925228 0.038967013 0.04250944 0.040106643 -0.034420118
0.0067362078 0.022565696 -0.031669028 0.006574508 0.03641795 -0.004293345 -0.02690775 0.020341024
-0.032527186 -0.047159936 -0.027671942 0.0376738 -0.025800908 0.04307988 -0.011889539 0.0029068813
0.014342111 0.031237278 0.05772404 0.05845044 0.012994897 0.010976683 -0.045854717 -0.0182327
-0.054062266 0.019859673 0.038919408 0.029566022 -0.054508235 -0.03934573 0.044462528 -0.04579909
-0.044891838 0.013772074 -0.0028520785 -0.026542421 0.0067532174 0.0041460283 -0.013941433 0.04444403
0.01955777 -0.03595374 0.017183306 0.024032691 -2.390225e-05 0.04892363 0.04810958 -0.021145383
0.002913536 -0.04951526 -0.044030193 -0.008411858 -0.041476186 -0.04276076 -0.043519285 0.039295997
0.012075609 0.005606529 0.018350871 -0.042144783 -0.042831346 0.034065343 0.06523224 -0.035454486

encoder.encoder.2.bias f4 [64]
00000000: 2546 4d3d 2fed 323d 4ad7 cabc 8591 7c3d
00000010: b793 253d bb48 2238 849b 393c e725 1cbc
00000020: 4298 37bd c5bb ea3c 5c29 0abd a478 e53c
00000030: 9926 dfbc 0293 8e3d 1aae 0bbd 4ee9 313c
00000040: 4c57 55bd e959 06bc 4a07 903d 7254 9b3d
00000050: 04a2 37bc bb22 54bd 4acf 10bd c5c1 843d
00000060: 08cf 00bd 01e6 623d 32bc 4f3c 6ee2 30bd
00000070: 62f4 c1bb 2ca1 883d 26e2 9b3d 2562 57bd
00000080: 9506 3a3d 00de 36bc 33c6 633b da21 f439
00000090: 6667 53bd 4835 793d 3432 2abd 34f2 09bc
000000a0: 797e 0b3d 50ff 00bd 7144 62bd 255f a13b
000000b0: 8113 163c 6562 8c3b f58e 45bd 613e ee3b
000000c0: b73f 113d 45f5 2f3d 9502 71bc bd2f e43c
000000d0: 6e87 39bd c961 9d3d 60b3 2f3d 36f4 7b3d
000000e0: f596 643d 1857 0ebc bddc 6c3d 3078 ef3b
000000f0: 05a6 84bc f9f6 933a 85d4 c4bc 3a9f 6a3c
0.050115723 0.043683227 -0.024760861 0.061662216 0.040424075 3.8691545e-05 0.011328582 -0.009530521
-0.04482294 0.028653989 -0.03373085 0.028011627 -0.027240084 0.06961633 -0.034101583 0.010858847
-0.052085206 -0.008200147 0.0703264 0.07584466 -0.011208061 -0.051790934 -0.035353936 0.06482271
-0.03144744 0.05539513 0.012679147 -0.04318469 -0.0059190253 0.06671366 0.07611494 -0.052583832
0.045416433 -0.011161327 0.0034755587 0.00046564528 -0.05161228 0.06084183 -0.041551784 -0.008419562
0.03405616 -0.031493485 -0.055241052 0.004924672 0.0091599235 0.0042841905 -0.048232038 0.0072706197
0.035461154 0.042958517 -0.014710088 0.027854795 -0.04529517 0.07684667 0.042895675 0.061512195
0.055808026 -0.008687757 0.0578277 0.0073080286 -0.016192446 0.0011288814 -0.024027118 0.014320189

encoder.encoder.4.weight f4 [128, 64, 3, 3]
00000000: 6574 943c 9666 c4bb 7cde 8bbc 8a27 81bc
00000010: 3b31 373d a5d1 173d 5bc4 123d a4ab 0abd
00000020: 4ea2 f3bc 6fda ab3c acf2 603d 54b3 af3c
00000030: 7cf8 823d 80a9 3cbc 0be0 803d 05fa 5d3d
00000040: a5b5 41bc 4cc5 013d 9c4b 74ba 8814 cdbc
00000050: 96cd 82bc 6c19 7f3c b014 2b3c 8909 95bc
00000060: 4027 903b 4ea6 d43c 5e3b 52bc d364 4b3c
00000070: f87a 913c b350 1e3d 5e31 aabb a2c6 ff3b
00000080: c104 71bc 4e17 153d f6ca 043c 7ad6 363d
00000090: 543b 5f3d d89a 27bb cefb 82bc e87e 5c3d
000000a0: 53ea 68bc 5216 a03c 42f4 2dbb 9d68 8f3b
000000b0: d7cc ee3c c6d5 91bb 50d9 00bb f816 8abb
000000c0: be2d 203d bd1a ba3c c903 5abc 27cf 5b3d
000000d0: f9ac 693c 36e2 ad3b 4d57 c53c d24f 81bc
000000e0: 86bd 323c 83b6 033d 0e37 683d 23a6 643d
000000f0: f9ef 0c3c cf9f 983b a20b 253d 35ba 4b3d
00000100: b8a7 853c 35ea 9cba aba4 293d b981 c33c
00000110: fbf4 433d cbe2 0c3d 53b4 173d f530 1f3b
00000120: 7d1d 9bbc 4151 943c 4d17 163d 2e5c f1bc
00000130: 9408 323c 3293 e8bc b6bf 363c 54ec 00bd
00000140: c290 0cbd b693 f3bb 493b 643c ca48 383d
00000150: b49c 693a 5d70 13bc b634 213d 1d61 213d
00000160: 2e01 b53c 77b0 a13b f8d3 3a3c d3a1 62bd
00000170: 179d 3dbc d754 1e3c 76a3 3d3c 936d fb3b
00000180: 93fe dd3b b143 c8bc 9f68 74bc 35d4 64bd
00000190: 796d b3bc 46c8 f8bc d9a5 80bd 8c07 98bb
000001a0: 6e03 383b 13be 7fbb a67e 8abd 102a cbbb
000001b0: 7525 90bd f393 4abb bd89 a5bc 751a 54bd
000001c0: d31e 9abb 7384 fabb 7c03 68bd 8db5 75bd
000001d0: 1ae9 88bd 5a26 0b3d c32a 543d cc0c f4ba
000001e0: f490 833c 0734 933c d244 18bc ab36 333d
000001f0: f204 6b3d 1f7a 703d aea3 f7bc b582 043c
00000200: 9ac1 ed3c 9c1a 7a3c bc59 853c 726b 903c
00000210: 40ee 1ebd c96d 0dbb c647 32bc 786b 6e3d
00000220: a545 88bc 9617 7f3a d89f ab3c c82c 363d
00000230: 57bd b63c fbf4 ffb9 b6b7 0ebc dd90 24bb
00000240: 1668 33bd f1a2 8ebc 776d c1bc da19 5f3b
00000250: 4d90 cdbc 3140 f3bc 0d05 32bd dc7c 89bd
00000260: cb6f 8bbd bee6 3c3c 0007 063c 3ac8 673d
00000270: af00 57bc e47d 113d 7520 eb3c 60cb 763d
00000280: bc36 c9bb bc61 be3a 8880 3e3d d312 7a3c
00000290: 3d35 283d 5500 833d f197 45bc 9905 ef3c
000002a0: da6c a63c b6d6 2abc ecfc d73c c1bf 873c
000002b0: 8703 cf3b 2ac3 313d 12a5 693d 5120 813d
000002c0: 9d3f 263d c6c0 733d 36fd 423d 4b7c 2c3d
000002d0: c0e0 0c3c e018 c93a 84a9 3b3c 6f5c 00bd
000002e0: 6bbb 1fbd 9641 fe3c 262b 9dbc 1053 7cbc
000002f0: a641 ad3c a2dd c43c 0898 bd3b 2256 0fbd
00000300: acdb 36bc 7608 99bc a9d0 233d 0aeb 0ebd
00000310: 407b 76bc 1c00 783c 68c3 1f3d 857b e539
00000320: b2f3 fc3c 8c53 023d 365c f33c 8e7b 783d
00000330: 38c9 4a3a 7f86 0f3d 55a2 26bc 8502 d23c
00000340: fb5e 8c3c 5ac3 0f3d 8745 8b3c 3567 773c
00000350: b4e3 743d 7f01 243c e8c4 323d 5783 b1bb
00000360: 8a67 ae3c 5073 3f3b 9cc9 573c 465e e7bc
00000370: 0839 91bc 029f 9e3c 30dc 1d3c 604d 173c
00000380: 6bd9 24bd 80de ba3a 38dd 12bd 546a 693c
00000390: 802c b6bc 596f 263d 5434 293c e879 06bd
000003a0: eed8 afbc 3243 c73c 3d58 153d 49b6 35bc
000003b0: 11d8 87bc cc9f f43c 159d 8abc 2274 c8bc
000003c0: 2beb 04bd 8c60 dfbc fce0 3dbc 89c7 32bd
000003d0: fce5 74bd ab9d d5bb c5f7 75bd 1754 0abd
000003e0: 94d0 24bd bd8d 82b8 074d 0ebc f46c cdbb
000003f0: fee5 ce3c 77a0 9f3c c831 b33b 8709 a4bc
0.018121907 -0.0059936745 -0.017073862 -0.015765924 0.044724684 0.037065167 0.03583179 -0.033855096
-0.029740479 0.02097818 0.05491893 0.021447815 0.06395051 -0.011515021 0.06292733 0.054193515
-0.011823093 0.031682298 -0.0009319128 -0.025034204 -0.015967172 0.015570026 0.010441944 -0.018193023
0.00439921 0.025958207 -0.012831537 0.012414175 0.017758831 0.03865118 -0.0051938733 0.0078056613
-0.014710606 0.03639918 0.00810503 0.044638135 0.05449994 -0.0025574472 -0.01598921 0.053831965
-0.0142160235 0.019541893 -0.0026543294 0.0043764845 0.02915041 -0.0044505326 -0.0019660778 -0.004214164
0.039106123 0.022717828 -0.0133065665 0.053664353 0.014262431 0.0053065075 0.02408948 -0.015785132
0.010909444 0.03215648 0.05669313 0.055822503 0.008602136 0.0046577225 0.040294297 0.049738128
0.016315326 -0.0011971655 0.041416805 0.023865568 0.047841053 0.034395974 0.037037205 0.0024290655
-0.01893496 0.018105151 0.036643315 -0.0294629 0.010866303 -0.0283905 0.011154106 -0.03147538
-0.03431774 -0.00743338 0.01393015 0.044991292 0.0008911595 -0.008998957 0.03935691 0.039399255
0.02209529 0.0049343663 0.011403076 -0.05533011 -0.011573098 0.009663782 0.011574617 0.0076729744
0.0067747324 -0.02444634 -0.014917522 -0.05586644 -0.021902787 -0.030368935 -0.06281633 -0.0046395715
0.0028078216 -0.0039023205 -0.067624375 -0.0062000826 -0.07038394 -0.0030910939 -0.02020728 -0.051783044
-0.0047033816 -0.0076451837 -0.056643948 -0.059987593 -0.066850856 0.03397212 0.051798593 -0.0018619536
0.01606033 0.017969145 -0.009293752 0.043753307 0.057377763 0.058710214 -0.030229416 0.008087804
0.02902298 0.015265133 0.01627814 0.017629359 -0.03880143 -0.002158033 -0.01088137 0.05820796
-0.016634772 0.00097309926 0.020950243 0.0444763 0.022307081 -0.00048819915 -0.008710792 -0.002511076
-0.043800436 -0.01741168 -0.023611767 0.0034042508 -0.025093222 -0.029693695 -0.043461848 -0.06713268
-0.06808432 0.011529623 0.00818038 0.056587435 -0.013122722 0.03552045 0.028702 0.060252547
-0.006140558 0.0014524977 0.046509296 0.015263277 0.041066397 0.06396548 -0.012060151 0.029177474
0.020315576 -0.010427168 0.02636572 0.016570928 0.006317559 0.043399014 0.05704219 0.06304992
0.04058801 0.059510015 0.047604762 0.042110723 0.008598506 0.0015342496 0.01145399 -0.03133815
-0.038997095 0.031037133 -0.019185614 -0.015400663 0.021149468 0.024031464 0.005785946 -0.034994252
-0.011160772 -0.018680792 0.039993916 -0.03489212 -0.0150440335 0.015136745 0.039004713 0.00043770313
0.030877922 0.031817958 0.029707056 0.060664706 0.00077356724 0.035040375 -0.010170539 0.025635967
0.017135134 0.03509841 0.017000927 0.01510029 0.059787467 0.010010122 0.043644816 -0.0054172683
0.021289606 0.0029213019 0.013170626 -0.028243195 -0.01772739 0.01936293 0.009635016 0.009234756
-0.04024641 0.0014256984 -0.035855502 0.014246542 -0.022238016 0.040633533 0.010327417 -0.032831103
-0.021465745 0.024324033 0.036461104 -0.011090823 -0.01658252 0.029861353 -0.016920606 -0.024469439
-0.032450836 -0.027267717 -0.011589285 -0.043647323 -0.059789643 -0.0065190396 -0.060050745 -0.0337716
-0.040237978 -6.225284e-05 -0.008685357 -0.0062690917 0.025256153 0.019485695 0.005468581 -0.020024074

encoder.encoder.4.bias f4 [128]
00000000: 45f7 c33b 12e6 9e3a ae8f 02bc 2d45 4fbc
00000010: 5d07 553d e36b 213d 129b 703d 63e6 4cbc
00000020: cce1 bf3b c8b2 4c3d c8b6 fdbc 3bf3 a83c
00000030: a0de ca3c 7800 633d 58bf c1bc 6f31 413d
00000040: 3552 803d 2e6d c83c 4ef0 1cbd 7b95 a23b
00000050: fd82 febb 1b12 19bd be24 86bb 0c21 d3bc
00000060: 8b75 8b3a e0f6 06bb 2b87 c6bb 0c3b 2a3d
00000070: f768 323d 83bf 13bb 28b2 4b3d 3f90 2a3d
00000080: e7fd 3ebc ba93 753b 42dd ad3c 4fc1 0ebc
00000090: d20e 0a3d 60f5 2b3d cf31 f1bc 928e 42bb
000000a0: 9985 f83c 01a2 283c dee8 a5bb 120c b4bc
000000b0: 370a 3ebc fbf3 193d 9dde ef3c a4c5 493d
000000c0: 1606 4b3d a42d 0b3d 4f9e 813c d4a8 fcbc
000000d0: 18ab 1fbd 53e6 7c3d ffbb 04bc e8cc 233d
000000e0: 4a57 c73b 128f 4fbc 532d bf3c aba8 063d
000000f0: c1f3 ea3a e1ab 4abc f659 783d cd0f ba3c
00000100: cfce 4a3d 0885 333d 725d 753a f229 ae3c
00000110: 23e1 0ebc 75fb 3f3d 6ccb dfbc c8d5 b03c
00000120: 5e28 5c3d 5f9c 79bc c256 193d 1a56 a63c
00000130: 0147 a1bc 5d8e 803d fb39 133d ef6d e03c
00000140: 119d 813d 153f 08bc 3d50 5e3d 602e 053d
00000150: fa84 023d 6f1b d43c 8680 d33c 0c7b 04bc
00000160: 8d65 713c 40bc 453d 94ae 7abc 2919 853d
00000170: a748 b7bc b357 5abc 0789 95bc aad6 473d
00000180: 0c81 6cbc f37a 513d cb5f d23c 7c3d 4e3d
00000190: 2e39 4fbc 3066 103d 4a45 bd3c 9b75 42bd
000001a0: 4e55 4cbc 5286 23bc 77ba 2e3c d6f7 6f3c
000001b0: 835c a73c 07c2 393d bc89 823d 937f 203d
000001c0: fa5e 29bd 0127 4139 ddf7 23bd 9d56 2ebc
000001d0: fa70 3abb 469e edbb 352e 513d 29f2 103d
000001e0: c9a6 97bc 3466 833d 377d f6bc b9a9 c83c
000001f0: 82ea 4a3d 22ce c73c 17f5 61bb 4262 0dbd
0.0059804046 0.001212301 -0.007968826 -0.01265077 0.052008975 0.03940953 0.058741637 -0.0125061
0.0058557745 0.049975187 -0.030970946 0.020623794 0.024764359 0.05542037 -0.02365081 0.047166284
0.0626568 0.024466123 -0.03831511 0.004961667 -0.00776708 -0.037370782 -0.0040937355 -0.025772594
0.0010639889 -0.0020593926 -0.0060585937 0.041560218 0.043557134 -0.002254457 0.04973045 0.04164147
-0.011657215 0.0037472085 0.021223668 -0.008713081 0.03370554 0.041982055 -0.029442696 -0.002968703
0.030337142 0.010292531 -0.0050631603 -0.021978412 -0.011599115 0.037586194 0.029280955 0.04926075
0.04956635 0.033979073 0.015822558 -0.030842222 -0.038981527 0.06174309 -0.008101462 0.039990336
0.0060834037 -0.012668388 0.023337042 0.032875698 0.0017925428 -0.012370081 0.06063267 0.022712613
0.049513634 0.04382804 0.0009359933 0.021260235 -0.008720669 0.046870667 -0.027318679 0.021586314
0.053749435 -0.015235036 0.037436254 0.020304728 -0.019687178 0.06277154 0.035943966 0.02739617
0.06328786 -0.008315821 0.05427574 0.03251493 0.031865098 0.025891988 0.02581812 -0.008085977
0.014733684 0.048275232 -0.015300412 0.064989395 -0.02237351 -0.013326573 -0.018253816 0.048788704
-0.014435064 0.051142644 0.025680443 0.050351605 -0.01264791 0.035253704 0.023104329 -0.04747544
-0.01247151 -0.009980755 0.010664574 0.014646491 0.020429855 0.045351055 0.06373927 0.039184164
-0.041350342 0.00018420444 -0.040031303 -0.010640767 -0.0028448687 -0.0072515337 0.051069457 0.035387192
-0.018512147 0.06415978 -0.030089004 0.024494993 0.04954005 0.024390284 -0.003447836 -0.034517534

decoder.decoder.0.weight f4 [128, 64, 3, 3]
00000000: e88c 8f3c c11e 253c 0341 793c 1ccc 29bc
00000010: fda5 7d3c d3c0 f93b 3ce4 433c 226e 78bc
00000020: 76a4 103b bcbd 01bc dca5 18bd 62d4 9ebc
00000030: 3471 8bbb 22c6 953c 6687 ba3c e55c 1f3c
00000040: a432 1fbd d937 f93c 7317 c5bc 90b6 08ba
00000050: a892 31bc 1ca8 9c3c 425b 163d 5f48 15bd
00000060: 42e2 653d 3e2d 363c 059f 4b3b c360 a9bc
00000070: 6651 073c ac82 12bc 8835 443d 6874 193d
00000080: 8968 c43c 2af6 16bd 23e5 aa3c a03d 853b
00000090: 8a72 403d bd78 593d aa7b 6ebc a335 233c
000000a0: 39e1 c53a b252 be3c a1aa 5f3d b47f 343d
000000b0: ba2f 133d 41d5 0abc b083 433b cc88 373d
000000c0: 2b91 d8bc c627 b03c 9742 efbc 2b20 6bbc
000000d0: d8da 8e3c fd8b cabc 767b 1cbd 986c 193d
000000e0: 858c 35bd a800 613d e6d1 01bd 23fd 793b
000000f0: fa31 dbbc f4d2 6cbb deb6 9d3c c5c0 61ba
00000100: 85cc 963c 3988 c7ba 92a9 233d a703 69bc
00000110: 2f29 393c 7122 963c 4caa 0d3d 5228 bebb
00000120: 011a 5d3d 2c53 9e3c f0d4 043d dd12 353d
00000130: bd16 683d b720 373d 6f76 193b 374d 293a
00000140: 0707 1c3d 8424 6b3d 7a4b f43c 9094 91bc
00000150: 7a4a 513c 1cd5 16bc cda2 a4bc 66f9 8f3c
00000160: 9fb1 3abd 08dc 223d 1527 ab3c 12e6 a63c
00000170: 33e3 7b3d f89c 653d 47f5 f13b b4bc 553d
00000180: 3896 043d ee5e 763c 604f 433d 001a 6e3a
00000190: dd6c 4d3d 723e c53c 14b8 023d d893 653b
000001a0: 9c6e d2bc 0b73 0dbd 43cd 863b c893 983c
000001b0: b1d7 56bc 917e 8dba c18f a13c 716f 853c
000001c0: b2f1 ba3c de3e 133d cebc 913c f914 0f3d
000001d0: ca64 14bc c85f 203d 1163 203c 1430 293d
000001e0: a230 523d 2f76 2d3d 59ad babb 36dd 1b3d
000001f0: 7099 783c cf27 efb9 879e 693b 271a ca3c
00000200: 4169 6a3c a2ff 91bc bdc0 623d 5a12 f53b
00000210: f5df 2bbd ee1d 96bc 39ae 9d3c c5eb f8bc
00000220: f3c5 563c d030 29bc fa2e 9ebc c6de e0bc
00000230: 682b 363b 791d 1b3c 368a f1bb 9859 1abc
00000240: 2532 11bb 023e b73c 2e93 1a3c e14e 033d
00000250: f0f2 033d accb 893c 8bdf 733c d048 44bc
00000260: acaf 783b 3933 0abd 75f1 9a3c 78e0 b7bc
00000270: 2f37 053d 7579 7c3c 9625 f6bb 746e 8bbc
00000280: ae5f 7d3b 43f5 aa3c 541b 38bd a7af 75bc
00000290: 4cc3 28bd aab9 d13c 6086 dabb cfa8 2ebd
000002a0: 3df7 be3c 7e92 2fbd 12ae 1cbd 34e7 7d3c
000002b0: df52 de3b 9e3c ff3c 8ca2 e0bc e80d 903c
000002c0: 7919 343c e3bb 30bc f86f 183d 0e87 9b3c
000002d0: 233a e23c 1cc4 12ba 95c9 aebc 34b5 44bd
000002e0: b3d9 c0bc 8db2 943c 1361 1abd c4c8 cf3c
000002f0: e4a1 243d 5e3e 1ebc 49ce 3b3b 4274 553c
00000300: c5cf 543d eb77 633c 0804 343c 1a85 b33c
00000310: eaf9 523c ca6d 1e3d c835 9b3c 99fe f03c
00000320: 5ca9 16bd d807 4cbc 3668 3fbb f090 08bd
00000330: 36ee d1bb bc30 38bc 4b7b a1bc 0d22 8abc
00000340: 8bd8 17bd 42fd b03c ac9b 95bc a97f 033c
00000350: 6ed3 cbbc ce9c dbbb a6f3 093d ba7d d1bc
00000360: 2a79 ab3c 5b5c 983c 1a4a e03c 1362 bbbc
00000370: 4d2d 5d3c 508d c4bb 6548 41bd aa04 1a3d
00000380: b7ed 42bd 985a db3c 6e4c 9cbc 8824 19bd
00000390: 59ad dc3b fa11 8e3b 3a1a 36bd 0fb0 eabb
000003a0: 15fc 2dbc 6bb0 4b3b 6605 41bd 0e86 2d3c
000003b0: 66e4 47bd 64b9 963c d728 fd3c 5c12 86bc
000003c0: fcd9 ec39 6a93 afbb fb6f eb3c da32 b4bc
000003d0: 7e8a 1a3d 3943 24bc 1a39 c93c 2e44 383d
000003e0: cc51 14bd e389 183c 0a90 e43c 1870 87bc
000003f0: 5732 cd3c 4bed f4bc 7723 bd3c 4c7a 813c
0.017523244 0.010078133 0.015213254 -0.010363605 0.015481469 0.0076218634 0.011956271 -0.015162976
0.0022070683 -0.007918771 -0.03726755 -0.019388381 -0.004255438 0.018282954 0.022769641 0.009726738
-0.038866654 0.030422138 -0.024059033 -0.0005215192 -0.010838188 0.01912313 0.036708124 -0.03644597
0.05612398 0.011119185 0.0031070125 -0.020676022 0.008259153 -0.008942287 0.047902614 0.03746453
0.023975627 -0.036855854 0.020861214 0.004066184 0.046984233 0.05309366 -0.014555851 0.009961518
0.0015097029 0.023232792 0.054606084 0.0440671 0.035934187 -0.008473695 0.002983313 0.044808194
-0.026436409 0.02150334 -0.029206557 -0.014350931 0.017438337 -0.024724955 -0.03820368 0.03745708
-0.044323463 0.054932266 -0.031694315 0.0038145266 -0.02675723 -0.003613648 0.019252237 -0.0008611794
0.01840807 -0.0015223093 0.039956637 -0.014222062 0.011301323 0.01832697 0.034586236 -0.0058031464
0.053979877 0.019326769 0.032429636 0.044207443 0.05666231 0.044708934 0.002341654 0.0006458344
0.03809264 0.05740787 0.029821146 -0.017771035 0.012774104 -0.009206083 -0.02009716 0.017574977
-0.04557955 0.03976062 0.02089266 0.020373378 0.06149597 0.0560579 0.0073839757 0.052181914
0.032369822 0.015037281 0.04768312 0.0009082854 0.05015265 0.024077628 0.03191383 0.0035030749
-0.025687508 -0.03453354 0.0041138246 0.018625155 -0.013112948 -0.0010795166 0.019721868 0.016288491
0.022820327 0.035948627 0.017790224 0.03493211 -0.009057233 0.039153844 0.009789244 0.041305616
0.05131591 0.042349037 -0.005696934 0.03805276 0.015173301 -0.00045615292 0.0035647468 0.024670674
0.014307321 -0.01782209 0.05535959 0.0074789943 -0.04196163 -0.018324818 0.019248115 -0.030385861
0.013108718 -0.010326579 -0.01930951 -0.027449977 0.0027796868 0.009467476 -0.0073712124 -0.009420775
-0.0022155133 0.022368435 0.009434504 0.032057647 0.032214105 0.016820751 0.01488484 -0.0119802505
0.0037946505 -0.033740256 0.018913964 -0.022445902 0.03252333 0.015409817 -0.007511805 -0.017020442
0.0038661766 0.020868903 -0.044947937 -0.014995492 -0.041201875 0.025601227 -0.006668851 -0.042641457
0.023311252 -0.042864315 -0.038251944 0.015497018 0.0067847813 0.031156834 -0.027421258 0.017584756
0.010992401 -0.010786983 0.037216157 0.018985298 0.027615612 -0.00055986806 -0.021336356 -0.04802437
-0.023541307 0.018151546 -0.037690233 0.025364287 0.040193453 -0.009658424 0.002865689 0.013028206
0.051955957 0.013883571 0.010987289 0.021914054 0.012876967 0.03867892 0.018946543 0.029418277
-0.036782607 -0.012453042 -0.0029206402 -0.03334135 -0.006406571 -0.011242088 -0.019712111 -0.01686194
-0.037071746 0.021605138 -0.018262707 0.008026042 -0.024881091 -0.006702042 0.033679627 -0.025572646
0.020931799 0.018598726 0.027379084 -0.022873914 0.01349957 -0.005998291 -0.04718818 0.037602104
-0.047589984 0.026776597 -0.019079413 -0.037388355 0.006734532 0.004335639 -0.044458605 -0.007162101
-0.010619183 0.0031080495 -0.04712429 0.010591043 -0.048801802 0.018398948 0.030903263 -0.016366176
0.0004517584 -0.0053581493 0.02873992 -0.021996904 0.037729733 -0.010025793 0.024563361 0.044986896
-0.03621082 0.0093102185 0.027900714 -0.016532943 0.025048418 -0.029898306 0.0230882 0.015805386

decoder.decoder.0.bias f4 [64]
00000000: a851 20bb 9cab 613c 2d31 153b ea58 483d
00000010: 0095 803d da59 f0bc 078d c9bb e70b 6f3d
00000020: bed9 a53c 604f 813c ddc2 f83c 8a94 e3bc
00000030: 9355 453d 0e74 133d 2b01 483d 08fe a7bc
00000040: da93 173d c55d 0cbc 7be8 553c cf55 06ba
00000050: 06d9 4cbd 297d 293d 42ab 11bc b79e 2b3b
00000060: 6103 8b3c 330d 38bd 8b25 e23c 3dbf 2ebc
00000070: 55c7 a83c 5213 463d c805 2e3d e611 b7bc
00000080: 05f6 e03c 8c4d 143d 1cf6 d73c 9fb0 163d
00000090: 2e22 dabb 9679 613c a63d e2bb ba44 8ebc
000000a0: 0258 6b3d 6d4c b8bc 84ac 0dbd 9be5 2fbd
000000b0: d3fc 2d3d 7427 983c 914a 163d 07bf fe3c
000000c0: d769 37bd 852e a83b f98f d83c 56e8 5d3d
000000d0: 997e 8e3c 7e35 3cbb 6855 6f3d 0319 1abd
000000e0: 1fb1 393d 7d7c a13c 5a41 cf3b 5d02 e8bb
000000f0: 86ec 313d 0f67 89ba 8e66 ce3c 9134 753d
-0.0024462733 0.013773825 0.0022764907 0.04891292 0.062784195 -0.02933972 -0.006150845 0.05836096
0.02024543 0.01578492 0.030366356 -0.02778079 0.048177313 0.03599935 0.04882924 -0.020506874
0.037006237 -0.008567278 0.013055916 -0.0005124481 -0.050011657 0.041379128 -0.008890929 0.002618713
0.016969385 -0.044934463 0.027605793 -0.010665712 0.020602861 0.04835827 0.042485982 -0.022347402
0.027461061 0.036206767 0.026362471 0.036789533 -0.0066569066 0.0137618985 -0.0069043217 -0.017366756
0.057456978 -0.02249738 -0.03458835 -0.04294358 0.04247744 0.0185735 0.036692206 0.031096948
-0.04477867 0.0051324987 0.026435839 0.05417665 0.01739435 -0.0028718407 0.05843106 -0.03762151
0.04533493 0.019712681 0.006324929 -0.00708036 0.043438457 -0.0010482984 0.025195386 0.059864584

decoder.decoder.2.weight f4 [64, 32, 3, 3]
00000000: 69a6 2cbd 4f90 d03b 3b78 353d 0dfb 2f3d
00000010: 6d2f d8bc 3666 f03c f796 58bd e4e0 853d
00000020: 3e63 16bc e8c1 24bc e8f0 e33c ce8c 893d
00000030: b3af 0e3d 01da c43c 0a12 3c3d 33b0 2bbd
00000040: 4429 093d 317e 10bd 012e a3bc 6b9c 09bd
00000050: cfea c4bc 6dc4 13bd c90e 233d 9cab 8d3c
00000060: c5a9 343d b268 3c3d 1fad 1b3d e625 503d
00000070: 5280 693d 3018 9f3c 229f 35bd 49b1 79bc
00000080: b05d 88bc 45d3 c2bc f53d 7a3d 1b70 1ebd
00000090: 7235 133d 664a 163d ae2e d13b 2fc2 99bc
000000a0: 53c7 ff3c 2a52 39bc e041 35bd bbe5 423d
000000b0: 9cd2 b93c 919a 133c 7635 523d 1b31 80bb
000000c0: f6e9 93bc b1db e03c 666c ccbc 18c0 7ebd
000000d0: 0e40 bfbc 2ef8 89bd a282 5dbd 8969 5cbc
000000e0: 7992 813b 762e 893c 72a0 8d3c 3763 d63c
000000f0: e47f 63bd 4ec4 82bd a95b 27bd 9fbb 2b3d
00000100: 2aed 0a3d ff2c 8c3c d6da 893c 40ef ecbc
00000110: 576b 903d 1a01 603d 0db2 983d a8fc 8cbc
00000120: 3abe 373c 1ea2 a1bc 1f20 22bd 2921 433c
00000130: e03a 183d a3c8 edbc 05d9 d93c 8664 bd3c
00000140: 58b9 2fbd 5aa2 373d fc22 3dbc dd8a 50bc
00000150: 2c6c 663d 0159 9d3d b5ee 0b3d 3157 e83a
00000160: 522f 8abc d8bd 963d c914 54bd 41b2 26bd
00000170: b3e9 64bc 46f4 413d d1b0 70bd 2e2b 6bbd
00000180: 3545 ab3c 374b f43c 00f0 a23d a266 553d
00000190: 6d6a 59bd cdff 6f3d 57fd 1a3b 4d0f e3bb
000001a0: be65 00bd 7fa9 9dbb ee9d e73b 59ed 1bbd
000001b0: 41bc 8cbd ea0a 9b3d 203c e03c 207e aa3a
000001c0: 7f6e 5a3d c250 d03c d20b 22bd 5afb 03bd
000001d0: 0729 1b3b c97e a43c 6b35 c23c a9d9 03bc
000001e0: 0773 953d 38eb 973d 08fe f2bb cc05 2bbc
000001f0: e8b9 7b3d 29d7 483d ad27 28bd 3159 4f3c
00000200: 1b58 0fbd 29a0 a93c 15bf 1d3d ce5b 27bd
00000210: 6cb9 8cbd b6b9 35bd e01e bf3c 1684 873b
00000220: 78db 433d 5fe5 5dbd 75c3 56bc 64e5 45bd
00000230: 1149 20bd c4e6 963b bee4 3a3d e11f e03a
00000240: 77d3 f13c af81 55bd 993e 35bd adfd 453d
00000250: e845 b53c 3090 e23a 82eb 4abd 76dc 633c
00000260: c038 023c c3c4 013d 660c 8bbd 04e4 8b3b
00000270: 3595 6c3d 30d4 f4bb 9fa3 6cbd 9535 003d
00000280: cb4d 2bbd 9d01 30bd 482c 2abd 7ef3 a8bb
00000290: 7e88 4c3d 6b1d 803d 2704 873d b447 963b
000002a0: 5ce5 99bc 3f4b 253d 8b75 85bd 0d36 473c
000002b0: 1249 503d b8e4 37bd 63c9 783d 38a2 8f3c
000002c0: 6572 873b 0724 b63c e8f5 0cbd da4b ef3a
000002d0: 5acb 313d 0a39 993c 80c6 07bc 4ad5 c2b9
000002e0: ddc6 43bd 5315 94bc c794 8c3c ee32 82bd
000002f0: 86b9 50bd 3f39 b3ba 3349 89bc e075 2ebd
00000300: 9678 cd3c c858 4b3d 7a48 84bd 0249 f8bc
00000310: ce0d 12bd b8b6 77bc 2955 1e3d 9301 073d
00000320: 63ab 413c ab94 433c 812d 4f3d 4812 8f3b
00000330: 007e 163d 43b4 d8bc 4e00 91bc 7801 10bc
00000340: 118b 4c3c 2f18 2cbd 6d95 8bbc 42ff a23d
00000350: 1930 11bd c62a 95bb 727c 0d3b 50d7 4f3d
00000360: f7b0 fe3c 23e5 213d 5c1c 2cbc ad35 693d
00000370: 30df bf3c 0201 f93c bcd9 94bc bd0d 363c
00000380: da6c 86bd 79b8 d13c 9193 5fbd 25c3 8cbd
00000390: 77c7 debc f80f 38bd fdc8 0c3c fea3 c33c
000003a0: 76b6 4d3d 6484 5dbd d6e5 3dbd f4d8 6abd
000003b0: dbdb 32bd 0a76 25bc c714 44bd c1db d13c
000003c0: 4061 d6bc f5c6 6237 6699 6fbb 00d9 92bb
000003d0: b3f7 2abc 0d4f 7e3d e76d 543d 1e82 d2bc
000003e0: e19d d03c bfc4 1a3d bb5a b73c 89c0 5fbd
000003f0: c7d7 23ba 0042 b43c e1fd 11bd 4b9b 6a3c
-0.04215089 0.006364859 0.044304114 0.04296403 -0.026389802 0.029345613 -0.052878346 0.06537035
-0.009178935 -0.0100559965 0.027824834 0.067163095 0.03483553 0.024029734 0.04591564 -0.041916084
0.03348662 -0.035276596 -0.019919397 -0.033596437 -0.024037747 -0.036075998 0.039809022 0.017293744
0.044107217 0.045998283 0.038006898 0.050817393 0.05700714 0.019420713 -0.044341214 -0.015240022
-0.016646236 -0.023782382 0.061094243 -0.03868113 0.03593964 0.036692046 0.0063837385 -0.018769352
0.031222975 -0.011311093 -0.044252276 0.04758237 0.022683434 0.0090090195 0.051320516 -0.003912104
-0.018055897 0.027448507 -0.024954032 -0.062194914 -0.023345973 -0.0673679 -0.05407966 -0.013452896
0.0039542285 0.016745787 0.01728842 0.026170356 -0.055541888 -0.063850984 -0.0408589 0.041926976
0.033917584 0.0171113 0.016827982 -0.028922677 0.070517235 0.05468855 0.074558355 -0.01721032
0.011214787 -0.019730624 -0.039581414 0.0119097615 0.037165523 -0.029026335 0.02659274 0.023119222
-0.042901367 0.044832565 -0.011543985 -0.01272842 0.056255504 0.07682992 0.034163196 0.001772618
-0.016868267 0.073604286 -0.051777635 -0.04069734 -0.013971734 0.047352098 -0.058762375 -0.057414226
0.020907024 0.029821021 0.079559326 0.05209983 -0.05308001 0.05859356 0.0023649537 -0.006929314
-0.03134703 -0.0048114653 0.007068387 -0.03806815 -0.06871844 0.07570441 0.02737242 0.0013007559
0.053328034 0.025429133 -0.039562054 -0.03222213 0.0023675577 0.020079987 0.023707112 -0.0080475
0.0729733 0.07417911 -0.007415537 -0.010438394 0.06145659 0.049033318 -0.041053463 0.012655542
-0.034996133 0.020706253 0.03851231 -0.040859036 -0.06871304 -0.04436656 0.023330152 0.004135619
0.047816724 -0.054173823 -0.013108124 -0.048314467 -0.03913218 0.004605146 0.0456283 0.0017099344
0.02951978 -0.05212563 -0.04424915 0.048337627 0.02212806 0.0017285403 -0.049541004 0.013907542
0.007948101 0.031681787 -0.06789474 0.004269125 0.057759482 -0.007471584 -0.05777323 0.0313011
-0.041822236 -0.04297029 -0.041546136 -0.0051559797 0.049934857 0.06255611 0.06592589 0.0045861844
-0.018786125 0.040354963 -0.0651656 0.012158883 0.050850935 -0.044895858 0.060738932 0.017533407
0.00413351 0.022233976 -0.034414202 0.0018256858 0.04340682 0.018703956 -0.008287072 -0.00037161476
-0.047797073 -0.018076574 0.017160786 -0.0635737 -0.05095818 -0.0013673677 -0.016758537 -0.042592883
0.025081914 0.049645215 -0.06459136 -0.03030825 -0.035657696 -0.015119247 0.038655434 0.032960486
0.011820647 0.011937301 0.050580505 0.004366193 0.036741257 -0.026453143 -0.01770034 -0.008789413
0.012484328 -0.04201525 -0.017039025 0.07958843 -0.03544626 -0.004552218 0.0021589068 0.050742447
0.031090243 0.039525162 -0.010504808 0.056935955 0.023421854 0.030395988 -0.01817023 0.011111674
-0.065637305 0.025600659 -0.05458409 -0.06873158 -0.027194722 -0.044937104 0.008592841 0.023881909
0.050222836 -0.054081336 -0.046361767 -0.05733581 -0.0436667 -0.0100989435 -0.047871377 0.025617482
-0.02616942 1.3516973e-05 -0.0036559938 -0.004481435 -0.010435033 0.062087107 0.051862624 -0.02569681
0.025465908 0.037785288 0.02238213 -0.054626975 -0.000625011 0.022004128 -0.03564251 0.014319251

decoder.decoder.2.bias f4 [32]
00000000: 7d70 f23c 3a35 6d3d 9330 243d 6fbc cebb
00000010: 46ab cd3c d7bb 1bbb 770e 3ebd eeaa 783d
00000020: c307 31bd c6ef 1a3d 4428 cc3b 4ba2 173c
00000030: edd1 00bc 1c1a 323d ba07 6ebd 05d4 db3c
00000040: 6f07 8ebd 4f35 06bd 9c9f 31bd 17f0 883d
00000050: 29ee 85bd 789c 99bd c4ba 083d 5c41 333d
00000060: 841a e43c 27aa 86bd 4553 143d 8794 4b3c
00000070: 5574 9e3d 2f42 8e3d 1b79 0ebc 1817 ef3c
0.029594654 0.05791209 0.040085386 -0.006309084 0.025106084 -0.0023763084 -0.046400513 0.060709886
-0.043220293 0.037826322 0.006230386 0.009255002 -0.00786255 0.04348193 -0.058112837 0.026834497
-0.069350116 -0.032765683 -0.043365106 0.066864185 -0.06539566 -0.07500547 0.03338124 0.043763503
0.027844675 -0.06575423 0.036212225 0.012425548 0.07737032 0.06946217 -0.008695866 0.029185817

decoder.decoder.4.weight f4 [32, 1, 3, 3]
00000000: a13a 343e 23d3 4e3d 5c6a 903e b14a 7dbe
00000010: 9c5b 7a3e 103a 8b3d 4ee2 aebe 9394 afbe
00000020: d87a 4cbe 1a2a 20be af7d 713e 1598 95be
00000030: de78 89be dfbe 46bd a666 b23d bb4c ce3c
00000040: 70d0 9ebe 199b 193d 7121 adbe de3a 343e
00000050: e8c6 9a3e d7e9 97be faa5 47be 4420 2bbd
00000060: 041d a1be a679 7a3e 956f 3ebe 5c40 22be
00000070: 8fe4 903c 1311 76be 3a97 c5bb 698b 88be
00000080: 7109 42be 4ab5 00be 7df5 a83c 913f a83d
00000090: 276d 593e d56a fe3d f134 0ebe b935 513d
000000a0: 5e74 a1be 54d6 563e b722 23be ee23 713e
000000b0: d691 9b3e 0360 033d 5af4 343e c0be 65be
000000c0: 226f 493e 9dc0 283e 0404 633d 58b8 edbb
000000d0: 1db2 933e 96fe f93c 46dd 93bc 02ae 9d3e
000000e0: 0f9d 993e 57ea 0d3e ce56 83be 630d c1bd
000000f0: 521e 253e b0c1 6bbe b5da 79be 0ba1 5c3d
00000100: b0f8 81bb 008b b0be c92d 77be e71f 75be
00000110: 9fd3 b8bd 33d6 853c 64b5 63be 8a40 c43d
00000120: 622e 5d3e 566e 123d 43ae 25be 87ea c33d
00000130: ec7c ab3d 222b 893e 80fd 36be 6785 74be
00000140: 6e78 a03e 693b 04bd 30cd 20be 923f 8dbe
00000150: 5acb 043e 523f a1be 3064 adbe 8922 51be
00000160: 6cb2 9a3e 29d0 89be 3018 633d 7f43 063d
00000170: 013d 11be 1838 453e fd70 07be 627a 21bd
00000180: 7d22 aabe 81ee 7ebe bc69 ba3d e629 a4be
00000190: 975c a9bc 348b c2bc fa95 50bd 6a0c a23e
000001a0: e781 953d a76e d03d 5d4e 853d 1578 b43d
000001b0: 2608 9ebe db80 6ebe ad40 3bbe 14f6 a2be
000001c0: 442d 6fbd 1566 3c3e c14a f43d 1959 96be
000001d0: 6f47 613e 9b09 e4bd 8e64 df3c d558 f0bb
000001e0: a4a1 85be 35c7 48be 7d4a a4be 12ad 23be
000001f0: 5754 903e d7a2 b8bc b47c 213e ba98 02be
00000200: df58 09be 265c a83d 7298 e9bd 3993 763e
00000210: 3c9f 34bd b3d9 23bd 3fe8 8f3e 2839 983e
00000220: 2829 7a3e 0e96 cbbd 90f6 e63c 38fa 9d3e
00000230: 51c3 9e3e c500 7d3e 2b8e 893e ae3f 263e
00000240: 614c 3cbe 96f8 5e3e 729c 6a3e c76b 953b
00000250: 7d81 9bbe fb9f 8f3e 0830 393e 489f c8bc
00000260: 58ab acbd ed0e 4abc cb38 813e abf9 b13c
00000270: 6ec4 483e 11b8 f4bd a3ee 823e fb14 aabe
00000280: 220a f03d 5b6a 60bd 593c 053e f745 7d3e
00000290: a2fa 6e3e 0d20 28bc 03d8 80be 5df6 2a3e
000002a0: 8ed8 40be 4de8 80be 3720 9e3e a1c8 1bbd
000002b0: 7126 afbe 52a3 e7bd 528f 893e 5751 a1be
000002c0: 9c8a ab3d b036 9c3d cf66 18be bb1c 2d3d
000002d0: f5e8 333d 001c 07be baac 01be 28a4 b63e
000002e0: f474 b03d 3ffe ddbd 65d5 963d bd32 a6bd
000002f0: 5267 2cbe c862 793d ee82 60bd b032 cbbd
00000300: 6ed4 82be f210 12bc bec6 c33d ac5c b63e
00000310: 3fcb 6d3d e9cc 5fbe 5f4b 10bd 1dfa 143d
00000320: 780e 6f3d 0264 80bd 34f6 753e a56f f0bd
00000330: dd60 5c3e d18e 883e c1a3 4e3e 362b 2dbe
00000340: 3b4e 14be 7680 04be 5268 523d c96b 6ebe
00000350: 36ee 7d3d 1812 a33d eb40 de3c a8d6 34be
00000360: b2e8 9fbc 7547 42be 3722 a43e 5727 953d
00000370: 5d80 8d3e abca 9e3e 587f 58be 20b4 003e
00000380: a090 80be 4a27 833e fd5b a33e 1367 113d
00000390: bf60 44be f5d0 0d3e 7810 853b 625a 8bbd
000003a0: 0397 ca3b 0d11 80bd ad24 96bc 4fd8 4bbe
000003b0: 32f5 743e 27bd 393e 2b23 01be 1534 9e3c
000003c0: 37c5 143e 9d64 3bbe 5383 23bb 1899 6a3e
000003d0: c32e a0be 7ad5 923e 3c11 9b3e 683c 313d
000003e0: be9d 893d 3165 353e dc57 a03e 3f6a d03c
000003f0: a54b 353e 4def 61be 02e9 1f3e 9d1f 71be
0.1760049 0.050494324 0.28206146 -0.24735524 0.24449009 0.06798184 -0.34157032 -0.3429304
-0.19968736 -0.1564106 0.235831 -0.29217592 -0.26850027 -0.048521873 0.08710985 0.025183072
-0.310184 0.03750143 -0.33814576 0.17600581 0.30229878 -0.29670593 -0.19496909 -0.041778818
-0.3146745 0.24460468 -0.18597253 -0.15844864 0.01768711 -0.24029951 -0.0060299905 -0.26668862
-0.18948914 -0.12569156 0.02062487 0.08215249 0.21233045 0.1242272 -0.13887383 0.051076625
-0.31534094 0.20980197 -0.15931211 0.23548862 0.30384701 0.032073986 0.17671338 -0.22436047
0.196713 0.16479726 0.05542375 -0.0072546415 0.28846827 0.030516904 -0.018049847 0.3079682
0.3000264 0.13858925 -0.25652164 -0.094263814 0.16124848 -0.23023105 -0.24399836 0.05386452
-0.0039664134 -0.3448105 -0.2413856 -0.23937951 -0.090247385 0.01633749 -0.22237164 0.09582622
0.21599725 0.035749756 -0.16179757 0.09566217 0.08373436 0.2679072 -0.1787014 -0.23879014
0.3134188 -0.03228322 -0.15703273 -0.27587563 0.12968197 -0.31493622 -0.338655 -0.2042333
0.3021425 -0.26916626 0.05544299 0.032779213 -0.14183427 0.1925968 -0.13226695 -0.039423354
-0.33229437 -0.2489567 0.091021985 -0.32063216 -0.020674033 -0.023748018 -0.05092428 0.31650096
0.073001675 0.10177355 0.06509087 0.08811966 -0.30865592 -0.23291342 -0.1828639 -0.31828368
-0.058392778 0.18398316 0.11928321 -0.2936485 0.21999906 -0.111346446 0.027269628 -0.0073348084
-0.26099885 -0.19607241 -0.3208808 -0.1598399 0.28189346 -0.022538586 0.15770227 -0.12753573
-0.13412808 0.08220701 -0.1140603 0.24079598 -0.04409717 -0.040002536 0.28106877 0.29731107
0.24429762 -0.0994073 0.028193742 0.30854964 0.3100839 0.24707325 0.26866278 0.1623523
-0.18388511 0.21774516 0.22911242 0.004559967 -0.3037223 0.28051743 0.18084729 -0.024490014
-0.08431119 -0.01233266 0.25238642 0.021725496 0.19606182 -0.119491704 0.2557269 -0.33219132
0.11720683 -0.05478893 0.13011302 0.2473372 0.23337796 -0.010261548 -0.25164804 0.16695543
-0.18832609 -0.2517723 0.30883953 -0.03803313 -0.34209016 -0.11310448 0.26867157 -0.3150737
0.08376047 0.07627618 -0.14882968 0.042263728 0.043923337 -0.13194275 -0.12663546 0.35672116
0.08616057 -0.10839509 0.073649205 -0.08115146 -0.16836289 0.06088522 -0.054812364 -0.09921777
-0.25552696 -0.008915173 0.095593914 0.35617578 0.05805516 -0.21855511 -0.03522813 0.03637134
0.058363408 -0.06269075 0.240197 -0.117400445 0.21521325 0.2667146 0.20179655 -0.16911015
-0.14482968 -0.12939629 0.05136902 -0.23283304 0.061994754 0.079624355 0.027130565 -0.1766001
-0.019520137 -0.18972571 0.32057354 0.07282894 0.27636996 0.31013998 -0.21142328 0.12568712
-0.2511034 0.25615913 0.3190612 0.03549869 -0.1917753 0.13849242 0.004060801 -0.068043485
0.006182553 -0.06253252 -0.018328035 -0.19906734 0.2392166 0.18138562 -0.12611072 0.019311944
0.14528356 -0.183001 -0.0024950102 0.22909963 -0.31285676 0.28678495 0.30286586 0.0432705
0.0671954 0.17714383 0.3131703 0.025441287 0.17704637 -0.22063942 0.15616229 -0.23547216
