500_ML/models/weights_7899_10-04_04:16.pt (torch_old, 39980 bytes, 7 tensors)

encoder.encoder.0.weight f4 [16, 1, 3, 3]
-0.09420512 0.0806506 -0.17051251 0.34843487 0.3203244 0.3892073 0.4049626 0.12455825
0.35010508 0.19657229 -0.073342435 -0.17042208 0.4547203 0.47210565 -0.024211142 0.2383989
0.3130624 0.06937368 0.17043523 0.18244721 -0.028247833 0.41236776 0.19629516 0.3091396
0.2576742 0.10478079 0.29823813 -0.27051812 0.26098374 -0.19083163 -0.0146887 -0.016939789
-0.2581439 0.21345022 -0.12912452 -0.21571796 0.23838057 -0.06275564 -0.022551479 0.30967045
-0.023688631 0.019567711 0.123676956 -0.06483254 -0.08751778 -0.22606635 0.063712046 0.22206512
-0.09666416 0.43036434 0.37510777 0.26031283 0.3510407 0.36233693 0.11909185 -0.085680805
0.27916384 -0.061298717 -0.023993436 -0.24470113 0.3101626 -0.13475709 -0.19941846 -0.08658683
-0.003947377 0.17507449 -0.06574735 -0.19453523 -0.15257096 -0.053739578 -0.32485574 0.22694471
-0.22266595 -0.16489033 0.1559513 0.027390296 -0.0010866397 0.08169099 0.19443125 0.23545338
0.22092025 0.108932585 -0.28029352 -0.009535193 -0.17183642 0.061692715 -0.09474668 -0.106225654
-0.31138456 0.3084226 0.378751 0.19537148 -0.17748842 0.0024398381 0.29840115 -0.010466878
-0.09019899 0.27716693 -0.2216576 0.015604366 -0.12936023 0.29432547 -0.20146525 -0.01214374
-0.0117166275 0.0661907 0.28081304 0.058395103 -0.20398797 -0.12579036 0.18708278 -0.21016672
0.015871102 0.35824493 0.37439266 0.1935983 0.2980975 0.04356551 0.071581006 -0.26988482
-0.039701432 0.104377985 -0.26365983 0.16485944 0.042655498 -0.15990376 -0.095012784 -0.0784587
0.1930283 -0.2537993 0.09169665 -0.22978723 0.11048019 0.037910968 -0.2844319 0.2999252
0.31917468 0.014247813 -0.15912364 0.30065405 -0.019912282 0.19669314 -0.005169546 0.24981229
00000000: 9dee c0bd 242c a53d d59a 2ebe 0e66 b23e
00000010: 8f01 a43e 2e46 c73e 4257 cf3e 6518 ff3d
00000020: f940 b33e 3f4a 493e 8f34 96bd 2083 2ebe
00000030: 19d1 e83e d5b7 f13e 7256 c6bc d71e 743e
00000040: b749 a03e ca13 8e3d 9386 2e3e 71d3 3a3e
00000050: 0068 e7bc de21 d33e 9901 493e 8c47 9e3e
00000060: dfed 833e 5097 d63d abb2 983e 5a81 8abe
00000070: a99f 853e 5e69 43be e0a8 70bc 50c5 8abc
00000080: 702b 84be b292 5a3e 3839 04be 2be5 5cbe
00000090: 091a 743e 0786 80bd e1bd b8bc 208d 9e3e
000000a0: a90e c2bc 774c a03c 584a fd3d ecc6 84bd
000000b0: 863c b3bd f07d 67be 767b 823d 0a65 633e
000000c0: dcf7 c5bd b758 dc3e 200e c03e b947 853e
000000d0: 9bbb b33e 3a84 b93e 6ee6 f33d 6b79 afbd
000000e0: 90ee 8e3e 5d14 7bbd e28d c4bc ef92 7abe
000000f0: a2cd 9e3e c3fd 09be 5a34 4cbe 7054 b1bd
00000100: 0059 81bb ba46 333e 8ca6 86bd 3e34 47be
00000110: 903b 1cbe 081e 5cbd 7e53 a6be 3264 683e
00000120: 8b02 64be 03d9 28be b3b1 1f3e 9d61 e03c
00000130: 946d 8eba 9b4d a73d fc18 473e b11a 713e
00000140: eb38 623e 0c18 df3d a282 8fbe 8039 1cbc
00000150: e3f5 2fbe 80b1 7c3d 8c0a c2bd d68c d9bd
00000160: cc6d 9fbe 91e9 9d3e a7eb c13e 760f 483e
00000170: 86bf 35be b1e5 1f3b 09c8 983e 457d 2bbc
00000180: 40ba b8bd d3e8 8d3e 36fa 62be 74a9 7f3c
00000190: 0277 04be d4b1 963e e84c 4ebe 8af6 46bc
000001a0: 19f7 3fbc fd8e 873d bac6 8f3e b42f 6f3d
000001b0: 39e2 50be 30cf 00be a192 3f3e f235 57be
000001c0: 1d04 823c e16b b73e 65b0 bf3e a23e 463e
000001d0: 3ca0 983e c071 323d 1099 923d 582e 8abe
000001e0: f89d 22bd 20c4 d53d 6cfe 86be ead0 283e
000001f0: 88b7 2e3d d0bd 23be 1096 c2bd f4ae a0bd
00000200: 36a9 453e fbf1 81be 74cb bb3d 584d 6bbe
00000210: 7043 e23d 8848 1b3d 0fa1 91be cc8f 993e
00000220: dd6a a33e a96f 693c 4ff1 22be 54ef 993e
00000230: 151f a3bc ed69 493e 4c65 a9bb cbce 7f3e

encoder.encoder.0.bias f4 [16]
0.3394608 -0.007035008 -0.011602198 -0.25462943 0.24199553 -0.018906856 -0.18522042 -0.24903318
0.23543455 -0.18420951 0.1148275 0.17633398 0.19821982 -0.19028609 -0.24569869 -0.09838759
00000000: cecd ad3e ed85 e6bb 2517 3ebc ca5e 82be
00000010: adcd 773e 8de2 9abc 6caa 3dbe 8e02 7fbe
00000020: c115 713e 6ba1 3cbe ae2a eb3d e590 343e
00000030: 23fa 4a3e 5bda 42be 7098 7bbe 6f7f c9bd

encoder.encoder.2.weight f4 [32, 16, 3, 3]
0.1398972 0.15374608 0.14466497 0.05756525 0.037557624 0.14473172 0.09158337 0.04487546
0.15677066 -0.069481224 -0.046325937 -0.07300503 -0.0454931 -0.106218345 -0.13464707 -0.031311132
-0.09571614 -0.16697498 0.009258947 -0.014929783 -0.085756935 -0.00074726326 -0.0109643685 -0.027788319
-0.07346725 -0.05598735 -0.14540926 -0.027779095 0.02323392 -0.022416852 -0.082592085 0.018110506
0.07230682 -0.02271238 0.03184223 -0.059588503 0.10385246 0.10803009 0.04443506 0.061402783
0.06699255 0.13848817 0.096293345 0.059178777 0.06845755 -0.10410904 -0.029170945 0.0030623977
0.007752571 -0.04148882 -0.11297449 -0.03653989 -0.15266168 -0.15912771 -0.088830985 -0.07620198
-0.079889104 0.06666965 -0.024116756 -0.017304877 0.004713148 -0.02809208 -0.008452172 0.029915683
0.02312202 -0.06937149 0.0054712966 0.038086206 0.052462257 -0.06522624 -0.074881636 -0.021234035
0.13009493 0.10947488 0.101474926 0.1018221 0.17162545 0.07733785 0.018343825 0.016256725
0.102354065 -0.03420971 0.035646163 -0.07516026 -0.03050847 -0.05239598 -0.06257482 -0.04318168
0.029363096 0.0058912635 0.18185952 0.05996683 0.13245371 0.054146335 0.10712528 0.11137056
0.12020766 0.16706964 0.08884082 0.028869316 0.15104604 0.05295813 0.018452285 0.03909805
0.16901143 0.059320517 0.031601135 0.016506584 0.12910385 0.15978703 0.14381336 0.1455706
0.07418304 0.16696115 0.13525367 0.068002835 0.07713652 0.018038817 -0.034027487 0.041062243
-0.018297993 0.040594757 0.002427578 0.028425045 -0.0004242584 -0.0010155216 0.06742539 -0.08286288
0.027935155 -0.052497357 -0.06278841 0.012507401 0.044268183 -0.008934021 0.07877589 -0.048625037
-0.060835555 -0.15389195 0.012351412 -0.14222334 -0.038081426 -0.10180511 -0.06624275 -0.13758315
-0.0062429355 0.005745402 0.118038476 -0.012999317 -0.02085762 -0.008109239 0.05061157 0.051100403
0.09421347 -0.0017179277 0.07370612 -0.017132571 0.044268288 0.094610155 0.074595526 0.101490505
0.10268478 0.14707728 -0.018599806 0.1116962 0.08745566 0.04921171 0.056664422 0.17256436
-0.030846074 0.01581162 0.054835353 0.01626233 0.0379334 0.006497033 -0.08078928 -0.07575056
0.062124707 0.053813733 0.045686923 0.0325211 -0.019248378 -0.072115645 0.024211578 0.04928326
0.057952568 -0.055836722 0.019621124 -0.03351741 -0.025009697 0.023641223 0.12660709 0.1081163
0.08619997 0.16843924 0.06462545 -0.008567185 0.06988593 0.09441715 -0.05436511 0.013491958
-0.03510505 0.008615285 -0.018166274 -0.003109252 -0.079021685 -0.06683065 0.037088666 0.03561285
0.0155848265 -0.077859454 -0.032309614 0.03012234 0.0049104393 0.030431174 0.05098433 -0.016244166
0.005058661 0.07485012 0.05753478 -0.07438641 0.031412005 -0.020843718 0.0038747864 -0.029122746
0.0149490135 -0.034860045 0.04178355 -0.042713176 -0.0018920004 -0.042212605 0.003513135 -0.0006900057
-0.04163773 -0.070295125 -0.0614793 0.009595246 0.03984175 -0.017878616 0.058381084 -0.012913788
0.075547986 -0.036839597 -0.0026056014 0.042126514 0.090054736 -0.015966529 -0.038538143 -0.035420895
-0.042673323 0.051025357 -0.03495698 0.031078717 0.001006714 0.053604163 0.059426624 0.0027108
00000000: 3641 0f3e 9d6f 1d3e 0e23 143e 8ac9 6b3d
00000010: 06d6 193d 8d34 143e 1090 bb3d 55cf 373d
00000020: 7d88 203e 2c4c 8ebd 44c0 3dbd a983 95bd
00000030: f956 3abd 0189 d9bd ece0 09be 1a40 00bd
00000040: d306 c4bd 7dfb 2abe d7b2 173c 0c9c 74bc
00000050: 55a1 afbd fde3 43ba e5a3 33bc 54a4 e3bc
00000060: ff75 96bd fe52 65bd 2ae6 14be fc90 e3bc
00000070: 1055 be3c 8ca3 b7bc 0a26 a9bd 7c5c 943c
00000080: 9915 943d 500f babc 006d 023d 1313 74bd
00000090: 99b0 d43d e13e dd3d 8a01 363d 7c81 7b3d
000000a0: 6433 893d d8cf 0d3e 7235 c53d 7265 723d
000000b0: 7933 8c3d 1f37 d5bd e8f7 eebc 82b2 483b
000000c0: 4709 fe3b 2ef0 29bd 2b5f e7bd daaa 15bd
000000d0: 5853 1cbe 60f2 22be 05ed b5bd c90f 9cbd
000000e0: e69c a3bd 198a 883d 8190 c5bc f5c2 8dbc
000000f0: c070 9a3b 5d21 e6bc fb7a 0abc bc11 f53c
00000100: 646a bd3c a412 8ebd 9048 b33b 4800 1c3d
00000110: aae2 563d 5695 85bd 8b5b 99bd 00f3 adbc
00000120: 9b37 053e 5e34 e03d 16d2 cf3d 1b88 d03d
00000130: 95be 2f3e 4f63 9e3d ca45 963c d32c 853c
00000140: 029f d13d 7b1f 0cbd b601 123d 9fed 99bd
00000150: e6ec f9bc 2b9d 56bd 3a27 80bd 46df 30bd
00000160: e08a f03c 800b c13b 6239 3a3e c79f 753d
00000170: f2a1 073e 8cc8 5d3d 8064 db3d 4016 e43d
00000180: 6f2f f63d 4e14 2b3e 2df2 b53d 587f ec3c
00000190: d0ab 1a3e a0ea 583d 3f29 973c 4725 203d
000001a0: 5511 2d3e 12fa 723d 3170 013d d138 873c
000001b0: cd33 043e 369f 233e cf43 133e 7610 153e
000001c0: 47ed 973d ddf7 2a3e f07f 0a3e 1245 8b3d
000001d0: c0f9 9d3d 24c6 933c 6860 0bbd e230 283d
000001e0: ace5 95bc b046 263d 0018 1f3b a4db e83c
000001f0: 006f deb9 401b 85ba 5316 8a3d 03b4 a9bd
00000200: 44d8 e43c 7807 57bd 3697 80bd d8eb 4c3c
00000210: 8e52 353d 0060 12bc 4155 a13d 0c2b 47bd
00000220: b42e 79bd da95 1dbe 945d 4a3c ffa2 11be
00000230: 45fb 1bbd 337f d0bd 47aa 87bd 99e2 0cbe
00000240: 8a91 ccbb ed43 bc3b 28be f13d 16fb 54bc
00000250: 99dd aabc 9ddc 04bc 144e 4f3d a84e 513d
00000260: fef2 c03d 172c e1ba 3cf3 963d 9b59 8cbc
00000270: aa52 353d f8c2 c13d 8ac5 983d 41da cf3d
00000280: 664c d23d 6d9b 163e 9f5e 98bc fac0 e43d
00000290: f41b b33d 3892 493d f418 683d b6b4 303e
000002a0: e8b0 fcbc 5f87 813c 099b 603d 9438 853c
000002b0: 0e60 1b3d 10e5 d43b da74 a5bd 1c23 9bbd
000002c0: 7a76 7e3d ca6b 5c3d 3622 3b3d d834 053d
000002d0: c6ae 9dbc 5eb1 93bd 5c57 c63c 3edd 493d
000002e0: ac5f 6d3d 0cb5 64bd 7bbc a03c 8d49 09bd
000002f0: 23e1 ccbc 3dab c13c 4aa5 013e 146c dd3d
00000300: 9c89 b03d 567b 2c3e 595a 843d 615d 0cbc
00000310: 5b20 8f3d c75d c13d f3ad 5ebd 600d 5d3c
00000320: 50ca 0fbd 2027 0d3c 70d1 94bc 98c4 4bbb
00000330: 1fd6 a1bd 82de 88bd 49ea 173d c8de 113d
00000340: 8057 7f3c c774 9fbd 1657 04bd 20c3 f63c
00000350: c0e7 a03b cc4a f93c f2d4 503d 7c12 85bc
00000360: 20c3 a53b 054b 993d 97a9 6b3d e757 98bd
00000370: e0a9 003d 72c0 aabc 21f0 7d3b d392 eebc
00000380: b5ec 743c 68c9 0ebd 3a25 2b3d 03f4 2ebd
00000390: 00fd f7ba 20e7 2cbd a03c 663b 80e1 34ba
000003a0: 538c 2abd e4f6 8fbd b8d1 7bbd 6135 1d3c
000003b0: 1a31 233d 2d76 92bc 0121 6f3d 5a94 53bc
000003c0: e7b8 9a3d 1ee5 16bd bdc2 2abb da8c 2c3d
000003d0: 9e6e b83d 3dcc 82bc 2cda 1dbd 8015 11bd
000003e0: 39ca 2ebd f7ff 503d 0d2f 0fbd cb98 fe3c
000003f0: b7f3 833a 0a90 5b3d 5569 733d ada7 313b

encoder.encoder.2.bias f4 [32]
0.035809644 -0.029696094 0.13856289 0.121706925 0.13767387 -0.050655793 0.13781132 0.15424609
-0.009196669 0.08686449 -0.02992779 0.15944667 0.17018554 -0.49083975 0.08819313 -0.09247221
-0.06591728 0.030242572 -0.08865584 0.10722806 0.010870241 -0.060135294 -0.044553228 -0.03956749
0.07852866 0.08099361 -0.03186655 0.551741 0.09771633 0.027249327 0.13613012 0.15408203
00000000: 22ad 123d 3945 f3bc 6ee3 0d3e 7b41 f93d
00000010: 61fa 0c3e 737c 4fbd 691e 0d3e b0f2 1d3e
00000020: a0ad 16bc 02e6 b13d 202b f5bc fd45 233e
00000030: 1e45 2e3e 594f fbbe 9a9e b43d 1262 bdbd
00000040: a4ff 86bd 45bf f73c 3191 b5bd 639a db3d
00000050: 1819 323c 6d50 76bd 727d 36bd 8511 22bd
00000060: a2d3 a03d fadf a53d 8086 02bd e63e 0d3f
00000070: 801f c83d fb39 df3c b265 0b3e aec7 1d3e

decoder.decoder.0.weight f4 [32, 16, 3, 3]
0.08141173 0.022814281 -0.002564339 0.009323577 0.036623094 0.07924644 -0.007908757 0.025707671
0.034099184 0.076805346 0.05734107 0.13338271 0.033050757 0.16535649 0.16005714 0.059055667
0.17935202 0.13894504 0.12612064 0.14271064 0.14141445 0.11918766 0.0698637 0.16413319
0.080099724 0.05799364 0.08782281 0.013692898 -0.06124328 0.022550896 -0.07828186 -0.061006658
-0.02396817 -0.08525117 -0.0822547 -0.104500026 0.13157152 0.050814256 0.13361473 0.15230265
0.19048312 0.027098399 0.06051182 0.07234 0.06872328 0.021211077 0.009920964 0.015491947
0.09989288 0.12234761 0.14704849 0.06922353 0.12611677 0.03731118 0.07192803 0.026522951
-0.08130291 -0.02387296 0.0013020062 -0.041896466 -0.019433584 -0.066111036 0.003522718 0.063350745
0.02893789 0.07550864 0.02049522 0.05568005 0.024205111 -0.0030776965 -0.006590983 0.018956108
-0.032384645 0.008807375 0.034618147 0.01715863 0.052948408 0.03250171 -0.05601345 0.063102424
-0.10963396 0.13109586 -0.0045553613 -0.018698566 -0.0061861733 0.018580992 0.042691384 0.13908091
0.105986714 0.09817603 0.07239446 0.054298557 0.1279304 -0.056774095 0.042332545 0.06674319
0.07956334 -0.06984999 0.10350539 0.018208982 -0.0077821612 0.044930134 -0.050445598 -0.051197253
0.06399555 0.040770978 0.015797585 -0.027631614 -0.08093029 0.009257856 -0.054114122 0.052035835
-0.07310134 -0.0038073873 -0.0036352687 -0.027167236 -0.056085926 0.10686487 0.11019592 -0.03854238
0.029468253 0.044072982 -0.060402773 0.06995536 0.11654522 0.011929554 0.05697954 -0.042934485
0.04000647 0.057656463 -0.06444301 0.01934563 -0.01396818 0.035451036 -0.066393405 0.031448442
-0.029375521 -0.0023770607 0.15736787 0.054094445 0.0161998 0.1371825 0.08847822 0.0086352695
0.08623114 0.07651309 0.010322296 0.10201782 -0.04091049 0.0573776 0.03779581 0.016652731
-0.04092768 -0.13303952 -0.021708122 -0.15141413 -0.005406514 -0.10567129 -0.06312161 -0.11886742
-0.055023022 -0.063787036 0.02477319 -0.07534241 -0.07269543 -0.0858386 -0.03334495 -0.044611044
-0.0642795 0.0020019833 -0.12404475 0.033033103 0.03748975 -0.06281894 0.048463196 -0.00961563
-0.049785227 -0.041524947 -0.022366758 -0.059924036 -0.19091208 -0.08429128 -0.02108224 -0.067256056
-0.27122784 -0.12926377 -0.18883243 0.016531808 -0.15494579 -0.04356394 -0.017006401 -0.069726914
-0.13304375 -0.057594735 -0.18554597 -0.088008925 0.0031902364 -0.07791028 -0.07205786 0.07707768
0.029936524 0.06682601 0.0054122712 0.15569133 -0.036230564 0.10327261 0.07161285 0.061187666
0.021840256 -0.002145904 0.13119319 0.115310505 0.11765667 0.018658778 0.13482371 0.17968269
0.043418493 -0.014863579 0.09234784 0.05780842 0.119177654 -0.0007867612 -0.027344685 -0.06945644
0.18557183 -0.05851484 -0.25234836 0.005792852 -0.057442073 -0.086066835 -0.13760298 -0.017681582
-0.14691651 -0.08558744 -0.11281432 0.054016136 0.17362915 0.045841876 0.078363955 0.09659545
-0.32037872 0.052989475 -0.07182153 0.054280095 0.08101895 -0.026075862 0.022932447 0.07207355
-0.06212014 -0.050761633 -0.06475953 -0.06150785 0.069651864 -0.06063498 0.06764043 0.070246495
00000000: 31bb a63d 04e5 ba3c 780e 28bb ebc1 183c
00000010: 1902 163d f54b a23d bb93 01bc e598 d23c
00000020: 96ab 0b3d 1f4c 9d3d 78de 6a3d 7a95 083e
00000030: 3b60 073d 3653 293e 05e6 233e 5be4 713d
00000040: 0ea8 373e 9c47 0e3e c525 013e bd22 123e
00000050: f3ce 103e a918 f43d b314 8f3d 8812 283e
00000060: 530b a43d bd8a 6d3d 72dc b33d 2d58 603c
00000070: 3cda 7abd a8bc b83c 3d52 a0bd 1ee2 79bd
00000080: e558 c4bc 2a98 aebd 2775 a8bd 1c04 d6bd
00000090: afba 063e 9c22 503d 4dd2 083e 3af5 1b3e
000000a0: 020e 433e 76fd dd3c 3edb 773d fe26 943d
000000b0: cbbe 8c3d dac2 ad3c 8a8b 223c efd1 7d3c
000000c0: a394 cc3d 6291 fa3d e193 163e 11c5 8d3d
000000d0: c124 013e 9cd3 183d 014f 933d a946 d93c
000000e0: 2482 a6bd 3a91 c3bc 14a8 aa3a a19b 2bbd
000000f0: 2e33 9fbc 3965 87bd 67dd 663b 09be 813d
00000100: 270f ed3c 46a4 9a3d 97e5 a73c c410 643d
00000110: cc49 c63c 2eb3 49bb 2cf9 d7bb d749 9b3c
00000120: c3a5 04bd cf4c 103c c2cb 0d3d 4190 8c3c
00000130: 6ee0 583d 8320 053d 5c6e 65bd d83b 813d
00000140: c587 e0bd fe3d 063e 2445 95bb bc2d 99bc
00000150: 62b5 cabb 2a37 983c 29dd 2e3d 3a6b 0e3e
00000160: 900f d93d 8410 c93d 8c43 943d 2a68 5e3d
00000170: 3000 033e f48b 68bd e464 2d3d a7b0 883d
00000180: 1bf2 a23d 830d 8fbd a2fa d33d 012b 953c
00000190: 8001 ffbb a908 383d 0ba0 4ebd 36b4 51bd
000001a0: 1910 833d 78ff 263d f069 813c b25b e2bc
000001b0: c8be a5bd 43ae 173c c5a6 5dbd 8723 553d
000001c0: 28b6 95bd 5c85 79bb b03d 6ebb d38d debc
000001d0: 5bba 65bd f8db da3d 66ae e13d 9dde 1dbd
000001e0: 6867 f13c df85 343d e668 77bd c144 8f3d
000001f0: 43af ee3d 2d74 433c 6163 693d 12dc 2fbd
00000200: d3dd 233d 2f29 6c3d b2fa 83bd ba7a 9e3c
00000210: cbda 64bc 1b35 113d 44f9 87bd 15d0 003d
00000220: efa4 f0bc 76c8 1bbb 0b25 213e 2392 5d3d
00000230: 71b5 843c 9279 0c3e 1234 b53d f27a 0d3c
00000240: f499 b03d e5b2 9c3d d91e 293c b8ee d03d
00000250: c291 27bd c604 6b3d c7cf 1a3d 4f6b 883c
00000260: c8a3 27bd 833b 08be 3bd5 b1bc 4e0c 1bbe
00000270: 2029 b1bb 306a d8bd e745 81bd c370 f3bd
00000280: d25f 61bd c7a2 82bd 25f1 ca3c 1f4d 9abd
00000290: 57e1 94bd 26cc afbd b794 08bd 12ba 36bd
000002a0: f8a4 83bd b533 033b 2d0b febd b84d 073d
000002b0: da8e 193d 37a7 80bd 5881 463d e08a 1dbc
000002c0: 98eb 4bbd 1016 2abd 7e3a b7bc e872 75bd
000002d0: 757e 43be e8a0 acbd a9b4 acbc 8bbd 89bd
000002e0: 60de 8abe b95d 04be 4a5d 41be b76d 873c
000002f0: 1caa 1ebe 1a70 32bd 0251 8bbc fccc 8ebd
00000300: 9f3c 08be 75e8 6bbd c3ff 3dbe 063e b4bd
00000310: 4913 513b 6d8f 9fbd 1293 93bd e7da 9d3d
00000320: 713d f53c 13dc 883d 6c59 b13b 8c6d 1f3e
00000330: 8066 14bd 9780 d33d c2a9 923d eb9f 7a3d
00000340: 56ea b23c 4ca2 0cbb 8257 063e ea27 ec3d
00000350: fbf5 f03d 4bda 983c 3a0f 0a3e bdfe 373e
00000360: 97d7 313d 5e86 73bc dd20 bd3d 86c8 6c3d
00000370: 6a13 f43d a63e 4eba f601 e0bc 2e3f 8ebd
00000380: 8b06 3e3e 42ad 6fbd ce33 81be f7d1 bd3b
00000390: 6148 6bbd cf43 b0bd cce7 0cbe f7d8 90bc
000003a0: 4871 16be 7848 afbd 320b e7bd 0640 5d3d
000003b0: d7cb 313e b1c4 3b3d 487d a03d d6d3 c53d
000003c0: ae08 a4be 7e0b 593d 2b17 93bd ce54 5e3d
000003d0: 43ed a53d 0c9d d5bc d4dc bb3c 4c9b 933d
000003e0: b071 7ebd 6eeb 4fbd a5a0 84bd a8ef 7bbd
000003f0: a3a5 8e3d 635c 78bd 1187 8a3d 65dd 8f3d

decoder.decoder.0.bias f4 [16]
-0.07525598 0.08750809 0.105472125 0.039891932 0.06558481 0.09441362 -0.047500834 -0.020027837
-0.02346686 0.09889991 -0.07457842 -0.08070206 0.050673038 0.06731957 0.03663294 0.11426039
00000000: cf1f 9abd 7137 b33d c501 d83d b965 233d
00000010: 5451 863d ee5b c13d 3c90 42bd 6b11 a4bc
00000020: 933d c0bc 098c ca3d 92bc 98bd 1f47 a5bd
00000030: 888e 4f3d d8de 893d 6c0c 163d 5a01 ea3d

decoder.decoder.2.weight f4 [16, 1, 3, 3]
0.3413651 -0.18862614 0.30209592 0.17067882 -0.21332219 -0.028450822 -0.024885615 0.24297881
0.21500792 -0.0459089 0.060615417 0.20575577 0.11369184 -0.37217435 -0.395038 0.04938208
-0.23614118 -0.19125196 -0.27760625 -0.0064871977 -0.18543485 -0.30524507 -0.3771018 -0.13885143
0.03822799 0.08692544 -0.36316916 -0.02192264 0.027280685 0.2968399 -0.069351844 -0.29349133
0.16039866 -0.01723395 -0.2255098 0.19550924 -0.23623319 -0.26060972 -0.36353365 0.07640329
-0.4542326 0.07809641 -0.18311307 -0.31575814 -0.08152014 -0.041419305 -0.073517345 -0.010413097
-0.14657746 -0.17512988 -0.08444774 -0.31643212 0.123854116 -0.28248522 -0.10443247 0.3332244
0.3721402 0.014656757 -0.05134438 0.27431783 0.27537635 0.36466777 0.4620841 -0.38421044
0.050052494 0.014506142 0.23054221 0.3595856 0.3551192 0.12442185 0.32122183 -0.12255214
-0.13744935 0.074903905 -0.23053506 0.05525598 0.2059454 0.27899137 -0.23823535 0.14024767
0.22518086 -0.32884935 0.0015726672 -0.30709907 -0.011371545 0.0071055386 -0.36051765 -0.083330095
-0.43540308 -0.31649798 0.17611654 -0.12598787 0.37953225 -0.13916476 0.23800191 -0.0048309234
0.35818318 0.08601968 0.5057418 -0.6929976 0.32072532 -0.30351448 -0.32917252 0.13976762
-0.18925302 -0.23171197 -0.4508845 -0.48058552 0.19829786 0.1444135 0.3109548 -0.31764904
-0.29111847 0.30338177 0.06760794 0.25839052 -0.10373017 0.21133879 -0.38256046 0.2802798
0.09372352 0.10433645 -0.13430634 -0.29728147 -0.30757648 -0.3290059 -0.14150107 0.27953416
-0.26149434 -0.18637626 0.26331627 -0.26900747 0.02677531 0.12510234 0.06872652 0.13093658
-0.3448241 -0.20984888 -0.23917304 0.18698528 -0.17109637 -0.023020431 0.0057173255 -0.24434315
00000000: 68c7 ae3e 3627 41be 51ac 9a3e 6ec6 2e3e
00000010: 2271 5abe b311 e9bc ebdc cbbc 70cf 783e
00000020: 092b 5c3e f90a 3cbd df47 783d a4b1 523e
00000030: 44d7 e83d a38d bebe 6c42 cabe dd44 4a3d
00000040: fece 71be 8ed7 43be 6822 8ebe 8f92 d4bb
00000050: a2e2 3dbe 1549 9cbe 7d13 c1be 122f 0ebe
00000060: f494 1c3d f705 b23d 4ff1 b9be 1c97 b3bc
00000070: be7b df3c 66fb 973e 5708 8ebd 7f44 96be
00000080: 8c3f 243e 362e 8dbc 0aec 66be 9333 483e
00000090: 1de7 71be a36e 85be 1521 babe 5479 9c3d
000000a0: 2d91 e8be 03f1 9f3d fe81 3bbe 0dab a1be
000000b0: 08f4 a6bd 4aa7 29bd 4390 96bd b29b 2abc
000000c0: 6718 16be 3f55 33be f0f2 acbd 6403 a2be
000000d0: 3aa7 fd3d e7a1 90be b1e0 d5bd 639c aa3e
000000e0: 2989 be3e e522 703c 7c4e 52bd 6373 8c3e
000000f0: 21fe 8c3e bcb5 ba3e 4a96 ec3e 3bb7 c4be
00000100: d803 4d3d 2bab 6d3c 4213 6c3e 9b1b b83e
00000110: 2fd2 b53e e2d0 fe3d 3077 a43e 9efc fabd
00000120: 86bf 0cbe 3867 993d 6211 6cbe 1854 623d
00000130: 5ae3 523e f5d7 8e3e f8f3 73be 169d 0f3e
00000140: d095 663e f15e a8be f421 ce3a 173c 9dbe
00000150: b74f 3abc 94d5 e83b c595 b8be f8a8 aabd
00000160: 27ed debe 060c a2be e557 343e f702 01be
00000170: 0d52 c23e 3581 0ebe c6b6 733e b94c 9ebb
00000180: c963 b73e 162b b03d 4b78 013f 4a68 31bf
00000190: 1c36 a43e 4066 9bbe 4d89 a8be 3e1f 0f3e
000001a0: 8bcb 41be e745 6dbe 55da e6be 4e0f f6be
000001b0: 980e 4b3e 22e1 133e 7835 9f3e e5a2 a2be
000001c0: 7b0d 95be db54 9b3e 0876 8a3d c34b 843e
000001d0: 7c70 d4bd 3269 583e f7de c3be d580 8f3e
000001e0: 1ef2 bf3d 59ae d53d 9a87 09be 4735 98be
000001f0: aa7a 9dbe 7673 a8be a8e5 10be 1a1f 8f3e
00000200: 96e2 85be 6bd9 3ebe 64d1 863e 59bb 89be
00000210: e557 db3c d41a 003e 7dc0 8c3d 3d14 063e
00000220: c98c b0be a0e2 56be c7e9 74be 1279 3f3e
00000230: e333 2fbe 5895 bcbc 6758 bb3b 1735 7abe
