500_ML/models/weights_5099_10-04_04:16.pt (torch_old, 39980 bytes, 7 tensors)

encoder.encoder.0.weight f4 [16, 1, 3, 3]
-0.09896547 0.07741349 -0.1743349 0.3436806 0.31708813 0.38562644 0.4004213 0.12210818
0.34746453 0.19594088 -0.07774541 -0.16836552 0.44180253 0.45422426 -0.03920694 0.2277617
0.29632008 0.055366363 0.1705349 0.17342448 -0.027725663 0.40761903 0.17881286 0.29808754
0.25056806 0.08130675 0.27963033 -0.27051812 0.26098374 -0.19083163 -0.0146887 -0.016939789
-0.2581439 0.21345022 -0.12912452 -0.21571796 0.23415306 -0.06288433 -0.026014144 0.30605704
-0.021318423 0.01996695 0.12080037 -0.06016864 -0.08408279 -0.21161109 0.06564898 0.2315729
-0.093513854 0.4182957 0.36694002 0.2580419 0.32995337 0.34314227 0.11909185 -0.085680805
0.27916384 -0.061298717 -0.023993436 -0.24470113 0.3101626 -0.13475709 -0.19941846 -0.08658683
-0.003947377 0.17507449 -0.06574735 -0.19453523 -0.15257096 -0.053739578 -0.32485574 0.22694471
-0.22140591 -0.16119611 0.15754664 0.025221597 -5.250477e-05 0.08142643 0.18731648 0.2326325
0.21680959 0.108932585 -0.28029352 -0.009535193 -0.17183642 0.061692715 -0.09474668 -0.106225654
-0.31138456 0.3084226 0.36600852 0.18511593 -0.18773952 -0.0023314266 0.29590917 -0.011725929
-0.09157026 0.27845195 -0.21873862 0.014826842 -0.1286388 0.2932912 -0.20184618 -0.010211224
-0.010526275 0.06403487 0.2817211 0.05877299 -0.20623817 -0.12734567 0.18623453 -0.21385117
0.012432452 0.35547695 0.36857665 0.18823202 0.29328987 0.04356551 0.071581006 -0.26988482
-0.039701432 0.104377985 -0.26365983 0.16485944 0.042655498 -0.15990376 -0.095012784 -0.0784587
0.1930283 -0.2537993 0.09169665 -0.22978723 0.11048019 0.037910968 -0.2844319 0.2998127
0.31902677 0.0140996175 -0.15921241 0.3005109 -0.020057673 0.19660461 -0.0053149196 0.2496679
00000000: 69ae cabd f78a 9e3d d984 32be e7f6 af3e
00000010: 6059 a23e d470 c53e 0504 cd3e da13 fa3d
00000020: dfe6 b13e baa4 483e fc38 9fbd 0368 2cbe
00000030: f133 e23e 1590 e83e 7597 20bd 5d3a 693e
00000040: 44b7 973e d7c7 623d b3a0 2e3e 3096 313e
00000050: ee20 e3bc 71b3 d03e b81a 373e ee9e 983e
00000060: 754a 803e 2784 a63d b52b 8f3e 5a81 8abe
00000070: a99f 853e 5e69 43be e0a8 70bc 50c5 8abc
00000080: 702b 84be b292 5a3e 3839 04be 2be5 5cbe
00000090: d2c5 6f3e 80c9 80bd 9d1b d5bc 82b3 9c3e
000000a0: f9a3 aebc bb91 a33c 2f66 f73d 6473 76bd
000000b0: 9933 acbd 94b0 58be f972 863d 7221 6d3e
000000c0: 3184 bfbd db2a d63e 90df bb3e 111e 843e
000000d0: a6ef a83e 58b0 af3e 6ee6 f33d 6b79 afbd
000000e0: 90ee 8e3e 5d14 7bbd e28d c4bc ef92 7abe
000000f0: a2cd 9e3e c3fd 09be 5a34 4cbe 7054 b1bd
00000100: 0059 81bb ba46 333e 8ca6 86bd 3e34 47be
00000110: 903b 1cbe 081e 5cbd 7e53 a6be 3264 683e
00000120: 3bb8 62be 9810 25be e853 213e 869d ce3c
00000130: 9138 5cb8 e6c2 a63d e4cf 3f3e 3737 6e3e
00000140: 5503 5e3e 0c18 df3d a282 8fbe 8039 1cbc
00000150: e3f5 2fbe 80b1 7c3d 8c0a c2bd d68c d9bd
00000160: cc6d 9fbe 91e9 9d3e 7865 bb3e 088f 3d3e
00000170: ca3e 40be d9ca 18bb 6881 973e 1c1e 40bc
00000180: 3089 bbbd 4191 8e3e 04fd 5fbe 48ec 723c
00000190: e4b9 03be 442a 963e c4b0 4ebe fa4c 27bc
000001a0: 6676 2cbc b724 833d bf3d 903e f2bb 703d
000001b0: 1930 53be e766 02be 44b4 3e3e cdfb 5abe
000001c0: 7cb1 4b3c 1301 b63e 14b6 bc3e e5bf 403e
000001d0: 172a 963e c071 323d 1099 923d 582e 8abe
000001e0: f89d 22bd 20c4 d53d 6cfe 86be ead0 283e
000001f0: 88b7 2e3d d0bd 23be 1096 c2bd f4ae a0bd
00000200: 36a9 453e fbf1 81be 74cb bb3d 584d 6bbe
00000210: 7043 e23d 8848 1b3d 0fa1 91be 0d81 993e
00000220: 7a57 a33e 1502 673c 9408 23be 91dc 993e
00000230: fd4f a4bc b852 493e c728 aebb f1a8 7f3e

encoder.encoder.0.bias f4 [16]
0.3395848 -0.006738774 -0.011719872 -0.25462943 0.24179459 -0.019523818 -0.18522042 -0.24903318
0.2352687 -0.18420951 0.11492985 0.17618436 0.19834161 -0.19028609 -0.24569869 -0.09853986
00000000: 0fde ad3e efd0 dcbb b504 40bc ca5e 82be
00000010: 0099 773e 6af0 9fbc 6caa 3dbe 8e02 7fbe
00000020: 47ea 703e 6ba1 3cbe 5760 eb3d ac69 343e
00000030: 101a 4b3e 5bda 42be 7098 7bbe 44cf c9bd

encoder.encoder.2.weight f4 [32, 16, 3, 3]
0.14054498 0.15369202 0.14431246 0.05782649 0.037331995 0.14438275 0.09188037 0.04475255
0.15658034 -0.08347552 -0.0536838 -0.097009085 -0.05623283 -0.102739826 -0.1366733 -0.04378738
-0.08974605 -0.16240737 -0.00780967 -0.033048566 -0.11801577 -0.0064928974 -0.009031811 -0.03318434
-0.08028475 -0.050953962 -0.1438353 -0.027779095 0.02323392 -0.022416852 -0.082592085 0.018110506
0.07230682 -0.02271238 0.03184223 -0.059588503 0.104477674 0.10796076 0.04423183 0.06177655
0.06671166 0.13818868 0.09661018 0.058859807 0.06820005 -0.11007344 -0.039404176 -0.01674438
0.0059671374 -0.040781673 -0.11833496 -0.03723014 -0.14714298 -0.15893246 -0.088830985 -0.07620198
-0.079889104 0.06666965 -0.024116756 -0.017304877 0.004713148 -0.02809208 -0.008452172 0.029915683
0.02312202 -0.06937149 0.0054712966 0.038086206 0.052462257 -0.06522624 -0.074881636 -0.021234035
0.13132097 0.109749705 0.10159399 0.102327995 0.17129107 0.076948985 0.01893679 0.016052445
0.10208445 -0.03420971 0.035646163 -0.07516026 -0.03050847 -0.05239598 -0.06257482 -0.04318168
0.029363096 0.0058912635 0.18155235 0.0580568 0.1292143 0.054949377 0.10711533 0.11029954
0.1204861 0.16683425 0.08817312 0.030044904 0.15103558 0.052782014 0.019240709 0.038766515
0.16849154 0.06012228 0.031383265 0.016127726 0.13034038 0.15989938 0.14362438 0.14613071
0.07384261 0.16645168 0.13594255 0.06788659 0.076852396 0.018038817 -0.034027487 0.041062243
-0.018297993 0.040594757 0.002427578 0.028425045 -0.0004242584 -0.0010155216 0.06742539 -0.08286288
0.027935155 -0.052497357 -0.06278841 0.012507401 0.044268183 -0.008934021 0.07877589 -0.04853979
-0.06076163 -0.15382116 0.012433582 -0.14214963 -0.038015816 -0.1017341 -0.066182375 -0.13752362
-0.009396053 -0.00054783735 0.113758735 -0.011414821 -0.024918765 -0.0121771535 0.06263225 0.0579584
0.100137666 -0.0011946445 0.0690246 -0.013846291 0.045696605 0.083547086 0.06335424 0.12681453
0.119055025 0.15747018 -0.008167632 0.12252484 0.10514452 0.044763263 0.04217203 0.16008627
-0.011388592 0.025212154 0.06072368 0.01626233 0.0379334 0.006497033 -0.08078928 -0.07575056
0.062124707 0.053813733 0.045686923 0.0325211 -0.016389783 -0.07240722 0.024834562 0.052460656
0.05777168 -0.057651024 0.023667876 -0.03245932 -0.026397493 0.02260176 0.12615679 0.112150125
0.08076864 0.15740168 0.056453347 0.008224861 0.07847095 0.10517018 -0.05436511 0.013491958
-0.03510505 0.008615285 -0.018166274 -0.003109252 -0.079021685 -0.06683065 0.037088666 0.03561285
0.0155848265 -0.077859454 -0.032309614 0.03012234 0.0049104393 0.030431174 0.05098433 -0.016244166
-0.0033153624 0.0625955 0.04576924 -0.07346101 0.028221345 -0.023991812 0.015820468 -0.020584866
0.02390039 -0.034860045 0.04178355 -0.042713176 -0.0018920004 -0.042212605 0.003513135 -0.0006900057
-0.04163773 -0.070295125 -0.042833466 0.022710174 0.060004987 -0.01528683 0.048266746 -0.020491024
0.08077607 -0.04417023 -0.01178501 0.04086041 0.08535666 -0.01946603 -0.040462226 -0.041141704
-0.046885245 0.058158904 -0.03195936 0.035473853 -0.007846228 0.041237816 0.048120607 0.001373273
00000000: 06eb 0f3e 7161 1d3e a5c6 133e 78db 6c3d
00000010: 6fe9 183d 12d9 133e c72b bc3d 734e 373d
00000020: 9956 203e 37f5 aabd 8be3 5bbd b3ac c6bd
00000030: 6554 66bd 4269 d2bd 16f4 0bbe 655a 33bd
00000040: c7cc b7bd 1e4e 26be 43e8 ffbb ef5d 07bd
00000050: 41b2 f1bd 5fc2 d4bb 29fa 13bc 4dec 07bd
00000060: 556c a4bd 1ab5 50bd 9049 13be fc90 e3bc
00000070: 1055 be3c 8ca3 b7bc 0a26 a9bd 7c5c 943c
00000080: 9915 943d 500f babc 006d 023d 1313 74bd
00000090: 64f8 d53d 881a dd3d 6f2c 353d 6809 7d3d
000000a0: 1fa0 883d 5581 0d3e 8fdb c53d fb16 713d
000000b0: 78ac 8b3d 2f6e e1bd 4666 21bd 832b 89bc
000000c0: fa87 c33b af0a 27bd 9959 f2bd a27e 18bd
000000d0: a6ac 16be 31bf 22be 05ed b5bd c90f 9cbd
000000e0: e69c a3bd 198a 883d 8190 c5bc f5c2 8dbc
000000f0: c070 9a3b 5d21 e6bc fb7a 0abc bc11 f53c
00000100: 646a bd3c a412 8ebd 9048 b33b 4800 1c3d
00000110: aae2 563d 5695 85bd 8b5b 99bd 00f3 adbc
00000120: 0179 063e 74c4 e03d 8310 d03d 5791 d13d
00000130: ed66 2f3e 6e97 9d3d 5421 9b3c 6b80 833c
00000140: a711 d13d 7b1f 0cbd b601 123d 9fed 99bd
00000150: e6ec f9bc 2b9d 56bd 3a27 80bd 46df 30bd
00000160: e08a f03c 800b c13b dce8 393e f8cc 6d3d
00000170: c150 043e 9912 613d 485f db3d bae4 e13d
00000180: 6bc1 f63d 99d6 2a3e 1c94 b43d bb20 f63c
00000190: 12a9 1a3e f431 583d b19e 9d3c a3c9 1e3d
000001a0: 0c89 2c3e c842 763d bd8b 003d 4b1e 843c
000001b0: f377 053e aabc 233e 4512 133e 4aa3 153e
000001c0: cb3a 973d 4f72 2a3e 8634 0b3e 2008 8b3d
000001d0: ca64 9d3d 24c6 933c 6860 0bbd e230 283d
000001e0: ace5 95bc b046 263d 0018 1f3b a4db e83c
000001f0: 006f deb9 401b 85ba 5316 8a3d 03b4 a9bd
00000200: 44d8 e43c 7807 57bd 3697 80bd d8eb 4c3c
00000210: 8e52 353d 0060 12bc 4155 a13d a9d1 46bd
00000220: 30e1 78bd 4b83 1dbe 39b6 4b3c ac8f 11be
00000230: 79b6 1bbd f859 d0bd a08a 87bd fed2 0cbe
00000240: e7f1 19bc be9c 0fba 57fa e83d 3b05 3bbc
00000250: 7022 ccbc af82 47bc 5645 803d ca65 6d3d
00000260: fa14 cd3d 9e95 9cba c55c 8d3d 8edb 62bc
00000270: 5d2c 3b3d bc1a ab3d debf 813d abdb 013e
00000280: 1fd3 f33d dd3f 213e 88d1 05bc 4eee fa3d
00000290: 0356 d73d af59 373d 94bc 2c3d a8ed 233e
000002a0: 3897 3abc b889 ce3c 65b9 783d 9438 853c
000002b0: 0e60 1b3d 10e5 d43b da74 a5bd 1c23 9bbd
000002c0: 7a76 7e3d ca6b 5c3d 3622 3b3d d834 053d
000002d0: de43 86bc 3d4a 94bd da71 cb3c fce0 563d
000002e0: ffa1 6c3d 7b23 6cbd 22e3 c13c 10f4 04bd
000002f0: 8e3f d8bc 5427 b93c 3f2f 013e f7ae e53d
00000300: 076a a53d e82d 213e a03b 673d 91c1 063c
00000310: 61b5 a03d 7763 d73d f3ad 5ebd 600d 5d3c
00000320: 50ca 0fbd 2027 0d3c 70d1 94bc 98c4 4bbb
00000330: 1fd6 a1bd 82de 88bd 49ea 173d c8de 113d
00000340: 8057 7f3c c774 9fbd 1657 04bd 20c3 f63c
00000350: c0e7 a03b cc4a f93c f2d4 503d 7c12 85bc
00000360: 8d46 59bb 1232 803d 8778 3b3d ba72 96bd
00000370: 7330 e73c 7a8a c4bc ed99 813c 98a1 a8bc
00000380: c0ca c33c 68c9 0ebd 3a25 2b3d 03f4 2ebd
00000390: 00fd f7ba 20e7 2cbd a03c 663b 80e1 34ba
000003a0: 538c 2abd e4f6 8fbd 2572 2fbd b00a ba3c
000003b0: cac7 753d 9d75 7abc 5ab3 453d cbdc a7bc
000003c0: ed6d a53d d8eb 34bd ea15 41bc 3f5d 273d
000003d0: 79cf ae3d 3977 9fbc b8bb 25bd 3484 28bd
000003e0: be0a 40bd 0838 6e3d d1e7 02bd 084d 113d
000003f0: 778d 00bc fce8 283d 1d1a 453d 65ff b33a

encoder.encoder.2.bias f4 [32]
0.035595972 -0.029368144 0.13806054 0.12141761 0.13733065 -0.049823996 0.13756232 0.15419687
-0.009196669 0.08668517 -0.02992779 0.15920408 0.16985741 -0.48641112 0.08783531 -0.093619116
-0.06594256 0.024721438 -0.08865584 0.107067585 0.010870241 -0.060135294 -0.045335356 -0.03958375
0.07837084 0.08080175 -0.03186655 0.5363665 0.09741027 0.027034264 0.13590947 0.15360919
00000000: 15cd 113d 7695 f0bc be5f 0d3e cca9 f83d
00000010: 68a0 0c3e 3f14 4cbd 23dd 0c3e c9e5 1d3e
00000020: a0ad 16bc ff87 b13d 202b f5bc 6506 233e
00000030: 1aef 2d3e e10a f9be 00e3 b33d 61bb bfbd
00000040: e50c 87bd 9d84 ca3c 3191 b5bd 4046 db3d
00000050: 1819 323c 6d50 76bd 91b1 39bd 9222 22bd
00000060: e480 a03d 637b a53d 8086 02bd 514f 093f
00000070: 097f c73d f676 dd3c da2b 0b3e ba4b 1d3e

decoder.decoder.0.weight f4 [32, 16, 3, 3]
0.08060785 0.022934532 -0.001573146 0.008301437 0.03988492 0.071106665 -0.009738873 0.025825523
0.026707279 0.0776769 0.05704828 0.13300645 0.033222996 0.16587739 0.15959871 0.059783194
0.17931844 0.13786991 0.1257479 0.14311156 0.14207964 0.11976428 0.07010282 0.16441087
0.080186896 0.058383074 0.088131145 0.013692898 -0.06613591 0.022550896 -0.07828186 -0.061006658
-0.02396817 -0.08525117 -0.06884199 -0.104500026 0.13131094 0.051231213 0.1343787 0.15385167
0.19014286 0.027487129 0.061349742 0.071765564 0.06888466 0.022135783 0.010977259 0.01632517
0.101500645 0.12305108 0.14759618 0.06320646 0.12663366 0.030462256 0.07207471 0.026129734
-0.08130203 -0.026435262 0.0013695329 -0.04279277 -0.019427165 -0.06581534 0.0035229663 0.06377643
0.027863055 0.08572738 0.01586383 0.0550378 0.023262497 0.021886282 -0.0073364894 0.02709698
-0.03664383 0.008807827 0.034968637 0.026768021 0.03311749 0.025899304 -0.054017838 0.063102424
-0.08303157 0.13126642 -0.004524596 -0.018308261 -0.0059670513 0.018628208 0.042775907 0.13980636
0.104066774 0.099032335 0.07072036 0.05425418 0.12821336 -0.06095333 0.04072985 0.063686095
0.07947365 -0.07108217 0.10064225 0.018208982 -0.0077821612 0.044930134 -0.050445598 -0.044406597
0.06399555 0.040770978 0.015797585 -0.027631614 -0.08090256 0.009257856 -0.054114122 0.052035835
-0.07310134 -0.0038073873 -0.003569422 -0.027167236 -0.055955112 0.10597078 0.10959585 -0.03724508
0.029523453 0.04162272 -0.057797603 0.070054464 0.11538055 0.015089472 0.05697954 -0.049422402
0.040703904 0.025765188 -0.06444301 0.011715496 -0.01396818 0.048597686 -0.07574305 0.031304616
-0.02934051 -0.002028312 0.15769634 0.054094445 0.016403284 0.13548602 0.08848779 0.008131087
0.08297273 0.0765935 0.0074704774 0.1109926 -0.027838884 0.056976624 0.07158054 0.014367394
-0.018494947 -0.13614146 -0.015727716 -0.14592019 -0.09484028 -0.119108886 -0.14501953 -0.11295723
-0.053880736 -0.04782802 0.0018722891 -0.1169583 -0.08884925 -0.09115531 -0.03308939 -0.041060593
-0.08377292 -0.02324663 -0.12706482 0.033033103 0.017451687 -0.06281894 0.048463196 -0.00961563
-0.049785227 -0.041524947 -0.050535724 -0.059924036 -0.21236993 -0.12764134 -0.030486109 -0.080882594
-0.29136607 -0.14199659 -0.23889846 -0.025618803 -0.175165 -0.023496214 -0.05170052 -0.041919682
-0.15167876 -0.06431637 -0.19578898 -0.06995687 -0.017739655 -0.058519877 -0.06701731 0.08470057
0.03352072 0.06756762 0.0054122712 0.15705848 -0.033148516 0.11320359 0.073386505 0.05787399
0.03294663 -0.008620122 0.13414803 0.1147035 0.12053279 0.027359026 0.13015555 0.17432019
0.05427677 -0.014002647 0.09020361 0.06409259 0.11853839 -0.004641379 -0.020140102 -0.06897186
0.14650393 -0.050870694 -0.17286986 0.014407319 -0.06891888 -0.10793174 -0.13969068 -0.0429297
-0.1338153 -0.09416507 -0.11757231 0.055399116 0.15052734 0.058937497 0.089493394 0.11072983
-0.31109342 0.062175788 -0.0874391 0.054280095 0.08101895 -0.026075862 0.022932447 0.06599027
-0.06212014 -0.050761633 -0.06475953 -0.06150785 0.0954689 -0.06063498 0.086151734 0.070246495
00000000: ba15 a53d 33e1 bb3c 0532 ceba c002 083c
00000010: 5f5e 233d 5fa0 913d cb8f 1fbc 0c90 d33c
00000020: 39c9 da3c 1115 9f3d 75ab 693d d832 083e
00000030: d614 083d c3db 293e d86d 233e 39df 743d
00000040: 419f 373e c52d 0d3e 0fc4 003e d68b 123e
00000050: 537d 113e fa46 f53d 1192 8f3d 535b 283e
00000060: 0739 a43d 1723 6f3d 1a7e b43d 2d58 603c
00000070: 4472 87bd a8bc b83c 3d52 a0bd 1ee2 79bd
00000080: e558 c4bc 2a98 aebd 07fd 8cbd 1c04 d6bd
00000090: 6076 063e d2d7 513d 929a 093e 4b8b 1d3e
000000a0: cfb4 423e b02c e13c de49 7b3d d3f9 923d
000000b0: 6713 8d3d 1a56 b53c f6d9 333c 5dbc 853c
000000c0: 92df cf3d 3402 fc3d 7423 173e 6372 813d
000000d0: 41ac 013e fb8b f93c e89b 933d 060e d63c
000000e0: ae81 a6bd c38e d8bc e681 b33a 7947 2fbd
000000f0: b825 9fbc 31ca 86bd 91e1 663b 389d 823d
00000100: 1041 e43c d691 af3d ddf4 813c 516f 613d
00000110: fe90 be3c dc4a b33c ef66 f0bb 7cfa dd3c
00000120: d717 16bd b44e 103c 463b 0f3d 9c48 db3c
00000130: 35a6 073d c72a d43c cf41 5dbd d83b 813d
00000140: 750c aabd b46a 063e 1043 94bb 35fb 95bc
00000150: 4187 c3bb 2f9a 983c ca35 2f3d 6629 0f3e
00000160: f620 d53d 77d1 ca3d d6d5 903d a239 5e3d
00000170: 5d4a 033e 33aa 79bd 58d4 263d db6d 823d
00000180: 15c3 a23d 8793 91bd 861d ce3d 012b 953c
00000190: 8001 ffbb a908 383d 0ba0 4ebd b1e3 35bd
000001a0: 1910 833d 78ff 263d f069 813c b25b e2bc
000001b0: 3eb0 a5bd 43ae 173c c5a6 5dbd 8723 553d
000001c0: 28b6 95bd 5c85 79bb f7ec 69bb d38d debc
000001d0: 3031 65bd 3507 d93d ca73 e03d 4c8e 18bd
000001e0: 2bdb f13c 967c 2a3d 2ebd 6cbd b778 8f3d
000001f0: a34c ec3d d539 773c 6163 693d 256f 4abd
00000200: 23b9 263d 8411 d33c b2fa 83bd 5af2 3f3c
00000210: cbda 64bc 5e0e 473d 2c1f 9bbd 4539 003d
00000220: 825b f0bc 6eed 04bb 267b 213e 2392 5d3d
00000230: 2e60 863c d9bc 0a3e 1639 b53d 4038 053c
00000240: 9bed a93d 0edd 9c3d e8ca f43b 1750 e33d
00000250: 5f0e e4bc 5260 693d d198 923d 3865 6b3c
00000260: b782 97bc ab68 0bbe 69d7 80bc 1a6c 15be
00000270: 9f3b c2bd 5cef f3bd 0080 14be 1f56 e7bd
00000280: 0cb2 5cbd 50e7 43bd 9967 f53a d587 efbd
00000290: 98f6 b5bd a3af babd bd88 07bd 272f 28bd
000002a0: 2391 abbd b76f bebc 481d 02be b84d 073d
000002b0: d7f6 8e3c 37a7 80bd 5881 463d e08a 1dbc
000002c0: 98eb 4bbd 1016 2abd 8cfe 4ebd e872 75bd
000002d0: 8177 59be 69b4 02be 01be f9bc c6a5 a5bd
000002e0: ef2d 95be 8e67 11be cca1 74be 86de d1bc
000002f0: 745e 33be 227b c0bc edc3 53bd f9b3 2bbd
00000300: ad51 1bbe 4db8 83bd e87c 48be 8c45 8fbd
00000310: c152 91bc 8ab2 6fbd 5f40 89bd 7e77 ad3d
00000320: 064d 093d e460 8a3d 6c59 b13b f0d3 203e
00000330: bdc6 07bd 49d7 e73d aa4b 963d 470d 6d3d
00000340: 0cf3 063d 6a3b 0dbc 1a5e 093e abe9 ea3d
00000350: e5d9 f63d 0920 e03c 7f47 053e fe80 323e
00000360: 5251 5e3d 5c6b 65bc acbc b83d fa42 833d
00000370: 41c4 f23d b616 98bb dbfc a4bc 1e41 8dbd
00000380: 2005 163e ca5d 50bd cc04 31be ad0c 6c3c
00000390: 5725 8dbd 510b ddbd 130b 0fbe 0ed7 2fbd
000003a0: e106 09be 9ed9 c0bd c0c9 f0bd 2fea 623d
000003b0: d723 1a3e 7268 713d 5048 b73d 52c6 e23d
000003c0: a347 9fbe 0aac 7e3d 4513 b3bd ce54 5e3d
000003d0: 43ed a53d 0c9d d5bc d4dc bb3c e825 873d
000003e0: b071 7ebd 6eeb 4fbd a5a0 84bd a8ef 7bbd
000003f0: 3385 c33d 635c 78bd 5270 b03d 65dd 8f3d

decoder.decoder.0.bias f4 [16]
-0.07362111 0.08731337 0.10541621 0.039860588 0.065453894 0.094560474 -0.047793344 -0.019691542
-0.022048702 0.09889307 -0.07386367 -0.07839203 0.050673053 0.06755409 0.03687765 0.114411354
00000000: aac6 96bd 5ad1 b23d 74e4 d73d db44 233d
00000010: b10c 863d eca8 c13d f4c2 43bd 2850 a1bc
00000020: 7b9f b4bc 7388 ca3d d645 97bd 008c a0bd
00000030: 8c8e 4f3d cc59 8a3d 050d 173d 8050 ea3d

decoder.decoder.2.weight f4 [16, 1, 3, 3]
0.34685376 -0.18631364 0.29982284 0.1805267 -0.20789887 -0.029010572 -0.033769038 0.24573958
0.21132058 -0.048910156 0.060967684 0.20311087 0.114284895 -0.37138394 -0.3948547 0.047441233
-0.23439729 -0.19238521 -0.27920097 -0.006619041 -0.18685196 -0.30496833 -0.37657934 -0.13912745
0.036323186 0.08808835 -0.36393464 -0.026784902 0.042967577 0.2994482 -0.05916482 -0.27794486
0.16450371 -0.009409187 -0.22250935 0.1998029 -0.23886313 -0.26043817 -0.3651639 0.07653916
-0.45360053 0.07816045 -0.18504588 -0.31448156 -0.08310655 -0.0404127 -0.0706112 -0.011222909
-0.146245 -0.17406753 -0.08168439 -0.31607813 0.12926964 -0.27708057 -0.10015018 0.33831647
0.3854398 0.008997856 -0.046257224 0.2649445 0.27807027 0.36230516 0.45578423 -0.37877974
0.050763227 0.01792484 0.23454328 0.35538328 0.35310835 0.12237724 0.31381923 -0.13054208
-0.112360485 0.08005006 -0.23128363 0.041043624 0.19162004 0.28215182 -0.24088345 0.12118866
0.21688047 -0.33387926 0.004867505 -0.30801988 -0.009150531 0.01015226 -0.36011988 -0.08031128
-0.43338102 -0.31454223 0.17614813 -0.13010558 0.38141912 -0.15552305 0.23460405 -0.009034444
0.35681328 0.08069052 0.5012836 -0.5426689 0.23926634 -0.32595634 -0.011114026 0.35684195
0.24604493 -0.24322547 -0.22082862 -0.3142446 0.19733654 0.1444135 0.3109548 -0.31764904
-0.2913526 0.30338177 0.06760794 0.25839052 -0.10373017 0.20951031 -0.38132048 0.28146127
0.09615872 0.1067008 -0.13347211 -0.29707196 -0.30436337 -0.32992905 -0.13663471 0.28341523
-0.26007885 -0.19179994 0.260092 -0.26389322 0.021553935 0.1210827 0.06719053 0.1305851
-0.3447553 -0.20878798 -0.23900099 0.18785158 -0.1702078 -0.023409853 0.0071914312 -0.24154899
00000000: d196 b13e 01c9 3ebe 6182 993e fedb 383e
00000010: 71e3 54be 94a7 edbc 6751 0abd 28a3 7b3e
00000020: 6c64 583e 0456 48bd 40b9 793d 4cfc 4f3e
00000030: 330e ea3d 0926 bebe 652a cabe bd51 423d
00000040: d805 70be a100 45be 6ef3 8ebe 8ae4 d8bb
00000050: 1f56 3fbe cf24 9cbe 02cf c0be 6d77 0ebe
00000060: 9fc7 143d aa67 b43d a455 babe 036c dbbc
00000070: c5fe 2f3d 4651 993e cf56 72bd ca4e 8ebe
00000080: a973 283e fe28 1abc 7ed9 63be 2299 4c3e
00000090: 8998 74be 2758 85be c3f6 babe 90c0 9c3d
000000a0: 543e e8be 9612 a03d ab7c 3dbe ba03 a1be
000000b0: c433 aabd ca87 25bd 9b9c 90bd 4be0 37bc
000000c0: 40c1 15be c23e 32be 254a a7bd fed4 a1be
000000d0: 435f 043e 81dd 8dbe 8a1b cdbd d137 ad3e
000000e0: 5e58 c53e be6b 133c 3778 3dbd cea6 873e
000000f0: 3a5f 8e3e 1080 b93e 8d5c e93e 6bef c1be
00000100: 1aed 4f3d 1dd7 923c 1d2c 703e ccf4 b53e
00000110: 9eca b43e eba0 fa3d eaac a03e d3ac 05be
00000120: 411d e6bd 49f1 a33d 9ed5 6cbe 5c1d 283d
00000130: 0b38 443e 3476 903e 27aa 76be c331 f83d
00000140: ea15 5e3e 39f2 aabe 977f 9f3b c8b4 9dbe
00000150: 1cec 15bc aa55 263c a261 b8be 3e7a a4bd
00000160: 1ee4 ddbe ae0b a1be 2d60 343e 663a 05be
00000170: 5e49 c33e 6f41 1fbe 0b3c 703e 3405 14bc
00000180: 3bb0 b63e 1241 a53d 1f54 003f 59ec 0abf
00000190: 3c02 753e c0e3 a6be 9b17 36bc fdb3 b63e
000001a0: 34f3 7b3e 1910 79be e620 62be abe4 a0be
000001b0: 9712 4a3e 22e1 133e 7835 9f3e e5a2 a2be
000001c0: 2b2c 95be db54 9b3e 0876 8a3d c34b 843e
000001d0: 7c70 d4bd df89 563e 703c c3be b11b 903e
000001e0: ddee c43d f385 da3d eaac 08be d119 98be
000001f0: 84d5 9bbe 76ec a8be f8e9 0bbe cd1b 913e
00000200: 0e29 85be 3467 44be c72a 853e 031d 87be
00000210: e191 b03c 35fa f73d 309b 893d 1ab8 053e
00000220: c483 b0be 84cc 55be adbc 74be 2a5c 403e
00000230: f44a 2ebe 05c6 bfbc 19a6 eb3b 9e58 77be
