500_ML/models/weights_4999_10-04_04:16.pt (torch_old, 39980 bytes, 7 tensors)

encoder.encoder.0.weight f4 [16, 1, 3, 3]
-0.09909787 0.077338316 -0.17441516 0.34357494 0.31704283 0.38558382 0.40033466 0.122091375
0.3474555 0.19588405 -0.0780554 -0.16861145 0.44155863 0.45369232 -0.03973021 0.22749521
0.29575267 0.054790076 0.17092495 0.17318642 -0.027832698 0.40778524 0.17826249 0.29758993
0.25059518 0.0805468 0.27887022 -0.27051812 0.26098374 -0.19083163 -0.0146887 -0.016939789
-0.2581439 0.21345022 -0.12912452 -0.21571796 0.23398949 -0.062855504 -0.026022876 0.30592418
-0.021212531 0.020061443 0.120676965 -0.0600259 -0.08393618 -0.21117052 0.065532945 0.23155269
-0.093295656 0.41788316 0.36654902 0.25817427 0.3293855 0.3425479 0.11909185 -0.085680805
0.27916384 -0.061298717 -0.023993436 -0.24470113 0.3101626 -0.13475709 -0.19941846 -0.08658683
-0.003947377 0.17507449 -0.06574735 -0.19453523 -0.15257096 -0.053739578 -0.32485574 0.22694471
-0.22144394 -0.16111858 0.15760134 0.025162343 2.3487482e-05 0.081496306 0.18721446 0.23268113
0.21685654 0.108932585 -0.28029352 -0.009535193 -0.17183642 0.061692715 -0.09474668 -0.106225654
-0.31138456 0.3084226 0.3658149 0.1849893 -0.18786594 -0.002427603 0.29588452 -0.011729309
-0.091633685 0.27846822 -0.21869434 0.014783818 -0.12860535 0.2933047 -0.2018535 -0.0101199895
-0.010436044 0.06401986 0.28181577 0.058873117 -0.20628913 -0.12739141 0.1861988 -0.21389173
0.012391893 0.35544926 0.36853504 0.18819246 0.29326394 0.04356551 0.071581006 -0.26988482
-0.039701432 0.104377985 -0.26365983 0.16485944 0.042655498 -0.15990376 -0.095012784 -0.0784587
0.1930283 -0.2537993 0.09169665 -0.22978723 0.11048019 0.037910968 -0.2844319 0.29980972
0.3190238 0.014096951 -0.1592139 0.30050793 -0.020060314 0.19660312 -0.005317595 0.24966492
00000000: d3f3 cabd 8d63 9e3d e399 32be 0ee9 af3e
00000010: 7053 a23e 3e6b c53e aaf8 cc3e 0b0b fa3d
00000020: b0e5 b13e d495 483e 82db 9fbd 7ba8 2cbe
00000030: f913 e23e 5c4a e83e 25bc 22bd 81f4 683e
00000040: e56c 973e 8f6b 603d f306 2f3e c857 313e
00000050: 6601 e4bc 3ac9 d03e 718a 363e b55d 983e
00000060: 034e 803e b8f5 a43d 14c8 8e3e 5a81 8abe
00000070: a99f 853e 5e69 43be e0a8 70bc 50c5 8abc
00000080: 702b 84be b292 5a3e 3839 04be 2be5 5cbe
00000090: f19a 6f3e 63ba 80bd ed2d d5bc 18a2 9c3e
000000a0: e7c5 adbc e557 a43c 7c25 f73d b8dd 75bd
000000b0: bbe6 abbd 163d 58be 2336 863d 261c 6d3e
000000c0: cb11 bfbd c8f4 d53e 50ac bb3e 6b2f 843e
000000d0: 37a5 a83e 7062 af3e 6ee6 f33d 6b79 afbd
000000e0: 90ee 8e3e 5d14 7bbd e28d c4bc ef92 7abe
000000f0: a2cd 9e3e c3fd 09be 5a34 4cbe 7054 b1bd
00000100: 0059 81bb ba46 333e 8ca6 86bd 3e34 47be
00000110: 903b 1cbe 081e 5cbd 7e53 a6be 3264 683e
00000120: 33c2 62be 45fc 24be 3f62 213e 4221 ce3c
00000130: fc06 c537 89e7 a63d 26b5 3f3e f643 6e3e
00000140: a40f 5e3e 0c18 df3d a282 8fbe 8039 1cbc
00000150: e3f5 2fbe 80b1 7c3d 8c0a c2bd d68c d9bd
00000160: cc6d 9fbe 91e9 9d3e 174c bb3e d66d 3d3e
00000170: ee5f 40be 6b18 1fbb 2d7e 973e 4a2c 40bc
00000180: 71aa bbbd 6393 8e3e 69f1 5fbe d437 723c
00000190: 1fb1 03be 092c 963e afb2 4ebe 50ce 25bc
000001a0: f1fb 2abc d81c 833d 284a 903e f024 713d
000001b0: 753d 53be e572 02be e6aa 3e3e 6f06 5bbe
000001c0: 5e07 4b3c 72fd b53e a0b0 bc3e 86b5 403e
000001d0: b126 963e c071 323d 1099 923d 582e 8abe
000001e0: f89d 22bd 20c4 d53d 6cfe 86be ead0 283e
000001f0: 88b7 2e3d d0bd 23be 1096 c2bd f4ae a0bd
00000200: 36a9 453e fbf1 81be 74cb bb3d 584d 6bbe
00000210: 7043 e23d 8848 1b3d 0fa1 91be a980 993e
00000220: 1657 a33e e6f6 663c f808 23be 2ddc 993e
00000230: 8755 a4bc 5452 493e 383f aebb 29a8 7f3e

encoder.encoder.0.bias f4 [16]
0.33956993 -0.006594815 -0.011572656 -0.25462943 0.2417697 -0.019406816 -0.18522042 -0.24903318
0.23524335 -0.18420951 0.11490555 0.1761606 0.19832742 -0.19028609 -0.24569869 -0.09854284
00000000: 1cdc ad3e 5119 d8bb 3d9b 3dbc ca5e 82be
00000010: 7a92 773e 0bfb 9ebc 6caa 3dbe 8e02 7fbe
00000020: a2e3 703e 6ba1 3cbe 9a53 eb3d 7263 343e
00000030: 5816 4b3e 5bda 42be 7098 7bbe d4d0 c9bd

encoder.encoder.2.weight f4 [32, 16, 3, 3]
0.14055364 0.1536819 0.14429897 0.05783261 0.037322525 0.1443731 0.09188292 0.044740252
0.15656868 -0.08396848 -0.05395941 -0.09744569 -0.056528095 -0.10267014 -0.13657625 -0.044302557
-0.08984522 -0.1623853 -0.00832648 -0.033465166 -0.11858938 -0.006717313 -0.0089874705 -0.03317035
-0.080644235 -0.050982792 -0.14382438 -0.027779095 0.02323392 -0.022416852 -0.082592085 0.018110506
0.07230682 -0.02271238 0.03184223 -0.059588503 0.104489535 0.10794875 0.044219624 0.061785832
0.066696756 0.13817592 0.096617766 0.05884344 0.06818719 -0.11033749 -0.039602026 -0.017090313
0.005864408 -0.040692303 -0.11833311 -0.037413314 -0.14707641 -0.15894355 -0.088830985 -0.07620198
-0.079889104 0.06666965 -0.024116756 -0.017304877 0.004713148 -0.02809208 -0.008452172 0.029915683
0.02312202 -0.06937149 0.0054712966 0.038086206 0.052462257 -0.06522624 -0.074881636 -0.021234035
0.13134179 0.1097445 0.10158642 0.10234061 0.17127874 0.076936066 0.01894802 0.016039023
0.10206997 -0.03420971 0.035646163 -0.07516026 -0.03050847 -0.05239598 -0.06257482 -0.04318168
0.029363096 0.0058912635 0.18154171 0.05799267 0.12913503 0.05496067 0.10708567 0.110259056
0.12048733 0.16679986 0.08814075 0.030065496 0.15102433 0.052767638 0.019257402 0.038751386
0.16847275 0.06013966 0.03137043 0.016111694 0.13035893 0.15989079 0.14361116 0.14614332
0.07383115 0.1664378 0.13595277 0.06787404 0.07683706 0.018038817 -0.034027487 0.041062243
-0.018297993 0.040594757 0.002427578 0.028425045 -0.0004242584 -0.0010155216 0.06742539 -0.08286288
0.027935155 -0.052497357 -0.06278841 0.012507401 0.044268183 -0.008934021 0.07877589 -0.04853718
-0.060759023 -0.15381818 0.012436206 -0.14214665 -0.03801321 -0.10173187 -0.06618014 -0.13752213
-0.0094285635 -0.0006302926 0.11368467 -0.011333689 -0.025000038 -0.012306976 0.06304883 0.05823958
0.10035415 -0.00093486375 0.06907326 -0.013813097 0.04587267 0.08335305 0.06301104 0.12758179
0.119548626 0.15769269 -0.0077258884 0.12280175 0.105420485 0.04487817 0.04191853 0.15974289
-0.010741427 0.025503648 0.060827263 0.01626233 0.0379334 0.006497033 -0.08078928 -0.07575056
0.062124707 0.053813733 0.045686923 0.0325211 -0.016370803 -0.07233325 0.024865728 0.05257812
0.057894222 -0.05764875 0.023823677 -0.03228826 -0.02636903 0.022784138 0.12615834 0.11222786
0.08077469 0.1571122 0.056201726 0.008713321 0.078622974 0.10536306 -0.05436511 0.013491958
-0.03510505 0.008615285 -0.018166274 -0.003109252 -0.079021685 -0.06683065 0.037088666 0.03561285
0.0155848265 -0.077859454 -0.032309614 0.03012234 0.0049104393 0.030431174 0.05098433 -0.016244166
-0.0035339913 0.0623429 0.045529913 -0.073442146 0.02813619 -0.024082541 0.01619549 -0.020272058
0.024228413 -0.034860045 0.04178355 -0.042713176 -0.0018920004 -0.042212605 0.003513135 -0.0006900057
-0.04163773 -0.070295125 -0.042117283 0.023298033 0.06073538 -0.014914243 0.048102256 -0.02067515
0.081237555 -0.04424786 -0.012086124 0.040806778 0.08527409 -0.019498765 -0.040484753 -0.041267004
-0.046944506 0.05836413 -0.031857654 0.035635475 -0.008022639 0.040973686 0.047888394 0.0013644843
00000000: 4bed 0f3e ca5e 1d3e 1cc3 133e e3e1 6c3d
00000010: 81df 183d 8bd6 133e 1d2d bc3d 8e41 373d
00000020: 8a53 203e abf7 abbd 8b04 5dbd 9b91 c7bd
00000030: 018a 67bd b944 d2bd a5da 0bbe 9976 35bd
00000040: c500 b8bd 5548 26be ca6b 08bc c512 09bd
00000050: fdde f2bd e81c dcbb 2f40 13bc a2dd 07bd
00000060: ce28 a5bd 55d3 50bd b346 13be fc90 e3bc
00000070: 1055 be3c 8ca3 b7bc 0a26 a9bd 7c5c 943c
00000080: 9915 943d 500f babc 006d 023d 1313 74bd
00000090: 9cfe d53d 3c14 dd3d a31f 353d 2413 7d3d
000000a0: 4f98 883d fd7d 0d3e 89df c53d d205 713d
000000b0: baa5 8b3d 9ff8 e1bd bc35 22bd fc00 8cbc
000000c0: 382a c03b f9ac 26bd a158 f2bd b43e 19bd
000000d0: 339b 16be 19c2 22be 05ed b5bd c90f 9cbd
000000e0: e69c a3bd 198a 883d 8190 c5bc f5c2 8dbc
000000f0: c070 9a3b 5d21 e6bc fb7a 0abc bc11 f53c
00000100: 646a bd3c a412 8ebd 9048 b33b 4800 1c3d
00000110: aae2 563d 5695 85bd 8b5b 99bd 00f3 adbc
00000120: 767e 063e b9c1 e03d 8a0c d03d f497 d13d
00000130: b263 2f3e a890 9d3d e138 9b3c 4564 833c
00000140: 0f0a d13d 7b1f 0cbd b601 123d 9fed 99bd
00000150: e6ec f9bc 2b9d 56bd 3a27 80bd 46df 30bd
00000160: e08a f03c 800b c13b 12e6 393e b989 6d3d
00000170: f93b 043e 711e 613d bb4f db3d 80cf e13d
00000180: 10c2 f63d 95cd 2a3e 2383 b43d ea4b f63c
00000190: 1fa6 1a3e e122 583d b3c1 9d3c c6b9 1e3d
000001a0: 1f84 2c3e 0155 763d 487e 003d acfc 833c
000001b0: d07c 053e 69ba 233e ce0e 133e 98a6 153e
000001c0: c934 973d ac6e 2a3e 3437 0b3e 8b01 8b3d
000001d0: c05c 9d3d 24c6 933c 6860 0bbd e230 283d
000001e0: ace5 95bc b046 263d 0018 1f3b a4db e83c
000001f0: 006f deb9 401b 85ba 5316 8a3d 03b4 a9bd
00000200: 44d8 e43c 7807 57bd 3697 80bd d8eb 4c3c
00000210: 8e52 353d 0060 12bc 4155 a13d ecce 46bd
00000220: 74de 78bd 8382 1dbe 3bc1 4b3c e48e 11be
00000230: bdb3 1bbd cc58 d0bd 7489 87bd 9ad2 0cbe
00000240: 437a 1abc 383a 25ba 82d3 e83d f0b0 39bc
00000250: e1cc ccbc 33a3 49bc bf1f 813d a08c 6e3d
00000260: 7a86 cd3d a511 75ba 4876 8d3d 5450 62bc
00000270: fbe4 3b3d 01b5 aa3d ef0b 813d cda4 023e
00000280: e9d5 f43d 317a 213e 7329 fdbb 7c7f fb3d
00000290: b2e6 d73d 2cd2 373d c4b2 2b3d a493 233e
000002a0: cffc 2fbc 07ed d03c 0226 793d 9438 853c
000002b0: 0e60 1b3d 10e5 d43b da74 a5bd 1c23 9bbd
000002c0: 7a76 7e3d ca6b 5c3d 3622 3b3d d834 053d
000002d0: 101c 86bc 7423 94bd 36b3 cb3c 285c 573d
000002e0: 7e22 6d3d 1821 6cbd df29 c33c b240 04bd
000002f0: dd03 d8bc cda5 ba3c a72f 013e b8d7 e53d
00000300: 336d a53d 05e2 203e c833 663d 51c2 0e3c
00000310: 1505 a13d 97c8 d73d f3ad 5ebd 600d 5d3c
00000320: 50ca 0fbd 2027 0d3c 70d1 94bc 98c4 4bbb
00000330: 1fd6 a1bd 82de 88bd 49ea 173d c8de 113d
00000340: 8057 7f3c c774 9fbd 1657 04bd 20c3 f63c
00000350: c0e7 a03b cc4a f93c f2d4 503d 7c12 85bc
00000360: 899a 67bb 455b 7f3d 937d 3a3d d668 96bd
00000370: de7d e63c c048 c5bc 67ac 843c 9611 a6bc
00000380: aa7a c63c 68c9 0ebd 3a25 2b3d 03f4 2ebd
00000390: 00fd f7ba 20e7 2cbd a03c 663b 80e1 34ba
000003a0: 538c 2abd e4f6 8fbd 2c83 2cbd 84db be3c
000003b0: a9c5 783d de5a 74bc df06 453d ef5e a9bc
000003c0: e05f a63d 3e3d 35bd e104 46bc 0225 273d
000003d0: 2fa4 ae3d e0bb 9fbc 57d3 25bd 9707 29bd
000003e0: e248 40bd 3a0f 6f3d 2c7d 02bd 81f6 113d
000003f0: 6371 03bc 06d4 273d 9f26 443d 7fd8 b23a

encoder.encoder.2.bias f4 [32]
0.035586763 -0.029314369 0.13803828 0.121403545 0.1373144 -0.049753636 0.13755152 0.15419355
-0.009196669 0.08667839 -0.02992779 0.1591964 0.16984475 -0.48604965 0.08781728 -0.09353165
-0.06590806 0.024692731 -0.08865584 0.10705871 0.010870241 -0.060135294 -0.045262642 -0.039575975
0.078365386 0.08079434 -0.03186655 0.5353301 0.097400226 0.027024707 0.13589817 0.15359129
00000000: 6dc3 113d b024 f0bc e859 0d3e 6ca2 f83d
00000010: 259c 0c3e 78ca 4bbd 4eda 0c3e eae4 1d3e
00000020: a0ad 16bc 7184 b13d 202b f5bc 6204 233e
00000030: c8eb 2d3e 80db f8be 8cd9 b33d 868d bfbd
00000040: cefa 86bd 6948 ca3c 3191 b5bd 9941 db3d
00000050: 1819 323c 6d50 76bd 5265 39bd 6b1a 22bd
00000060: 087e a03d 8177 a53d 8086 02bd 650b 093f
00000070: c579 c73d eb62 dd3c e428 0b3e 0947 1d3e

decoder.decoder.0.weight f4 [32, 16, 3, 3]
0.080580816 0.022935987 -0.0014846564 0.008178901 0.039914075 0.070935674 -0.009690518 0.025826976
0.026500251 0.07767948 0.05705159 0.13297987 0.03323289 0.16587122 0.1596009 0.05978544
0.17931053 0.13785946 0.12573755 0.14312553 0.14208691 0.11977091 0.07010631 0.16441233
0.080168985 0.058388688 0.0881261 0.013692898 -0.06608642 0.022550896 -0.07828186 -0.061006658
-0.02396817 -0.08525117 -0.06877671 -0.104500026 0.13129696 0.051239636 0.13438614 0.15388082
0.19011566 0.027496254 0.06136318 0.07174909 0.06888663 0.02214083 0.011021655 0.01631647
0.10152085 0.12307346 0.14760993 0.063061304 0.12661943 0.030324804 0.07207695 0.026143786
-0.081302695 -0.026532013 0.0013747932 -0.042838555 -0.019427165 -0.065777466 0.0035229663 0.063923486
0.027805516 0.08612838 0.015737131 0.054992415 0.023186177 0.02342936 -0.007393842 0.027451372
-0.03702436 0.008805491 0.03519914 0.026616748 0.032941554 0.025397273 -0.05397288 0.063102424
-0.08246419 0.13126399 -0.0045264834 -0.018319076 -0.0059523834 0.018615011 0.04278711 0.13981308
0.10400407 0.099059455 0.07074467 0.05424768 0.1284055 -0.061053284 0.040703587 0.06358398
0.07969664 -0.0711662 0.10063531 0.018208982 -0.0077821612 0.044930134 -0.050445598 -0.044367615
0.06399555 0.040770978 0.015797585 -0.027631614 -0.08090189 0.009257856 -0.054114122 0.052035835
-0.07310134 -0.0038073873 -0.003570638 -0.027167236 -0.055955112 0.105938986 0.10958045 -0.03723056
0.029514583 0.04156808 -0.057732686 0.070085295 0.115317814 0.015194192 0.05697954 -0.04983419
0.04072827 0.024889337 -0.06444301 0.011789438 -0.01396818 0.048689824 -0.076060236 0.03129241
-0.029339705 -0.0020216398 0.15770715 0.054094445 0.01640229 0.13545008 0.088486806 0.008133837
0.0831526 0.07659366 0.0075822785 0.110959984 -0.027585892 0.057002768 0.07282216 0.014323533
-0.017910844 -0.13612653 -0.01642668 -0.14569613 -0.10059409 -0.11933266 -0.14682403 -0.11292291
-0.054070707 -0.047371674 0.0013704407 -0.11914176 -0.089090414 -0.09123277 -0.033139236 -0.0409547
-0.084330276 -0.024332091 -0.12711796 0.033033103 0.0171244 -0.06281894 0.048463196 -0.00961563
-0.049785227 -0.041524947 -0.051124956 -0.059924036 -0.21406426 -0.12981 -0.030870598 -0.081347935
-0.2922884 -0.14234574 -0.24169719 -0.026807163 -0.17580849 -0.022794181 -0.053682234 -0.041250423
-0.15219688 -0.06448203 -0.19560389 -0.06944782 -0.0195733 -0.058064695 -0.066806585 0.08478542
0.03363737 0.06768094 0.0054122712 0.15709764 -0.03301953 0.11333284 0.073436454 0.057817962
0.033271745 -0.00873858 0.13433756 0.114704385 0.120603055 0.027562726 0.13005856 0.17414421
0.05460227 -0.013969732 0.09006787 0.064343154 0.118560076 -0.0048264377 -0.019516606 -0.06895436
0.14577407 -0.050529163 -0.16963089 0.014822826 -0.06945714 -0.10876126 -0.13976556 -0.044036724
-0.13341613 -0.09409489 -0.117677554 0.055636127 0.14943914 0.05913497 0.08962873 0.11091728
-0.31053272 0.062425513 -0.08842216 0.054280095 0.08101895 -0.026075862 0.022932447 0.066084005
-0.06212014 -0.050761633 -0.06475953 -0.06150785 0.0964818 -0.06063498 0.086860865 0.070246495
00000000: 8e07 a53d 40e4 bb3c cd98 c2ba cc00 063c
00000010: f17c 233d b946 913d fac4 1ebc 1893 d33c
00000020: 0e17 d93c 6b16 9f3d eeae 693d e02b 083e
00000030: 361f 083d 25da 293e 6b6e 233e 94e1 743d
00000040: 2e9d 373e 082b 0d3e 58c1 003e 808f 123e
00000050: 3b7f 113e 734a f53d e693 8f3d b55b 283e
00000060: a32f a43d fa28 6f3d 757b b43d 2d58 603c
00000070: 5158 87bd a8bc b83c 3d52 a0bd 1ee2 79bd
00000080: e558 c4bc 2a98 aebd ceda 8cbd 1c04 d6bd
00000090: b672 063e a7e0 513d 859c 093e ef92 1d3e
000000a0: aead 423e d33f e13c f557 7b3d 30f1 923d
000000b0: 6f14 8d3d b060 b53c 2c94 343c 1eaa 853c
000000c0: 2aea cf3d f00d fc3d 0f27 173e 4926 813d
000000d0: 86a8 013e b96b f83c 149d 933d 7e2b d63c
000000e0: 0782 a6bd aa59 d9bc 6832 b43a 7b77 2fbd
000000f0: b825 9fbc 56b6 86bd 91e1 663b 51ea 823d
00000100: 65c8 e33c 1364 b03d 28eb 803c ba3f 613d
00000110: f0f0 bd3c eeee bf3c 0b48 f2bb b3e1 e03c
00000120: dba6 17bd e844 103c f92c 103d 5e0b da3c
00000130: b9ed 063d f10d d03c ab12 5dbd d83b 813d
00000140: fce2 a8bd 116a 063e e552 94bb e311 96bc
00000150: 360c c3bb 827e 983c 8941 2f3d 292b 0f3e
00000160: 1600 d53d afdf ca3d 95e2 903d d132 5e3d
00000170: bb7c 033e 0213 7abd ceb8 263d 5138 823d
00000180: fe37 a33d 96bf 91bd e319 ce3d 012b 953c
00000190: 8001 ffbb a908 383d 0ba0 4ebd d1ba 35bd
000001a0: 1910 833d 78ff 263d f069 813c b25b e2bc
000001b0: e4af a5bd 43ae 173c c5a6 5dbd 8723 553d
000001c0: 28b6 95bd 5c85 79bb 5d01 6abb d38d debc
000001d0: 3031 65bd 8af6 d83d b76b e03d 127f 18bd
000001e0: 91c8 f13c 4b43 2a3d 1c79 6cbd e188 8f3d
000001f0: bf2b ec3d 0ff1 783c 6163 693d f01e 4cbd
00000200: b0d2 263d b9e4 cb3c b2fa 83bd 7d28 413c
00000210: cbda 64bc fb6e 473d 78c5 9bbd 782c 003d
00000220: d259 f0bc 7d7d 04bb fc7d 213e 2392 5d3d
00000230: 185e 863c 6db3 0a3e 9238 b53d c943 053c
00000240: e94b aa3d 23dd 9c3d c374 f83b fd3e e33d
00000250: cffb e1bc bc7b 693d c923 953d 40ad 6a3c
00000260: c3b9 92bc c164 0bbe 3f91 86bc 5e31 15be
00000270: 4604 cebd af64 f4bd 0a59 16be 2044 e7bd
00000280: 3f79 5dbd cd08 42bd 5ca0 b33a 9800 f4bd
00000290: 0975 b6bd 3fd8 babd 02bd 07bd 1ec0 27bd
000002a0: 5ab5 acbd 1854 c7bc 362b 02be b84d 073d
000002b0: 7848 8c3c 37a7 80bd 5881 463d e08a 1dbc
000002c0: 98eb 4bbd 1016 2abd 6768 51bd e872 75bd
000002d0: a933 5bbe eaec 04be 56e4 fcbc bf99 a6bd
000002e0: d3a6 95be 15c3 11be 787f 77be b29a dbbc
000002f0: 2407 34be ddba babc e7e1 5bbd 34f6 28bd
00000300: 80d9 1bbe 280f 84bd 634c 48be a93a 8ebd
00000310: 2f58 a0bc 3fd5 6dbd e4d1 88bd faa3 ad3d
00000320: 57c7 093d 4e9c 8a3d 6c59 b13b 34de 203e
00000330: 7d3f 07bd 0c1b e83d da65 963d 87d2 6c3d
00000340: f447 083d 432c 0fbc c98f 093e 22ea ea3d
00000350: bcfe f63d 3acb e13c 122e 053e dc52 323e
00000360: a1a6 5f3d 4ee1 64bc 8175 b83d 58c6 833d
00000370: a0cf f23d 1827 9ebb 4ae1 9fbc f237 8dbd
00000380: cc45 153e abf7 4ebd b8b3 2dbe 70db 723c
00000390: 8c3f 8ebd 39be debd b41e 0fbe da5f 34bd
000003a0: 3d9e 08be d2b4 c0bd ee00 f1bd b5e2 633d
000003b0: 9306 193e 8337 723d 458f b73d 9928 e33d
000003c0: 25fe 9ebe e5b1 7f3d ad16 b5bd ce54 5e3d
000003d0: 43ed a53d 0c9d d5bc d4dc bb3c 0d57 873d
000003e0: b071 7ebd 6eeb 4fbd a5a0 84bd a8ef 7bbd
000003f0: 4098 c53d 635c 78bd 1ce4 b13d 65dd 8f3d

decoder.decoder.0.bias f4 [16]
-0.07358541 0.087305464 0.10541373 0.039861936 0.06544917 0.09456188 -0.04780865 -0.019694481
-0.022013733 0.09889318 -0.07385956 -0.078435265 0.050673053 0.06756092 0.036889415 0.11441255
00000000: f3b3 96bd 35cd b23d 27e3 d73d 4546 233d
00000010: 370a 863d a9a9 c13d 01d3 43bd 5256 a1bc
00000020: 2556 b4bc 8288 ca3d ae43 97bd aba2 a0bd
00000030: 8c8e 4f3d 615d 8a3d 5b19 173d 2151 ea3d

decoder.decoder.2.weight f4 [16, 1, 3, 3]
0.34711725 -0.18617512 0.29965803 0.18120156 -0.20758373 -0.028795805 -0.034240834 0.24625354
0.2112558 -0.048951227 0.061011843 0.20306842 0.11430087 -0.37133873 -0.39485118 0.047333088
-0.2343325 -0.19243875 -0.2792406 -0.0065980586 -0.18686089 -0.30495158 -0.37654522 -0.13913289
0.03623059 0.088135354 -0.3639444 -0.026798476 0.04310874 0.2994903 -0.05908727 -0.27773514
0.16456129 -0.009263056 -0.2224726 0.19987398 -0.2389152 -0.26040345 -0.36517987 0.07654551
-0.45356065 0.07816814 -0.18512264 -0.31442636 -0.08316679 -0.040360186 -0.070559494 -0.011206642
-0.14622967 -0.17404449 -0.08163469 -0.31608924 0.12936619 -0.2769361 -0.10005348 0.33866334
0.38611838 0.008858069 -0.046222646 0.2650251 0.2783415 0.36202282 0.45566663 -0.37862906
0.05073307 0.018013466 0.23464654 0.35511747 0.35308462 0.12259241 0.31348288 -0.13060254
-0.11098573 0.08063181 -0.23155822 0.040658746 0.19099885 0.28223228 -0.24065708 0.12012243
0.2166651 -0.33395272 0.0049427906 -0.30799016 -0.009108245 0.010238601 -0.3601108 -0.08028381
-0.43332183 -0.3144862 0.17620434 -0.1299517 0.3816633 -0.15625837 0.23474358 -0.008716237
0.35681993 0.08056215 0.5010878 -0.538254 0.2372588 -0.3281979 -0.0070296796 0.35951045
0.25159183 -0.24207202 -0.21872677 -0.30587795 0.19732563 0.1444135 0.3109548 -0.31764904
-0.29135558 0.30338177 0.06760794 0.25839052 -0.10373017 0.20945558 -0.3812682 0.28150007
0.096195474 0.10675237 -0.13347526 -0.2971022 -0.30430508 -0.32996306 -0.13651907 0.28350753
-0.26005155 -0.19192998 0.25990012 -0.26375523 0.021424547 0.12096273 0.06726442 0.13058104
-0.3447574 -0.20876272 -0.23899318 0.18787567 -0.17019254 -0.02344723 0.0072310953 -0.24146524
00000000: 5ab9 b13e b1a4 3ebe c76c 993e e78c 393e
00000010: d490 54be 2ee5 ebbc 1e40 0cbd e329 7c3e
00000020: 7153 583e 1581 48bd 8ee7 793d 2bf1 4f3e
00000030: 9316 ea3d 1c20 bebe ef29 cabe 57e0 413d
00000040: dcf4 6fbe aa0e 45be a0f8 8ebe 8734 d8bb
00000050: 7658 3fbe 9d22 9cbe 89ca c0be da78 0ebe
00000060: 8766 143d 4f80 b43d ec56 babe 7a88 dbbc
00000070: ca92 303d cb56 993e 7e05 72bd 4d33 8ebe
00000080: c182 283e 13c4 17bc dbcf 63be c4ab 4c3e
00000090: 30a6 74be 9a53 85be dbf8 babe e4c3 9c3d
000000a0: 1a39 e8be 9e16 a03d ca90 3dbe 7efc a0be
000000b0: 5a53 aabd b950 25bd 7f81 90bd 109c 37bc
000000c0: 3bbd 15be b838 32be 1730 a7bd 73d6 a1be
000000d0: 9278 043e 92ca 8dbe d7e8 ccbd 4865 ad3e
000000e0: 4fb1 c53e 6f21 113c f553 3dbd 5fb1 873e
000000f0: c782 8e3e 0e5b b93e 234d e93e abdb c1be
00000100: 7bcd 4f3d fa90 933c 2f47 703e f5d1 b53e
00000110: 82c7 b43e bb11 fb3d d480 a03e acbc 05be
00000120: 7d4c e3bd 4a22 a53d 991d 6dbe c989 263d
00000130: 3495 433e c080 903e cf6e 76be c002 f63d
00000140: 75dd 5d3e dafb aabe 22f7 a13b e3b0 9dbe
00000150: c03a 15bc cebf 273c 7160 b8be d76b a4bd
00000160: 5cdc ddbe 5604 a1be e96e 343e 0f12 05be
00000170: 5f69 c33e 3202 20be 9f60 703e 8cce 0ebc
00000180: 1ab1 b63e c5fd a43d 4a47 003f 04cb 09bf
00000190: f9f3 723e 8e09 a8be 3a59 e6bb c111 b83e
000001a0: a5d0 803e bae1 77be e9f9 5fbe 099c 9cbe
000001b0: bb0f 4a3e 22e1 133e 7835 9f3e e5a2 a2be
000001c0: 8f2c 95be db54 9b3e 0876 8a3d c34b 843e
000001d0: 7c70 d4bd 867b 563e 9635 c3be c720 903e
000001e0: 2202 c53d fda0 da3d bdad 08be c81d 98be
000001f0: e0cd 9bbe ebf0 a8be a8cb 0bbe e627 913e
00000200: 7a25 85be 4b89 44be a111 853e ed0a 87be
00000210: 8882 af3c 4fbb f73d eec1 893d 09b7 053e
00000220: 0b84 b0be e5c5 55be a1ba 74be 7b62 403e
00000230: f446 2ebe 6814 c0bc d3f2 ec3b aa42 77be
