500_ML/models/weights_8999_10-04_04:16.pt (torch_old, 39980 bytes, 7 tensors)

encoder.encoder.0.weight f4 [16, 1, 3, 3]
00000000: e47c bdbd 5b84 a73d 1f12 2dbe d70e b53e
00000010: 6166 a63e 3bec c93e 0d1a d23e a204 043e
00000020: 7fb4 b53e 1fc4 463e ae7f 9bbd 207c 36be
00000030: eda9 f03e da89 f93e 520b 30bc aa62 803e
00000040: 4d06 a73e 8afe a33d ceaa 323e a124 3f3e
00000050: 5512 eabc b6d8 d73e 2bdc 533e d640 a23e
00000060: 9bbc 883e 8f39 f03d 4cc5 9d3e 5a81 8abe
00000070: a99f 853e 5e69 43be e0a8 70bc 50c5 8abc
00000080: 702b 84be b292 5a3e 3839 04be 2be5 5cbe
00000090: 8370 763e 4844 7bbd ac76 98bc cc0f a03e
000000a0: a687 b9bc e1e0 b53c 6918 ff3d ed20 89bd
000000b0: 456e b5bd c786 6fbe 355f 713d e06f 5a3e
000000c0: 2775 c1bd e073 df3e 3542 c23e e9e9 883e
000000d0: 974f ba3e 4da1 bf3e 6ee6 f33d 6b79 afbd
000000e0: 90ee 8e3e 5d14 7bbd e28d c4bc ef92 7abe
000000f0: a2cd 9e3e c3fd 09be 5a34 4cbe 7054 b1bd
00000100: 0059 81bb ba46 333e 8ca6 86bd 3e34 47be
00000110: 903b 1cbe 081e 5cbd 7e53 a6be 3264 683e
00000120: eaa8 67be 17de 2cbe e171 1d3e 1940 f43c
00000130: 8759 0d3a 5f52 ad3d 8f63 4f3e 9185 773e
00000140: 5a31 6a3e 0c18 df3d a282 8fbe 8039 1cbc
00000150: e3f5 2fbe 80b1 7c3d 8c0a c2bd d68c d9bd
00000160: cc6d 9fbe 91e9 9d3e e058 c93e 312d 553e
00000170: 1bb0 28be 9a6f 0f3c e366 9b3e 801a d3bb
00000180: 6037 b7bd 6298 8d3e 8d3f 65be 2a7e 7f3c
00000190: 86c1 04be 1a4a 973e 146f 4dbe f57f 43bc
000001a0: bfa9 31bc da47 8e3d 8cc7 903e 1bea 793d
000001b0: a63d 51be afde 01be a6c1 3d3e 9ef8 51be
000001c0: 1aa5 a93c 4cb6 b93e 1149 c43e 32e1 4e3e
000001d0: 0cdd 9c3e c071 323d 1099 923d 582e 8abe
000001e0: f89d 22bd 20c4 d53d 6cfe 86be ead0 283e
000001f0: 88b7 2e3d d0bd 23be 1096 c2bd f4ae a0bd
00000200: 36a9 453e fbf1 81be 74cb bb3d 584d 6bbe
00000210: 7043 e23d 8848 1b3d 0fa1 91be 5a99 993e
00000220: b679 a33e d350 6b3c 5fde 22be a8fd 993e
00000230: ac37 a2bc d97c 493e 42c6 a5bb cdeb 7f3e
-0.092523366 0.08179542 -0.16901444 0.35362884 0.32499984 0.39438042 0.410355 0.12892392
0.3548927 0.19410752 -0.07592712 -0.17820787 0.47004643 0.48737985 -0.0107448865 0.25075275
0.32621995 0.08007534 0.1744797 0.18666317 -0.028573195 0.42157525 0.20689456 0.3169009
0.26706395 0.117297284 0.30814588 -0.27051812 0.26098374 -0.19083163 -0.0146887 -0.016939789
-0.2581439 0.21345022 -0.12912452 -0.21571796 0.24066357 -0.061344415 -0.018611275 0.31262052
-0.02264769 0.022201957 0.12455828 -0.06695733 -0.08858923 -0.23391257 0.058928687 0.2133174
-0.09446173 0.43643093 0.37941137 0.2674096 0.36388847 0.3742775 0.11909185 -0.085680805
0.27916384 -0.061298717 -0.023993436 -0.24470113 0.3101626 -0.13475709 -0.19941846 -0.08658683
-0.003947377 0.17507449 -0.06574735 -0.19453523 -0.15257096 -0.053739578 -0.32485574 0.22694471
-0.2262303 -0.16881596 0.15375473 0.02981572 0.0005392064 0.08462977 0.20252822 0.24172045
0.22870389 0.108932585 -0.28029352 -0.009535193 -0.17183642 0.061692715 -0.09474668 -0.106225654
-0.31138456 0.3084226 0.3932562 0.2081802 -0.16473429 0.008754635 0.30351934 -0.006442368
-0.08946109 0.2765532 -0.22387524 0.015594045 -0.12964448 0.29548723 -0.20061904 -0.011932363
-0.010843693 0.06947298 0.28277242 0.061014276 -0.20433673 -0.12682603 0.18530902 -0.20504996
0.02070861 0.36271894 0.38336995 0.20203093 0.30637395 0.04356551 0.071581006 -0.26988482
-0.039701432 0.104377985 -0.26365983 0.16485944 0.042655498 -0.15990376 -0.095012784 -0.0784587
0.1930283 -0.2537993 0.09169665 -0.22978723 0.11048019 0.037910968 -0.2844319 0.2999981
0.31928796 0.014362532 -0.1590514 0.30076337 -0.019801937 0.19676532 -0.0050590346 0.24992295

encoder.encoder.0.bias f4 [16]
00000000: faa9 ad3e 21b8 f4bb 2e0d 45bc ca5e 82be
00000010: 9fbc 773e b575 9cbc 6caa 3dbe 8e02 7fbe
00000020: a8dd 703e 6ba1 3cbe 9b06 ea3d 6c69 343e
00000030: 6e93 4a3e 5bda 42be 7098 7bbe 6643 c9bd
0.33918744 -0.007468239 -0.012027068 -0.25462943 0.24193047 -0.019099096 -0.18522042 -0.24903318
0.23522055 -0.18420951 0.11427041 0.1761834 0.19782802 -0.19028609 -0.24569869 -0.09827308

encoder.encoder.2.weight f4 [32, 16, 3, 3]
00000000: eea8 0e3e 296c 1d3e 146c 143e 45ef 6a3d
00000010: 6ab6 1a3d b093 143e 1593 ba3d e547 373d
00000020: 937f 203e e8fc 82bd c6de 36bd 4f6a 6bbd
00000030: e1eb 1abd f8e1 dbbd d368 04be 7990 fdbc
00000040: e74c ddbd 9a8a 33be c317 8d3c 48ea 9bbb
00000050: 7408 83bd 519b 0f3b 968a 3ebc 75b7 adbc
00000060: b6b7 9abd f387 85bd 06b9 19be fc90 e3bc
00000070: 1055 be3c 8ca3 b7bc 0a26 a9bd 7c5c 943c
00000080: 9915 943d 500f babc 006d 023d 1313 74bd
00000090: 4bc2 d33d 3942 dd3d 55bd 363d f630 7a3d
000000a0: cb79 893d 0b09 0e3e c494 c43d 1cec 723d
000000b0: 647f 8c3d 579f d4bd e007 babc cf35 8b3c
000000c0: f275 0a3c 02e2 21bd 7688 d9bd 3d11 2ebd
000000d0: 3c8d 24be c9f5 26be 05ed b5bd c90f 9cbd
000000e0: e69c a3bd 198a 883d 8190 c5bc f5c2 8dbc
000000f0: c070 9a3b 5d21 e6bc fb7a 0abc bc11 f53c
00000100: 646a bd3c a412 8ebd 9048 b33b 4800 1c3d
00000110: aae2 563d 5695 85bd 8b5b 99bd 00f3 adbc
00000120: 8525 043e 449f df3d 4c84 cf3d d0b5 cf3d
00000130: df0e 303e 2c1f 9f3d b0d2 903c 1a1c 853c
00000140: a4b4 d13d 7b1f 0cbd b601 123d 9fed 99bd
00000150: e6ec f9bc 2b9d 56bd 3a27 80bd 46df 30bd
00000160: e08a f03c 800b c13b b8a1 3a3e bd90 7b3d
00000170: 7264 0a3e 6f52 5a3d ccc2 da3d 4e8f e53d
00000180: c14d f53d 27ec 2a3e 25d7 b63d 704f e43c
00000190: eaa0 1a3e 523f 593d ab44 913c 3d14 213d
000001a0: 5171 2d3e 5ceb 6f3d b0e4 013d a116 893c
000001b0: 610d 033e a474 233e 3f5d 133e 8297 143e
000001c0: 7ca8 983d 527b 2b3e 549c 093e 92fa 8a3d
000001d0: e1f2 9d3d 24c6 933c 6860 0bbd e230 283d
000001e0: ace5 95bc b046 263d 0018 1f3b a4db e83c
000001f0: 006f deb9 401b 85ba 5316 8a3d 03b4 a9bd
00000200: 44d8 e43c 7807 57bd 3697 80bd d8eb 4c3c
00000210: 8e52 353d 0060 12bc 4155 a13d 933f 47bd
00000220: 5715 79bd 3e8b 1dbe e30d 4a3c cd9c 11be
00000230: 6bd1 1bbd af87 d0bd 529f 87bd 48d9 0cbe
00000240: 9393 92bb d584 053c 4755 f43d a429 66bc
00000250: 5bda a6bc 9da0 04bc 066e 443d b542 4d3d
00000260: aa2c bf3d b938 a23a 7e30 a03d 8605 b0bc
00000270: cccf 2e3d a253 ca3d 94b5 9b3d 07dd be3d
00000280: 8095 cb3d 594e 143e 258a bcbc 9c58 d43d
00000290: f4e6 933d f8d1 5b3d d6d8 833d 70bf 343e
000002a0: f9d2 14bd 0195 6d3c 1bb1 5c3d 9438 853c
000002b0: 0e60 1b3d 10e5 d43b da74 a5bd 1c23 9bbd
000002c0: 7a76 7e3d ca6b 5c3d 3622 3b3d d834 053d
000002d0: d9a5 aabc 9306 94bd 20a7 bc3c 9640 463d
000002e0: 824f 703d 6747 62bd 273d 993c deff 06bd
000002f0: f493 c6bc b420 ed3c 844f 023e 03d5 d83d
00000300: 10e0 b73d 7307 303e 63c3 863d bbb9 75bc
00000310: bb79 863d 7a14 b73d f3ad 5ebd 600d 5d3c
00000320: 50ca 0fbd 2027 0d3c 70d1 94bc 98c4 4bbb
00000330: 1fd6 a1bd 82de 88bd 49ea 173d c8de 113d
00000340: 8057 7f3c c774 9fbd 1657 04bd 20c3 f63c
00000350: c0e7 a03b cc4a f93c f2d4 503d 7c12 85bc
00000360: 9ddf 133c a273 a33d 05bb 7f3d 8273 9abd
00000370: f470 003d 4aa7 abbc 8f2b 1b3a fd53 00bd
00000380: 6af4 503c 68c9 0ebd 3a25 2b3d 03f4 2ebd
00000390: 00fd f7ba 20e7 2cbd a03c 663b 80e1 34ba
000003a0: 538c 2abd e4f6 8fbd f220 8bbd d25e 823b
000003b0: a560 003d f4c9 8abc bee9 7e3d b440 2abc
000003c0: 3d1b 9a3d b87c 0cbd 2bba b6b9 7376 313d
000003d0: e83d bc3d 93c6 69bc 374e 1abd 6a50 0abd
000003e0: b20b 29bd 5531 463d 49a6 15bd dd7b ef3c
000003f0: d72d b53b db5a 6f3d 643d 833d 42bd 213b
0.13931629 0.15373291 0.14494354 0.05735709 0.03777162 0.14509463 0.09110085 0.0447463
0.15673666 -0.06395894 -0.044646047 -0.05747443 -0.037822608 -0.107364595 -0.12930612 -0.030952679
-0.108056836 -0.17533341 0.017223245 -0.004758153 -0.06398097 0.0021912644 -0.011629721 -0.021205643
-0.07554571 -0.06520071 -0.15011987 -0.027779095 0.02323392 -0.022416852 -0.082592085 0.018110506
0.07230682 -0.02271238 0.03184223 -0.059588503 0.10339793 0.108036466 0.044614155 0.06108185
0.06712683 0.13870637 0.09598687 0.059307203 0.06860235 -0.10381954 -0.022708833 0.016993431
0.008450972 -0.03952218 -0.10621731 -0.04249691 -0.16069502 -0.16304697 -0.088830985 -0.07620198
-0.079889104 0.06666965 -0.024116756 -0.017304877 0.004713148 -0.02809208 -0.008452172 0.029915683
0.02312202 -0.06937149 0.0054712966 0.038086206 0.052462257 -0.06522624 -0.074881636 -0.021234035
0.12904938 0.109190494 0.101326555 0.101421 0.17193173 0.077696174 0.017678589 0.016248751
0.102395326 -0.03420971 0.035646163 -0.07516026 -0.03050847 -0.05239598 -0.06257482 -0.04318168
0.029363096 0.0058912635 0.18225753 0.06141733 0.1351488 0.05330127 0.10681686 0.11208974
0.11977721 0.16691647 0.08927754 0.02786991 0.15100446 0.053038903 0.017732939 0.03932594
0.16937758 0.058574066 0.031712234 0.016734423 0.12798072 0.15962464 0.1439104 0.1451092
0.07454011 0.16746262 0.1343854 0.06786074 0.07712341 0.018038817 -0.034027487 0.041062243
-0.018297993 0.040594757 0.002427578 0.028425045 -0.0004242584 -0.0010155216 0.06742539 -0.08286288
0.027935155 -0.052497357 -0.06278841 0.012507401 0.044268183 -0.008934021 0.07877589 -0.048644613
-0.060811367 -0.15385148 0.012332412 -0.14219971 -0.038041513 -0.101821296 -0.06622185 -0.13754761
-0.0044731586 0.008149345 0.11930328 -0.014048014 -0.020367792 -0.008094934 0.04795649 0.050112445
0.09334691 0.0012376524 0.07821749 -0.021487009 0.04267864 0.09879233 0.07602993 0.09319501
0.09940624 0.14483012 -0.023015091 0.103684634 0.07221785 0.05366704 0.064378425 0.17651153
-0.03633401 0.014500857 0.05387984 0.01626233 0.0379334 0.006497033 -0.08078928 -0.07575056
0.062124707 0.053813733 0.045686923 0.0325211 -0.020831035 -0.072278164 0.02302891 0.048401438
0.058669575 -0.055243876 0.018705918 -0.032958858 -0.024240471 0.028946258 0.12725645 0.10587504
0.089782834 0.17190342 0.06580236 -0.014997895 0.06566187 0.089394525 -0.05436511 0.013491958
-0.03510505 0.008615285 -0.018166274 -0.003109252 -0.079021685 -0.06683065 0.037088666 0.03561285
0.0155848265 -0.077859454 -0.032309614 0.03012234 0.0049104393 0.030431174 0.05098433 -0.016244166
0.0090254815 0.079810396 0.062434215 -0.075415626 0.03135772 -0.020953793 0.00059192715 -0.031330097
0.012753585 -0.034860045 0.04178355 -0.042713176 -0.0018920004 -0.042212605 0.003513135 -0.0006900057
-0.04163773 -0.070295125 -0.06793393 0.0039785886 0.031342167 -0.016942002 0.062234633 -0.010391403
0.075247265 -0.03429863 -0.0003485245 0.043325853 0.09191495 -0.014268535 -0.037672248 -0.033768095
-0.04127092 0.04838689 -0.036535535 0.029233867 0.005529146 0.058436256 0.06408194 0.0024679457

encoder.encoder.2.bias f4 [32]
00000000: 1a4b 133d d7d4 f3bc e611 0e3e fb55 f93d
00000010: 1f2a 0d3e a32a 51bd d951 0d3e d90d 1e3e
00000020: a0ad 16bc 7216 b23d 202b f5bc ad74 233e
00000030: b687 2e3e 90ef fbbe e8e5 b43d 46d6 bbbd
00000040: 0958 86bd ea46 253d 3191 b5bd 97f3 db3d
00000050: 1819 323c 6d50 76bd 6f56 31bd 6713 22bd
00000060: ba02 a13d fb27 a63d 8086 02bd 313b 0e3f
00000070: 2aa6 c83d 08d1 df3c 5c68 0b3e 9d08 1e3e
0.035960294 -0.029764576 0.13874015 0.121746026 0.13785599 -0.051066052 0.13800754 0.1543497
-0.009196669 0.08695687 -0.02992779 0.15962477 0.17043957 -0.4920621 0.08832914 -0.09171729
-0.0655976 0.040350832 -0.08865584 0.107398205 0.010870241 -0.060135294 -0.04329532 -0.039569285
0.07861848 0.081130944 -0.03186655 0.5555907 0.09797318 0.027321354 0.13614029 0.15432973

decoder.decoder.0.weight f4 [32, 16, 3, 3]
00000000: 38c5 a63d 3913 ba3c 52c7 33bb 9d1a 0c3c
00000010: e50e 153d 7497 a73d 0fa6 d9bb 3127 d13c
00000020: 5158 173d 4a83 9b3d 6c74 6c3d 7b65 083e
00000030: ed6f 073d e138 293e 7b8c 243e e44f 703d
00000040: 66e5 363e 26af 0f3e c8a6 013e 0c1c 123e
00000050: 1b2e 103e f08a f33d abe3 8f3d 76f0 273e
00000060: 5b03 a33d ff7f 6a3d 8230 b23d 2d58 603c
00000070: 93c3 62bd a8bc b83c 3d52 a0bd 1ee2 79bd
00000080: e558 c4bc 2a98 aebd 41c6 c3bd 1c04 d6bd
00000090: bde0 063e 9af0 4e3d 2c40 083e 0fdf 1a3e
000000a0: f360 433e c4c6 da3c c57c 733d 405e 943d
000000b0: 681d 8c3d 17b7 a43c e63d 253c 0ea3 5f3c
000000c0: 36bb c93d acc3 fa3d 644c 163e 1a8e 973d
000000d0: 7891 003e 07bd 2f3d c90e 933d bc32 da3c
000000e0: 6f8a a6bd 89f8 b5bc f8d3 a93a da20 2bbd
000000f0: b6b3 9fbc 7cc4 85bd b979 663b 5e86 803d
00000100: 5adb e93c 9c8b 943d 07cf b93c 9233 5e3d
00000110: 068e bc3c 880c d0bb e96c c2bb 5eba 943c
00000120: 5e68 01bd 3f1f 103c 20c3 1b3d 9493 1f3c
00000130: c405 6a3d fe2b f33c 6870 7fbd d83b 813d
00000140: dc7b fabd 7805 063e a3d3 96bb 626f 9ebc
00000150: e482 ccbb 3a44 963c 82b0 2f3d 28f7 0d3e
00000160: 4f7f da3d 1e96 c83d 8f0f 953d 43dd 5c3d
00000170: ee60 033e d545 5ebd 2e16 2d3d 878b 8c3d
00000180: 6e89 a23d 1d97 8ebd 2faa d53d 012b 953c
00000190: 8001 ffbb a908 383d 0ba0 4ebd 3012 5bbd
000001a0: 1910 833d 78ff 263d f069 813c b25b e2bc
000001b0: 82cf a5bd 43ae 173c 39aa 5dbd 8723 553d
000001c0: 28b6 95bd 5c85 79bb 0a8a 74bb d38d debc
000001d0: 8d50 66bd 9c40 dc3d 6666 e23d 10a7 22bd
000001e0: 6327 f43c 35b3 3a3d 8e20 81bd 9c2a 963d
000001f0: 2363 ef3d 645a 473c 6163 693d 4063 2fbd
00000200: c579 203d 6581 923d b2fa 83bd 47ac e13c
00000210: cbda 64bc f096 f03c cfa3 86bd 1e1a 023d
00000220: 09f6 f0bc 49fd 18bb 64bb 203e 2392 5d3d
00000230: c771 863c 39ac 0e3e 3229 b53d 2f15 203c
00000240: ce8e c03d 2d97 9c3d bf5c 663c 3afc ba3d
00000250: aa5f 48bd a31d 723d f34b f73c 9ff9 953c
00000260: bfa6 53bd 4af0 03be 5ed2 24bd 007d 15be
00000270: 0319 593c 2452 bfbd 73b5 5fbc 30d5 07be
00000280: 4526 81bd 807b 90bd 11e2 183d c8a1 87bd
00000290: 4e3c 6fbd c8a2 a2bd aefe 0cbd f549 3abd
000002a0: 29c7 70bd 9d50 033c a70b f7bd b84d 073d
000002b0: ef7e 6f3d 37a7 80bd 5881 463d 5456 1dbc
000002c0: 98eb 4bbd 1016 2abd 3803 343b e872 75bd
000002d0: 2812 42be 2f92 9ebd cddc 83bc ff04 76bd
000002e0: 847a 89be fb30 f6bd 7f75 38be cff4 073d
000002f0: 16a1 15be 261f 42bd c4a8 04bc 9176 aabd
00000300: d258 00be 9a7f 56bd dcbe 31be 46a8 bbbd
00000310: c0ea 833a 3fa4 adbd 74f6 96bd 456a 943d
00000320: fd69 eb3c 0b36 8b3d 6c59 b13b 3b33 1b3e
00000330: e617 19bd 1aa5 c23d b31d 913d ac01 803d
00000340: 735d 5f3c 3b6d 1839 321e 063e d568 f13d
00000350: e645 e63d d100 813c 8757 0f3e 9cf4 3b3e
00000360: 8f9f 053d 23df 7abc 5105 953d c5a2 5d3d
00000370: a6a3 f83d db07 b5ba 91fa bdbb 1ac5 8ebd
00000380: 35cb 5a3e 753e 82bd 67ce 8bbe 9f1b bc3b
00000390: cd0a 5cbd a19b a5bd 292c 09be 0ceb 6cbc
000003a0: 8481 19be b76f 9fbd d33c e2bd 55f5 653d
000003b0: 8d97 363e 9b52 133d 2d65 893d d68f aa3d
000003c0: 48a1 a4be 8b8b 423d cc2c 91bd ce54 5e3d
000003d0: 43ed a53d 0c9d d5bc d4dc bb3c af9a c33d
000003e0: b071 7ebd 6eeb 4fbd a5a0 84bd a8ef 7bbd
000003f0: d23e 793d 635c 78bd 7ad4 7a3d 65dd 8f3d
0.08143085 0.022714244 -0.0027432037 0.008551267 0.036391158 0.08183184 -0.00664211 0.025531383
0.03694946 0.07593401 0.057728216 0.13319962 0.033065725 0.16525604 0.16069214 0.05866994
0.17860946 0.14031658 0.12661278 0.14268512 0.14080088 0.118917346 0.07025846 0.16400322
0.079596244 0.057250973 0.087006584 0.013692898 -0.055362295 0.022550896 -0.07828186 -0.061006658
-0.02396817 -0.08525117 -0.09559298 -0.104500026 0.13171668 0.050522424 0.1330573 0.15124153
0.19079952 0.026706107 0.05944516 0.07244539 0.06841546 0.020106835 0.0100855585 0.013649715
0.09850161 0.12244353 0.14677578 0.074001506 0.12555492 0.04290488 0.071805544 0.02663552
-0.08131873 -0.022213237 0.0012956848 -0.041779377 -0.019494873 -0.06531617 0.0035167767 0.062756285
0.028546978 0.07253191 0.022681726 0.0542484 0.02301694 -0.00634915 -0.0059333933 0.018155273
-0.031593673 0.008796512 0.038027883 0.009739775 0.057134405 0.029684063 -0.06236306 0.063102424
-0.122306556 0.13088024 -0.004602866 -0.01934022 -0.0062411893 0.01834308 0.04289294 0.13863814
0.106688134 0.097942576 0.07278358 0.05392195 0.12829944 -0.054265816 0.04225748 0.0686255
0.07936369 -0.06962416 0.104328506 0.018208982 -0.0077821612 0.044930134 -0.050445598 -0.05348414
0.06399555 0.040770978 0.015797585 -0.027631614 -0.080962196 0.009257856 -0.054117415 0.052035835
-0.07310134 -0.0038073873 -0.0037313723 -0.027167236 -0.056229163 0.10754511 0.11054687 -0.039710104
0.029803937 0.04558106 -0.063050374 0.07332346 0.11688831 0.012167547 0.05697954 -0.04281926
0.03917863 0.07153586 -0.06444301 0.027547969 -0.01396818 0.029368848 -0.06574213 0.03176319
-0.029414194 -0.002334433 0.15696484 0.054094445 0.016411675 0.13932885 0.08845748 0.009770676
0.09402238 0.07646022 0.014060198 0.0913014 -0.048919357 0.059110295 0.030187583 0.018307505
-0.051672693 -0.12884632 -0.040239684 -0.14598465 0.013250592 -0.09341839 -0.013654101 -0.13264918
-0.063061275 -0.07054806 0.03732497 -0.06622654 -0.05840712 -0.07941204 -0.03442257 -0.045480687
-0.058783684 0.008014825 -0.120627694 0.033033103 0.058470663 -0.06281894 0.048463196 -0.009603102
-0.049785227 -0.041524947 0.002746774 -0.059924036 -0.18952239 -0.07742726 -0.016096497 -0.06006336
-0.26851285 -0.12021061 -0.18013571 0.033192452 -0.1461223 -0.047392987 -0.0080968775 -0.08323396
-0.12533882 -0.052367784 -0.17357963 -0.09162955 0.0010064468 -0.08478593 -0.07371226 0.07246832
0.028737063 0.06797417 0.0054122712 0.15156262 -0.037376307 0.09504147 0.07085743 0.06250319
0.01363312 0.00014536541 0.13097456 0.11787573 0.11243801 0.01574746 0.13998233 0.1835503
0.03262287 -0.015311989 0.07276405 0.054110307 0.121405885 -0.0013811545 -0.005797692 -0.06971188
0.2136658 -0.06359569 -0.2730591 0.0057405974 -0.053721238 -0.080863245 -0.13395752 -0.014460336
-0.14990813 -0.0778498 -0.110467575 0.05614217 0.1783125 0.03596745 0.06708751 0.08328216
-0.32154298 0.04749636 -0.070886225 0.054280095 0.08101895 -0.026075862 0.022932447 0.09550988
-0.06212014 -0.050761633 -0.06475953 -0.06150785 0.060850926 -0.06063498 0.06123779 0.070246495

decoder.decoder.0.bias f4 [16]
00000000: 0db0 9fbd d963 b33d e91d d83d e695 233d
00000010: 16a2 863d 8511 c13d 5e2b 44bd 6f52 a5bc
00000020: 4606 bbbc 57b0 ca3d dd87 9bbd 2a1b abbd
00000030: 2c8e 4f3d 8a42 893d accb 143d 2d9e e93d
-0.07797251 0.08759279 0.1055258 0.039937876 0.06573884 0.0942717 -0.04789292 -0.020180909
-0.02283014 0.098969154 -0.07594273 -0.083547905 0.050672695 0.067021444 0.03632705 0.11407123

decoder.decoder.2.weight f4 [16, 1, 3, 3]
00000000: 3e6b ad3e 0700 42be e78c 9a3e 528b 2b3e
00000010: 7127 5dbe 7dde d8bc e7fc c0bc f944 793e
00000020: a763 5d3e 5b4f 33bd 6e7c 7a3d 1973 543e
00000030: 6255 e63d 62e3 bebe 7d9b cabe c88b 483d
00000040: b256 73be d106 44be 40d0 8dbe a8db d2bb
00000050: 9fdb 3cbe 3175 9cbe f525 c1be b321 0ebe
00000060: 03ff 1c3d b09e b03d 9fd3 b9be bc8d 53bc
00000070: f89e 413c 1016 973e 4c12 abbd 0a8a 9fbe
00000080: 614e 1d3e 0bc7 b2bc c674 6bbe 3e54 433e
00000090: c16d 70be 3e6c 85be 1fba b9be aa93 9b3d
000000a0: d1c3 e8be f4e3 9f3d 57fd 3abe 2117 a2be
000000b0: 476c a6bd af49 28bd 755f 9bbd 875c 0cbc
000000c0: bf95 16be d472 34be 3176 b2bd cb3e a2be
000000d0: 1a8a f23d aed4 91be 2411 dbbd 2fb9 a93e
000000e0: 2115 bc3e 7e60 873c e8c8 5cbd 0fdd 8e3e
000000f0: 6e0d 8d3e b9a3 ba3e a03d ed3e e131 c6be
00000100: 07f7 4b3d 914f 4a3c e422 6c3e 2c6d b93e
00000110: 07a0 b63e 7320 013e 5d1e a63e 6451 f3bd
00000120: d0dd 15be 748e 9a3d 387e 6ebe ed73 853d
00000130: b8bc 573e e90e 8f3e 96df 70be 4c90 153e
00000140: 29a4 6a3e ee69 a6be a703 47ba e86f 9cbe
00000150: 4ab8 5cbc f4b4 a03b 84d3 b8be 13c4 adbd
00000160: 8fc1 dfbe ba8f a2be 4a66 333e dec5 fdbd
00000170: e235 c23e 14cf 09be 934a 753e 616e 22bb
00000180: a7c3 b73e 40a6 b33d 2fa4 013f 7806 38bf
00000190: effb 943e 2c68 abbe 2795 07bf 700a 9fbd
000001a0: 7a7c 01bf 894a 0bbe 1a26 24bf 36f2 f5be
000001b0: 281d 4c3e 22e1 133e 7835 9f3e e5a2 a2be
000001c0: 95ee 94be db54 9b3e 0876 8a3d c34b 843e
000001d0: 7c70 d4bd 73b7 5a3e 6b70 c4be c951 8f3e
000001e0: 7216 bb3d 04cb d03d f47b 0abe efa9 98be
000001f0: 30d7 9ebe 8e51 a8be 4270 13be e43a 8f3e
00000200: 0752 86be 7dd1 3dbe 6fae 863e 3cff 8bbe
00000210: c5a2 f23c 7014 003e 8b62 8f3d e2f6 053e
00000220: 84b9 b0be 3d96 57be aef2 74be 76e1 3e3e
00000230: df23 30be 5ea7 bebc 4811 a33b ec6d 7bbe
0.33870882 -0.18945323 0.30185625 0.16752365 -0.21597077 -0.026473278 -0.023558093 0.24342717
0.21620046 -0.04377685 0.06115382 0.20747031 0.11246754 -0.37282854 -0.39571753 0.04896143
-0.2376354 -0.19143225 -0.27697945 -0.0064348765 -0.18443154 -0.3055816 -0.3772427 -0.13880043
0.038329136 0.08624017 -0.36294267 -0.01291221 0.011817686 0.2950902 -0.08353099 -0.31160003
0.1536193 -0.021823427 -0.22993764 0.19075105 -0.23479368 -0.26059145 -0.36274812 0.07596524
-0.45461896 0.078071505 -0.18260704 -0.3165827 -0.08126121 -0.041085895 -0.07586566 -0.008566982
-0.14705561 -0.17621928 -0.087139495 -0.31688532 0.11842747 -0.28482574 -0.10696629 0.33149096
0.3673487 0.016525503 -0.053902537 0.2790303 0.2754931 0.36453035 0.4633608 -0.3870993
0.04979613 0.012348072 0.23060185 0.36216104 0.35668966 0.12610035 0.3244504 -0.118807584
-0.14635396 0.07546702 -0.23290336 0.06516252 0.21068084 0.27941063 -0.23522791 0.14605826
0.22914185 -0.32502693 -0.0007591792 -0.30554128 -0.013471672 0.004904384 -0.36098874 -0.08484664
-0.4370236 -0.3175028 0.17519489 -0.12391256 0.37931734 -0.134579 0.23954229 -0.002478503
0.35891458 0.08771944 0.5064115 -0.7188487 0.2909846 -0.33477914 -0.52961963 -0.07765663
-0.5058056 -0.13602652 -0.6412064 -0.48036355 0.19932997 0.1444135 0.3109548 -0.31764904
-0.29088274 0.30338177 0.06760794 0.25839052 -0.10373017 0.21359043 -0.38367018 0.27992085
0.091351405 0.10194972 -0.13523847 -0.2981715 -0.3102355 -0.3287472 -0.14398292 0.27974617
-0.26234457 -0.18536945 0.26304957 -0.27343166 0.02961863 0.12507796 0.070012175 0.1308246
-0.34516537 -0.21053405 -0.239207 0.18640694 -0.17201184 -0.023273166 0.0049764253 -0.2455365
