500_ML/models/weights_2799_10-04_04:16.pt (torch_old, 39980 bytes, 7 tensors)

encoder.encoder.0.weight f4 [16, 1, 3, 3]
0	0xbdcffcdb	-0.1015565
1	0x3d9c17df	0.076217405
2	0xbe33a504	-0.17543417
3	0x3eaeffe6	0.3417961
4	0x3ea22487	0.31668493
5	0x3ec55a87	0.3854563
6	0x3ecc5053	0.39905033
7	0x3dfa8da6	0.122340485
8	0x3eb22e8c	0.34801137
9	0x3e476a38	0.19474113
10	0xbdb331c9	-0.0874973
11	0xbe36c79d	-0.17849584
12	0x3edeec4b	0.43539652
13	0x3ee0b23c	0.43885982
14	0xbd63d0da	-0.0556191
15	0x3e606d2c	0.21916646
16	0x3e8ec844	0.27887166
17	0x3d15e41c	0.036594495
18	0x3e3c765d	0.18404527
19	0x3e2b0421	0.16700794
20	0xbd0ee526	-0.0348865
21	0x3ed32c48	0.4124472
22	0x3e26ada6	0.16277179
23	0x3e8f7854	0.2802149
24	0x3e800748	0.25005555
25	0x3d734f13	0.059401583
26	0x3e829668	0.25505376
27	0xbe8a815a	-0.27051812
28	0x3e859fa9	0.26098374
29	0xbe43695e	-0.19083163
30	0xbc70a8e0	-0.0146887
31	0xbc8ac550	-0.016939789
32	0xbe842b70	-0.2581439
33	0x3e5a92b2	0.21345022
34	0xbe043938	-0.12912452
35	0xbe5ce52b	-0.21571796
36	0x3e6b9c14	0.23008758
37	0xbd7c43d9	-0.061588142
38	0xbcc9e727	-0.024646355
39	0x3e9b7ac8	0.30367112
40	0xbc9060c2	-0.017624263
41	0x3cc57142	0.024101857
42	0x3df3eb1b	0.11910077
43	0xbd633fcc	-0.055480763
44	0xbda141af	-0.07873856
45	0xbe4d707b	-0.20062439
46	0x3d7e1fc7	0.062042024
47	0x3e690374	0.22755224
48	0xbdb642b5	-0.08899442
49	0x3ed089b7	0.40730068
50	0x3eb5864f	0.35454032
51	0x3e84ed2b	0.25962195
52	0x3ea17401	0.31533816
53	0x3ea72048	0.32641816
54	0x3df3e66e	0.11909185
55	0xbdaf796b	-0.085680805
56	0x3e8eee90	0.27916384
57	0xbd7b145d	-0.061298717
58	0xbcc48de2	-0.023993436
59	0xbe7a92ef	-0.24470113
60	0x3e9ecda2	0.3101626
61	0xbe09fdc3	-0.13475709
62	0xbe4c345a	-0.19941846
63	0xbdb15470	-0.08658683
64	0xbb815900	-0.003947377
65	0x3e3346ba	0.17507449
66	0xbd86a68c	-0.06574735
67	0xbe47343e	-0.19453523
68	0xbe1c3b90	-0.15257096
69	0xbd5c1e08	-0.053739578
70	0xbea6537e	-0.32485574
71	0x3e686432	0.22694471
72	0xbe639d18	-0.22227895
73	0xbe22ae40	-0.15886784
74	0x3e23c2ba	0.15992251
75	0x3ccbf794	0.024898328
76	0x3b4e63b7	0.003149254
77	0x3dadea10	0.084919095
78	0x3e3f6b1e	0.18693206
79	0x3e7194a7	0.23591863
80	0x3e61be4e	0.22045252
81	0x3ddf180c	0.108932585
82	0xbe8f82a2	-0.28029352
83	0xbc1c3980	-0.009535193
84	0xbe2ff5e3	-0.17183642
85	0x3d7cb180	0.061692715
86	0xbdc20a8c	-0.09474668
87	0xbdd98cd6	-0.106225654
88	0xbe9f6dcc	-0.31138456
89	0x3e9de991	0.3084226
90	0x3eb9cabf	0.36287495
91	0x3e3bd050	0.18341184
92	0xbe41ed75	-0.18938239
93	0xbb85058e	-0.0040595
94	0x3e976dc8	0.29575944
95	0xbc3c3e4f	-0.011489465
96	0xbdbe1c65	-0.092827596
97	0x3e8ecc64	0.27890313
98	0xbe5f0b42	-0.21781638
99	0x3c65c680	0.014024377
100	0xbe024c42	-0.12724403
101	0x3e96e3eb	0.29470763
102	0xbe4df33a	-0.20112315
103	0xbbe2d6b7	-0.0069225687
104	0xbbe3afc4	-0.006948443
105	0x3d8545a7	0.06507426
106	0x3e922428	0.2854321
107	0x3d80bade	0.06285642
108	0xbe5388d9	-0.20657672
109	0xbe02f683	-0.1278935
110	0x3e3e41a5	0.18579729
111	0xbe5b1e8f	-0.21398376
112	0x3c4610f2	0.012089001
113	0x3eb5ec4e	0.3553185
114	0x3ebcb7f2	0.3685909
115	0x3e40948f	0.1880667
116	0x3e962e56	0.29332227
117	0x3d3271c0	0.04356551
118	0x3d929910	0.071581006
119	0xbe8a2e58	-0.26988482
120	0xbd229df8	-0.039701432
121	0x3dd5c420	0.104377985
122	0xbe86fe6c	-0.26365983
123	0x3e28d0ea	0.16485944
124	0x3d2eb788	0.042655498
125	0xbe23bdd0	-0.15990376
126	0xbdc29610	-0.095012784
127	0xbda0aef4	-0.0784587
128	0x3e45a936	0.1930283
129	0xbe81f1fb	-0.2537993
130	0x3dbbcb74	0.09169665
131	0xbe6b4d58	-0.22978723
132	0x3de24370	0.11048019
133	0x3d1b4888	0.037910968
134	0xbe91a10f	-0.2844319
135	0x3e997fb3	0.2998024
136	0x3ea34fdf	0.31896874
137	0x3c662ddb	0.014049019
138	0xbe231120	-0.15924501
139	0x3e99d441	0.3004475
140	0xbca4c28a	-0.020112295
141	0x3e494a2c	0.196572
142	0xbbaff31f	-0.0053695585
143	0x3e7f99af	0.2496097

encoder.encoder.0.bias f4 [16]
0	0x3ead9974	0.33906138
1	0xbbc9446a	-0.006142189
2	0xbc46d89d	-0.012136606
3	0xbe825eca	-0.25462943
4	0x3e76ed69	0.24114002
5	0xbcabf294	-0.020989694
6	0xbe3daa6c	-0.18522042
7	0xbe7f028e	-0.24903318
8	0x3e702cf1	0.23454644
9	0xbe3ca16b	-0.18420951
10	0x3de9aed0	0.11410296
11	0x3e33af80	0.17547417
12	0x3e4a8ac2	0.19779494
13	0xbe42da5b	-0.19028609
14	0xbe7b9870	-0.24569869
15	0xbdc9eed2	-0.098600045

encoder.encoder.2.weight f4 [32, 16, 3, 3]
0	0x3e100653	0.14064912
1	0x3e1d3546	0.15352353
2	0x3e139a6b	0.14414375
3	0x3d6d3939	0.0579159
4	0x3d18486d	0.037178446
5	0x3e13bc5a	0.14427319
6	0x3dbc3769	0.09190256
7	0x3d366ae1	0.04453552
8	0x3e202b4e	0.1564152
9	0xbdc5e13a	-0.09662099
10	0xbd7af416	-0.061267935
11	0xbdd3152a	-0.10306771
12	0xbd7fecff	-0.062481876
13	0xbdcfc8da	-0.10145731
14	0xbe0725f8	-0.13198078
15	0xbd5ca8b9	-0.053871844
16	0xbdbbfba0	-0.09178853
17	0xbe232b42	-0.1593447
18	0xbca97878	-0.020687327
19	0xbd29f915	-0.04149731
20	0xbe00f6a0	-0.1259408
21	0xbc462358	-0.012093388
22	0xbc0093ba	-0.007847721
23	0xbcf4e6ae	-0.029895153
24	0xbdb379f5	-0.08763496
25	0xbd5008ef	-0.05078977
26	0xbe0ff979	-0.1406001
27	0xbce390fc	-0.027779095
28	0x3cbe5510	0.02323392
29	0xbcb7a38c	-0.022416852
30	0xbda9260a	-0.082592085
31	0x3c945c7c	0.018110506
32	0x3d941599	0.07230682
33	0xbcba0f50	-0.02271238
34	0x3d026d00	0.03184223
35	0xbd741313	-0.059588503
36	0x3dd66e73	0.10470285
37	0x3ddcaa9e	0.1077473
38	0x3d348457	0.04407152
39	0x3d7d9c2d	0.06191652
40	0x3d87f68d	0.06638823
41	0x3e0d43a9	0.13795342
42	0x3dc61bf4	0.096733004
43	0x3d6fb450	0.05852157
44	0x3d8b3401	0.06797028
45	0xbdf0ba4f	-0.117542855
46	0xbd2de95b	-0.042458873
47	0xbcade3cb	-0.021226784
48	0x3b59e86e	0.003325011
49	0xbd1933d4	-0.037402943
50	0xbdecf0e7	-0.11569386
51	0xbd28aaae	-0.041178398
52	0xbe13cb1b	-0.14432947
53	0xbe208fff	-0.1567993
54	0xbdb5ed05	-0.088830985
55	0xbd9c0fc9	-0.07620198
56	0xbda39ce6	-0.079889104
57	0x3d888a19	0.06666965
58	0xbcc59081	-0.024116756
59	0xbc8dc2f5	-0.017304877
60	0x3b9a70c0	0.004713148
61	0xbce6215d	-0.02809208
62	0xbc0a7afb	-0.008452172
63	0x3cf511bc	0.029915683
64	0x3cbd6a64	0.02312202
65	0xbd8e12a4	-0.06937149
66	0x3bb34890	0.0054712966
67	0x3d1c0048	0.038086206
68	0x3d56e2aa	0.052462257
69	0xbd859556	-0.06522624
70	0xbd995b8b	-0.074881636
71	0xbcadf300	-0.021234035
72	0x3e06d6c0	0.13167858
73	0x3de0a8c8	0.109696925
74	0x3dcfe950	0.10151923
75	0x3dd20682	0.102551475
76	0x3e2f345a	0.17109814
77	0x3d9d3222	0.07675578
78	0x3c9ca471	0.01912138
79	0x3c8194e1	0.015818061
80	0x3dd0911c	0.101839274
81	0xbd0c1f7b	-0.03420971
82	0x3d1201b6	0.035646163
83	0xbd99ed9f	-0.07516026
84	0xbcf9ece6	-0.03050847
85	0xbd569d2b	-0.05239598
86	0xbd80273a	-0.06257482
87	0xbd30df46	-0.04318168
88	0x3cf08ae0	0.029363096
89	0x3bc10b80	0.0058912635
90	0x3e399f6a	0.18127218
91	0x3d696012	0.056976385
92	0x3e03325b	0.12812178
93	0x3d60deea	0.054900087
94	0x3dd9ed6b	0.10640987
95	0x3de08795	0.1096336
96	0x3df69d43	0.12041714
97	0x3e2a28b1	0.16617085
98	0x3db3b719	0.087751575
99	0x3cf933dc	0.030420236
100	0x3e1a8aa6	0.15091953
101	0x3d578666	0.052618407
102	0x3c9fbf39	0.019500362
103	0x3d1dbb74	0.038508847
104	0x3e2c35a1	0.16817333
105	0x3d777298	0.06041202
106	0x3cff5f55	0.031173388
107	0x3c81f24a	0.015862603
108	0x3e05bfe8	0.13061488
109	0x3e23a424	0.15980583
110	0x3e12ed3d	0.14348312
111	0x3e15da19	0.14633979
112	0x3d96f1c9	0.073703356
113	0x3e2a47fa	0.1662902
114	0x3e0b5d5b	0.13609831
115	0x3d8aa6fa	0.067701295
116	0x3d9cf1d5	0.07663313
117	0x3c93c624	0.018038817
118	0xbd0b6068	-0.034027487
119	0x3d2830e2	0.041062243
120	0xbc95e5ac	-0.018297993
121	0x3d2646b0	0.040594757
122	0x3b1f1800	0.002427578
123	0x3ce8dba4	0.028425045
124	0xb9de6f00	-0.0004242584
125	0xba851b40	-0.0010155216
126	0x3d8a1653	0.06742539
127	0xbda9b403	-0.08286288
128	0x3ce4d844	0.027935155
129	0xbd570778	-0.052497357
130	0xbd809736	-0.06278841
131	0x3c4cebd8	0.012507401
132	0x3d35528e	0.044268183
133	0xbc126000	-0.008934021
134	0x3da15541	0.07877589
135	0xbd46a22c	-0.048494503
136	0xbd78aede	-0.06071364
137	0xbe1d748d	-0.15376492
138	0x3c4c74c8	0.012479015
139	0xbe11811f	-0.14209412
140	0xbd1b8396	-0.037967287
141	0xbdd04344	-0.1016908
142	0xbd87720d	-0.0661355
143	0xbe0cc8eb	-0.13748519
144	0xbc2414c0	-0.010014713
145	0xbb8044cd	-0.0039144517
146	0x3ddfc1d7	0.10925644
147	0xbc0f668c	-0.008752476
148	0xbcda053d	-0.026613826
149	0xbc81acbd	-0.015829438
150	0x3d906bf9	0.07051844
151	0x3d7e37dc	0.06206499
152	0x3dd127b1	0.10212649
153	0x3c1af289	0.009457239
154	0x3d97b62f	0.07407796
155	0xbc592cf0	-0.013255343
156	0x3d536098	0.05160579
157	0x3da6f7d3	0.081527375
158	0x3d648d22	0.055798657
159	0x3e10e409	0.14149489
160	0x3e028a70	0.12748122
161	0x3e22490c	0.15848178
162	0x3bbb63f0	0.0057187006
163	0x3e053520	0.13008547
164	0x3ddf6313	0.10907569
165	0x3d4fc0df	0.050721046
166	0x3d1fc00b	0.039001506
167	0x3e1c21e5	0.15247305
168	0x3ad1710b	0.0015979124
169	0x3cf16c55	0.029470602
170	0x3d72f866	0.059318922
171	0x3c853894	0.01626233
172	0x3d1b600e	0.0379334
173	0x3bd4e510	0.006497033
174	0xbda574da	-0.08078928
175	0xbd9b231c	-0.07575056
176	0x3d7e767a	0.062124707
177	0x3d5c6bca	0.053813733
178	0x3d3b2236	0.045686923
179	0x3d0534d8	0.0325211
180	0xbc9b28ec	-0.018940412
181	0xbd975fa2	-0.073912874
182	0x3caacf93	0.020850932
183	0x3d63d9bd	0.055627573
184	0x3d7b47a9	0.061347637
185	0xbd6cfd89	-0.057858977
186	0x3cdf1002	0.027229313
187	0xbce8251c	-0.028338008
188	0xbcd7ec86	-0.0263579
189	0x3cf8b823	0.03036124
190	0x3e01d1d4	0.126777
191	0x3de7f983	0.113268875
192	0x3daa3f71	0.08312882
193	0x3e1b129b	0.15143816
194	0x3d4ed130	0.050492465
195	0x3c8e2422	0.017351214
196	0x3da19f1c	0.07891676
197	0x3dd8aa3e	0.10579346
198	0xbd5eadf3	-0.05436511
199	0x3c5d0d60	0.013491958
200	0xbd0fca50	-0.03510505
201	0x3c0d2720	0.008615285
202	0xbc94d170	-0.018166274
203	0xbb4bc498	-0.003109252
204	0xbda1d61f	-0.079021685
205	0xbd88de82	-0.06683065
206	0x3d17ea49	0.037088666
207	0x3d11dec8	0.03561285
208	0x3c7f5780	0.0155848265
209	0xbd9f74c7	-0.077859454
210	0xbd045716	-0.032309614
211	0x3cf6c320	0.03012234
212	0x3ba0e7c0	0.0049104393
213	0x3cf94acc	0.030431174
214	0x3d50d4f2	0.05098433
215	0xbc85127c	-0.016244166
216	0xbc1722a5	-0.0092245685
217	0x3d5e80a1	0.05432189
218	0x3d198520	0.037480474
219	0xbd94f51e	-0.07273315
220	0x3cd11529	0.025522785
221	0xbcdce64e	-0.026965287
222	0x3cb6219d	0.022232825
223	0xbc884f8b	-0.016639492
224	0x3ce56d5e	0.028006252
225	0xbd0ec968	-0.034860045
226	0x3d2b253a	0.04178355
227	0xbd2ef403	-0.042713176
228	0xbaf7fd00	-0.0018920004
229	0xbd2ce720	-0.042212605
230	0x3b663ca0	0.003513135
231	0xba34e180	-0.0006900057
232	0xbd2a8c53	-0.04163773
233	0xbd8ff6e4	-0.070295125
234	0xbcf68dd9	-0.030096935
235	0x3ce08645	0.027407775
236	0x3d7d8a77	0.06189963
237	0x3abc11d6	0.0014348577
238	0x3d4b28b8	0.04959938
239	0xbccbecaf	-0.024893133
240	0x3dc54374	0.09632006
241	0xbd351897	-0.044212904
242	0xbcaf8875	-0.021427372
243	0x3d169fae	0.036773376
244	0x3da0755b	0.07834884
245	0xbcd06b91	-0.025441917
246	0xbd21e36f	-0.03952354
247	0xbd34a0be	-0.04409861
248	0xbd4691cc	-0.048478886
249	0x3d7d19dc	0.06179224
250	0xbd035384	-0.03206207
251	0x3d163c49	0.036678586
252	0xbc3d4074	-0.011551011
253	0x3d05187b	0.03249405
254	0x3d21a86a	0.039467253
255	0x3b2177cd	0.0024638057

encoder.encoder.2.bias f4 [32]
0	0x3d110fdc	0.035415515
1	0xbce911ab	-0.028450808
2	0x3e0cec95	0.13762124
3	0x3df82079	0.12115569
4	0x3e0c4aa6	0.13700351
5	0xbd47a3a7	-0.048740055
6	0x3e0ca556	0.13734946
7	0x3e1dd237	0.15412222
8	0xbc16ada0	-0.009196669
9	0x3db147a0	0.086562395
10	0xbcf52b20	-0.02992779
11	0x3e22da71	0.15903641
12	0x3e2daae2	0.16959718
13	0xbef1b503	-0.47208413
14	0x3db3257c	0.08747384
15	0xbdbb2414	-0.09137741
16	0xbd86066c	-0.065441936
17	0x3ccb5dea	0.024825055
18	0xbdb59131	-0.08865584
19	0x3ddaef40	0.106901646
20	0x3c321918	0.010870241
21	0xbd76506d	-0.060135294
22	0xbd33c72f	-0.04389113
23	0xbd23aede	-0.03996169
24	0x3da05489	0.07828624
25	0x3da53736	0.08067171
26	0xbd028680	-0.03186655
27	0x3f0013e3	0.50030345
28	0x3dc7195e	0.09721635
29	0x3cdbbd5b	0.02682369
30	0x3e0afb6b	0.13572471
31	0x3e1ce8e3	0.15323214

decoder.decoder.0.weight f4 [32, 16, 3, 3]
0	0x3da0f3b5	0.078589834
1	0x3cbc0743	0.022952681
2	0x3897d6cc	7.24025e-05
3	0x3b97e7e1	0.0046357964
4	0x3d217d01	0.039425854
5	0x3d8c1479	0.06839842
6	0xbc2fad69	-0.010722497
7	0x3cd3ba31	0.025845619
8	0x3cb27733	0.021785354
9	0x3d9fa18f	0.07794487
10	0x3d6aaade	0.057291858
11	0x3e07b520	0.13252687
12	0x3d097661	0.03356016
13	0x3e298163	0.16553263
14	0x3e235e14	0.15953857
15	0x3d72dcd1	0.05929262
16	0x3e373411	0.17890956
17	0x3e0d13a0	0.13777018
18	0x3e00d2f4	0.12580472
19	0x3e12ee5d	0.14348741
20	0x3e1169b8	0.14200485
21	0x3df53c03	0.11974337
22	0x3d8f93bf	0.07010602
23	0x3e284aa0	0.16434717
24	0x3da41930	0.08012617
25	0x3d6fca54	0.058542565
26	0x3db4c37c	0.08826348
27	0x3c60582d	0.013692898
28	0xbd8274d4	-0.063699394
29	0x3cb8bca8	0.022550896
30	0xbda0523d	-0.07828186
31	0xbd79e21e	-0.061006658
32	0xbcc458e5	-0.02396817
33	0xbdae982a	-0.08525117
34	0xbd8da0f2	-0.069154635
35	0xbdd6041c	-0.104500026
36	0x3e06a3c3	0.13148408
37	0x3d520dd2	0.05128271
38	0x3e099c91	0.13438632
39	0x3e1dd2a2	0.15412381
40	0x3e422ef2	0.1896322
41	0x3ce50fda	0.02796166
42	0x3d7cf7e6	0.061759852
43	0x3d91e920	0.07124543
44	0x3d8d8065	0.06909255
45	0x3cb944cb	0.02261581
46	0x3c3e1f7f	0.011604189
47	0x3c84c9c1	0.016209485
48	0x3dd0291c	0.10164091
49	0x3dfd5e89	0.12371547
50	0x3e177b5e	0.14793155
51	0x3d76b39c	0.060229883
52	0x3e02027e	0.12696263
53	0x3ce83347	0.028344763
54	0x3d93c916	0.072160885
55	0x3cde5743	0.027141219
56	0xbda5f070	-0.081025004
57	0xbce7691b	-0.02824836
58	0x3acafcb3	0.0015486687
59	0xbd3541d5	-0.044252235
60	0xbc9606a3	-0.018313712
61	0xbd88994a	-0.066698626
62	0x3bae8c0e	0.0053267544
63	0x3d9c57f0	0.0763396
64	0x3cd5a87d	0.026081318
65	0x3dbc17e1	0.09184242
66	0x3c710c6d	0.014712435
67	0x3d641cc0	0.05569148
68	0x3cb347cd	0.021884823
69	0x3d4e1de8	0.05032149
70	0xbc19b261	-0.009380908
71	0x3cd7531e	0.02628475
72	0xbd2e8d8c	-0.04261546
73	0x3bf15e26	0.0073659597
74	0x3d5593e1	0.05214298
75	0x3c62faa5	0.013853704
76	0x3d1f8b1d	0.03895103
77	0x3c84745f	0.016168771
78	0xbca2019a	-0.019776154
79	0x3d8159b3	0.06315937
80	0xbd90a480	-0.07062626
81	0x3e06e1df	0.131721
82	0xbb94acea	-0.0045372145
83	0xbc988ad1	-0.01862088
84	0xbbb645d4	-0.0055625234
85	0x3c96d783	0.01841331
86	0x3d308767	0.04309788
87	0x3e0f3181	0.13983728
88	0x3dd2e4b7	0.1029753
89	0x3dcc0a5c	0.099629134
90	0x3d96c986	0.07362656
91	0x3d5fec3c	0.05466865
92	0x3dee4dfd	0.11635969
93	0xbd8089b0	-0.06276262
94	0x3d21cc81	0.03950167
95	0x3d76fc0d	0.060298968
96	0x3da74293	0.08166995
97	0xbd97e19b	-0.07416078
98	0x3dc7c45b	0.09754249
99	0x3c952b01	0.018208982
100	0xbbff0180	-0.0077821612
101	0x3d3808a9	0.044930134
102	0xbd4ea00b	-0.050445598
103	0xbd31882e	-0.04334276
104	0x3d831019	0.06399555
105	0x3d26ff78	0.040770978
106	0x3c8169f0	0.015797585
107	0xbce25bb2	-0.027631614
108	0xbda5afd4	-0.08090177
109	0x3c17ae43	0.009257856
110	0xbd5da6c5	-0.054114122
111	0x3d552387	0.052035835
112	0xbd95b628	-0.07310134
113	0xbb79855c	-0.0038073873
114	0xbb6b362e	-0.0035890448
115	0xbcde8dd3	-0.027167236
116	0xbd653130	-0.055955112
117	0x3dd8fe62	0.10595395
118	0x3de00df9	0.10940165
119	0xbd158d49	-0.036511693
120	0x3cef7ae2	0.0292334
121	0x3d26d90f	0.040734347
122	0xbd6590d6	-0.05604633
123	0x3d8f9ac2	0.070119396
124	0x3de9f414	0.11423507
125	0x3c8d7363	0.017266935
126	0x3d696361	0.05697954
127	0xbd78d002	-0.060745247
128	0x3d277902	0.040886886
129	0x3c100663	0.008790585
130	0xbd83fab2	-0.06444301
131	0x3c42b21f	0.011883288
132	0xbc64dacb	-0.01396818
133	0x3d430f70	0.047622144
134	0xbda73077	-0.08163541
135	0x3cfe643d	0.031053657
136	0xbcf06093	-0.029342925
137	0xbb001c13	-0.0019547984
138	0x3e218519	0.15773429
139	0x3d5d9223	0.054094445
140	0x3c858753	0.01629988
141	0x3e09fa4a	0.13474384
142	0x3db526a6	0.08845262
143	0x3c085287	0.008320457
144	0x3daf4941	0.08558894
145	0x3d9c90a7	0.07644778
146	0x3c3704ed	0.011170608
147	0x3dde49b2	0.108539
148	0xbcbc7ec9	-0.023009675
149	0x3d6ff9fc	0.058588013
150	0x3db80770	0.089857936
151	0x3c5e8b89	0.013583072
152	0xbc0795ef	-0.008275493
153	0xbe08a658	-0.13344705
154	0xbd04df7b	-0.03243969
155	0xbe10fc3d	-0.14158721
156	0xbe726ad2	-0.23673561
157	0xbdf21603	-0.11820605
158	0xbe683ad1	-0.22678687
159	0xbde658d6	-0.11247413
160	0xbd75dd4e	-0.060025506
161	0xbd20d45c	-0.03926502
162	0xbb845261	-0.0040381406
163	0xbe21d9fd	-0.15805812
164	0xbdbe5655	-0.0929381
165	0xbdbd8fb3	-0.09255924
166	0xbd09a4b6	-0.033604346
167	0xbd21d0bf	-0.039505716
168	0xbdb73abb	-0.08946749
169	0xbd3ee75a	-0.046607353
170	0xbe01a5d5	-0.12660916
171	0x3d074db8	0.033033103
172	0x3c5282ae	0.012848539
173	0xbd80a737	-0.06281894
174	0x3d468158	0.048463196
175	0xbc1d8ae0	-0.00961563
176	0xbd4beb98	-0.049785227
177	0xbd2a1610	-0.041524947
178	0xbd6adaf6	-0.057337724
179	0xbd7572e8	-0.059924036
180	0xbe7460fe	-0.23865125
181	0xbe2d0972	-0.16898134
182	0xbd51e488	-0.051243335
183	0xbdbd83e6	-0.09253673
184	0xbe8e6c58	-0.27817035
185	0xbe17b3c0	-0.14814663
186	0xbe9fdfef	-0.31225535
187	0xbd4fbae0	-0.050715327
188	0xbe4d4c5d	-0.20048662
189	0xbc27d869	-0.010244467
190	0xbde5c40b	-0.11219033
191	0xbd018f67	-0.0316309
192	0xbe2368a9	-0.15957893
193	0xbd87b438	-0.06626171
194	0xbe409769	-0.18807758
195	0xbd800141	-0.06250239
196	0xbd77b882	-0.060478695
197	0xbd556a19	-0.052103136
198	0xbd61089b	-0.054939847
199	0x3daefe26	0.08544569
200	0x3cc0da4a	0.023541588
201	0x3d913950	0.070910096
202	0x3bb1596c	0.0054122712
203	0x3e23354d	0.15938301
204	0xbc6792d7	-0.01413413
205	0x3de76bdf	0.11299872
206	0x3d98329c	0.07431528
207	0x3d6e839e	0.05823099
208	0x3d16f8b1	0.036858264
209	0xbc23aa69	-0.009989359
210	0x3e0cbe57	0.13744484
211	0x3de8eb3c	0.113729924
212	0x3df8631f	0.12128281
213	0x3cf35aac	0.029706322
214	0x3e01c347	0.12672149
215	0x3e2e5ddf	0.17027996
216	0x3d695268	0.056963354
217	0xbc9c3dfd	-0.019072527
218	0x3db48707	0.08814817
219	0x3d8d5c62	0.06902386
220	0x3ded282e	0.11579929
221	0xbbf1f4ac	-0.0073839035
222	0xbc5841ad	-0.013199252
223	0xbd7d6933	-0.061867904
224	0x3e0879bc	0.13327688
225	0xbc3ecf0b	-0.011646043
226	0xbddadcdb	-0.10686656
227	0x3c98b11e	0.018639144
228	0xbdaa45ed	-0.083141185
229	0xbdddd363	-0.108313344
230	0xbe161c79	-0.14659299
231	0xbd806d66	-0.06270866
232	0xbdf5d117	-0.12002771
233	0xbdc0f7bb	-0.09422251
234	0xbdd932fd	-0.10605428
235	0x3d806734	0.062696844
236	0x3dedbdb9	0.11608452
237	0x3d80de99	0.06292457
238	0x3dba07f7	0.090835504
239	0x3de9cca4	0.11415985
240	0xbe8e3757	-0.27776596
241	0x3d88f922	0.06688143
242	0xbdaaffd8	-0.083495796
243	0x3d5e54ce	0.054280095
244	0x3da5ed43	0.08101895
245	0xbcd59d0c	-0.026075862
246	0x3cbbdcd4	0.022932447
247	0x3d8a128f	0.06741821
248	0xbd7e71b0	-0.06212014
249	0xbd4feb6e	-0.050761633
250	0xbd84a0a5	-0.06475953
251	0xbd7befa8	-0.06150785
252	0x3e023950	0.12717175
253	0xbd785c63	-0.06063498
254	0x3dd497ec	0.10380539
255	0x3d8fdd65	0.070246495

decoder.decoder.0.bias f4 [16]
0	0xbd953696	-0.07285802
1	0x3db2533a	0.087072805
2	0x3dd7c5ed	0.10535798
3	0x3d232776	0.039832555
4	0x3d85cac3	0.06532814
5	0x3dc1bce6	0.09459858
6	0xbd44b70d	-0.048026133
7	0xbca1d661	-0.019755544
8	0xbcb33d8f	-0.02187994
9	0x3dca8318	0.098882854
10	0xbd96b545	-0.07358793
11	0xbda09ea9	-0.07842762
12	0x3d4f8e8c	0.050673053
13	0x3d8a75a7	0.06760722
14	0x3d17d3d2	0.037067242
15	0x3dea5ea5	0.11443833

decoder.decoder.2.weight f4 [16, 1, 3, 3]
0	0x3eb5803c	0.35449398
1	0xbe3cfe96	-0.18456492
2	0x3e9881d4	0.2978655
3	0x3e3b4459	0.18287791
4	0xbe4d481a	-0.20047036
5	0xbcb954a5	-0.02262337
6	0xbd6e2b13	-0.058146548
7	0x3e8118e7	0.2521431
8	0x3e51471d	0.20437284
9	0xbd4fa9ef	-0.05069917
10	0x3d7c5d95	0.061612684
11	0x3e4e34ba	0.20137301
12	0x3dea8aa5	0.114522256
13	0xbebd6b5d	-0.36995974
14	0xbeca22f6	-0.39479798
15	0x3d307a32	0.043085285
16	0xbe6e01c3	-0.2324286
17	0xbe476c53	-0.19474916
18	0xbe8fda25	-0.2809612
19	0xbbd131bb	-0.006384102
20	0xbe3ffefc	-0.18749613
21	0xbe9c067a	-0.3047369
22	0xbec041c8	-0.37550187
23	0xbe0e7c79	-0.1391467
24	0x3d063128	0.032761723
25	0x3db73a97	0.08946722
26	0xbeba94af	-0.36441562
27	0xbcd91986	-0.026501428
28	0x3d33e480	0.043919086
29	0x3e998dd9	0.29991034
30	0xbd71f9c0	-0.05907607
31	0xbe8d11b5	-0.27552572
32	0x3e2978fb	0.16550057
33	0xbbf94c22	-0.0076079527
34	0xbe63ca71	-0.22245194
35	0x3e4d5968	0.20053637
36	0xbe75f53d	-0.24019332
37	0xbe850089	-0.2597697
38	0xbebb8b53	-0.36629733
39	0x3d9cf09e	0.076630816
40	0xbee79362	-0.45229632
41	0x3da090f3	0.07840147
42	0xbe40dd6d	-0.18834467
43	0xbea02856	-0.31280774
44	0xbdaf1d82	-0.0855055
45	0xbd207694	-0.039175585
46	0xbd8f4d97	-0.06997221
47	0xbc34be43	-0.01103169
48	0xbe157a7d	-0.14597507
49	0xbe31a522	-0.1734815
50	0xbda58881	-0.08082677
51	0xbea24afb	-0.3169783
52	0x3e05ed5e	0.1307883
53	0xbe8d0ea2	-0.27550226
54	0xbdd2bb7f	-0.10289668
55	0x3eaf79e4	0.34272683
56	0x3ed088db	0.40729412
57	0x3b450b25	0.0030066457
58	0xbd35cba1	-0.04438365
59	0x3e85c737	0.2612855
60	0x3e95660c	0.29179418
61	0x3eb84eef	0.35997722
62	0x3ee622f1	0.44948533
63	0xbec234f7	-0.37931034
64	0x3d547a50	0.05187446
65	0x3cb6e22f	0.02232465
66	0x3e67e6d0	0.22646642
67	0x3eb19907	0.34687063
68	0x3eb3daab	0.35127768
69	0x3e035439	0.12825097
70	0x3e993fe3	0.29931554
71	0xbe0bff51	-0.13671614
72	0xbd8de51f	-0.06928467
73	0x3dba37d2	0.09092678
74	0xbe78710b	-0.24261872
75	0x3cd65883	0.026165253
76	0x3e30c96c	0.17264336
77	0x3e8e6d57	0.27817795
78	0xbe71d8d0	-0.23617864
79	0x3db87d3d	0.09008262
80	0x3e4e4b50	0.20145917
81	0xbeabe946	-0.3357641
82	0x3bc1e6c3	0.0059174015
83	0xbe9d973f	-0.30779454
84	0xbc0c0caf	-0.008547946
85	0x3c45bcc7	0.012068934
86	0xbeb840b3	-0.35986862
87	0xbda8fa82	-0.082509056
88	0xbedd1cf5	-0.43186155
89	0xbea0ba5b	-0.31392178
90	0x3e39fea3	0.18163542
91	0xbe03cd2d	-0.12871237
92	0x3ec4280c	0.38311803
93	0xbe308882	-0.17239574
94	0x3e793342	0.2433596
95	0xb9438519	-0.00018646232
96	0x3eb2c123	0.34912977
97	0x3dad902d	0.08474765
98	0x3ef7e01c	0.4841317
99	0xbec6d844	-0.38836873
100	0x3e463ebf	0.19359873
101	0xbe9ccac7	-0.30623457
102	0x3dddf09c	0.10836908
103	0x3eca6086	0.39526767
104	0x3eaa3676	0.33244675
105	0xbe4cb6be	-0.19991586
106	0xbe459432	-0.19294813
107	0xbd82ed28	-0.0639289
108	0x3e49ebe0	0.19718885
109	0x3e13e122	0.1444135
110	0x3e9f3578	0.3109548
111	0xbea2a2e5	-0.31764904
112	0xbe953737	-0.29143688
113	0x3e9b54db	0.30338177
114	0x3d8a7194	0.067599446
115	0x3e844bc3	0.25839052
116	0xbdd4707c	-0.10373017
117	0x3e53c50c	0.20680636
118	0xbec2cf1a	-0.3804863
119	0x3e8ffd8b	0.28123125
120	0x3dc5f05f	0.09664988
121	0x3ddd15f1	0.107952006
122	0xbe08ed68	-0.13371813
123	0xbe99168b	-0.2990001
124	0xbe9af59e	-0.30265516
125	0xbea975b7	-0.33097622
126	0xbe08a94d	-0.13345833
127	0x3e91df9d	0.28490916
128	0xbe853d58	-0.26023364
129	0xbe48959b	-0.1958832
130	0x3e83aa48	0.25715852
131	0xbe85e0ca	-0.26148063
132	0x3c979b86	0.018506777
133	0x3df1ac95	0.118004955
134	0x3d8afc6e	0.067864284
135	0x3e058ba3	0.13041548
136	0xbeb08ea9	-0.3448384
137	0xbe553dae	-0.2082431
138	0xbe74a0f0	-0.23889518
139	0x3e40f043	0.18841653
140	0xbe2de735	-0.1698273
141	0xbcc8aa9a	-0.024495412
142	0x3c032153	0.008003551
143	0xbe75c700	-0.24001694
