500_ML/models/weights_599_10-04_05:17.pt (torch_old, 743228 bytes, 11 tensors)

encoder.encoder.0.weight f4 [32, 1, 3, 3]
00000000: 54ae 643e 2824 6cbe 1ef9 7bbe 29cd 84be
00000010: 03f9 87be d833 1b3d 0aec 463e 3ee5 c13d
00000020: ea95 8ebe 27ee 123e 17ac 12be 9145 853e
00000030: e960 71be 4a3e 903e fd35 2cbe ea31 3cbe
00000040: dad8 253d e717 17be 1dff 613e b294 d13d
00000050: 09f0 4d3e 384b 95bd 7812 913e 089d 0abe
00000060: 671c 033e 1a85 153e 5eb7 f03d 00ae 0bbd
00000070: 36e4 00be 5e11 90be 8c75 ae3e fed9 8c3e
00000080: 0ee7 eabd cd7a 25be 90ad 06be e7b2 0f3e
00000090: cfde 4dbe 1ec2 66be 5805 973e f6d3 66be
000000a0: 6396 3d3e 1b9e 2ebe c0bf 2bbe 7525 033e
000000b0: 9f9b 823e f16e 65be 55df 1f3e 3e47 10bb
000000c0: f6a6 013b 139c 433d 3bc4 5ebd ae32 fa3d
000000d0: 7b93 7abe 4f37 b53d 04e8 46bd 5ca8 8d3e
000000e0: 18d2 9f3e 017c e0bb a70d 0d3e 296e 2abc
000000f0: 31b3 90bd 17a5 f1bc 810c 9e3d 5b37 733e
00000100: f8e9 903e 2e10 0e3e bb54 7cbe f1c0 87be
00000110: a1b8 9ebe 72d4 4bbe 0b7d 283e 04ea a73d
00000120: 00e8 f73d 607a 2cbe 39fa 29be b796 013d
00000130: 03cb 5fbe 1684 c33d bc89 7e3e 109f dfbb
00000140: d3f6 b2bd dc20 77be c206 0b3d dd1c cabd
00000150: eab8 253e efef 4abd c261 8a3e 828c a33e
00000160: b50c 46be bf3f b43d 7877 93be c70c 8abe
00000170: 6883 893d c38b 793e 4051 913c 3175 de3d
00000180: d918 2abe ab96 4abe ab9d 7fbe ab2d 3abe
00000190: 1abb 243e 432c a33e f37b 17be 4453 88bd
000001a0: 186c 96be ae5f 09be db64 98be 98fc 263d
000001b0: 941f 773e 63cf fbbc 80b9 573e a225 9fbe
000001c0: ab2f eb3d 4c06 a73d 5bcd 123d daf8 84be
000001d0: d648 933e 4d45 8f3e a588 78be 8570 a63d
000001e0: fcc0 1a3e 00ef 46be 964e 82bd 8b70 09be
000001f0: 705d 8ebe 8e0a 95be a72f 12be ec41 54be
00000200: 8010 913e 363e 8b3e 6c3f 35be 90b3 89bd
00000210: 39f1 643e b6d1 46be c626 dd3d f838 47be
00000220: a1e4 56be 8e87 6b3e 340f 093e 25f5 f8bd
00000230: d5ca 4dbe 7415 6b3e 2ebb 68be 03fb 5d3e
00000240: d800 a13e 5540 95be cd59 883e b345 adbe
00000250: abf7 bfbd 53ba 993e 5f21 663e a417 98be
00000260: da53 8b3d e072 5f3e 9b88 5d3d 1d7a d9bd
00000270: 2789 ebbc 23d1 993e d845 aabe e967 cbbd
00000280: 7d4d a7be eb78 433e e0e2 9dbe ffe4 92be
00000290: 7eb1 74be 8028 1ebc 0258 553e 7cda a3bd
000002a0: f89a 32bd 2b09 12be 800e ccbc 83f3 8cbe
000002b0: 69cf 283d e984 bf3d 9cb1 ec3d f278 983d
000002c0: f561 543e b22c 93bd 9550 563e da5c a5bd
000002d0: d5a6 03be 46ec ac3e 167e 5abe 06d9 6cbe
000002e0: 9a70 2abe d9b6 51bd 821a 343e cb58 5cbe
000002f0: d9aa 5ebe 0831 2bbd 6410 9a3d d023 8ebc
00000300: 9654 0f3e 48b5 a6be 0084 e73c e4ff 8bbe
00000310: 002a 2a3c f3dc a2be 5674 e1bd 5d4a 293e
00000320: 294b a33e 0f86 5b3e 3b01 703d c580 dc3c
00000330: c2be ddbd 30c2 1abd 8011 05be 49a7 a43e
00000340: ae22 0dbe 5a5f 9abe a084 81be 4075 d33c
00000350: 3804 67bd d67e 3f3e a699 75be 8ce4 9cbd
00000360: 1787 a7bc ad9f 61be ac2b 893e cf71 26be
00000370: b4fa 0ebe 7456 62be 6d98 9ebe c708 f1bd
00000380: bbd2 f33c 906f 95be b897 7ebe 9084 dabd
00000390: e86b 1c3e bb94 8d3e ae58 2cbe b6f0 41be
000003a0: 7c9c fbbd 80c3 8b3c df15 8abe 33ed 1b3e
000003b0: 7023 b1be 84a2 c13c a999 ddbd ccaa 4f3e
000003c0: c531 273e e45b 5d3e 3551 b5bd 0d24 883d
000003d0: 4e11 1ebe 25ed 333e 937d ac3d 6a0d 9f3e
000003e0: 7a17 353e 7575 a73b 0383 2e3d 3827 83be
000003f0: 8c83 e83d d48c 383e b814 4f3d 7c47 8c3e
0.22332126 -0.23060668 -0.2460675 -0.25937775 -0.26557168 0.03789124 0.1942598 0.094675526
-0.2784875 0.1434866 -0.1432346 0.26029637 -0.23572125 0.28172523 -0.1681747 -0.18378416
0.04049001 -0.14755212 0.22069974 0.102334395 0.20111097 -0.072897375 0.28334403 -0.13536465
0.12803803 0.14601555 0.117537245 -0.034101486 -0.12587056 -0.2813825 0.34074056 0.27510065
-0.114698514 -0.16160126 -0.13152146 0.1403309 -0.20104526 -0.22534987 0.29496264 -0.22541794
0.18514399 -0.170525 -0.16772366 0.12807257 0.25509354 -0.22405602 0.15612538 -0.002201512
0.0019783354 0.047756266 -0.05438636 0.12216698 -0.24470322 0.0884844 -0.04856111 0.2766751
0.31214976 -0.00685072 0.13774739 -0.010402241 -0.07065428 -0.029497666 0.07717229 0.23751585
0.28303504 0.1387336 -0.24641697 -0.2651439 -0.31000236 -0.1990526 0.1645395 0.08198932
0.12104797 -0.16843557 -0.16599359 0.031637874 -0.21854787 0.09546678 0.24857229 -0.0068243816
-0.08738484 -0.24133629 0.03394199 -0.098687865 0.1618382 -0.049545225 0.27027708 0.31943136
-0.19340785 0.08801221 -0.28802085 -0.26962873 0.06714517 0.24369721 0.017738938 0.10862196
-0.16611041 -0.19784038 -0.2496249 -0.18181483 0.16086999 0.31869707 -0.14793377 -0.06656507
-0.29379344 -0.13415405 -0.29764447 0.040768236 0.2413314 -0.030738538 0.21066856 -0.310834
0.11483701 0.08155498 0.035840373 -0.2597111 0.28766507 0.2798256 -0.24270876 0.0812693
0.1511268 -0.19427109 -0.06362645 -0.13421838 -0.27805662 -0.29109615 -0.1427599 -0.20728272
0.283329 0.271959 -0.17699975 -0.06723702 0.22357644 -0.19415936 0.10798411 -0.19455326
-0.20985653 0.23000929 0.13384706 -0.121561326 -0.20096906 0.22957402 -0.22727653 0.21677785
0.31445956 -0.29150644 0.26631013 -0.3384224 -0.09373411 0.30024967 0.22473668 -0.29705536
0.06803103 0.21821165 0.054085355 -0.106189944 -0.028751923 0.3004237 -0.33256412 -0.09931929
-0.32676306 0.19089095 -0.30837154 -0.28690335 -0.23895833 -0.009653211 0.20834354 -0.08000657
-0.04360482 -0.1426131 -0.024909258 -0.27529535 0.041213427 0.093515225 0.11557314 0.074449435
0.20740493 -0.07186259 0.20929177 -0.08074351 -0.1285661 0.33774012 -0.2133716 -0.23129663
-0.16644517 -0.051199768 0.17588237 -0.21518247 -0.2174486 -0.041794807 0.075226575 -0.017351061
0.1399711 -0.32560182 0.028261185 -0.27343667 0.01038599 -0.31809196 -0.110085174 0.16532274
0.3189328 0.21437858 0.058594923 0.02691687 -0.108274 -0.037782848 -0.12994957 0.32158878
-0.1378276 -0.30150872 -0.25296497 0.025812745 -0.056400508 0.18700728 -0.23984393 -0.07660779
-0.020450158 -0.22033568 0.26791131 -0.16254352 -0.13962823 -0.22103292 -0.30975667 -0.11769252
0.02976357 -0.29186678 -0.24862564 -0.106698155 0.15275538 0.27652535 -0.16830704 -0.1893948
-0.122857064 0.017060995 -0.2696981 0.15227203 -0.3459735 0.023637064 -0.10820324 0.20279998
0.1632758 0.21617085 -0.0885338 0.06647501 -0.15436289 0.17570932 0.08422389 0.31064922
0.17684737 0.0051104375 0.04260541 -0.2561586 0.113532156 0.18022472 0.05055687 0.27398288

encoder.encoder.0.bias f4 [32]
00000000: f768 cd3d cc17 ed3d ea36 b33e ffc5 82be
00000010: fd93 d23d 6989 cc3d 5660 89be 7c16 813e
00000020: 2727 a33e 48b9 243e 5340 423e 76a8 a2be
00000030: 74d3 b83d 831e bf3d 2603 953e 3725 883e
00000040: d5b4 a13e c09b 663e b054 98bd bb3d 02be
00000050: 1189 a03e c6eb 2dbe 7b53 39be 9411 8bbe
00000060: 3143 833e 10a0 95be 8fa1 9d3e f8df 89be
00000070: 47f4 40bd 2aa4 b53e de9a 083e 55d7 983e
0.10029786 0.115768045 0.35002834 -0.25541684 0.10282133 0.099871464 -0.2683131 0.25212467
0.31865808 0.16086304 0.1896985 -0.3176915 0.090247065 0.093319915 0.29103965 0.26590893
0.31583276 0.22520351 -0.07438028 -0.12718861 0.31354573 -0.16984472 -0.18098252 -0.2716185
0.256372 -0.2922368 0.30787322 -0.26928687 -0.04710796 0.3547681 0.13340327 0.29851785

encoder.encoder.2.weight f4 [64, 32, 3, 3]
00000000: cca5 153d 5c7e e7bc aabb 98bc b255 443d
00000010: 3aca c6bc 9b72 213d f315 0c3d f913 a83c
00000020: 5f16 373c 1da0 a13b cd78 f53c c1c4 703c
00000030: 1717 a73c d4b3 eaba 3f0a 063c 1c72 65bd
00000040: af62 1b3d c2fe dcbb 41b8 7bbd 7f7d 5fbd
00000050: 77e5 dcba 0380 fc3c 977e 29bd 2aa2 b6bc
00000060: 3885 37bc be4f 463d 90ac 2dbd 5b28 443d
00000070: 81db 3c3d fd44 4d3d 0ced 263c 8f30 dabc
00000080: 6bad 57bd 74bb 15bd aa49 cf3c 7d06 1c3d
00000090: cd61 3c3d 8fdd c6bb a73c 93bb 6165 603c
000000a0: a01f 0fbd 1f4e 02bd d7c7 69bd 3281 3e3d
000000b0: c621 303c 6729 1bbc f6e2 003d 67db fa3c
000000c0: 818d 13bd b440 cd3a df28 86bc f361 3f3d
000000d0: 0ba2 f4bc 4770 9f3c 8dfb 173d 08a8 ebbc
000000e0: 3abc ac3c 5ce6 613c 3aa8 1bbb 2bb6 39bd
000000f0: 6c98 273c 34a2 46bc 2eea 23bd 5f69 423d
00000100: 315b 723a 9695 ccbc a0c0 53bd f697 d3bc
00000110: 8dcf 80bd 231a 3d3d 06c6 e53c 46dd bbbc
00000120: dc53 ee3c 6deb 7dbd 84f1 57bd 1593 0fbd
00000130: b114 a2bc 08e9 9c3c 74d8 113c 9532 71bc
00000140: 6515 98bb 486e 03bd d3bc 543d 1641 2ebd
00000150: b45d 12bd decc dc3a 04fd 81bd 92c9 953b
00000160: 4aab 77bd 8627 f73c de77 37bc 27d8 8fbb
00000170: dfc9 3a3d db7f 6ebd b4f8 103d c63a 5f3c
00000180: d6dd 283d 92a6 10bc 3e65 f93c 281c d9bc
00000190: 1c8a f4bc 0d89 1fbd f533 1f3d b28a 97bc
000001a0: a2a5 c1bc 09b4 2e3d d66e ee3c 18aa d03b
000001b0: 3bc1 9bbc 0f62 543d c88f 2cbc 798c 60bd
000001c0: bb5b 053d 2589 23bc c6fc 723c 86be 04bd
000001d0: fb3c 2a3c 020b fb3c 2d04 28bd 996a 653b
000001e0: 132d 2fbd 583f 34bc 683f 4ebd 4e21 073d
000001f0: 7b13 22bd 0128 75bc 9241 cebc b2aa 093c
00000200: 4d43 debc e5dd 7cbc e6cb ed3a e780 e03c
00000210: 1483 8cbc 0231 0a3d 19ab 0f3c 2635 11bd
00000220: 1f4b 70bd 1247 0d3c 8560 62bd cee2 65bd
00000230: d986 2a3d 3464 2e3d 2678 af3c d32b 32bd
00000240: 3658 053c 2d33 74bd acd3 60bc c0db c2ba
00000250: 5470 f9bc fb12 c23a f9ca 193d 2941 81bd
00000260: e006 2f3c 2c9e 27bd 7579 83bd 97e4 d1bb
00000270: 6802 81bd 7f38 77bd 3682 61bd a714 913c
00000280: e3f2 e33c 1286 0ebd 5679 be3c 6ed8 d7bc
00000290: 1e23 e03c 54b5 5abd 6e30 9c3c f015 233b
000002a0: 7e37 d13c f9e2 5a3d 3fd2 033d 8dc8 4a3d
000002b0: 1456 113d 4748 4f3d e4cc 323d 5b62 003d
000002c0: 9b8f 90bc 61bc 69bd f22f 2c3d f024 b7bb
000002d0: 9222 4c3d 6a28 c53c 3202 1c3d 6fc2 57bd
000002e0: 0a61 46bd 701a 313d 0500 efbc 1835 40bd
000002f0: 739b 1f3d 611e 2e3d dd46 243d 1cfc 0cbd
00000300: 68bb dc3b b2db b83c 62b7 01bd f86e d73b
00000310: fd2a 153d 30af 8cbb a46d dcbc 1aa3 a63c
00000320: e33a 05bd c72a 41bd 63af e2bc 2e50 1a3d
00000330: 1c60 d3bc db72 303d 60d3 42bc 6081 3e3b
00000340: 2cfb 6a3c 52e5 ff3c 0b70 6c3d bb69 6f3d
00000350: 8ce8 543c 8cd7 333c 28d2 3bbd be5c 95bc
00000360: b570 5dbd 1db0 a23c a569 1f3d 9733 f23c
00000370: 7444 5fbd 6a29 21bd ea1d 363d 4198 3bbd
00000380: eee0 37bd 44a4 613c f0e9 3abb 7e6f d9bc
00000390: 184a dd3b 68db 873b 9c6a 64bc f10a 363d
000003a0: 9e37 a03c 3b44 13bd 5dc3 8c3c 92df c43c
000003b0: d213 cbb7 7f63 483d e70d 453d 643a adbc
000003c0: 0ce9 3e3b fdd0 4abd 7b59 34bd e4d1 09bc
000003d0: a4e2 29bd 7d25 2fbd 1343 32bd 1bf3 203d
000003e0: 13d2 453c 55a8 b73b 0751 963c b3a1 2cbd
000003f0: ec6f 2fbd a088 0b3d c398 853d 943a 11bd
0.03653507 -0.028258495 -0.018644173 0.047933288 -0.024266351 0.039415937 0.03420062 0.020517336
0.011174767 0.004932417 0.029964829 0.014695347 0.020396752 -0.0017906376 0.008181154 -0.056017026
0.03793591 -0.0067442367 -0.061455015 -0.05456304 -0.0016853054 0.03082276 -0.04138049 -0.022294123
-0.011201195 0.04841589 -0.042400897 0.04789005 0.046107773 0.05011462 0.010188352 -0.026634483
-0.05265562 -0.036555722 0.02530368 0.038092125 0.045991708 -0.0060688923 -0.0044933143 0.013696046
-0.03494227 -0.031812783 -0.057075348 0.04650993 0.01075024 -0.00947032 0.031466447 0.030622197
-0.03602362 0.0015659542 -0.01637691 0.04672427 -0.029862424 0.019462718 0.037105132 -0.028766647
0.021085847 0.013787832 -0.0023751394 -0.045339745 0.010229211 -0.012123633 -0.040018253 0.04746377
0.0009245156 -0.024973672 -0.051697373 -0.025829297 -0.06289587 0.046167504 0.028048526 -0.02293266
0.029092722 -0.061992098 -0.05272056 -0.035052378 -0.019785257 0.019154087 0.008901704 -0.014721532
-0.0046412223 -0.032087594 0.05193789 -0.04254254 -0.035733894 0.0016845723 -0.06347087 0.004571148
-0.06046609 0.030170213 -0.011198012 -0.004389781 0.045602676 -0.0582274 0.03539343 0.0136248525
0.041227184 -0.008828776 0.030443784 -0.026502684 -0.029851012 -0.03894906 0.03886791 -0.018498752
-0.02363855 0.042652164 0.029105585 0.006367933 -0.019013038 0.05185133 -0.010532327 -0.054821465
0.032558184 -0.009981428 0.014830774 -0.03240826 0.010390515 0.030644897 -0.041019607 0.0035006164
-0.042767595 -0.01100143 -0.050353438 0.032990746 -0.03956936 -0.014963151 -0.02517775 0.008402513
-0.0271317 -0.015433763 0.0018142432 0.027405215 -0.017152347 0.033738144 0.00876882 -0.035451077
-0.05866539 0.0086229015 -0.05526783 -0.0561245 0.041632507 0.04257603 0.021419596 -0.043498825
0.008138707 -0.059619118 -0.0137223415 -0.0014866516 -0.03044907 0.0014806682 0.037547085 -0.063112564
0.0106827915 -0.04092233 -0.064196505 -0.006405424 -0.06299287 -0.060356613 -0.05505582 0.017710043
0.027825778 -0.03479583 0.023251217 -0.026348319 0.027360495 -0.053395584 0.019066062 0.0024884902
0.025539156 0.053439114 0.03218293 0.049507666 0.03548248 0.05060604 0.04365243 0.0313438
-0.017646601 -0.057064418 0.04203791 -0.00558912 0.049837656 0.024067122 0.03808803 -0.05267566
-0.048432387 0.043238103 -0.029174814 -0.046925634 0.038966607 0.04250944 0.040106643 -0.034420118
0.0067362078 0.022565696 -0.031669028 0.006574508 0.03641795 -0.004293345 -0.02690775 0.020341445
-0.032526862 -0.047159936 -0.027671522 0.03767412 -0.025802664 0.043078285 -0.011891216 0.0029068813
0.014342111 0.031237278 0.05772404 0.05845044 0.012994897 0.010976683 -0.045854717 -0.0182327
-0.054062564 0.019859368 0.03891911 0.029565616 -0.05450864 -0.039346136 0.044462122 -0.045799498
-0.044892244 0.013772074 -0.0028520785 -0.026542421 0.0067532174 0.0041460283 -0.013941433 0.04444403
0.01955777 -0.03595374 0.017183 0.024032388 -2.4208715e-05 0.048923012 0.04810896 -0.021146007
0.0029130606 -0.049515713 -0.044030648 -0.008411858 -0.041475907 -0.04276036 -0.043521 0.039294343
0.012074011 0.0056047835 0.018349184 -0.042146396 -0.042831346 0.034065843 0.065232776 -0.035456255

encoder.encoder.2.bias f4 [64]
00000000: b345 4d3d 9632 343d e3d7 cabc eb70 7d3d
00000010: 723e 263d 66f8 20b9 df7f 373c a3b4 1abc
00000020: 8a98 37bd 05f3 e93c 96b5 39bd ca57 c93c
00000030: cbfe 17bd a7fd 8e3d 73aa 71bc f030 273c
00000040: 4b7f 69bd 8032 ffbb 76e8 8f3d fd7a 9b3d
00000050: 04a2 37bc bb22 54bd 11df 0fbd f59d 843d
00000060: 08cf 00bd 01e6 623d 36ba 4f3c 9fd8 34bd
00000070: e3f0 ccbb 5625 873d ffa4 9b3d 8262 57bd
00000080: c203 3a3d 5b6e 3dbc 17bf 633b 46a8 01bc
00000090: 6667 53bd dcbe 783d 3432 2abd 34f2 09bc
000000a0: fe17 0f3d 2003 01bd 7144 62bd af12 a73b
000000b0: 7679 f93b e887 943b d3ac 62bd c7fc e73b
000000c0: d32d 123d d98e 213d 537b 6ebc 9e2e e43c
000000d0: b687 39bd f87a 9d3d fe4f 2e3d 62b6 413d
000000e0: 7b78 623d 1857 0ebc 8676 6d3d 5b7b 873b
000000f0: 9bd9 82bc 682e 9e3a 94c6 02bd 9fac 683c
0.0501153 0.043993555 -0.024761146 0.061875265 0.040586896 -0.00015351325 0.01119992 -0.009442481
-0.044823207 0.028558264 -0.04533919 0.024577994 -0.037108224 0.06981974 -0.014750111 0.010204539
-0.05700616 -0.0077880025 0.0702676 0.075918175 -0.011208061 -0.051790934 -0.035124842 0.064754404
-0.03144744 0.05539513 0.0126786735 -0.0441519 -0.006254302 0.06598918 0.0759983 -0.05258418
0.04541374 -0.011561955 0.003475135 -0.007913655 -0.05161228 0.060728893 -0.041551784 -0.008419562
0.03493499 -0.03149712 -0.055241052 0.005098663 0.007613356 0.004532803 -0.0553406 0.007079694
0.035688233 0.03944287 -0.01455577 0.02785426 -0.04529544 0.0768947 0.042556755 0.047293074
0.05529068 -0.008687757 0.05797436 0.004134578 -0.015972903 0.0012068273 -0.03192766 0.014201312

encoder.encoder.4.weight f4 [128, 64, 3, 3]
00000000: fa74 943c 4364 c4bb e7dd 8bbc 9426 81bc
00000010: b431 373d 1fd2 173d a3c4 123d 5cab 0abd
00000020: b8a1 f3bc a2ed ad3c 046c 613d fca2 b23c
00000030: bb2c 833d a551 30bc 7aa0 813d 4356 5d3d
00000040: c17d 3bbc 1ba4 033d b43b 74ba 1a14 cdbc
00000050: 24cd 82bc 6b1a 7f3c 9d15 2b3c 1309 95bc
00000060: 4829 903b c8a6 d43c 643a 52bc b5db 4f3c
00000070: 6aad 923c c4cc 1f3d 4e89 a5bb 81bd 0a3c
00000080: 99c8 6abc 449a 143d 3021 0b3c ddb4 383d
00000090: a742 603d 2f02 21bb 1f10 80bc b6d3 5c3d
000000a0: 6988 5abc a002 a33c 2b24 38bb 1c44 9d3b
000000b0: 078d f23c fa40 89bb 593a f2ba edc5 7bbb
000000c0: 439f 203d e913 c03c f3af 53bc 8123 5b3d
000000d0: 6942 703c 837a bd3b d8f4 c63c 6185 80bc
000000e0: 7d51 373c 4f01 043d 6093 6a3d 7dcf 653d
000000f0: 10ef 0a3c a167 a13b 487e 263d 1c1b 4d3d
00000100: 923c 873c 3108 45ba d369 2a3d 3850 ca3c
00000110: feea 453d d64e 0c3d 309f 193d 7a08 443b
00000120: 051d 9bbc b951 943c 8717 163d b75b f1bc
00000130: 7f09 323c bd92 e8bc c0c0 363c 14ec 00bd
00000140: 8390 0cbd 0c7d e8bb 3cfc 663c f44c 3a3d
00000150: 0d66 843a 6ec7 02bc 953f 233d c26d 203d
00000160: 4f02 b93c 89c2 b63b 0490 423c 65f6 60bd
00000170: 27f7 34bc e822 243c 832a 463c 24d5 053c
00000180: 450e e63b dc9d c5bc 3930 6cbc 2244 64bd
00000190: 2225 b2bc 0695 f7bc 6a68 80bd 8baa 93bb
000001a0: 5b7f 403b d08a 7cbb 4e2a 8abd 1e26 c6bb
000001b0: 931a 8fbd 2fce 2bbb 6415 a1bc dac7 52bd
000001c0: 56d8 8fbb 1888 ebbb 25eb 66bd a1a1 74bd
000001d0: 90da 87bd b44a 0c3d 06cf 543d a54c c3ba
000001e0: 31c6 843c 76db 983c ddd5 11bc c5b6 323d
000001f0: 9395 6c3d d563 723d f031 a3bd 8d6a babc
00000200: a4b8 3dbc c9f6 003b 346d 2c3d 57f2 60bc
00000210: a45f b9bd 89ad 02bd b0de 2abd edf6 6f3d
00000220: bcd8 86bc fbb9 c63a 5e71 ac3c ac1d 3b3d
00000230: 23fb ba3c f239 44ba 9f66 05bc c77d edba
00000240: ce56 31bd 4122 8bbc afe9 bcbc 3a73 703b
00000250: 68d6 cbbc 39c6 efbc a632 31bd d625 89bd
00000260: bf6b 8abd 3efd 453c 1207 0a3c 5127 6b3d
00000270: 8b63 53bc b48c 183d a02e f23c c718 753d
00000280: 3c59 abbb f76e 263b 424f 3f3d 9eb4 7b3c
00000290: 7452 293d d42d 833d af11 3cbc e352 f13c
000002a0: b482 a53c 7567 26bc 6ec3 da3c d95e 893c
000002b0: bdc8 d13b ebe5 323d 8ffe 693d 6b5b 823d
000002c0: 916b 273d 1548 733d df43 443d 98ea 2d3d
000002d0: c0e0 0c3c e018 c93a 84a9 3b3c 6f5c 00bd
000002e0: 6bbb 1fbd 9641 fe3c 262b 9dbc 1053 7cbc
000002f0: a641 ad3c a2dd c43c 0898 bd3b 2256 0fbd
00000300: acdb 36bc 7608 99bc a9d0 233d 0aeb 0ebd
00000310: 407b 76bc 1c00 783c 2e52 213d 5cbb 303a
00000320: 848c 003d ca06 033d 5800 fc3c 9a9b 7a3d
00000330: 52b0 1f3a 2d89 113d bf20 1cbc b2ea d33c
00000340: 5f3f 8d3c ef26 113d 49ef 8b3c f027 813c
00000350: 514d 763d f956 213c 6925 343d f73a a3bb
00000360: 8a67 ae3c 5073 3f3b 9cc9 573c 465e e7bc
00000370: 0839 91bc 029f 9e3c 30dc 1d3c 604d 173c
00000380: 6bd9 24bd 80de ba3a 38dd 12bd 546a 693c
00000390: 802c b6bc 596f 263d 5434 293c e879 06bd
000003a0: eed8 afbc 3243 c73c ab58 153d 70b4 35bc
000003b0: 2fd7 87bc aea0 f43c 2a9c 8abc 4073 c8bc
000003c0: bdea 04bd a15f dfbc 35df 3dbc 0ea4 32bd
000003d0: eec9 74bd 65f7 d3bb 10f8 75bd 335a 0abd
000003e0: 2eb2 24bd d33b 84b8 8a5a 0ebc 4a96 cbbb
000003f0: 514c d13c f4e0 a03c 4ebd c03b 69c8 a2bc
0.018122185 -0.0059933974 -0.017073585 -0.015765466 0.044725135 0.03706562 0.03583206 -0.033854827
-0.0297402 0.021231476 0.055034652 0.021806233 0.06405016 -0.010761653 0.063294366 0.054037344
-0.011443556 0.032138925 -0.0009316758 -0.025034 -0.01596696 0.015570263 0.010442165 -0.018192803
0.0043994524 0.025958434 -0.012831304 0.01268666 0.017904956 0.03901364 -0.0050517684 0.008468033
-0.014330053 0.03627993 0.008491799 0.04509436 0.054751065 -0.0024567952 -0.015632687 0.05391284
-0.013338187 0.019898713 -0.002809773 0.004799379 0.029608263 -0.004188654 -0.0018480524 -0.0038417534
0.039214384 0.023446994 -0.0129203675 0.053500656 0.014664271 0.005782427 0.024286672 -0.0156886
0.011188862 0.03222781 0.057269454 0.05610608 0.0084798485 0.0049256836 0.040647775 0.05007468
0.016508374 -0.0007516174 0.041604828 0.024696454 0.04831981 0.03425487 0.03750533 0.002991228
-0.018934736 0.018105375 0.03664353 -0.029462678 0.010866522 -0.028390283 0.011154354 -0.03147514
-0.034317505 -0.007094985 0.014098223 0.045483544 0.0010101214 -0.007982118 0.03985556 0.039167173
0.022584109 0.0055773896 0.011875156 -0.05492248 -0.011045254 0.010018088 0.0120950965 0.0081684925
0.007020744 -0.024123125 -0.014415794 -0.05572904 -0.021746222 -0.030222427 -0.062699154 -0.0045064143
0.0029372785 -0.0038534887 -0.0674635 -0.0060470244 -0.069874905 -0.0026215424 -0.01966352 -0.051460125
-0.004389803 -0.0071878545 -0.056376595 -0.059724454 -0.06633484 0.03425093 0.051955245 -0.0014900161
0.016207786 0.018659335 -0.008901087 0.043631334 0.057759833 0.05917724 -0.07968509 -0.022755885
-0.011579666 0.0019678345 0.04209633 -0.013729653 -0.09051445 -0.031903777 -0.041716278 0.058585096
-0.016460769 0.0015161628 0.021050151 0.045682594 0.02282483 -0.0007485441 -0.008142143 -0.001811915
-0.043295674 -0.016984107 -0.023060648 0.0036689774 -0.02488251 -0.029269325 -0.043261193 -0.0669667
-0.06758832 0.012084303 0.008424537 0.057410542 -0.012902151 0.03724356 0.029563248 0.059838083
-0.0052291434 0.002539573 0.046706446 0.015362887 0.0413384 0.064052254 -0.0114788255 0.029458469
0.020203926 -0.010156502 0.026704516 0.01676886 0.0064021037 0.043676298 0.05712753 0.06365093
0.040874068 0.059394915 0.04791629 0.042460054 0.008598506 0.0015342496 0.01145399 -0.03133815
-0.038997095 0.031037133 -0.019185614 -0.015400663 0.021149468 0.024031464 0.005785946 -0.034994252
-0.011160772 -0.018680792 0.039993916 -0.03489212 -0.0150440335 0.015136745 0.039385013 0.0006741786
0.031384006 0.031988896 0.030761883 0.06118355 0.00060916424 0.03553121 -0.009529292 0.025868747
0.017242132 0.03543752 0.017081873 0.015766114 0.06013233 0.009847396 0.04398099 -0.0049813944
0.021289606 0.0029213019 0.013170626 -0.028243195 -0.01772739 0.01936293 0.009635016 0.009234756
-0.04024641 0.0014256984 -0.035855502 0.014246542 -0.022238016 0.040633533 0.010327417 -0.032831103
-0.021465745 0.024324033 0.036461513 -0.011090383 -0.0165821 0.029861774 -0.016920168 -0.024469018
-0.032450426 -0.02726728 -0.011588861 -0.043613486 -0.059762888 -0.0064687007 -0.060051024 -0.033777427
-0.040208988 -6.3053936e-05 -0.008688578 -0.006212984 0.025549086 0.019638516 0.005881942 -0.019870954

encoder.encoder.4.bias f4 [128]
00000000: 214c d23b 3edc 9e3a 1618 56bc 9ce9 44bc
00000010: fe0e 563d 4179 233d c416 723d 03e8 4cbc
00000020: 554f 54bd 7c04 4f3d caca 39bd 38ec ab3c
00000030: a9ca cd3c f8a6 653d a993 c1bc c8f5 423d
00000040: 58f4 803d 7d8a cb3c 34e1 38bd 6de9 8cbd
00000050: 2b69 efbb 3b97 3bbd e7be 7fbb 21b6 1ebd
00000060: 959a 2ebd b047 7dbc 6397 afbb e266 2c3d
00000070: 4c84 333d 93ad 88bd 7aa7 4e3d 2623 2c3d
00000080: 6c15 3fbc f376 85bb 56dc ad3c 733f 07bc
00000090: c9b6 2c3d 3b6e 2d3d 1649 0cbd b2e5 30bb
000000a0: e165 fa3c f299 313c d38f 90bb a80c b4bc
000000b0: 65dd 37bc e604 1c3d 7081 f33c bcc6 4b3d
000000c0: 3a7e 4c3d e110 0d3d 705e 863c 6273 2fbd
000000d0: 77ab 1fbd 3a4c 7e3d 718c fdbb 6efd 253d
000000e0: 2181 d43b 5f39 4bbc fbc9 c43c a347 083d
000000f0: 7bc8 cbbc 4609 45bc ac5d 7a3d 623d bc3c
00000100: f475 4c3d 2673 353d e5c7 9d3a 41ce b23c
00000110: c327 f3bc 25c5 423d 1634 5fbd b762 b33c
00000120: e168 5d3d 0ad4 0ebd 5e4c 1a3d 8655 a63c
00000130: a7f1 eebc 719a 813d 84c2 163d f90b e43c
00000140: 5d6d 823d 4840 08bc 8ed7 5f3d 6670 073d
00000150: ca1e 053d b31a d43c 0d14 d73c 457d 04bc
00000160: ddc9 0f3c 14bf 463d 583e 9abc 05bb 853d
00000170: 1c4a b7bc 1805 53bc 9e8d 95bc 7e9b 493d
00000180: fc11 64bc fa3b 523d c75e d23c b604 503d
00000190: e1d6 8ebc 5245 133d db98 c03c 4f34 79bd
000001a0: e82f 3ebc 6bfc 08bc c814 7a3c 255f 763c
000001b0: 1d59 7cbd 9026 3b3d 07d7 823d 6e13 2c3d
000001c0: fcc3 12bd cac6 463a 76d1 23bd e773 2bbc
000001d0: c921 12bb 2b81 5fbc b89a 523d cec4 133d
000001e0: a75d 94bc 9927 843d 3100 41bd e915 e1bc
000001f0: 42c9 4b3d 0483 cd3c 5ecc 0ebb 3856 29bd
0.0064177667 0.0012120081 -0.013067266 -0.012018587 0.05226039 0.03991056 0.059103742 -0.012506488
-0.05183347 0.050541386 -0.04535941 0.020986661 0.02512105 0.056067437 -0.02362998 0.047597677
0.06296605 0.02484631 -0.045136645 -0.0688046 -0.007306238 -0.04579852 -0.0039023699 -0.03874791
-0.04262789 -0.015458986 -0.005358623 0.042090304 0.04382734 -0.06673732 0.050452687 0.042025708
-0.011662822 -0.0040730177 0.021223228 -0.008254874 0.042166505 0.042341452 -0.034249388 -0.0026992378
0.030566158 0.010839926 -0.0044116764 -0.021978691 -0.011222218 0.03809061 0.029724807 0.049750075
0.049925067 0.034439925 0.016402453 -0.042834647 -0.03898188 0.062084414 -0.007737689 0.040524893
0.00648512 -0.012403815 0.024022093 0.033271443 -0.02487587 -0.012026137 0.06112449 0.022978488
0.049917176 0.044299267 0.0012037723 0.021826865 -0.029682046 0.047551293 -0.054493032 0.021897657
0.0540551 -0.034870185 0.037670486 0.020304453 -0.029167963 0.063282855 0.0368066 0.02783774
0.06368516 -0.008316107 0.05464893 0.033066176 0.032500066 0.025891637 0.026254678 -0.008086507
0.008776155 0.04852207 -0.018828556 0.06529812 -0.022374205 -0.012879632 -0.018256005 0.049220555
-0.013920303 0.05132673 0.025679959 0.050785743 -0.017436447 0.03595478 0.023510387 -0.0608409
-0.011608101 -0.008360962 0.015263744 0.015037333 -0.061608423 0.045691073 0.063886695 0.042010717
-0.035831437 0.00075827225 -0.03999468 -0.010464645 -0.002229797 -0.013641636 0.051417083 0.03607636
-0.018111063 0.06452865 -0.047119323 -0.027476268 0.04975248 0.025086887 -0.0021789293 -0.04134199

decoder.decoder.0.weight f4 [128, 64, 3, 3]
00000000: 068c 8f3c 7b1c 253c 373f 793c b8a7 32bc
00000010: e2bc 7a3c f7c9 e93b 6ee2 433c ab6f 78bc
00000020: 729d 103b 9cbf 01bc 55a6 18bd 4fd5 9ebc
00000030: 4574 8bbb 00c5 953c 6986 ba3c 0a5b 1f3c
00000040: 1d33 1fbd ed36 f93c 9b83 c2bc 7078 d3ba
00000050: 30df 29bc a9a3 9c3c 2d6e 163d 5f48 15bd
00000060: 1bda 673d 9628 203c 2a49 783b c360 a9bc
00000070: ea83 343c ac82 12bc 1355 443d 3dd0 233d
00000080: a25e c93c 2af6 16bd 7b20 cb3c a03d 853b
00000090: 9702 423d 3586 583d 26aa 67bc 813d 153c
000000a0: 466e dc3a 53c8 b63c 6a3c 623d 82e7 353d
000000b0: 3821 163d a006 71bc b083 433b 86cb 073d
000000c0: 6162 ecbc 5ef0 953c 7625 08bd 59fe cebc
000000d0: d8da 8e3c ae82 14bd 2c7c 1cbd 290c 133d
000000e0: 3a8d 35bd bfac 5e3d 54d2 01bd 09a3 3d3b
000000f0: 5c33 dbbc eed4 9ebb 8ab5 9d3c bcaf 2fba
00000100: bfa9 8f3c 56cd 9eba a1fb 243d 8879 57bc
00000110: fc43 423c be85 973c b493 073d e332 b5bb
00000120: 77c1 593d a6f4 933c 4f02 013d 048d 343d
00000130: 23c0 683d 49db 353d a501 bf3a 0607 5ab9
00000140: d1ef 173d d703 693d 7a4b f43c 7b53 96bc
00000150: 199f 513c 1cd5 16bc f8fe a2bc 3e76 8b3c
00000160: 25b3 3abd 2e4a 203d 1833 b33c ee59 a83c
00000170: 5b64 803d 1423 663d 2cea f13b cc9d 563d
00000180: 701d 093d 1aec 773c 53c4 483d 001a 6e3a
00000190: 5d5b 1f3d 723e c53c 364e e53c 455b 8538
000001a0: 6f78 f5bc 0b73 0dbd 5729 023b c893 983c
000001b0: 7ffb 52bc eb73 5c3a 0b41 a53c 7f7d 7d3c
000001c0: a238 bf3c e8dc 103d 4881 933c 8ce9 153d
000001d0: 6639 0dbc f249 2a3d 9a44 183c 8326 343d
000001e0: 39db 533d 9917 2c3d 01fd a4bb b10e 273d
000001f0: ee5a 6f3c 4fa0 293b d280 693b abf5 d33c
00000200: d45f 6a3c 412d 98bc abde 663d 0810 d93b
00000210: c2e1 2bbd 92bf 8cbc 29aa 9d3c 95ec f8bc
00000220: 60bd 563c 3833 29bc fe33 9ebc 913c fabc
00000230: 26f6 353b 2b1b 1b3c 2a8c f1bb 9e5c 1abc
00000240: 95bd 0abb bfdb ba3c 2d3f 1c3c eb17 ff3c
00000250: 0b77 063d 9078 823c 02ce 763c b4c9 3abc
00000260: 2dc1 823b ca33 0abd 5eef 9a3c a2e1 b7bc
00000270: e836 053d 5678 7c3c de27 f6bb 906f 8bbc
00000280: 3350 7d3b 24f4 aa3c c21b 38bd feb0 75bc
00000290: b9c3 28bd c4b8 d13c 038a dabb 3da9 2ebd
000002a0: 5bf6 be3c d492 2fbd 80ae 1cbd 6be6 7d3c
000002b0: 5a14 d73b 3b3c ff3c 13a7 e0bc c488 083c
000002c0: 6c0e 343c 83bc 30bc d497 153d c386 9b3c
000002d0: aab9 c83c 960b 13ba 5304 ddbc 55b4 44bd
000002e0: 05dc c0bc 83b5 943c c9df 3bbd 98c6 cf3c
000002f0: 3788 f03c 470a 1fbc ca92 c63b 14aa 543c
00000300: 29af 463d c9af 513c 5fef dd3b 292a b33c
00000310: 8cd7 833c 0f40 1e3d f934 9b3c 64fd f03c
00000320: c4a9 16bd 554b 99bc 1d83 41bc b7a5 cbbc
00000330: 6af1 d1bb 9b33 38bc 177c a1bc 9a38 a0bc
00000340: edd8 17bd 69f4 963c a5c9 adbc a17b 033c
00000350: 689b e9bc 94aa 1abc 4df3 093d 942c ecbc
00000360: 6378 ab3c 7658 913c 3e49 e03c e705 b5bc
00000370: e407 5f3c 7a17 89bb c248 41bd 6687 163d
00000380: 1eee 42bd 385a db3c a84f 9cbc c224 19bd
00000390: 18aa dc3b cd0a 8e3b 9f1a 36bd 49b1 eabb
000003a0: c302 2ebc d6ad 4b3b 5706 41bd 4954 263c
000003b0: 74e5 47bd 31a2 8b3c ea27 fd3c 550f 92bc
000003c0: 5464 ec39 f725 bebb 296e eb3c e136 b4bc
000003d0: 9cca 0f3d 704b 24bc 1a39 c93c 5188 3b3d
000003e0: cc51 14bd ec88 183c 7dac ce3c 1870 87bc
000003f0: e502 cd3c 0cf3 f4bc 6e6f bd3c ac66 803c
0.017522823 0.010077591 0.0152128255 -0.010904245 0.015303822 0.007134672 0.0119558405 -0.0151633425
0.00220665 -0.007919218 -0.037268 -0.019388823 -0.004255804 0.018282413 0.02276917 0.009726295
-0.038867105 0.030421698 -0.023744395 -0.0016133916 -0.010368153 0.019121008 0.036726166 -0.03644597
0.056604486 0.009775301 0.0037885406 -0.020676022 0.011017779 -0.008942287 0.047932696 0.039993513
0.024581257 -0.036855854 0.024795761 0.004066184 0.04736575 0.052862365 -0.014139688 0.009108902
0.0016817532 0.022312319 0.055233397 0.044410236 0.036652774 -0.014711052 0.002983313 0.03315308
-0.028855504 0.018303093 -0.03323885 -0.025267767 0.017438337 -0.03625744 -0.038204357 0.03590027
-0.044324137 0.054363962 -0.031694725 0.0028936288 -0.026757888 -0.0048471605 0.019251604 -0.00067019067
0.017536996 -0.0012115638 0.040279035 -0.013151534 0.011857029 0.01849639 0.033099845 -0.005529748
0.053163018 0.018060993 0.031496342 0.044079795 0.05682386 0.04439858 0.0014572634 -0.00020792717
0.03709394 0.056888428 0.029821146 -0.018350353 0.0127942795 -0.009206083 -0.01989697 0.017024156
-0.045581 0.039133243 0.02187495 0.020550694 0.06269141 0.056185797 0.007382652 0.05239658
0.03347534 0.015131975 0.049015354 0.0009082854 0.03890549 0.024077628 0.027991395 6.3589345e-05
-0.029964654 -0.03453354 0.0019861066 0.018625155 -0.012877344 0.0008409607 0.020172616 0.015471815
0.023342434 0.035366923 0.018005982 0.03659968 -0.008619642 0.041574426 0.0092937 0.04398204
0.05172274 0.042014692 -0.005035043 0.040785495 0.014609082 0.0025882905 0.0035629761 0.02587398
0.014305074 -0.018576266 0.056364696 0.0066242255 -0.041963346 -0.017181192 0.019246178 -0.030386249
0.013106674 -0.010327153 -0.019311901 -0.030546458 0.0027765124 0.009466927 -0.007371445 -0.009421496
-0.0021170129 0.022809861 0.009536547 0.031139335 0.032828372 0.01592663 0.0150637645 -0.011400629
0.0039903135 -0.033740796 0.018912967 -0.022446457 0.032523066 0.01540955 -0.0075120768 -0.01702097
0.0038652539 0.020868368 -0.044948347 -0.0149958115 -0.04120228 0.025600798 -0.0066692843 -0.042641867
0.02331083 -0.042864636 -0.038252354 0.01549683 0.0065637054 0.03115665 -0.027423417 0.008333389
0.010989767 -0.010787132 0.036521748 0.018985158 0.024502594 -0.00056093314 -0.026979601 -0.04802354
-0.023542413 0.018152958 -0.045867715 0.025363252 0.029361827 -0.00970704 0.006059979 0.012980003
0.04850689 0.012798258 0.00677292 0.02187069 0.016093992 0.03863531 0.018946158 0.029417701
-0.036782995 -0.018712679 -0.011811045 -0.024859292 -0.0064069526 -0.011242772 -0.019712491 -0.01955824
-0.03707211 0.01842709 -0.021214316 0.008025081 -0.028516486 -0.009440083 0.033679295 -0.02882985
0.020931428 0.017742377 0.027378675 -0.022097541 0.013612721 -0.004183707 -0.047188528 0.03675022
-0.047590367 0.026776418 -0.019080952 -0.03738857 0.006734144 0.0043347836 -0.04445898 -0.0071622473
-0.010620776 0.0031078956 -0.047125187 0.010151931 -0.048802808 0.017045112 0.030902822 -0.017829577
0.00045088178 -0.0058028656 0.028739052 -0.021998825 0.035105333 -0.010027751 0.024563361 0.0457843
-0.03621082 0.0093099885 0.025228733 -0.016532943 0.025025794 -0.02990105 0.023124423 0.015673958

decoder.decoder.0.bias f4 [64]
00000000: b035 f8ba b9a9 613c 545c 393b b67a 4b3d
00000010: 6c09 813d 7913 febc 6a15 d0bb 3cda 6f3d
00000020: 5ce1 a63c 823e 813c 2bb5 f83c 611b eebc
00000030: 2617 463d 1734 143d df0d 493d 8dfe a7bc
00000040: 285e 183d 1a60 0cbc aee6 553c e49e 05ba
00000050: 20db 4cbd 561d 2a3d ddfb c1bc ed70 213b
00000060: 5696 8e3c 2d0e 38bd 2036 e13c 77bf 23bc
00000070: f70d ae3c 43b1 463d 2a21 2f3d b2f5 c2bc
00000080: 8c2d e33c 07c2 153d 6c55 d93c 756f 173d
00000090: 3075 debb db77 613c 2697 63bd a332 91bc
000000a0: 257f 6c3d de81 bcbc 543e 0ebd 68c8 32bd
000000b0: 6fb0 2e3d d0da 9a3c 1c63 193d 4c36 013d
000000c0: 18e6 42bd 7948 28ba 2542 dd3c 3b86 5e3d
000000d0: ed04 8d3c 6fce 39bb 9c72 703d 5674 1abd
000000e0: ecbc 393d ea87 a03c b2e8 cf3b 38e2 ebbb
000000f0: 4cae 313d 8a3d 97ba ab87 d03c 63fd 753d
-0.0018936899 0.013773375 0.0028283792 0.049677573 0.06300625 -0.031015145 -0.006350209 0.058557734
0.020371132 0.015776876 0.030359825 -0.02906579 0.04836192 0.03618249 0.049085494 -0.020507121
0.03719917 -0.008567834 0.013055487 -0.0005097224 -0.05001366 0.041531883 -0.023679668 0.002463396
0.01740567 -0.044935394 0.02749163 -0.009994379 0.021246893 0.048508894 0.042756237 -0.023798797
0.02773168 0.036561992 0.02652999 0.036971528 -0.006788872 0.013761486 -0.05556407 -0.01772434
0.057738442 -0.023011144 -0.03472741 -0.043648154 0.04264873 0.018903166 0.037448034 0.031545922
-0.047582716 -0.00064194907 0.02700908 0.05432723 0.017214263 -0.0028351804 0.05870305 -0.037708603
0.045346186 0.019596059 0.006344878 -0.0071985982 0.043379113 -0.0011538726 0.025455317 0.0600561

decoder.decoder.2.weight f4 [64, 32, 3, 3]
00000000: 2268 32bd 643d 883b 789d 0f3d 281a 253d
00000010: 9de7 eebc 1574 f73c 7f45 7fbd 2887 843d
00000020: dff2 8d3b 96f3 36bc ecd8 e93c 5235 873d
00000030: 5abd 0d3d 7b99 b73c 08d0 393d df52 18bd
00000040: 7098 133d 3d95 f1bc 0e3d 9ebc 274d 01bd
00000050: 31ad f0bc 80db 16bd b9db 1e3d 9acf 913c
00000060: 726a 393d 98cf 123d 7367 073d 9b25 503d
00000070: 0102 653d 9a16 9f3c 8ca0 35bd 7abe 79bc
00000080: b05d 88bc fed5 c2bc 1f70 803d 3571 1ebd
00000090: 5735 133d 044a 163d 0bd6 1cbc 50c3 99bc
000000a0: f7c5 ff3c 5ac8 51bc f187 64bd 1ae5 423d
000000b0: dbaa 993c 869e 133c 7641 253d 1636 80bb
000000c0: d056 f5bc ded9 e03c 6e35 2fbd 95c1 7ebd
000000d0: 2b11 39bd e6f8 89bd 2e84 5dbd 9c66 5cbc
000000e0: 7a86 813b d12f 0d3c f4c0 ac3c d56a 2c3d
000000f0: 5e81 63bd f9c4 82bd 005d 27bd 5832 2a3d
00000100: 799a 053d 920a 923c a2be 7b3c 7e45 f1bc
00000110: 086d 963d 3164 613d fa47 9c3d f1f0 43bc
00000120: e4b9 373c 1c2c d7ba 3721 22bd 235f 8a3d
00000130: b9a6 343d e116 873c 52e2 d93c 7fce 303d
00000140: 656a 3bbd d684 393d 509e 65bc 0ce5 83bc
00000150: f15e 593d 1ba5 9e3d 098d 143d ccd3 00ba
00000160: 88f1 8abc 5b30 973d 009c 5bbd 3db5 26bd
00000170: 7e3b 1fbc 38f3 413d 32b2 70bd ab2d 6bbd
00000180: b64c 9e3c 0947 f43c 2aad c63d b980 f43d
00000190: 4b6b 59bd 299f f43d 2a14 1b3b 3211 e3bb
000001a0: b866 00bd 71c3 943d d064 c5bb cce2 c0bd
000001b0: 83bd 8cbd 56c8 963d 5d3b e03c 207e aa3a
000001c0: 7e95 4e3d c250 d03c ab0c 22bd 13f4 fcbc
000001d0: ae01 1b3b 6aaf a73c ae70 c13c 3030 17bc
000001e0: 6e30 913d 450a 973d a732 8fbb ad88 35bc
000001f0: b00d 703d 221a 483d c228 28bd 31a2 3bbc
00000200: 3059 0fbd 9ada 373c 87ed 0f3d 5016 08bd
00000210: df56 8bbd 10e0 36bd 5575 f43c 2486 873b
00000220: 2edc 433d 7228 83bd 5193 5abc 0ee6 45bd
00000230: 664a 20bd bdea 963b 20e4 3a3d 4609 453b
00000240: 0bd0 f13c 9182 55bd 5640 35bd acff 453d
00000250: 9531 bb3c f7cd f1bc d6ca 4cbd abd5 633c
00000260: 7e2e 023c 74c4 013d 0e2b 8fbd aaf7 8b3b
00000270: 6d97 6c3d 30d4 f4bb bed1 c7bd ae34 003d
00000280: c1af f9bc c002 30bd 352d 2abd 8849 9fbb
00000290: 0d28 333d 2a98 7f3d a30c 693d 2887 933b
000002a0: cdd8 cbbc 7d16 063d 1f87 85bd b923 343c
000002b0: 98f7 3d3d 969a 14bd b98e 6a3d 6f10 953c
000002c0: 78b9 463c 99f4 a83c 1f68 01bd 9255 3d3c
000002d0: 8bca 313d 4c36 993c f8c6 07bc 60da c2b9
000002e0: 6bc8 43bd c616 94bc 7293 8c3c a433 82bd
000002f0: d2ba 50bd 1086 b3ba 124a 89bc 2c78 2ebd
00000300: de73 cd3c f0f6 f43a cd49 84bd 5b4d f8bc
00000310: 3f0f 12bd 4dc4 77bc ef54 1e3d 4501 073d
00000320: 3fb0 413c 4696 433c 892c 4f3d 050b 8f3b
00000330: dd7d 163d dcb5 d8bc 97a2 09bd 85e1 0ebc
00000340: b9b8 043c ae94 3fbd 5a4a a5bc dd94 a23d
00000350: 7b65 18bd 7f9b b8bb 2953 6e3b 5a4f 583d
00000360: bd1f ff3c f7e5 213d cf14 d4bc f137 693d
00000370: 60f1 bf3c 41ff f83c 3be8 94bc 520a 363c
00000380: e2f6 88bd b1a7 d23c 7a4e 30bd f1c3 8cbd
00000390: c3c8 debc 1e53 ccbc a48a 3839 b6ed c33c
000003a0: ea4b 4e3d 145f 5abd 39e6 3dbd 62d9 6abd
000003b0: 42dc 32bd b31e 37bc 2a15 44bd 22d9 d13c
000003c0: 2c63 d6bc d611 5937 b8b7 6fbb 90c2 92bb
000003d0: ebf3 2abc 0f51 7e3d 392e 0f3d bfd6 cdbc
000003e0: 5986 3e3c 85b5 f33c 81f1 aa3c bd43 60bd
000003f0: 9140 d2bb 164f 693c 2a93 13bd 6f84 613c
-0.04355634 0.004157709 0.035062283 0.040308148 -0.029163176 0.03020672 -0.062322136 0.064710915
0.004331931 -0.011166474 0.02854582 0.06601967 0.034604408 0.022412052 0.04536441 -0.037188407
0.036034048 -0.029490108 -0.019316223 -0.03156772 -0.02937946 -0.036830425 0.038783763 0.017799187
0.04526753 0.035842508 0.03305764 0.050817113 0.055910114 0.019419957 -0.044342563 -0.015243167
-0.016646236 -0.02378368 0.062713854 -0.03868218 0.03593954 0.03669168 -0.009572516 -0.01876989
0.031222327 -0.012804115 -0.055793706 0.04758177 0.018758228 0.009009963 0.04034563 -0.0039126975
-0.029948622 0.027447637 -0.042775564 -0.062196333 -0.04518239 -0.06736927 -0.054081134 -0.013452198
0.0039527984 0.008617357 0.021088101 0.04209407 -0.055543296 -0.06385226 -0.040860176 0.041551918
0.03261802 0.017827306 0.015365275 -0.029452082 0.07345015 0.05502719 0.07630916 -0.0119593
0.011213753 -0.0016416344 -0.039582457 0.06756427 0.04410431 0.016490402 0.026597176 0.04316568
-0.045755763 0.045292698 -0.014014795 -0.016100429 0.05306906 0.07746335 0.036267314 -0.00049143727
-0.016960874 0.0738227 -0.05361557 -0.040700186 -0.009718774 0.047351092 -0.05876369 -0.0574166
0.019323688 0.029819028 0.09700997 0.119386144 -0.05308084 0.1194442 0.0023663142 -0.00692954
-0.03134796 0.0726384 -0.0060239807 -0.09418258 -0.06872084 0.0736243 0.027372057 0.0013007559
0.050435536 0.025429133 -0.039562862 -0.030878102 0.0023652124 0.020469386 0.0236133 -0.009227797
0.07089315 0.07375006 -0.004370052 -0.011079949 0.058606803 0.048853047 -0.041054495 -0.011452244
-0.034997165 0.011221552 0.035138633 -0.033224404 -0.06803679 -0.044647276 0.029841105 0.004135864
0.0478174 -0.06404199 -0.013340787 -0.0483151 -0.039133452 0.0046056197 0.045627713 0.0030065342
0.029518148 -0.05212647 -0.04425081 0.04833953 0.022850791 -0.029517157 -0.049998127 0.013905923
0.007945655 0.031681493 -0.06990634 0.004271467 0.0577616 -0.007471584 -0.09756802 0.03130024
-0.030479314 -0.042971373 -0.04154702 -0.0048610605 0.043739367 0.062400974 0.056896817 0.004502196
-0.024883652 0.03273629 -0.06519913 0.010994845 0.046378702 -0.036280237 0.057265017 0.018196313
0.01212918 0.020624446 -0.03159344 0.011556046 0.04340605 0.018702649 -0.008287184 -0.00037165266
-0.047798555 -0.018077265 0.017160151 -0.06357506 -0.050959416 -0.001369657 -0.016758952 -0.042595074
0.025079664 0.0018689316 -0.06459389 -0.030310323 -0.03565907 -0.015122485 0.038655218 0.032960195
0.0118218055 0.011937683 0.05057958 0.0043653273 0.036741126 -0.026453905 -0.033602323 -0.00872076
0.008100682 -0.04677265 -0.020177055 0.0793855 -0.037206154 -0.005633771 0.0036365485 0.05281005
0.031143064 0.039525952 -0.025888829 0.056938116 0.023430526 0.030395152 -0.018177142 0.011110859
-0.06687714 0.025714727 -0.04304359 -0.0687331 -0.02719534 -0.024941977 0.00017599255 0.02391706
0.050365366 -0.05331333 -0.046362136 -0.05733622 -0.043667085 -0.011176753 -0.047871746 0.025616232
-0.026170336 1.2938361e-05 -0.003657801 -0.00447876 -0.010434131 0.062089022 0.03495619 -0.025126813
0.011628711 0.029749641 0.020867111 -0.0547521 -0.0064163883 0.014240047 -0.03602902 0.013764485

decoder.decoder.2.bias f4 [32]
00000000: 383f f13c 5452 6d3d 0e10 243d af00 cbbb
00000010: 86a3 cd3c 7434 1ebb f8f6 3abd 3d24 793d
00000020: 78cd 30bd 3d2d 1b3d 1057 d53b fdf9 163c
00000030: 5a6f ffbb 6d5e 323d 70ed 6dbd 0ac7 db3c
00000040: a6b1 8dbd 9e80 06bd 9fa9 31bd 7ba2 893d
00000050: 4af5 85bd 1ad3 a3bd bfb5 083d b68b 333d
00000060: 8b08 e43c af18 87bd b351 143d 6b78 4b3c
00000070: b836 9e3d 34b6 8e3d fe54 13bc 4511 ef3c
0.02944909 0.057939842 0.040054373 -0.00619515 0.025102388 -0.0024140151 -0.045645684 0.060825575
-0.0431647 0.03788494 0.006510623 0.009214875 -0.0077952566 0.043547083 -0.058087766 0.026828308
-0.069186494 -0.032837503 -0.043374654 0.06720444 -0.06540926 -0.07999249 0.03337645 0.04383441
0.027836105 -0.06596505 0.036210727 0.012418847 0.077252805 0.06968346 -0.008992432 0.02918304

decoder.decoder.4.weight f4 [32, 1, 3, 3]
00000000: 0c69 343e e529 4e3d 20bc 903e 8abd 7cbe
00000010: b1ab 793e 4a3c 893d e5bf aebe 23db afbe
00000020: 9d40 4cbe 55e4 1fbe 7557 703e 45ee 94be
00000030: 08d2 88be 439b 46bd 359a b13d b321 d33c
00000040: cffa 9fbe 1bac 1e3d f3e5 acbe 9346 333e
00000050: 518d 9b3e d95a 97be 3582 47be 0f0e 2dbd
00000060: 65ce a0be 1ffa 763e 5617 3dbe 3ab7 21be
00000070: 4e2a 9e3c 9fa8 75be 8d86 56bb e18a 88be
00000080: 6132 42be 078e fdbd 15db 963c b8b9 ae3d
00000090: 986e 593e a25f fe3d 4826 0ebe a13c 513d
000000a0: 516d a1be 84d2 563e 1b20 23be ed2e 713e
000000b0: 7d9b 9b3e 917e 033d c925 273e 5499 64be
000000c0: 3b10 433e 408a 293e 7d84 6b3d c771 ecbb
000000d0: 6a6a 933e 87a7 fd3c 4297 7bbc 71fe 933e
000000e0: e371 9c3e 5eac 0f3e a4c5 81be 0478 c9bd
000000f0: bbdf 253e dd85 66be 3117 75be f1a3 5e3d
00000100: 8c1e aebb 4d8d afbe 62e9 75be 19fd 74be
00000110: 087d babd a76c 8b3c 1496 67be 6916 c83d
00000120: f2ea 5d3e 7e15 a83c ab7a 24be eac4 b83d
00000130: f978 a43d 91ce 8b3e aaf4 35be 562a 70be
00000140: 9f2b a23e 5b46 02bd c6e3 21be fb53 8cbe
00000150: f2be 053e 5526 a1be fbaa adbe a174 50be
00000160: 779e 993e c0fe 88be b56c 633d 8957 073d
00000170: d242 10be 02a7 443e 9bd7 07be 1d87 23bd
00000180: 6fc9 a9be a117 83be 9f15 bb3d 0c21 a4be
00000190: 03ef a4bc c54b 9fbc 143f 54bd 0ecd 9f3e
000001a0: c235 913d 0bf3 d43d d336 343d 02bd c33d
000001b0: 38dc 9dbe c86b 6bbe 0347 3abe f38a a1be
000001c0: c0f7 6ebd 01ea 3b3e e6e0 f63d c768 96be
000001d0: 72b1 653e ae72 e2bd 8181 d13c 6e05 91bb
000001e0: 45ef 84be a3a9 48be 29cf a4be 2fc2 22be
000001f0: 847f 8d3e 3635 a5bc a493 213e d203 03be
00000200: b24e 07be cb3b a83d 7916 ebbd 4ff0 793e
00000210: 679e 38bd e461 3cbd 7147 8f3e 8839 983e
00000220: 1d2f 7a3e 8578 cbbd ac47 e73c 0cfa 9d3e
00000230: bfb9 9e3e c305 7d3e 398d 893e a75f 263e
00000240: 3e4b 3cbe 9adb 553e 43d1 6b3e 5426 cc3b
00000250: 6e66 9bbe 882e 8f3e dc6d 393e 8d91 c3bc
00000260: 2a22 acbd 9890 49bc 74b5 6c3e 49fe b23c
00000270: 6311 463e b50b f4bd feb5 813e d94d aabe
00000280: 14d6 ed3d 68aa 5ebd ec3f 053e 4db2 7b3e
00000290: 5e17 6f3e 099c 1ebc 79e8 80be 1381 2a3e
000002a0: d72e 41be dad1 80be b829 9e3e 3e2f 1abd
000002b0: e8dc afbe ac9d e4bd 40e5 893e d740 a1be
000002c0: f458 aa3d 7765 9d3d ea7b 1bbe e675 333d
000002d0: 1af3 333d 7a18 07be bfa9 01be 7ba5 b63e
000002e0: 1d7c b03d 7af7 ddbd 4bdb 963d 5d2c a6bd
000002f0: 9564 2cbe de70 793d 896f 3bbd 301c c2bd
00000300: c72b 82be 02bc 2cbb 7fcf bc3d 9a5f b63e
00000310: 6b16 6a3d bb7d 5fbe 1747 10bd 792d 103d
00000320: ce56 6f3d 2d52 80bd f724 753e f338 f0bd
00000330: 4166 5c3e 9ff9 873e 68c0 4e3e f6f7 2cbe
00000340: e6b4 13be 5c1d 03be d3d3 553d ea5f 6ebe
00000350: a39b 7a3d 18c0 a43d d3ad c93c a331 33be
00000360: bad5 9fbc f9f8 40be db51 a43e 145b 933d
00000370: 7078 8d3e 1560 9f3e e914 58be 7ced 003e
00000380: 1e91 7fbe e932 833e 2a6b a13e 4170 1c3d
00000390: 23d4 42be 30d1 093e 48f6 d63a 6b73 8abd
000003a0: ee5f aa3b ccdf 72bd eb24 96bc 50d8 4bbe
000003b0: caf5 743e 03c0 393e 3a1a 01be 8a3b 9e3c
000003c0: 1fc6 143e d963 3bbe e901 22bb 78cf 6a3e
000003d0: 5443 a0be c418 933e 28de 9a3e f605 343d
000003e0: 06c2 853d 8f74 353e 0570 9f3e 550b d43c
000003f0: b255 353e 06a9 60be da68 203e 76bc 70be
0.17618197 0.050332922 0.28268528 -0.24681678 0.24381901 0.06700952 -0.3413078 -0.34346876
-0.19946523 -0.15614446 0.23470862 -0.29088035 -0.2672274 -0.048487913 0.08671991 0.025772905
-0.3124604 0.03873835 -0.33769187 0.1750739 0.30381253 -0.295615 -0.19483264 -0.042249735
-0.31407467 0.24118851 -0.18465933 -0.15792552 0.019307282 -0.23990105 -0.0032734007 -0.26668456
-0.1896453 -0.12380605 0.018415013 0.08531517 0.21233594 0.12420584 -0.1388179 0.05108321
-0.31528714 0.20978743 -0.15930216 0.23553057 0.30392066 0.032103125 0.16323008 -0.22324115
0.1904916 0.16556644 0.057499398 -0.0072157118 0.28792125 0.030963672 -0.015355887 0.2890506
0.3055564 0.14030597 -0.253461 -0.09837344 0.16198628 -0.22512002 -0.23934628 0.054355565
-0.0053137 -0.3428749 -0.2401481 -0.23924674 -0.09105879 0.017019583 -0.22615844 0.097698994
0.21671656 0.02051806 -0.16062419 0.090219334 0.08030886 0.27306035 -0.17769113 -0.2345365
0.31673905 -0.031805377 -0.15809545 -0.27407822 0.13061121 -0.31474558 -0.3391951 -0.2035699
0.30003712 -0.2675686 0.055523593 0.033042464 -0.1408799 0.19204333 -0.1326584 -0.039923776
-0.33161494 -0.25603965 0.09134983 -0.32056463 -0.0201335 -0.01944531 -0.05181797 0.31211132
0.070903316 0.10397919 0.043997597 0.09557535 -0.30832076 -0.22990334 -0.18191151 -0.31551322
-0.05834174 0.18350984 0.12054615 -0.29376814 0.22430971 -0.1105703 0.025574448 -0.004425696
-0.25963798 -0.19595961 -0.321893 -0.15894388 0.2763635 -0.020166975 0.15778977 -0.12794426
-0.13213614 0.082145296 -0.11478896 0.24408077 -0.04507294 -0.045991793 0.27984193 0.29731393
0.24432035 -0.09935097 0.028232418 0.30854833 0.31001088 0.24709229 0.26865557 0.16247426
-0.18388078 0.20884553 0.23029046 0.006230155 -0.30351585 0.27965188 0.18108314 -0.023873115
-0.08404954 -0.01230254 0.23116094 0.021849768 0.1934257 -0.119162954 0.25334162 -0.33262518
0.11613098 -0.05436173 0.13012666 0.24579735 0.23348758 -0.009680756 -0.25177363 0.166508
-0.18865524 -0.25160104 0.30891204 -0.03764271 -0.34348226 -0.11162886 0.26932716 -0.3149478
0.08317748 0.076853685 -0.15183988 0.04381361 0.04393301 -0.13192931 -0.12662409 0.35673127
0.08617423 -0.10838218 0.073660456 -0.081139304 -0.16835244 0.060898654 -0.045760665 -0.094780326
-0.25424024 -0.0026357179 0.09219264 0.35619813 0.057150286 -0.21825306 -0.035224047 0.035199616
0.058432393 -0.06265674 0.23939882 -0.11729612 0.21523382 0.26557633 0.20190585 -0.16891465
-0.14424476 -0.12804168 0.052203964 -0.23278776 0.061183583 0.080444515 0.024619019 -0.17499404
-0.019511092 -0.18844976 0.320937 0.07195106 0.2763095 0.31127992 -0.21101727 0.12590593
-0.24957702 0.2562478 0.31527072 0.03819299 -0.19026236 0.13458705 0.0016400302 -0.067602955
0.005199424 -0.05929546 -0.01832815 -0.19906735 0.23921886 0.18139653 -0.12607661 0.0193155
0.14528702 -0.18299808 -0.0024720377 0.22930706 -0.31301367 0.28729832 0.30247617 0.043950997
0.06531148 0.17720245 0.31140152 0.02588431 0.17708471 -0.21939477 0.15664998 -0.23509392
