500_ML/models/weights_199_10-04_05:17.pt (torch_old, 743228 bytes, 11 tensors)

encoder.encoder.0.weight f4 [32, 1, 3, 3]
0	0x3e6bb5b1	0.23018529
1	0xbe6528ec	-0.22378892
2	0xbe74f831	-0.23922803
3	0xbe8131c1	-0.25233272
4	0xbe8471b8	-0.2586801
5	0x3d377f30	0.04479903
6	0x3e4e1dbc	0.2012853
7	0x3dcffa93	0.10155215
8	0xbe8b0e76	-0.2715947
9	0x3e190311	0.14942576
10	0xbe0ca087	-0.13733111
11	0x3e884d11	0.26621297
12	0xbe6b3609	-0.22969832
13	0x3e93438f	0.2876248
14	0xbe262a61	-0.16227104
15	0xbe3603d0	-0.17774892
16	0x3d3e1133	0.04640312
17	0xbe110816	-0.14163241
18	0x3e61dbe8	0.22056544
19	0x3dd149c8	0.10219151
20	0x3e4dca28	0.20096648
21	0xbd95a3ff	-0.073066704
22	0x3e90fadb	0.28316388
23	0xbe0accd7	-0.13554703
24	0x3e02f04d	0.1278698
25	0x3e155609	0.14583601
26	0x3df05895	0.11735646
27	0xbd0bae00	-0.034101486
28	0xbe00e436	-0.12587056
29	0xbe90115e	-0.2813825
30	0x3eae695e	0.34064764
31	0x3e8ccc9f	0.27499864
32	0xbdeb1cc1	-0.11480094
33	0xbe259349	-0.16169466
34	0xbe06c868	-0.13162386
35	0x3e0f980f	0.1402285
36	0xbe4a22c2	-0.19739822
37	0xbe630a15	-0.22171815
38	0x3e98e295	0.29860368
39	0xbe630ec5	-0.22173603
40	0x3e40fe69	0.1884705
41	0xbe2b339f	-0.1671891
42	0xbe27fe14	-0.16405517
43	0x3e068b7d	0.13139148
44	0x3e8450a7	0.25842783
45	0xbe6082ea	-0.2192494
46	0x3e24748e	0.16060087
47	0x3b152fa9	0.0022764003
48	0x3be39ea1	0.0069464003
49	0x3d562d7e	0.05228948
50	0xbd4c3219	-0.049852464
51	0x3e0231da	0.1271433
52	0xbe75ecbb	-0.24016087
53	0x3dbe8409	0.093025275
54	0xbd4717e0	-0.048606753
55	0x3e8da1ad	0.2766241
56	0x3e9fcb69	0.31209877
57	0xbbe213ac	-0.0068993177
58	0x3e0cff69	0.13769306
59	0xbc2b529b	-0.010456706
60	0xbd90ccaa	-0.070702866
61	0xbcf21761	-0.029552164
62	0x3d9deff1	0.07711781
63	0x3e7406cc	0.23830718
64	0x3e914f03	0.28380594
65	0x3e0edb03	0.13950734
66	0xbe7b7e8a	-0.2455999
67	0xbe875994	-0.2643553
68	0xbe9e50fc	-0.3092116
69	0xbe4afedd	-0.19823785
70	0x3e294b4b	0.16532628
71	0x3da987ad	0.08277831
72	0x3dfea7dd	0.12434361
73	0xbe290929	-0.165074
74	0xbe2685ec	-0.16262025
75	0x3d0f0f06	0.034926437
76	0xbe5c67f6	-0.21524033
77	0x3dca4f4e	0.098784074
78	0x3e80f25d	0.25184909
79	0xbb676193	-0.0035305962
80	0xbdac3326	-0.08408193
81	0xbe772620	-0.24135637
82	0x3d0aee66	0.03391876
83	0xbdca298e	-0.09871207
84	0x3e25b098	0.16180646
85	0xbd4b1695	-0.049582083
86	0x3e8a5cd9	0.27023962
87	0x3ea38897	0.31940147
88	0xbe4615d1	-0.1934426
89	0x3db42d5d	0.08797715
90	0xbe90f495	-0.283116
91	0xbe878b51	-0.26473477
92	0x3d938e05	0.072048225
93	0x3e7ebca1	0.24876644
94	0x3cba21bd	0.022721166
95	0x3de8ad4a	0.11361177
96	0xbe24ea81	-0.16105081
97	0xbe457ebe	-0.1928663
98	0xbe7a83fb	-0.24464409
99	0xbe3a2dab	-0.18181483
100	0x3e24bb1a	0.16086999
101	0x3ea32c43	0.31869707
102	0xbe177bf3	-0.14793377
103	0xbd885344	-0.06656507
104	0xbe966c18	-0.29379344
105	0xbe095fae	-0.13415405
106	0xbe9864db	-0.29764447
107	0x3d26fc98	0.040768236
108	0x3e770ca7	0.2412592
109	0xbcfc6f7f	-0.030814884
110	0x3e57a4f3	0.21059017
111	0xbe9f30b7	-0.31091854
112	0x3deafe5b	0.11474296
113	0x3da6d3de	0.08145879
114	0x3d127659	0.035757396
115	0xbe85050e	-0.2598042
116	0x3e933c76	0.28757066
117	0x3e9280dd	0.2861394
118	0xbe721b51	-0.23643233
119	0x3db35304	0.08756068
120	0x3e217c89	0.15770163
121	0xbe4057ff	-0.18783568
122	0xbd6a30ff	-0.057175633
123	0xbe02bce7	-0.12767373
124	0xbe8b15fa	-0.27165204
125	0xbe91c174	-0.28467906
126	0xbe120ec0	-0.14263439
127	0xbe542004	-0.20715338
128	0x3e912171	0.28345826
129	0x3e8b4dba	0.27207738
130	0xbe35207a	-0.1768817
131	0xbd897613	-0.06711974
132	0x3e651056	0.22369513
133	0xbe46b2b3	-0.19404106
134	0x3ddd64ba	0.10810228
135	0xbe43a45e	-0.1910567
136	0xbe533149	-0.2062427
137	0x3e6f4172	0.23364809
138	0x3e0ca1bb	0.1373357
139	0xbdf1ac67	-0.11800461
140	0xbe4a2069	-0.19738926
141	0x3e6ea33f	0.23304461
142	0xbe651a8c	-0.22373408
143	0x3e61a293	0.22034673
144	0x3ea111dd	0.3145894
145	0xbe952fec	-0.29138124
146	0x3e886a26	0.26643485
147	0xbead3530	-0.3382964
148	0xbdbfb932	-0.09361495
149	0x3e99c9ee	0.30036873
150	0x3e664273	0.22486286
151	0xbe9807fc	-0.29693592
152	0x3d8b9258	0.06815022
153	0x3e64350e	0.22285864
154	0x3d710421	0.05884183
155	0xbdcfb15f	-0.10141253
156	0xbcc41444	-0.023935445
157	0x3e9c50ae	0.30530304
158	0xbea7c3f5	-0.3276669
159	0xbdc18900	-0.09449959
160	0xbea4cd89	-0.3218806
161	0x3e487d45	0.19579037
162	0xbe9de2e0	-0.30837154
163	0xbe92e4ff	-0.28690335
164	0xbe74b17e	-0.23895833
165	0xbc1e2880	-0.009653211
166	0x3e555802	0.20834354
167	0xbda3da7c	-0.08000657
168	0xbd329af8	-0.04360482
169	0xbe12092b	-0.1426131
170	0xbccc0e80	-0.024909258
171	0xbe8d86b6	-0.2764184
172	0x3d242479	0.040073846
173	0x3dbd2f91	0.09237588
174	0x3dea89d5	0.114520706
175	0x3d96791d	0.07347319
176	0x3e536238	0.20642936
177	0xbd95543c	-0.07291457
178	0x3e5550c9	0.20831598
179	0xbda75c44	-0.08171895
180	0xbdfa0fe2	-0.12210061
181	0x3eb03034	0.34411776
182	0xbe53f32f	-0.20698236
183	0xbe65f197	-0.2245544
184	0xbe23c18f	-0.15991805
185	0xbd36f117	-0.044663515
186	0x3e3afbb5	0.18260081
187	0xbe55aeee	-0.20867512
188	0xbe57fdef	-0.21092962
189	0xbd2b3108	-0.041794807
190	0x3d9a1064	0.075226575
191	0xbc8e23d0	-0.017351061
192	0x3e0f5496	0.1399711
193	0xbea6b548	-0.32560182
194	0x3ce78400	0.028261185
195	0xbe8bffe4	-0.27343667
196	0x3c2a2a00	0.01038599
197	0xbea2dcf3	-0.31809196
198	0xbde18503	-0.11011698
199	0x3e2940ed	0.16528673
200	0x3ea34663	0.31889638
201	0x3e5b7dab	0.21434657
202	0x3d6fdbb2	0.058559127
203	0x3cdc35be	0.026881095
204	0xbdddcf6f	-0.108305804
205	0xbd1ae7b7	-0.037818637
206	0xbe051aea	-0.12998548
207	0x3ea4a749	0.32158878
208	0xbe0d22ae	-0.1378276
209	0xbe9a5f5a	-0.30150872
210	0xbe8184a0	-0.25296497
211	0x3cd37540	0.025812745
212	0xbd670438	-0.056400508
213	0x3e3f7ed6	0.18700728
214	0xbe7599a6	-0.23984393
215	0xbd9ce48c	-0.07660779
216	0xbc83c219	-0.016083764
217	0xbe5d215e	-0.2159476
218	0x3e8b6b97	0.27230522
219	0xbe21c7a9	-0.1579882
220	0xbe0a64c1	-0.13514997
221	0xbe5dbead	-0.21654768
222	0xbe9c4368	-0.30520177
223	0xbde7dcd6	-0.11321418
224	0x3d0c4727	0.034247544
225	0xbe956f90	-0.29186678
226	0xbe7e97b8	-0.24862564
227	0xbdda8490	-0.106698155
228	0x3e1c6be8	0.15275538
229	0x3e8d94bb	0.27652535
230	0xbe2c58ae	-0.16830704
231	0xbe41f0b6	-0.1893948
232	0xbdfb9c7c	-0.122857064
233	0x3c8bc380	0.017060995
234	0xbe89f24b	-0.26942667
235	0x3e1c3463	0.15254359
236	0xbeb0ffce	-0.34570163
237	0x3cc3c51d	0.023897702
238	0xbddd1289	-0.10794551
239	0x3e4fee69	0.2030579
240	0x3e277654	0.16353732
241	0x3e5d9fcb	0.21642987
242	0xbdb4c91e	-0.088274226
243	0x3d881038	0.066437185
244	0xbe1e1cc8	-0.15440667
245	0x3e33e1ac	0.17566556
246	0x3dac68ba	0.084184125
247	0x3e9f075c	0.31060302
248	0x3e350b6e	0.17680141
249	0x3ba6282e	0.0050707078
250	0x3d2e52e1	0.04255951
251	0xbe832d44	-0.25620472
252	0x3de8630a	0.11347015
253	0x3e387b51	0.18015791
254	0x3d4ece49	0.050489698
255	0x3e8c3f1f	0.27391908

encoder.encoder.0.bias f4 [32]
0	0x3dcd2e1d	0.10018561
1	0x3def576c	0.11686596
2	0x3eb50be2	0.35360628
3	0xbe82d354	-0.25551856
4	0x3dd5ac20	0.10433221
5	0x3dce1731	0.10063017
6	0xbe896799	-0.2683685
7	0x3e81dec8	0.2536528
8	0x3ea37c32	0.3193069
9	0x3e27c16b	0.16382377
10	0x3e42b0e2	0.19012788
11	0xbea2a876	-0.3176915
12	0x3dbdb27d	0.092625596
13	0x3dbf2a60	0.09334254
14	0x3e961745	0.29314628
15	0x3e88aa2a	0.26692325
16	0x3ea30a46	0.31843776
17	0x3e674616	0.2258533
18	0xbd9854b0	-0.07438028
19	0xbe034296	-0.1281837
20	0x3ea0de46	0.3141958
21	0xbe2debc6	-0.16984472
22	0xbe395d16	-0.18101916
23	0xbe8b1194	-0.2716185
24	0x3e83944b	0.25699076
25	0xbe95a010	-0.2922368
26	0x3e9ebfc8	0.31005692
27	0xbe89e624	-0.26933396
28	0xbd4606c0	-0.04834628
29	0x3eb64a46	0.3560354
30	0x3e0a2e9c	0.13494343
31	0x3e998657	0.29985306

encoder.encoder.2.weight f4 [64, 32, 3, 3]
0	0x3d15a5cc	0.03653507
1	0xbce77e5c	-0.028258495
2	0xbc98bbaa	-0.018644173
3	0x3d4455b2	0.047933288
4	0xbcc6ca3a	-0.024266351
5	0x3d21729b	0.039415937
6	0x3d0c15f3	0.03420062
7	0x3ca813f9	0.020517336
8	0x3c37165f	0.011174767
9	0x3ba1a01d	0.004932417
10	0x3cf578cd	0.029964829
11	0x3c70c4c1	0.014695347
12	0x3ca71717	0.020396752
13	0xbaeab3d4	-0.0017906376
14	0x3c060a3f	0.008181154
15	0xbd65721c	-0.056017026
16	0x3d1b62af	0.03793591
17	0xbbdcfec2	-0.0067442367
18	0xbd7bb841	-0.061455015
19	0xbd5f7d7f	-0.05456304
20	0xbadce577	-0.0016853054
21	0x3cfc8003	0.03082276
22	0xbd297e97	-0.04138049
23	0xbcb6a22a	-0.022294123
24	0xbc378538	-0.011201195
25	0x3d464fbe	0.04841589
26	0xbd2dac90	-0.042400897
27	0x3d44285b	0.04789005
28	0x3d3cdb81	0.046107773
29	0x3d4d44fd	0.05011462
30	0x3c26ed0c	0.010188352
31	0xbcda308f	-0.026634483
32	0xbd57ad6b	-0.05265562
33	0xbd15bb74	-0.036555722
34	0x3ccf49aa	0.02530368
35	0x3d1c067d	0.038092125
36	0x3d3c61cd	0.045991708
37	0xbbc6dd8f	-0.0060688923
38	0xbb933ca7	-0.0044933143
39	0x3c606561	0.013696046
40	0xbd0f1fa0	-0.03494227
41	0xbd024e1f	-0.031812783
42	0xbd69c7d7	-0.057075348
43	0x3d3e8132	0.04650993
44	0x3c3021c6	0.01075024
45	0xbc1b2967	-0.00947032
46	0x3d00e2f6	0.031466447
47	0x3cfadb67	0.030622197
48	0xbd138d81	-0.03602362
49	0x3acd40b4	0.0015659542
50	0xbc8628df	-0.01637691
51	0x3d3f61f3	0.04672427
52	0xbcf4a20b	-0.029862424
53	0x3c9f7047	0.019462718
54	0x3d17fb8d	0.037105132
55	0xbceba808	-0.028766647
56	0x3cacbc3a	0.021085847
57	0x3c61e65c	0.013787832
58	0xbb1ba83a	-0.0023751394
59	0xbd39b62b	-0.045339745
60	0x3c27986c	0.010229211
61	0xbc46a234	-0.012123633
62	0xbd23ea2e	-0.040018253
63	0x3d42695f	0.04746377
64	0x3a725b31	0.0009245156
65	0xbccc9596	-0.024973672
66	0xbd53c0a0	-0.051697373
67	0xbcd397f6	-0.025829297
68	0xbd80cf8d	-0.06289587
69	0x3d3d1a23	0.046167504
70	0x3ce5c606	0.028048526
71	0xbcbbdd46	-0.02293266
72	0x3cee53dc	0.029092722
73	0xbd7deb6d	-0.061992098
74	0xbd57f184	-0.05272056
75	0xbd0f9315	-0.035052378
76	0xbca214b1	-0.019785257
77	0x3c9ce908	0.019154087
78	0x3c11d874	0.008901704
79	0xbc713295	-0.014721532
80	0xbb981565	-0.0046412223
81	0xbd036e48	-0.032087594
82	0x3d54bcd3	0.05193789
83	0xbd2e4116	-0.04254254
84	0xbd125db4	-0.035733894
85	0x3adcccde	0.0016845723
86	0xbd81fd04	-0.06347087
87	0x3b95c992	0.004571148
88	0xbd77ab4a	-0.06046609
89	0x3cf72786	0.030170213
90	0xbc3777de	-0.011198012
91	0xbb8fd827	-0.004389781
92	0x3d3ac9df	0.045602676
93	0xbd6e7fdb	-0.0582274
94	0x3d10f8b4	0.03539343
95	0x3c5f3ac6	0.0136248525
96	0x3d28ddd6	0.041227184
97	0xbc10a692	-0.008828776
98	0x3cf9653e	0.030443784
99	0xbcd91c28	-0.026502684
100	0xbcf48a1c	-0.029851012
101	0xbd1f890d	-0.03894906
102	0x3d1f33f5	0.03886791
103	0xbc978ab2	-0.018498752
104	0xbcc1a5a2	-0.02363855
105	0x3d2eb409	0.042652164
106	0x3cee6ed6	0.029105585
107	0x3bd0aa18	0.006367933
108	0xbc9bc13b	-0.019013038
109	0x3d54620f	0.05185133
110	0xbc2c8fc8	-0.010532327
111	0xbd608c79	-0.054821465
112	0x3d055bbb	0.032558184
113	0xbc238925	-0.009981428
114	0x3c72fcc6	0.014830774
115	0xbd04be86	-0.03240826
116	0x3c2a3cfb	0.010390515
117	0x3cfb0b02	0.030644897
118	0xbd28042d	-0.041019607
119	0x3b656a99	0.0035006164
120	0xbd2f2d13	-0.042767595
121	0xbc343f58	-0.01100143
122	0xbd4e3f68	-0.050353438
123	0x3d07214e	0.032990746
124	0xbd22137b	-0.03956936
125	0xbc752801	-0.014963151
126	0xbcce4192	-0.02517775
127	0x3c09aab2	0.008402513
128	0xbcde434d	-0.0271317
129	0xbc7cdde5	-0.015433763
130	0x3aedcbe6	0.0018142432
131	0x3ce080e7	0.027405215
132	0xbc8c8314	-0.017152347
133	0x3d0a3102	0.033738144
134	0x3c0fab19	0.00876882
135	0xbd113526	-0.035451077
136	0xbd704b1f	-0.05866539
137	0x3c0d4712	0.0086229015
138	0xbd626085	-0.05526783
139	0xbd65e2ce	-0.0561245
140	0x3d2a86d9	0.041632507
141	0x3d2e6434	0.04257603
142	0x3caf7826	0.021419596
143	0xbd322bd3	-0.043498825
144	0x3c055836	0.008138707
145	0xbd74332d	-0.059619118
146	0xbc60d3ac	-0.0137223415
147	0xbac2dbc0	-0.0014866516
148	0xbcf97054	-0.03044907
149	0x3ac212fb	0.0014806682
150	0x3d19caf9	0.037547085
151	0xbd814129	-0.063112564
152	0x3c2f06e0	0.0106827915
153	0xbd279e2c	-0.04092233
154	0xbd837975	-0.064196505
155	0xbbd1e497	-0.006405424
156	0xbd810268	-0.06299287
157	0xbd77387f	-0.060356613
158	0xbd618236	-0.05505582
159	0x3c9114a7	0.017710043
160	0x3ce3f2e3	0.027825778
161	0xbd0e8612	-0.03479583
162	0x3cbe7956	0.023251217
163	0xbcd7d86e	-0.026348319
164	0x3ce0231e	0.027360495
165	0xbd5ab554	-0.053395584
166	0x3c9c306e	0.019066062
167	0x3b2315f0	0.0024884902
168	0x3cd1377e	0.025539156
169	0x3d5ae2f9	0.053439114
170	0x3d03d23f	0.03218293
171	0x3d4ac88d	0.049507666
172	0x3d115614	0.03548248
173	0x3d4f4847	0.05060604
174	0x3d32cce4	0.04365243
175	0x3d00625b	0.0313438
176	0xbc908f9b	-0.017646601
177	0xbd69bc61	-0.057064418
178	0x3d2c2ff2	0.04203791
179	0xbbb724f0	-0.00558912
180	0x3d4c2292	0.049837656
181	0x3cc5286a	0.024067122
182	0x3d1c0232	0.03808803
183	0xbd57c26f	-0.05267566
184	0xbd46610a	-0.048432387
185	0x3d311a70	0.043238103
186	0xbcef0005	-0.029174814
187	0xbd403518	-0.046925634
188	0x3d1f9b73	0.038966607
189	0x3d2e1e61	0.04250944
190	0x3d2446dd	0.040106643
191	0xbd0cfc1c	-0.034420118
192	0x3bdcbb68	0.0067362078
193	0x3cb8dbb2	0.022565696
194	0xbd01b762	-0.031669028
195	0x3bd76ef8	0.006574508
196	0x3d152afd	0.03641795
197	0xbb8caf30	-0.004293345
198	0xbcdc6da4	-0.02690775
199	0x3ca6a31a	0.020341445
200	0xbd053ae3	-0.032526862
201	0xbd412ac7	-0.047159936
202	0xbce2af63	-0.027671522
203	0x3d1a502e	0.03767412
204	0xbcd3601c	-0.025802664
205	0x3d3072db	0.043078285
206	0xbc42d360	-0.011891216
207	0x3b3e8160	0.0029068813
208	0x3c6afb2c	0.014342111
209	0x3cffe552	0.031237278
210	0x3d6c700b	0.05772404
211	0x3d6f69bb	0.05845044
212	0x3c54e88c	0.012994897
213	0x3c33d78c	0.010976683
214	0xbd3bd228	-0.045854717
215	0xbc955cbe	-0.0182327
216	0xbd5d70b5	-0.054062564
217	0x3ca2b01d	0.019859368
218	0x3d1f69a5	0.03891911
219	0x3cf23397	0.029565616
220	0xbd5f4474	-0.05450864
221	0xbd21296a	-0.039346136
222	0x3d361dea	0.044462122
223	0xbd3b9841	-0.045799498
224	0xbd37e0ee	-0.044892244
225	0x3c61a444	0.013772074
226	0xbb3ae9f0	-0.0028520785
227	0xbcd96f7e	-0.026542421
228	0x3bdd4a18	0.0067532174
229	0x3b87db68	0.0041460283
230	0xbc646a9c	-0.013941433
231	0x3d360af1	0.04444403
232	0x3ca0379e	0.01955777
233	0xbd13443b	-0.03595374
234	0x3c8cc35d	0.017183
235	0x3cc4df92	0.024032388
236	0xb7cb13cf	-2.420871e-05
237	0x3d48637f	0.048923012
238	0x3d450de7	0.04810896
239	0xbcad3a64	-0.021146007
240	0x3b3ee90c	0.0029130606
241	0xbd4ad0fd	-0.049515713
242	0xbd34597b	-0.044030648
243	0xbc09d1e4	-0.008411858
244	0xbd29e2a4	-0.041475907
245	0xbd2f257d	-0.04276036
246	0xbd324313	-0.043521
247	0x3d20f31b	0.039294343
248	0x3c45d213	0.012074011
249	0x3bb7a855	0.0056047835
250	0x3c965107	0.018349184
251	0xbd2ca1b3	-0.042146396
252	0xbd2f6fec	-0.042831346
253	0x3d0b88a0	0.034065843
254	0x3d8598c3	0.065232776
255	0xbd113a94	-0.035456255

encoder.encoder.2.bias f4 [64]
0	0x3d4d45b3	0.0501153
1	0x3d32f837	0.043693747
2	0xbccad7e3	-0.024761146
3	0x3d7cab67	0.0616869
4	0x3d25919c	0.040422067
5	0x37914067	1.7315337e-05
6	0x3c3943c8	0.011307664
7	0xbc1c24a0	-0.009530216
8	0xbd37988a	-0.044823207
9	0x3cea8c31	0.028631302
10	0xbd0db97e	-0.034600727
11	0x3cf7168e	0.030162122
12	0xbce51fff	-0.027969358
13	0x3d8e8fc8	0.06961018
14	0xbc3c1820	-0.011480361
15	0x3c31254f	0.010812118
16	0xbd5237bf	-0.051322695
17	0xbc067087	-0.00820554
18	0x3d900439	0.070320554
19	0x3d9b56e7	0.07584935
20	0xbc37a204	-0.011208061
21	0xbd5422bb	-0.051790934
22	0xbd10cf1e	-0.035353772
23	0x3d84c26f	0.06482398
24	0xbd00cf08	-0.03144744
25	0x3d62e601	0.05539513
26	0x3c4fba36	0.0126786735
27	0xbd2dbd62	-0.042416938
28	0xbbc2cf69	-0.0059451354
29	0x3d88844b	0.06665858
30	0x3d9bd9a8	0.07609874
31	0xbd576282	-0.05258418
32	0x3d39fd26	0.045407437
33	0xbc3763ff	-0.0111932745
34	0x3b63bf17	0.003475135
35	0xbb1188fa	-0.0022206889
36	0xbd536766	-0.05161228
37	0x3d792492	0.06082589
38	0xbd2a3234	-0.041551784
39	0xbc09f234	-0.008419562
40	0x3d0d2f84	0.034469143
41	0xbd0112bb	-0.031512003
42	0xbd624471	-0.055241052
43	0x3ba1dc3d	0.0049395845
44	0x3c19eba4	0.00939456
45	0x3b8d20e8	0.0043069012
46	0xbd46edb0	-0.04856652
47	0x3beda712	0.0072525823
48	0x3d114067	0.03546181
49	0x3d363bfb	0.044490796
50	0xbc70f76a	-0.014707426
51	0x3ce42e9e	0.02785426
52	0xbd3987b6	-0.04529544
53	0x3d9d62cc	0.0768486
54	0x3d2f9974	0.042870954
55	0x3d6a2bfd	0.057170857
56	0x3d646d98	0.05576858
57	0xbc0e5718	-0.008687757
58	0x3d6cec84	0.057842746
59	0x3bed5bb7	0.0072435993
60	0xbc849d02	-0.016188148
61	0x3a91e149	0.0011129762
62	0xbcdb33a1	-0.026758017
63	0x3c6a63bd	0.014306006

encoder.encoder.4.weight f4 [128, 64, 3, 3]
0	0x3c9474fa	0.018122185
1	0xbbc46443	-0.0059933974
2	0xbc8bdde7	-0.017073585
3	0xbc812694	-0.015765466
4	0x3d3731b4	0.044725135
5	0x3d17d21f	0.03706562
6	0x3d12c4a3	0.03583206
7	0xbd0aab5c	-0.033854827
8	0xbcf3a1b8	-0.0297402
9	0x3caaf4a4	0.020868607
10	0x3d60c90a	0.054879226
11	0x3caea826	0.021320414
12	0x3d82d5b2	0.063884154
13	0xbc3adf2c	-0.011405747
14	0x3d80e377	0.062933855
15	0x3d5d3b8f	0.054011878
16	0xbc4206c3	-0.011842432
17	0x3d01e045	0.03170802
18	0xba743bb4	-0.0009316758
19	0xbccd141a	-0.025034
20	0xbc82cd24	-0.01596696
21	0x3c7f1a6b	0.015570263
22	0x3c2b159d	0.010442165
23	0xbc950913	-0.018192803
24	0x3b902948	0.0043994524
25	0x3cd4a6c8	0.025958434
26	0xbc523a64	-0.012831304
27	0x3c49aeb7	0.012309722
28	0x3c912a69	0.017720418
29	0x3d1dd120	0.038529515
30	0xbbac5f90	-0.0052604154
31	0x3c014d9e	0.007892041
32	0xbc710bd7	-0.0147122955
33	0x3d1461fa	0.03622625
34	0x3c0474fd	0.008084533
35	0x3d36f15e	0.04466378
36	0x3d5ec813	0.054390024
37	0xbb29ca26	-0.0025907843
38	0xbc8407b3	-0.016116953
39	0x3d5c3f38	0.053771228
40	0xbc669fe6	-0.014076209
41	0x3ca03d94	0.019560613
42	0xbb39dc30	-0.0028360002
43	0x3b8f3f80	0.0043715835
44	0x3cef0315	0.029176274
45	0xbb959aaf	-0.004565559
46	0xbb038a57	-0.002007147
47	0xbb8e76ed	-0.004347673
48	0x3d1fe25b	0.03903423
49	0x3cbaf536	0.022822004
50	0xbc59fab1	-0.013304398
51	0x3d5b0830	0.053474605
52	0x3c695fc9	0.014244028
53	0x3baec0c4	0.005333038
54	0x3cc4a1e9	0.024002986
55	0xbc8199fa	-0.015820492
56	0x3c311ca5	0.010810052
57	0x3d038028	0.03210464
58	0x3d688bb4	0.056773856
59	0x3d64ad51	0.05582935
60	0x3c0aa108	0.008461244
61	0x3b97d9b6	0.0046341075
62	0x3d252091	0.04031426
63	0x3d4b361a	0.049612142
64	0x3c854308	0.016267315
65	0xbab0580f	-0.0013453978
66	0x3d294f50	0.041335404
67	0x3cc45c39	0.023969756
68	0x3d43f091	0.047836844
69	0x3d0c0527	0.0341846
70	0x3d1795ad	0.037007976
71	0x3b213c21	0.002460249
72	0xbc9b1d05	-0.018934736
73	0x3c9451b9	0.018105375
74	0x3d161787	0.03664353
75	0xbcf15bb7	-0.029462678
76	0x3c32097f	0.010866522
77	0xbce892bd	-0.028390283
78	0x3c36c0c0	0.011154354
79	0xbd00ec14	-0.03147514
80	0xbd0c9083	-0.034317505
81	0xbbf8a646	-0.0075881807
82	0x3c632d2b	0.013865749
83	0x3d3789ff	0.044809338
84	0x3a520d37	0.00080128334
85	0xbc111575	-0.008855213
86	0x3d2143e5	0.03937139
87	0x3d205128	0.039139897
88	0x3cb4a4a1	0.022051157
89	0x3ba2dd7f	0.004970252
90	0x3c396fd5	0.011318167
91	0xbd62cdee	-0.05537217
92	0xbc3f2865	-0.011667346
93	0x3c1d407b	0.009597893
94	0x3c3ed6c0	0.01164788
95	0x3bfa8b69	0.0076460135
96	0x3bd9a024	0.0066414047
97	0xbcc87a2c	-0.024472319
98	0xbc74316d	-0.014904362
99	0xbd64f60e	-0.05589872
100	0xbcb35fc4	-0.02189625
101	0xbcf932c1	-0.03041971
102	0xbd80b6ad	-0.06284843
103	0xbb97f6e9	-0.0046375883
104	0x3b34ef2d	0.002760838
105	0xbb82085e	-0.0039682826
106	0xbd8a6c6f	-0.06758963
107	0xbbcad56a	-0.0061899917
108	0xbd904af5	-0.07045547
109	0xbb4ebbfd	-0.0031545155
110	0xbca6367a	-0.020289648
111	0xbd5450ad	-0.05183475
112	0xbb9ae5d6	-0.0047271056
113	0xbbfaeea1	-0.0076578413
114	0xbd687b67	-0.05675831
115	0xbd76141c	-0.06007777
116	0xbd88e29c	-0.06683847
117	0x3d0ab743	0.03386618
118	0x3d53ffda	0.05175767
119	0xbb0221c3	-0.001985655
120	0x3c830330	0.01599273
121	0x3c93ebc7	0.018056763
122	0xbc184ce9	-0.009295681
123	0x3d327db5	0.043576915
124	0x3d6aea16	0.057352148
125	0x3d70958b	0.058736365
126	0xbd9e3a27	-0.077259354
127	0xbc99d398	-0.018777654
128	0xbc42fe6d	-0.01190148
129	0x3be80ec7	0.0070818397
130	0x3d1633ae	0.03667038
131	0xbc5d47c7	-0.013505883
132	0xbd9eabf1	-0.07747639
133	0xbcf808b8	-0.030277595
134	0xbd1dae64	-0.03849639
135	0x3d6db6e9	0.058035765
136	0xbc88cdc2	-0.016699675
137	0x3a4a3d2c	0.0007714804
138	0x3caaeac2	0.020863894
139	0x3d36f0c4	0.044663206
140	0x3cb70c85	0.022344837
141	0xba4b0c00	-0.00077456236
142	0xbc0f48c8	-0.00874538
143	0xbb220e8a	-0.0024727904
144	0xbd33a20d	-0.043855716
145	0xbc8f0c3b	-0.017461887
146	0xbcc1e8cf	-0.023670582
147	0x3b5bd942	0.0033546244
148	0xbccdf06a	-0.025139052
149	0xbcf36456	-0.02971093
150	0xbd325c71	-0.04354519
151	0xbd89a40f	-0.06720745
152	0xbd8b71c2	-0.06808807
153	0x3c387490	0.011258259
154	0x3c046bd7	0.008082352
155	0x3d6676ef	0.056265768
156	0xbc59bebf	-0.013290106
157	0x3d128342	0.03576971
158	0x3ceb241c	0.028703742
159	0x3d74f21e	0.059801213
160	0xbbcabe4c	-0.006187236
161	0x3ac68852	0.0015146828
162	0x3d3e2a98	0.04642734
163	0x3c798f6a	0.0152319465
164	0x3d27d25e	0.040972106
165	0x3d82e594	0.06391445
166	0xbc4447b0	-0.011979982
167	0x3cef088f	0.029178886
168	0x3ca55421	0.020181717
169	0xbc2b2487	-0.0104457205
170	0x3cd8255c	0.026385002
171	0x3c870f10	0.016486675
172	0x3bce1d57	0.0062901187
173	0x3d315d83	0.04330207
174	0x3d696d89	0.056989226
175	0x3d814ead	0.06313834
176	0x3d264035	0.040588576
177	0x3d73307b	0.059372406
178	0x3d42f4e9	0.047596846
179	0x3d2c9102	0.042130478
180	0x3c0ce0c0	0.008598506
181	0x3ac918e0	0.0015342496
182	0x3c3ba984	0.01145399
183	0xbd005c6f	-0.03133815
184	0xbd1fbb6b	-0.038997095
185	0x3cfe4196	0.031037133
186	0xbc9d2b26	-0.019185614
187	0xbc7c5310	-0.015400663
188	0x3cad41a6	0.021149468
189	0x3cc4dda2	0.024031464
190	0x3bbd9808	0.005785946
191	0xbd0f5622	-0.034994252
192	0xbc36dbac	-0.011160772
193	0xbc990876	-0.018680792
194	0x3d23d0a9	0.039993916
195	0xbd0eeb0a	-0.03489212
196	0xbc767b40	-0.0150440335
197	0x3c78001c	0.015136745
198	0x3d1f2d89	0.038861785
199	0x39c497a0	0.00037497003
200	0x3cfb90ef	0.030708758
201	0x3d02005d	0.031738628
202	0x3cf48231	0.029847236
203	0x3d7892d5	0.060686905
204	0x3a0b72f3	0.0005319558
205	0x3d0f519f	0.03498995
206	0xbc260ce6	-0.010134911
207	0x3cd12198	0.025528714
208	0x3c8c043d	0.017091865
209	0x3d0f4124	0.034974232
210	0x3c8abe4d	0.016936446
211	0x3c78f29d	0.015194562
212	0x3d74eb03	0.059794437
213	0x3c211cb8	0.009833507
214	0x3d32a86b	0.043617647
215	0xbbb0b6dd	-0.0053928928
216	0x3cae678a	0.021289606
217	0x3b3f7350	0.0029213019
218	0x3c57c99c	0.013170626
219	0xbce75e46	-0.028243195
220	0xbc913908	-0.01772739
221	0x3c9e9f02	0.01936293
222	0x3c1ddc30	0.009635016
223	0x3c174d60	0.009234756
224	0xbd24d96b	-0.04024641
225	0x3abade80	0.0014256984
226	0xbd12dd38	-0.035855502
227	0x3c696a54	0.014246542
228	0xbcb62c80	-0.022238016
229	0x3d266f59	0.040633533
230	0x3c293454	0.010327417
231	0xbd0679e8	-0.032831103
232	0xbcafd8ee	-0.021465745
233	0x3cc74332	0.024324033
234	0x3d1558ab	0.036461513
235	0xbc35b470	-0.011090383
236	0xbc87d72f	-0.0165821
237	0x3cf4a0ae	0.029861774
238	0xbc8a9c2a	-0.016920168
239	0xbcc87340	-0.024469018
240	0xbd04eabd	-0.032450426
241	0xbcdf5fa1	-0.02726728
242	0xbc3ddf35	-0.011588861
243	0xbd32e8dc	-0.043679103
244	0xbd750864	-0.059822455
245	0xbbd6b933	-0.006552839
246	0xbd761b7e	-0.060084812
247	0xbd0a788b	-0.033806365
248	0xbd24eec7	-0.04026678
249	0xb8dbee49	-0.00010487118
250	0xbc0effb3	-0.008727956
251	0xbbcdc226	-0.006279248
252	0x3ccddccf	0.025129704
253	0x3c9f33f4	0.019433953
254	0x3bae5a8e	0.0053208536
255	0xbca4c187	-0.020111812

encoder.encoder.4.bias f4 [128]
0	0x3bc6ac6a	0.006063034
1	0x3a9edc3e	0.0012120081
2	0xbc1166aa	-0.008874575
3	0xbc4d5cb6	-0.012534311
4	0x3d554484	0.052067295
5	0x3d21c262	0.03949202
6	0x3d70eed7	0.058821525
7	0xbc4ce803	-0.012506488
8	0xbc87774f	-0.016536383
9	0x3d4d2ab8	0.050089568
10	0xbd0b7343	-0.03404547
11	0x3ca99c11	0.020704301
12	0x3ccb9685	0.024852047
13	0x3d638c3a	0.055553652
14	0xbcc1c08a	-0.02365138
15	0x3d4188f3	0.047249746
16	0x3d806ea7	0.06271105
17	0x3cc918be	0.02454793
18	0xbd22b8cf	-0.03972703
19	0xbd421642	-0.047384508
20	0xbbfb3c8b	-0.0076671294
21	0xbd1fa8d1	-0.038979355
22	0xbb842784	-0.004033031
23	0xbce9c74d	-0.028537417
24	0xbcd6eb34	-0.0262352
25	0xbba2eba7	-0.0049719396
26	0xbbc1aff6	-0.0059108688
27	0x3d2abf28	0.041686207
28	0x3d32961f	0.043600198
29	0xbd37bb37	-0.044856276
30	0x3d4c44ea	0.04987041
31	0x3d2ae29b	0.041720014
32	0xbc3f078d	-0.011659515
33	0x3b11a241	0.0022221955
34	0x3caddc5d	0.021223241
35	0xbc0d6a56	-0.0086313095
36	0x3d0eabcb	0.034831803
37	0x3d2c3771	0.04204506
38	0xbcf899ba	-0.03034674
39	0xbb3d2379	-0.0028860255
40	0x3cf8f724	0.030391283
41	0x3c2a4d3b	0.01039439
42	0xbba1d1ea	-0.004938354
43	0xbcb40ca8	-0.021978691
44	0xbc3c9219	-0.011509442
45	0x3d1a5e32	0.037687488
46	0x3cf087fa	0.029361714
47	0x3d4a2972	0.04935593
48	0x3d4b6754	0.04965909
49	0x3d0b9bd5	0.03408416
50	0x3c829616	0.015940707
51	0xbd07d6b3	-0.033163738
52	0xbd1fab77	-0.03898188
53	0x3d7d2b8d	0.06180911
54	0xbc039777	-0.0080317175
55	0x3d2438cf	0.04009324
56	0x3bca1bee	0.0061678803
57	0xbc4e94c3	-0.01260871
58	0x3cc05683	0.023478752
59	0x3d06e902	0.032937057
60	0xbc618194	-0.013763804
61	0xbc49d344	-0.012318436
62	0x3d78a25c	0.060701713
63	0x3cbaa0af	0.022781698
64	0x3d4b333d	0.04960941
65	0x3d33d2ba	0.043902136
66	0x3a83ecf4	0.0010065124
67	0x3caec269	0.021332936
68	0xbc59f33f	-0.013302623
69	0x3d4075db	0.046987396
70	0xbd0a410b	-0.033753436
71	0x3cb148c4	0.021641143
72	0x3d5c70ca	0.0538185
73	0xbc9ea0b3	-0.019363737
74	0x3d19afdd	0.037521232
75	0x3ca65586	0.020304453
76	0xbcb1119c	-0.021614842
77	0x3d80c148	0.062868655
78	0x3d13fe66	0.036131285
79	0x3ce134f7	0.027491076
80	0x3d81c820	0.06336999
81	0xbc084048	-0.008316107
82	0x3d5ea3c4	0.054355398
83	0x3d05a39d	0.032626737
84	0x3d036d99	0.032086942
85	0x3cd41ab9	0.025891649
86	0x3cd44196	0.02591018
87	0xbc047d45	-0.008086507
88	0x3c5f2dfb	0.013621802
89	0x3d460f4b	0.04835443
90	0xbc820ebd	-0.015876168
91	0x3d8541a5	0.06506661
92	0xbcb7496d	-0.02237388
93	0xbc588559	-0.013215386
94	0xbc958d9e	-0.018256005
95	0x3d483111	0.04887492
96	0xbc6ae909	-0.0143377865
97	0x3d51ae2e	0.0511915
98	0x3cd25f18	0.02568011
99	0x3d4e84a7	0.050419476
100	0xbc713e54	-0.014724333
101	0x3d11170d	0.035422374
102	0x3cbdf9bc	0.023190372
103	0xbd4cc190	-0.049989283
104	0xbc497d95	-0.0122980075
105	0xbc22c949	-0.009935685
106	0x3c35654b	0.011071513
107	0x3c71393a	0.0147231165
108	0xbd28754f	-0.0411275
109	0x3d3a0db3	0.04542322
110	0x3d829a00	0.063770294
111	0x3d22f376	0.039782964
112	0xbd295751	-0.041343037
113	0x39a4befc	0.00031422812
114	0xbd23f9d0	-0.04003316
115	0xbc2d3f76	-0.010574212
116	0xbb32c9f5	-0.002728102
117	0xbc0b963e	-0.008519707
118	0x3d51954e	0.05116778
119	0x3d117954	0.0355161
120	0xbc96cc17	-0.018407864
121	0x3d838fbd	0.064239
122	0xbd0a36d1	-0.033743683
123	0xbc42746a	-0.011868576
124	0x3d4b2925	0.049599785
125	0x3cc8d8be	0.024517413
126	0xbb51ae4b	-0.0031994756
127	0xbd133507	-0.035939243

decoder.decoder.0.weight f4 [128, 64, 3, 3]
0	0x3c8f8c06	0.017522823
1	0x3c251c7b	0.010077591
2	0x3c793f37	0.0152128255
3	0xbc2ca389	-0.010537037
4	0x3c7c3911	0.015394465
5	0x3bf51d69	0.0074803126
6	0x3c43e26e	0.0119558405
7	0xbc786fab	-0.0151633425
8	0x3b109d72	0.00220665
9	0xbc01bf9c	-0.007919218
10	0xbd18a655	-0.037268
11	0xbc9ed54f	-0.019388823
12	0xbb8b7445	-0.004255804
13	0x3c95c500	0.018282413
14	0x3cba8669	0.02276917
15	0x3c1f5b0a	0.009726295
16	0xbd1f331d	-0.038867105
17	0x3cf936ed	0.030421698
18	0xbcc5139c	-0.024057202
19	0xba3010fc	-0.0006716398
20	0xbc318b1d	-0.01083639
21	0x3c9ca3a9	0.019121008
22	0x3d1648fc	0.036690697
23	0xbd15485f	-0.03644597
24	0x3d65e429	0.056125794
25	0x3c317062	0.010830017
26	0x3b4bbcfe	0.003108799
27	0xbca960c3	-0.020676022
28	0x3c115083	0.008869293
29	0xbc1282ac	-0.008942287
30	0x3d43f84b	0.047844213
31	0x3d1ab980	0.037774563
32	0x3cc44070	0.023956507
33	0xbd16f62a	-0.036855854
34	0x3cb0d2e0	0.021584928
35	0x3b853da0	0.004066184
36	0x3d40745f	0.04698598
37	0x3d58cc4b	0.052929204
38	0xbc6e7465	-0.014554118
39	0x3c237082	0.009975554
40	0x3ae0bf89	0.0017146926
41	0x3cbe62e8	0.023240522
42	0x3d5fac79	0.054607842
43	0x3d344c62	0.044018157
44	0x3d13318e	0.03593593
45	0xbc047763	-0.008085105
46	0x3b4383b0	0.002983313
47	0x3d384a7d	0.044992913
48	0xbcdf3b48	-0.027249947
49	0x3cac4e4f	0.021033434
50	0xbcfa7c4d	-0.03057685
51	0xbc68c6f0	-0.014207587
52	0x3c8edad8	0.017438337
53	0xbcc910f8	-0.024544224
54	0xbd1c7c2c	-0.038204357
55	0x3d18e898	0.037331194
56	0xbd358d3a	-0.044324137
57	0x3d608874	0.05481763
58	0xbd01d254	-0.031694725
59	0x3b735c1a	0.0037133754
60	0xbcdb335c	-0.026757888
61	0xbb76eb70	-0.0037676953
62	0x3c9db58a	0.019251604
63	0xba6143c6	-0.0008593168
64	0x3c951951	0.018200548
65	0xbac74aae	-0.0015204751
66	0x3d235e58	0.039884895
67	0xbc67d10c	-0.014148962
68	0x3c3894dc	0.01126596
69	0x3c96264d	0.01832881
70	0x3d0c431e	0.034243695
71	0xbbbe18fe	-0.005801319
72	0x3d5d1b9b	0.053981405
73	0x3c9c9bce	0.019117262
74	0x3d04d687	0.03243115
75	0x3d34af2e	0.044112377
76	0x3d68b28e	0.056810908
77	0x3d36d346	0.04463508
78	0x3b199037	0.0023431906
79	0x3a0e3bd9	0.0005425788
80	0x3d1c089f	0.03809416
81	0x3d6b2673	0.057409715
82	0x3cf44b7a	0.029821146
83	0xbc9190b1	-0.01776919
84	0x3c50b28d	0.012737882
85	0xbc16d51c	-0.009206083
86	0xbca4b6dd	-0.020106727
87	0x3c8ffd4c	0.017576836
88	0xbd3ab325	-0.045581
89	0x3d22ddf9	0.03976247
90	0x3cab2adc	0.02089446
91	0x3ca674b7	0.020319326
92	0x3d7be515	0.061497767
93	0x3d657355	0.056018192
94	0x3bf1ea2c	0.007382652
95	0x3d559463	0.052143466
96	0x3d04981d	0.03237163
97	0x3c7498cd	0.014929009
98	0x3d435143	0.04768492
99	0x3a6e1a00	0.0009082854
100	0x3d4f0cb1	0.050549213
101	0x3cc53e72	0.024077628
102	0x3d0289b8	0.03186962
103	0x38c76f49	9.509788e-05
104	0xbcd255a5	-0.025675604
105	0xbd0d730b	-0.03453354
106	0x3bfb28c8	0.0076647736
107	0x3c9893c8	0.018625155
108	0xbc56d019	-0.013111138
109	0xba86d100	-0.0010285676
110	0x3ca19389	0.01972367
111	0x3c8561ac	0.016281925
112	0x3cbb6031	0.022873016
113	0x3d134bf0	0.03596109
114	0x3c91c0a7	0.01779206
115	0x3d0f1f89	0.034942184
116	0xbc145d29	-0.009055414
117	0x3d206157	0.03915533
118	0x3c1d743c	0.009610232
119	0x3d2931a2	0.0413071
120	0x3d5213ea	0.051288523
121	0x3d2dcfa0	0.042434335
122	0xbbba5fa4	-0.005687671
123	0x3d1bdec7	0.038054254
124	0x3c75ddc6	0.015006488
125	0xb9ee5bf1	-0.000454634
126	0x3b6980d2	0.0035629761
127	0x3cc9c3fb	0.024629584
128	0x3c6a5fd4	0.014305074
129	0xbc9259de	-0.017865118
130	0x3d635c4f	0.055507954
131	0x3bf3c4d3	0.0074392348
132	0xbd2be1c2	-0.041963346
133	0xbc970242	-0.018433694
134	0x3c9daa29	0.019246178
135	0xbcf8eca5	-0.030386278
136	0x3c56bd60	0.013106674
137	0xbc293349	-0.010327169
138	0xbc9e33fe	-0.019311901
139	0xbce0dec6	-0.027449977
140	0x3b35f626	0.0027765124
141	0x3c1b1b09	0.009466895
142	0xbbf18c2a	-0.007371445
143	0xbc1a5cb0	-0.0094215125
144	0xbb11114b	-0.0022135552
145	0x3cb71539	0.022348987
146	0x3c1a9b64	0.009436462
147	0x3d030f36	0.03199693
148	0x3d048fdc	0.032363757
149	0x3c89583e	0.01676571
150	0x3c73e7d0	0.014886811
151	0xbc44641f	-0.011986761
152	0x3b78d0d1	0.003796626
153	0xbd0a33ca	-0.033740796
154	0x3c9aef5e	0.018912967
155	0xbcb7e1a2	-0.022446457
156	0x3d0536e8	0.032523066
157	0x3c7c7856	0.01540955
158	0xbbf627de	-0.0075120768
159	0xbc8b6f90	-0.01702097
160	0x3b7d5033	0.0038652539
161	0x3caaf424	0.020868368
162	0xbd381bc2	-0.044948347
163	0xbc75b0fe	-0.0149958115
164	0xbd28c3b9	-0.04120228
165	0x3cd1b8c4	0.025600798
166	0xbbda8a03	-0.0066692843
167	0xbd2ea93d	-0.042641867
168	0x3cbef65b	0.02331083
169	0xbd2f92d4	-0.042864636
170	0xbd1cae80	-0.038252354
171	0x3c7de66b	0.01549683
172	0x3bd4e49e	0.00649698
173	0x3cff3c3b	0.03115665
174	0xbce0a713	-0.027423417
175	0x3c08a8cf	0.008341028
176	0x3c340e6c	0.010989767
177	0xbc30bc83	-0.010787132
178	0x3d177c57	0.036983814
179	0x3c9b86c3	0.018985158
180	0x3ce29b8c	0.027662061
181	0xba130b96	-0.00056093314
182	0xbcaebc8d	-0.021330142
183	0xbd44b639	-0.048025344
184	0xbcc0dc05	-0.023542413
185	0x3c94b07a	0.018150557
186	0xbd1a1b90	-0.037623942
187	0x3ccfc698	0.025363252
188	0x3d24ab60	0.0402025
189	0xbc1e3c30	-0.0096579045
190	0x3b4657d2	0.0030264747
191	0x3c557627	0.013028658
192	0x3d53f3ee	0.0517463
193	0x3c63afeb	0.013896923
194	0x3c2f32cf	0.010693266
195	0x3cb38643	0.021914607
196	0x3c58331c	0.013195779
197	0x3d1e6e4a	0.0386794
198	0x3c9b34f9	0.018946158
199	0x3cf0fd64	0.029417701
200	0xbd16a9c4	-0.036782995
201	0xbae71d6b	-0.0017632669
202	0xba25fcc0	-0.0006331913
203	0xbc895f85	-0.01676918
204	0xbbd1f16a	-0.0064069526
205	0xbc38339b	-0.011242772
206	0xbca17c17	-0.019712491
207	0xbc8a1f7d	-0.016860718
208	0xbd17d8ed	-0.03707211
209	0x3cb0ffd3	0.021606361
210	0xbc97439e	-0.01846486
211	0x3c037ba1	0.008025081
212	0xbccdd3fb	-0.025125494
213	0xbbdb91cd	-0.0067007304
214	0x3d09f34d	0.033679295
215	0xbcd17b00	-0.025571346
216	0x3cab7863	0.020931428
217	0x3c96d924	0.018414088
218	0x3ce0493e	0.027378675
219	0xbcbe1df5	-0.023207644
220	0x3c5e0799	0.013551616
221	0xbbc97746	-0.0061482517
222	0xbd4148c2	-0.047188528
223	0x3d1926c0	0.03739047
224	0xbd42ee1e	-0.047590367
225	0x3cdb5a38	0.026776418
226	0xbc9c4fa8	-0.019080952
227	0xbd1924c2	-0.03738857
228	0x3bdcaa18	0.006734144
229	0x3b8e0acd	0.0043347836
230	0xbd361a9f	-0.04445898
231	0xbbeab149	-0.0071622473
232	0xbc2e02c3	-0.010620776
233	0x3b4badd6	0.0031078956
234	0xbd410657	-0.047125187
235	0x3c294f35	0.010333826
236	0xbd47e574	-0.048802808
237	0x3c955677	0.018229706
238	0x3cfd27ea	0.030902822
239	0xbc86f980	-0.016476393
240	0x39ec6454	0.00045088178
241	0xbbb91176	-0.0056478335
242	0x3ceb6e29	0.028739052
243	0xbcb436e1	-0.021998825
244	0x3d19f658	0.037588447
245	0xbc244b70	-0.010027751
246	0x3cc9391a	0.024563361
247	0x3d39bedf	0.045348044
248	0xbd1451cc	-0.03621082
249	0x3c1888ec	0.0093099885
250	0x3ce4320d	0.027855897
251	0xbc877018	-0.016532943
252	0x3ccd35f8	0.025050148
253	0xbcf4f30c	-0.02990105
254	0x3cbd271b	0.023089936
255	0x3c803b11	0.015653165

decoder.decoder.0.bias f4 [64]
0	0xbb1e9a0b	-0.0024200703
1	0x3c61a9b9	0.013773375
2	0x3b1b01f8	0.0023652297
3	0x3d48ece9	0.04905406
4	0x3d80bdb7	0.06286185
5	0xbcf2db48	-0.029645577
6	0xbbca1385	-0.0061668777
7	0x3d6f28a3	0.058388364
8	0x3ca607da	0.020267416
9	0x3c8144af	0.015779821
10	0x3cf8bf41	0.030364634
11	0xbce9a92d	-0.028523052
12	0x3d458059	0.048218105
13	0x3d13a413	0.036045145
14	0x3d483849	0.048881803
15	0xbca7fddf	-0.020506797
16	0x3d17bc00	0.037044525
17	0xbc0c601a	-0.008567834
18	0x3c55e6ae	0.013055487
19	0xba09b40a	-0.0005252963
20	0xbd4cda0e	-0.05001264
21	0x3d299a73	0.04140706
22	0xbc366535	-0.011132528
23	0x3b2ae3c4	0.00260757
24	0x3c8ba534	0.017046548
25	0xbd380e2d	-0.044935394
26	0x3ce1f165	0.027580926
27	0xbc2b2389	-0.010445484
28	0x3ca9e225	0.020737717
29	0x3d46272c	0.0483772
30	0x3d2e392a	0.042534985
31	0xbcbad625	-0.02280719
32	0x3ce15cb6	0.027510028
33	0x3d149df0	0.036283433
34	0x3cd8360e	0.026392963
35	0x3d16ee95	0.036848623
36	0xbbda5509	-0.006662969
37	0x3c6177da	0.013761485
38	0xbccd54f6	-0.025064927
39	0xbc8f71fd	-0.017510409
40	0x3d6b8b24	0.05750574
41	0xbcb928fe	-0.022602554
42	0xbd0e2ea0	-0.034712434
43	0xbd307f94	-0.043090418
44	0x3d2e171e	0.042502515
45	0x3c98b619	0.018641518
46	0x3d16bd9c	0.03680192
47	0x3cff4c44	0.031164296
48	0xbd39a3f4	-0.045322374
49	0x3b9f7589	0.004866306
50	0x3cd98cce	0.026556399
51	0x3d5e065b	0.05420528
52	0x3c8e7476	0.017389517
53	0xbb3c37fb	-0.002871989
54	0x3d6f88b7	0.05847999
55	0xbd1a25ef	-0.037633833
56	0x3d39d6ab	0.04537074
57	0x3ca16fc4	0.019706614
58	0x3bcf3d6e	0.0063244617
59	0xbbe7f65c	-0.007078929
60	0x3d32017e	0.043458454
61	0xba89d2b9	-0.0010515071
62	0x3ccf6bb4	0.025319912
63	0x3d755f48	0.05990532

decoder.decoder.2.weight f4 [64, 32, 3, 3]
0	0xbd2ca5e4	-0.042150393
1	0x3bdde7af	0.0067720036
2	0x3d233aeb	0.03985111
3	0x3d2f6adf	0.04282653
4	0xbcc92787	-0.02455498
5	0x3cef93bd	0.029245252
6	0xbd67909e	-0.056534402
7	0x3d84c39d	0.06482623
8	0xbbf480e2	-0.007461653
9	0xbc24ba43	-0.010054174
10	0x3ce4cf82	0.027930979
11	0x3d85d9ec	0.06535706
12	0x3d0e4836	0.034736834
13	0x3cc76ee3	0.024344867
14	0x3d3f26c5	0.046667833
15	0xbd2e8d88	-0.042615443
16	0x3d09cc2e	0.033641987
17	0xbd106793	-0.035255026
18	0xbca329d1	-0.0199174
19	0xbd0917af	-0.033469852
20	0xbcca8c0e	-0.024724986
21	0xbd141339	-0.036151145
22	0x3d1cdd99	0.03829727
23	0x3c936524	0.017992564
24	0x3d327658	0.043569893
25	0x3d33a483	0.043858062
26	0x3d1ae910	0.037819922
27	0x3d50259b	0.050817113
28	0x3d6885d2	0.056768246
29	0x3c9f169a	0.019419957
30	0xbd35a08c	-0.044342563
31	0xbc79be7a	-0.015243167
32	0xbc885db0	-0.016646236
33	0xbcc2d5fe	-0.02378368
34	0x3d7d2940	0.061806917
35	0xbd1e7135	-0.03868218
36	0x3d133557	0.03593954
37	0x3d164a04	0.03669168
38	0xbc1b7284	-0.009487752
39	0xbc99c350	-0.01876989
40	0x3cffc5f7	0.031222327
41	0xbc3954e6	-0.011311745
42	0xbd354284	-0.044252887
43	0x3d42e51a	0.04758177
44	0x3c99b85b	0.018764665
45	0x3c139e86	0.009009963
46	0x3d2551f7	0.04036137
47	0xbb803616	-0.0039126975
48	0xbcf50dc6	-0.029913794
49	0x3ce0d9de	0.027447637
50	0xbce59f8a	-0.028030176
51	0xbd7ec195	-0.062196333
52	0xbd37e661	-0.04489744
53	0xbd89f8e6	-0.06736927
54	0xbd5d842e	-0.054081134
55	0xbc5c669c	-0.013452198
56	0x3b81867a	0.0039527984
57	0x3c892155	0.016739527
58	0x3c939820	0.018016875
59	0x3ce1cac8	0.027562514
60	0xbd63815e	-0.055543296
61	0xbd82c4f9	-0.06385226
62	0xbd275d00	-0.040860176
63	0x3d2bbd89	0.0419288
64	0x3d0a386e	0.03374522
65	0x3c8817ea	0.016612966
66	0x3c8961bd	0.016770238
67	0xbceee058	-0.02915971
68	0x3d92428d	0.071416
69	0x3d5f2b43	0.054484617
70	0x3d99ec3a	0.0751576
71	0xbc87a21e	-0.016556796
72	0x3c37b9e4	0.011213753
73	0xbba191ee	-0.0049307263
74	0xbd222137	-0.039582457
75	0x3cb63cea	0.022245843
76	0x3d20ab8a	0.039226092
77	0xbacaa034	-0.0015459121
78	0x3cd9d6cc	0.026591681
79	0x3cfb25b8	0.030657634
80	0xbd3abd9e	-0.04559099
81	0x3d37a439	0.04483435
82	0xbc4329fc	-0.011911865
83	0xbc506573	-0.0127195
84	0x3d667e7d	0.056272972
85	0x3d9b5691	0.075848706
86	0x3d0e9621	0.034811143
87	0x3aecbc31	0.0018061457
88	0xbc86c3f3	-0.016450858
89	0x3d971733	0.07377472
90	0xbd541583	-0.051778328
91	0xbd26b53d	-0.040700186
92	0xbc77140f	-0.015080466
93	0x3d41f338	0.047351092
94	0xbd70b232	-0.05876369
95	0xbd6b2dab	-0.0574166
96	0x3ca67e79	0.020323979
97	0x3cf44709	0.029819028
98	0x3da11351	0.078650124
99	0x3d5564fc	0.05209826
100	0xbd596b4b	-0.05308084
101	0x3df2e9b1	0.11860979
102	0x3b1b142a	0.0023663142
103	0xbbe31132	-0.00692954
104	0xbd0066b8	-0.03134796
105	0x3b8e9235	0.0043509253
106	0xbb992586	-0.0046736626
107	0xbd6ce3db	-0.057834487
108	0xbd8cbd83	-0.06872084
109	0x3d9ad289	0.07559688
110	0x3ce03b5d	0.027372057
111	0x3aaa7e20	0.0013007559
112	0x3d5a7d30	0.053342044
113	0x3cd050c2	0.025429133
114	0xbd220cab	-0.039562862
115	0xbd016ebe	-0.031599753
116	0x3b1b01ae	0.0023652124
117	0x3ca482dc	0.02008193
118	0x3cc03275	0.02346156
119	0xbc03cbe4	-0.008044217
120	0x3d955545	0.072916545
121	0x3d96447b	0.0733728
122	0xbbd6250b	-0.0065351776
123	0xbc2e17bc	-0.010625776
124	0x3d7ceee1	0.06175125
125	0x3d4a5bd1	0.04940397
126	0xbd2828c2	-0.041054495
127	0xbb750e40	-0.0037392527
128	0xbd0f5930	-0.034997165
129	0x3c385904	0.011251692
130	0x3d12a848	0.035805017
131	0xbd1bdc12	-0.038051672
132	0xbd8c4e4e	-0.06850873
133	0xbd36e002	-0.044647224
134	0x3cc06028	0.02348335
135	0x3b878624	0.004135864
136	0x3d43dc2e	0.0478174
137	0xbd825e1e	-0.06365608
138	0xbc56c8ad	-0.013109368
139	0xbd45e60e	-0.0483151
140	0xbd204a66	-0.039133452
141	0x3b96eabd	0.0046056197
142	0x3d3ae420	0.045627713
143	0x3b449312	0.0029994887
144	0x3cf1d00b	0.029518148
145	0xbd558291	-0.05212647
146	0xbd354056	-0.04425081
147	0x3d45ffac	0.04833953
148	0x3ca9626a	0.02067681
149	0x3ae2a9b3	0.0017293006
150	0xbd4aee44	-0.049543634
151	0x3c63d5ab	0.013905923
152	0x3c022e7e	0.007945655
153	0x3d01c474	0.031681493
154	0xbd89194b	-0.066942774
155	0x3b8bf7aa	0.004271467
156	0x3d6c976d	0.0577616
157	0xbbf4d430	-0.007471584
158	0xbd6ca3d7	-0.057773437
159	0x3d0034ae	0.03130024
160	0xbd2840fa	-0.04107759
161	0xbd3002c0	-0.042971373
162	0xbd2a2d35	-0.04154702
163	0xbba04408	-0.0048909225
164	0x3d4c8791	0.049933974
165	0x3d7ffb2a	0.062495388
166	0x3d697693	0.056997847
167	0x3b948199	0.004532051
168	0xbc99e805	-0.018787393
169	0x3d17b01e	0.037033193
170	0xbd85764e	-0.065167055
171	0x3c4735df	0.01215884
172	0x3d4ed829	0.050499115
173	0xbd36d637	-0.044637885
174	0x3d792ea5	0.0608355
175	0x3c899580	0.01679492
176	0x3bb6470d	0.005562669
177	0x3cb89315	0.022531072
178	0xbd095b7c	-0.033534512
179	0x3b42479e	0.0029644738
180	0x3d31ca8b	0.04340605
181	0x3c99364c	0.018702649
182	0xbc07c6f8	-0.008287184
183	0xb9c2da60	-0.00037165266
184	0xbd43c86b	-0.047798555
185	0xbc9416c6	-0.018077265
186	0x3c8c9372	0.017160151
187	0xbd8233a4	-0.06357506
188	0xbd50bad2	-0.050959416
189	0xbab38610	-0.001369657
190	0xbc894a12	-0.016758952
191	0xbd2e782c	-0.042595074
192	0x3ccd73de	0.025079664
193	0x3cb3d9f8	0.021954522
194	0xbd8449cd	-0.06459389
195	0xbcf84d5b	-0.030310323
196	0xbd120f3f	-0.03565907
197	0xbc77c44d	-0.015122485
198	0x3d1e54ef	0.038655218
199	0x3d070145	0.032960195
200	0x3c41b03f	0.0118218055
201	0x3c439646	0.011937683
202	0x3d4f2c89	0.05057958
203	0x3b8f0b05	0.0043653273
204	0x3d167d44	0.036740556
205	0xbcd8b5dc	-0.026453905
206	0xbc9103e7	-0.017702056
207	0xbc0ffb31	-0.008787916
208	0x3c47c9e7	0.012194133
209	0xbd2f56c5	-0.04280736
210	0xbc8b8df0	-0.017035455
211	0x3da0bd42	0.07848598
212	0xbd0f5f2b	-0.03500287
213	0xbb90783a	-0.0044088634
214	0x3b2c8151	0.0026322196
215	0x3d523b07	0.051325824
216	0x3cfeb0aa	0.0310901
217	0x3d21e5f7	0.039525952
218	0xbcc45055	-0.023964087
219	0x3d6937f1	0.056938116
220	0x3cc0031f	0.023438988
221	0x3cf8ff41	0.030395152
222	0xbc94db38	-0.018170938
223	0x3c360a52	0.011110859
224	0xbd43baba	-0.0477855
225	0x3cd1b52e	0.025599089
226	0xbd5989be	-0.053109877
227	0xbd8cc3f1	-0.0687331
228	0xbcdec8c3	-0.02719534
229	0xbcc7b18c	-0.024376653
230	0x3c0cc5e5	0.008592104
231	0x3cc3a0d1	0.023880394
232	0x3d41affd	0.047286976
233	0xbd580572	-0.052739568
234	0xbd3de639	-0.046362136
235	0xbd6ad962	-0.05733622
236	0xbd32dc42	-0.043667085
237	0xbc257b6c	-0.010100227
238	0xbd44152a	-0.047871746
239	0x3cd1d922	0.025616232
240	0xbcd6632c	-0.026170336
241	0x375911ea	1.2938379e-05
242	0xbb6fb7b8	-0.003657801
243	0xbb92c290	-0.00447876
244	0xbc2af3eb	-0.010434131
245	0x3d7e510f	0.062089022
246	0x3d137ef6	0.03600975
247	0xbcd4c137	-0.025971038
248	0x3c9c17a2	0.019054238
249	0x3d1ac48b	0.037785094
250	0x3caa6b0a	0.020802993
251	0xbd603330	-0.054736316
252	0xba23855d	-0.0006237829
253	0x3cb4b262	0.022057716
254	0xbd178fd3	-0.037002396
255	0x3c68b014	0.014202137

decoder.decoder.2.bias f4 [32]
0	0x3cf2677a	0.029590357
1	0x3d6d435c	0.057925567
2	0x3d24310e	0.040085845
3	0xbbcd8488	-0.0062719025
4	0x3ccda615	0.025103608
5	0xbb1c58ce	-0.0023856643
6	0xbd3d7977	-0.046258416
7	0x3d78c45b	0.060734134
8	0xbd3113eb	-0.043231886
9	0x3d1afdd3	0.037839722
10	0x3bcc2f29	0.006231208
11	0x3c17834f	0.009247615
12	0xbbffa729	-0.0078019095
13	0x3d322a44	0.04349734
14	0xbd6e22c5	-0.058138628
15	0x3cdbce64	0.026831813
16	0xbd8e05e7	-0.069347195
17	0xbd064395	-0.032779295
18	0xbd31a706	-0.043372177
19	0x3d890e4f	0.06692182
20	0xbd85f54a	-0.06540926
21	0xbd9bdc72	-0.07610406
22	0x3d08b957	0.03337988
23	0x3d335506	0.043782257
24	0x3ce41e88	0.02784659
25	0xbd86cd09	-0.06582076
26	0x3d14523d	0.03621124
27	0x3c4b72f5	0.012417545
28	0x3d9e798a	0.077380255
29	0x3d8e53cf	0.06949579
30	0xbc0f9fc0	-0.008766115
31	0x3cef126b	0.029183587

decoder.decoder.4.weight f4 [32, 1, 3, 3]
0	0x3e343c28	0.17601073
1	0x3d4e4f0b	0.05036835
2	0x3e907368	0.28213048
3	0xbe7d4745	-0.24734218
4	0x3e7a3282	0.2443333
5	0x3d8add1e	0.06780456
6	0xbeaed560	-0.34147167
7	0xbeafa4f3	-0.34305534
8	0xbe4c5f57	-0.19958244
9	0xbe2028c9	-0.15640558
10	0x3e717343	0.23579125
11	0xbe958d93	-0.29209575
12	0xbe896941	-0.26838115
13	0xbd46c184	-0.048524395
14	0x3db2412a	0.08703835
15	0x3cceff2b	0.025268158
16	0xbe9ed4fb	-0.31021866
17	0x3d1a0de8	0.03761092
18	0xbead2061	-0.33813766
19	0x3e343b29	0.17600693
20	0x3e9ad28e	0.30238765
21	0xbe97d950	-0.29657984
22	0xbe47a311	-0.19495799
23	0xbd2bab2d	-0.041911293
24	0xbea11518	-0.31461406
25	0x3e7a4b91	0.24442889
26	0xbe3e50ed	-0.18585558
27	0xbe2240c9	-0.15845026
28	0x3c8ec180	0.017426252
29	0xbe760981	-0.24027063
30	0xbbc5394e	-0.006018794
31	0xbe889dc9	-0.2668288
32	0xbe422eab	-0.18963115
33	0xbe00ae01	-0.12566377
34	0x3ca667b8	0.020313129
35	0x3da9dc68	0.08293992
36	0x3e596e2b	0.21233432
37	0x3dfe5925	0.12419347
38	0xbe0e30de	-0.13885829
39	0x3d513c3e	0.051082842
40	0xbea17074	-0.31531107
41	0x3e56d764	0.20980603
42	0xbe232014	-0.15930206
43	0x3e71283b	0.23550503
44	0x3e9b97dd	0.303893
45	0x3d03781a	0.03209696
46	0x3e34ead4	0.17667705
47	0xbe65a7bf	-0.22427271
48	0x3e49881a	0.19680825
49	0x3e28ed7c	0.16496843
50	0x3d642ac2	0.05570484
51	0xbbecb9a8	-0.0072242804
52	0x3e93c521	0.28861335
53	0x3cfb042f	0.030641643
54	0xbc93d4d5	-0.018045822
55	0x3e9debaa	0.3084386
56	0x3e99a065	0.30005184
57	0x3e0e1c0f	0.13877891
58	0xbe834912	-0.25641686
59	0xbdbf0e6a	-0.09328921
60	0x3e252406	0.16127023
61	0xbe6b32cf	-0.229686
62	0xbe79d811	-0.24398829
63	0x3d5cabde	0.053874843
64	0xbb7fba7a	-0.003902106
65	0xbeb07beb	-0.34469542
66	0xbe770cee	-0.24126026
67	0xbe7526f1	-0.23940636
68	0xbdb92191	-0.090396054
69	0x3c86c2af	0.016450254
70	0xbe63d09d	-0.22247548
71	0x3dc48c80	0.09597111
72	0x3e5d32e9	0.21601452
73	0x3d136a43	0.03599001
74	0xbe258f23	-0.16167884
75	0x3dc1a517	0.094553165
76	0x3da939b2	0.08262958
77	0x3e8910f8	0.2677076
78	0xbe36f4ea	-0.17866865
79	0xbe730e8b	-0.23736016
80	0x3ea0b54d	0.31388322
81	0xbd043078	-0.032272786
82	0xbe20cb81	-0.1570263
83	0xbe8d2e66	-0.27574462
84	0x3e04db47	0.12974273
85	0xbea13ca7	-0.31491587
86	0xbead7458	-0.33877826
87	0xbe510be7	-0.20414697
88	0x3e9a9dc2	0.30198485
89	0xbe89bd89	-0.26902416
90	0x3d631bab	0.055446308
91	0x3d05c1bb	0.03265546
92	0xbe1127a5	-0.1417528
93	0x3e453b09	0.19260801
94	0xbe077566	-0.13228378
95	0xbd21c063	-0.039490115
96	0xbeaa0ce2	-0.33212954
97	0xbe7f01bf	-0.2490301
98	0x3dba6f67	0.091032796
99	0xbea42816	-0.32061833
100	0xbca7c8dc	-0.02048152
101	0xbcc04b71	-0.023473473
102	0xbd4fea3f	-0.050760504
103	0x3ea22436	0.31668252
104	0x3d938f41	0.07205058
105	0x3dd0b617	0.10190981
106	0x3d856e46	0.065151736
107	0x3db57874	0.08860865
108	0xbe9e085a	-0.30865747
109	0xbe6e6007	-0.23278819
110	0xbe3b35d4	-0.18282253
111	0xbea2f503	-0.31827554
112	0xbd6e99ec	-0.05825226
113	0x3e3c60da	0.18396321
114	0x3df45454	0.11930147
115	0xbe9664f6	-0.29373902
116	0x3e61c827	0.22049008
117	0xbde3ffc5	-0.111327685
118	0x3cdf6c57	0.02727334
119	0xbbe9f9bc	-0.0071403664
120	0xbe859282	-0.2608834
121	0xbe48c780	-0.19607353
122	0xbea46b2b	-0.32113013
123	0xbe23851f	-0.1596875
124	0x3e902e94	0.28160536
125	0xbcb70687	-0.02234198
126	0x3e2183ab	0.15772884
127	0xbe027e23	-0.1274343
128	0xbe093bf1	-0.13401772
129	0x3da7407d	0.08166597
130	0xbde866fb	-0.11347767
131	0x3e766919	0.24063529
132	0xbd3409ad	-0.04395454
133	0xbd23dfc5	-0.040008325
134	0x3e8ff902	0.28119665
135	0x3e983965	0.2973129
136	0x3e7a2e4a	0.2443172
137	0xbdcb8ecc	-0.09939346
138	0x3ce72188	0.028214231
139	0x3e9df020	0.30847263
140	0x3e9ebb57	0.31002304
141	0x3e7d026e	0.24707958
142	0x3e8983c3	0.2685834
143	0x3e264a29	0.16239227
144	0xbe3c4b63	-0.18388133
145	0x3e5f0970	0.21780944
146	0x3e6aa5ac	0.22914761
147	0x3b95ac5b	0.0045676655
148	0xbe9b24fc	-0.30301654
149	0x3e8f7eed	0.28026524
150	0x3e393262	0.18085626
151	0xbccc2a34	-0.024922468
152	0xbdac91e8	-0.08426267
153	0xbc49e8fb	-0.012323613
154	0x3e811ff5	0.25219694
155	0x3cb228a6	0.021747898
156	0x3e48c9e7	0.1960827
157	0xbdf3b6d5	-0.11900107
158	0x3e82e79b	0.25567326
159	0xbeaa1328	-0.3321774
160	0x3df0c18c	0.11755666
161	0xbd5fe554	-0.054662064
162	0x3e053de8	0.13011897
163	0x3e7cd646	0.24691114
164	0x3e6f011f	0.23340271
165	0xbc26ff00	-0.010192633
166	0xbe80c02a	-0.2514661
167	0x3e2b0337	0.16700445
168	0xbe40d59b	-0.18831484
169	0xbe80ca5c	-0.25154388
170	0x3e9e28e4	0.30890572
171	0xbd1bc0dd	-0.038025726
172	0xbeaf2b73	-0.34212837
173	0xbde77071	-0.11300743
174	0x3e8994d7	0.26871368
175	0xbea1572e	-0.31511825
176	0x3dab330a	0.08359344
177	0x3d9c6f39	0.076384015
178	0xbe188ca8	-0.14897406
179	0x3d2dafb1	0.04240388
180	0x3d33f31a	0.04393301
181	0xbe07187a	-0.13192931
182	0xbe01a9bf	-0.12662409
183	0x3eb6a57b	0.35673127
184	0x3db07c1d	0.08617423
185	0xbdddf77a	-0.10838218
186	0x3d96db4b	0.073660456
187	0xbda62c5d	-0.081139304
188	0xbe2c6495	-0.16835244
189	0x3d7970de	0.060898654
190	0xbd501fc8	-0.05081156
191	0xbdcaa7ed	-0.098953106
192	0xbe82ca79	-0.255451
193	0xbaef192b	-0.0018241754
194	0x3dc2033c	0.09473273
195	0x3eb65e36	0.35618752
196	0x3d58d020	0.05293286
197	0xbe5fad84	-0.21843535
198	0xbd104900	-0.03522587
199	0x3d14dfd3	0.036346268
200	0x3d6f1dea	0.058378138
201	0xbd805fd2	-0.06268276
202	0x3e758c15	0.23979218
203	0xbdf009ab	-0.11720594
204	0x3e5c62d4	0.21522075
205	0x3e88664a	0.2664054
206	0x3e4ead44	0.20183283
207	0xbe2d29c8	-0.1691047
208	0xbe144bc0	-0.14482021
209	0xbe046585	-0.12929352
210	0x3d52a252	0.051424332
211	0xbe6e5603	-0.23274998
212	0x3d7d8c8e	0.06190162
213	0x3da34684	0.07972434
214	0x3cdd42bb	0.027009359
215	0xbe34b209	-0.1764604
216	0xbc9fde71	-0.019515248
217	0xbe421c71	-0.18956162
218	0x3ea426a6	0.32060736
219	0x3d954666	0.07288818
220	0x3e8da0c1	0.27661708
221	0x3e9ee153	0.31031284
222	0xbe5879d4	-0.21140224
223	0x3e00edc9	0.12590708
224	0xbe808486	-0.25101107
225	0x3e83289f	0.2561693
226	0x3ea3869e	0.31938642
227	0x3d11cddd	0.035596717
228	0xbe444d1c	-0.1917004
229	0x3e0d4ab4	0.13798028
230	0x3bac48e5	0.005257713
231	0xbd8b4947	-0.06801086
232	0x3bde748c	0.006788796
233	0xbd7ef4c3	-0.06224514
234	0xbc962544	-0.018328317
235	0xbe4bd855	-0.19906743
236	0x3e74f543	0.23921685
237	0x3e39bdbb	0.18138783
238	0xbe01208b	-0.1261007
239	0x3c9e35db	0.01931279
240	0x3e14c584	0.14528471
241	0xbe3b6454	-0.18299991
242	0xbb231d2f	-0.002488922
243	0x3e6a9bcc	0.22910994
244	0xbea0168e	-0.31267208
245	0x3e92dbda	0.28683358
246	0x3e9afdee	0.30271858
247	0x3d320c85	0.04346897
248	0x3d88c1b8	0.06677574
249	0x3e356825	0.17715509
250	0x3ea0391b	0.31293568
251	0x3cd12dff	0.025534628
252	0x3e354bde	0.17704722
253	0xbe61e7f8	-0.22061145
254	0x3e1ff2be	0.15619943
255	0xbe7115a0	-0.23543406
