500_ML/models/weights_6899_10-04_04:16.pt (torch_old, 39980 bytes, 7 tensors)

encoder.encoder.0.weight f4 [16, 1, 3, 3]
-0.09616511 0.07924043 -0.17222434 0.34608087 0.3184965 0.387152 0.4025402 0.122957006
0.34832802 0.19654056 -0.07406367 -0.16768727 0.44776067 0.46398643 -0.030731436 0.232812
0.30575633 0.063765205 0.1681223 0.17845555 -0.027939007 0.40843832 0.1892031 0.30508763
0.2530217 0.095415905 0.29141033 -0.27051812 0.26098374 -0.19083163 -0.0146887 -0.016939789
-0.2581439 0.21345022 -0.12912452 -0.21571796 0.23669867 -0.06316444 -0.024688285 0.30811518
-0.023134394 0.019046582 0.1226688 -0.062976316 -0.08638925 -0.22002566 0.06579717 0.22773013
-0.096200585 0.42580506 0.37246877 0.25769383 0.34179884 0.35417342 0.11909185 -0.085680805
0.27916384 -0.061298717 -0.023993436 -0.24470113 0.3101626 -0.13475709 -0.19941846 -0.08658683
-0.003947377 0.17507449 -0.06574735 -0.19453523 -0.15257096 -0.053739578 -0.32485574 0.22694471
-0.22146203 -0.16295972 0.15677457 0.02638779 -0.0010247442 0.081007965 0.19049032 0.23315506
0.21782629 0.108932585 -0.28029352 -0.009535193 -0.17183642 0.061692715 -0.09474668 -0.106225654
-0.31138456 0.3084226 0.3717425 0.1894639 -0.18338493 -5.6620313e-05 0.29681984 -0.0114062
-0.09062442 0.27781627 -0.22014758 0.015436556 -0.1291054 0.29365978 -0.20169339 -0.0116028935
-0.011602571 0.06485973 0.28063738 0.057862055 -0.20478426 -0.12621857 0.1870261 -0.21221945
0.013943729 0.3566272 0.37079942 0.19025567 0.2949755 0.04356551 0.071581006 -0.26988482
-0.039701432 0.104377985 -0.26365983 0.16485944 0.042655498 -0.15990376 -0.095012784 -0.0784587
0.1930283 -0.2537993 0.09169665 -0.22978723 0.11048019 0.037910968 -0.2844319 0.29986635
0.319095 0.014170105 -0.15917079 0.30057883 -0.019987905 0.19664618 -0.0052451855 0.24973623
00000000: 37f2 c4bd ce48 a23d 945b 30be 8331 b13e
00000010: f911 a33e c938 c63e c019 ce3e e2d0 fb3d
00000020: 0d58 b23e ee41 493e b2ae 97bd 36b6 2bbe
00000030: e340 e53e a18f ed3e 7ec0 fbbc 4566 6e3e
00000040: 188c 9c3e 5597 823d 4128 2c3e 0dbd 363e
00000050: 58e0 e4bc d41e d13e 75be 413e 7234 9c3e
00000060: 0f8c 813e 6a69 c33d bc33 953e 5a81 8abe
00000070: a99f 853e 5e69 43be e0a8 70bc 50c5 8abc
00000080: 702b 84be b292 5a3e 3839 04be 2be5 5cbe
00000090: 2361 723e 5c5c 81bd 163f cabc 46c1 9d3e
000000a0: 5784 bdbc 9407 9c3c c839 fb3d baf9 80bd
000000b0: d9ec b0bd 684e 61be abc0 863d 1632 693e
000000c0: d004 c5bd 1f03 da3e 3ab4 be3e 72f0 833e
000000d0: 4200 af3e 3856 b53e 6ee6 f33d 6b79 afbd
000000e0: 90ee 8e3e 5d14 7bbd e28d c4bc ef92 7abe
000000f0: a2cd 9e3e c3fd 09be 5a34 4cbe 7054 b1bd
00000100: 0059 81bb ba46 333e 8ca6 86bd 3e34 47be
00000110: 903b 1cbe 081e 5cbd 7e53 a6be 3264 683e
00000120: f1c6 62be eade 26be 8389 203e 352b d83c
00000130: b650 86ba 81e7 a53d e50f 433e 33c0 6e3e
00000140: db0d 5f3e 0c18 df3d a282 8fbe 8039 1cbc
00000150: e3f5 2fbe 80b1 7c3d 8c0a c2bd d68c d9bd
00000160: cc6d 9fbe 91e9 9d3e 0855 be3e d302 423e
00000170: 42c9 3bbe 997b 6db8 c5f8 973e 12e1 3abc
00000180: 4c99 b9bd ef3d 8e3e 5e6e 61be 9ce9 7c3c
00000190: 3534 04be 935a 963e b688 4ebe 101a 3ebc
000001a0: b618 3ebc 2ed5 843d b4af 8f3e c300 6d3d
000001b0: f7b2 51be 713f 01be c583 3f3e 0e50 59be
000001c0: 3d74 643c d797 b63e 6cd9 bd3e 62d2 423e
000001d0: 0707 973e c071 323d 1099 923d 582e 8abe
000001e0: f89d 22bd 20c4 d53d 6cfe 86be ead0 283e
000001f0: 88b7 2e3d d0bd 23be 1096 c2bd f4ae a0bd
00000200: 36a9 453e fbf1 81be 74cb bb3d 584d 6bbe
00000210: 7043 e23d 8848 1b3d 0fa1 91be 1588 993e
00000220: 6b60 a33e ba29 683c abfd 22be 78e5 993e
00000230: adbd a3bc 9e5d 493e cedf abbb dbba 7f3e

encoder.encoder.0.bias f4 [16]
0.33958855 -0.0067606987 -0.011489618 -0.25462943 0.24196684 -0.018847778 -0.18522042 -0.24903318
0.23545028 -0.18420951 0.11501012 0.17634234 0.19836497 -0.19028609 -0.24569869 -0.09846666
00000000: 8dde ad3e da88 ddbb f33e 3cbc ca5e 82be
00000010: 28c6 773e a866 9abc 6caa 3dbe 8e02 7fbe
00000020: e119 713e 6ba1 3cbe 6d8a eb3d 1693 343e
00000030: 3020 4b3e 5bda 42be 7098 7bbe e3a8 c9bd

encoder.encoder.2.weight f4 [32, 16, 3, 3]
0.1402282 0.15376614 0.14452466 0.05765433 0.03744288 0.14454286 0.09174046 0.044865355
0.15671593 -0.07518849 -0.049243536 -0.08483259 -0.05064016 -0.10502751 -0.13694702 -0.035208978
-0.090947285 -0.16383687 0.0018779762 -0.02345408 -0.10174247 -0.0032166247 -0.010430058 -0.031471606
-0.07505025 -0.052388113 -0.144137 -0.027779095 0.02323392 -0.022416852 -0.082592085 0.018110506
0.07230682 -0.02271238 0.03184223 -0.059588503 0.104148015 0.10805189 0.044375215 0.061543953
0.066882335 0.13835227 0.09641549 0.059059694 0.0683526 -0.106151156 -0.03419379 -0.0067679537
0.007078555 -0.041889485 -0.116455406 -0.035475526 -0.14939062 -0.15854271 -0.088830985 -0.07620198
-0.079889104 0.06666965 -0.024116756 -0.017304877 0.004713148 -0.02809208 -0.008452172 0.029915683
0.02312202 -0.06937149 0.0054712966 0.038086206 0.052462257 -0.06522624 -0.074881636 -0.021234035
0.13071047 0.10967048 0.101590775 0.10202198 0.17146116 0.07714423 0.018621126 0.016195128
0.10226039 -0.03420971 0.035646163 -0.07516026 -0.03050847 -0.05239598 -0.06257482 -0.04318168
0.029363096 0.0058912635 0.18165821 0.059136372 0.13090877 0.05446238 0.10720261 0.1108688
0.12028566 0.16705753 0.088547185 0.02945342 0.15110217 0.05293457 0.018801447 0.038953878
0.1687769 0.05967323 0.031511858 0.016340336 0.12973802 0.1599022 0.14377515 0.14579917
0.074003756 0.16669495 0.13560079 0.06799281 0.0770437 0.018038817 -0.034027487 0.041062243
-0.018297993 0.040594757 0.002427578 0.028425045 -0.0004242584 -0.0010155216 0.06742539 -0.08286288
0.027935155 -0.052497357 -0.06278841 0.012507401 0.044268183 -0.008934021 0.07877589 -0.04860168
-0.060821887 -0.15388188 0.012374252 -0.1422095 -0.03807231 -0.10178382 -0.06623103 -0.13757741
-0.0077106487 0.0032642398 0.11654064 -0.012310955 -0.02212709 -0.009146228 0.05469234 0.053300053
0.09620982 -0.0026256528 0.07097943 -0.014976398 0.0445369 0.08977196 0.070583016 0.11148277
0.10896271 0.15147899 -0.014561714 0.11701217 0.09685331 0.046249848 0.050034203 0.16767521
-0.023475615 0.019360725 0.057403747 0.01626233 0.0379334 0.006497033 -0.08078928 -0.07575056
0.062124707 0.053813733 0.045686923 0.0325211 -0.017847385 -0.07215056 0.02488067 0.050433587
0.057559166 -0.05646544 0.020959252 -0.03358196 -0.02562265 0.021980833 0.12646496 0.1100857
0.08323516 0.16401207 0.06163964 -0.0016921056 0.073967606 0.09941832 -0.05436511 0.013491958
-0.03510505 0.008615285 -0.018166274 -0.003109252 -0.079021685 -0.06683065 0.037088666 0.03561285
0.0155848265 -0.077859454 -0.032309614 0.03012234 0.0049104393 0.030431174 0.05098433 -0.016244166
0.0016352104 0.07009235 0.05291893 -0.07379417 0.030650279 -0.021572504 0.0081082545 -0.026133642
0.01803378 -0.034860045 0.04178355 -0.042713176 -0.0018920004 -0.042212605 0.003513135 -0.0006900057
-0.04163773 -0.070295125 -0.055019893 0.014598928 0.047564887 -0.017802954 0.054780636 -0.015327493
0.07649443 -0.039479945 -0.0053335642 0.041557096 0.08841404 -0.017286256 -0.039310224 -0.03737364
-0.044217214 0.0537894 -0.033564247 0.03286278 -0.0027772207 0.04893974 0.055078268 0.0023886033
00000000: fb97 0f3e df74 1d3e 46fe 133e f226 6c3d
00000010: b55d 193d 0b03 143e 6ce2 bb3d bcc4 373d
00000020: 247a 203e 6cfc 99bd 97b3 49bd b5bc adbd
00000030: 0e6c 4fbd aa18 d7bd d73b 0cbe 4a37 10bd
00000040: 9242 babd dac4 27be 6d26 f63a c522 c0bc
00000050: 5b5e d0bd 02ce 52bb d6e2 2abc 5fe8 00bd
00000060: f2b3 99bd eb94 56bd a698 13be fc90 e3bc
00000070: 1055 be3c 8ca3 b7bc 0a26 a9bd 7c5c 943c
00000080: 9915 943d 500f babc 006d 023d 1313 74bd
00000090: 8e4b d53d 4f4a dd3d c9c2 353d 8315 7c3d
000000a0: 9bf9 883d 38ac 0d3e 7c75 c53d 94e8 713d
000000b0: 73fc 8b3d c765 d9bd ca0e 0cbd b6c5 ddbb
000000c0: 39f3 e73b 4f94 2bbd 2c80 eebd c94e 11bd
000000d0: dbf9 18be 0559 22be 05ed b5bd c90f 9cbd
000000e0: e69c a3bd 198a 883d 8190 c5bc f5c2 8dbc
000000f0: c070 9a3b 5d21 e6bc fb7a 0abc bc11 f53c
00000100: 646a bd3c a412 8ebd 9048 b33b 4800 1c3d
00000110: aae2 563d 5695 85bd 8b5b 99bd 00f3 adbc
00000120: f7d8 053e eb9a e03d d30e d03d e6f0 d03d
00000130: 8493 2f3e cbfd 9d3d 558b 983c a5ab 843c
00000140: e56d d13d 7b1f 0cbd b601 123d 9fed 99bd
00000150: e6ec f9bc 2b9d 56bd 3a27 80bd 46df 30bd
00000160: e08a f03c 800b c13b 9c04 3a3e fb38 723d
00000170: f30c 063e f213 5f3d 0b8d db3d 2e0f e33d
00000180: 5458 f63d 2111 2b3e 3a58 b53d 4c48 f13c
00000190: 87ba 1a3e ebd1 583d 7e05 9a3c 1a8e 1f3d
000001a0: dad3 2c3e eb6b 743d 9412 013d 2bdc 853c
000001b0: 0bda 043e 67bd 233e cb39 133e 614c 153e
000001c0: 488f 973d 15b2 2a3e efda 0a3e d03f 8b3d
000001d0: 16c9 9d3d 24c6 933c 6860 0bbd e230 283d
000001e0: ace5 95bc b046 263d 0018 1f3b a4db e83c
000001f0: 006f deb9 401b 85ba 5316 8a3d 03b4 a9bd
00000200: 44d8 e43c 7807 57bd 3697 80bd d8eb 4c3c
00000210: 8e52 353d 0060 12bc 4155 a13d 8e12 47bd
00000220: 5f20 79bd 3693 1dbe 60bd 4a3c 5e9f 11be
00000230: b6f1 1bbd 0974 d0bd 22a4 87bd 18e1 0cbe
00000240: 9ca9 fcbb dbec 553b dcac ee3d e3b3 49bc
00000250: df43 b5bc 10da 15bc 1305 603d 2851 5a3d
00000260: a709 c53d 2513 2cbb aa5d 913d 915f 75bc
00000270: 536c 363d 5dda b73d d48d 903d 1451 e43d
00000280: d727 df3d 4f1d 1b3e 4194 6ebc 14a4 ef3d
00000290: 075b c63d 7b70 3d3d aaf0 4c3d 0db3 2b3e
000002a0: ef4f c0bc 629a 9e3c 3120 6b3d 9438 853c
000002b0: 0e60 1b3d 10e5 d43b da74 a5bd 1c23 9bbd
000002c0: 7a76 7e3d ca6b 5c3d 3622 3b3d d834 053d
000002d0: ae34 92bc acc3 93bd 8cd2 cb3c 7393 4e3d
000002e0: 29c3 6b3d 4e48 67bd bdb2 ab3c 3d8d 09bd
000002f0: 97e6 d1bc 2611 b43c 0880 013e 9d74 e13d
00000300: 3277 aa3d c8f2 273e d979 7c3d a4c9 ddba
00000310: 547c 973d d59b cb3d f3ad 5ebd 600d 5d3c
00000320: 50ca 0fbd 2027 0d3c 70d1 94bc 98c4 4bbb
00000330: 1fd6 a1bd 82de 88bd 49ea 173d c8de 113d
00000340: 8057 7f3c c774 9fbd 1657 04bd 20c3 f63c
00000350: c0e7 a03b cc4a f93c f2d4 503d 7c12 85bc
00000360: 8e54 d63a 948c 8f3d 85c1 583d 6621 97bd
00000370: 4b16 fb3c d2b8 b0bc 7cd8 043c 3816 d6bc
00000380: 94bb 933c 68c9 0ebd 3a25 2b3d 03f4 2ebd
00000390: 00fd f7ba 20e7 2cbd a03c 663b 80e1 34ba
000003a0: 538c 2abd e4f6 8fbd 8a5c 61bd 5830 6f3c
000003b0: 66d3 423d 80d7 91bc a961 603d 2a20 7bbc
000003c0: 1da9 9c3d b9b5 21bd 2ec5 aebb c637 2a3d
000003d0: 6c12 b53d e89b 8dbc c203 21bd 1a15 19bd
000003e0: 1c1d 35bd 4652 5c3d aa7a 09bd 1f9b 063d
000003f0: 0802 36bb 0975 483d c099 613d 1d8a 1c3b

encoder.encoder.2.bias f4 [32]
0.035716467 -0.029597454 0.13838504 0.12161083 0.13754147 -0.050324418 0.13770685 0.15420717
-0.009196669 0.086788714 -0.02992779 0.1593299 0.17003879 -0.48954785 0.088060714 -0.093070544
-0.0660191 0.02705567 -0.08865584 0.10715288 0.010870241 -0.060135294 -0.045194965 -0.039575793
0.07845733 0.08091113 -0.03186655 0.5476908 0.09757944 0.027164815 0.13606529 0.15390062
00000000: 6e4b 123d 5c76 f2bc cfb4 0d3e 190f f93d
00000010: acd7 0c3e fa20 4ebd 0603 0d3e 7ce8 1d3e
00000020: a0ad 16bc 48be b13d 202b f5bc 6127 233e
00000030: a61e 2e3e 04a6 fabe 2d59 b43d c59b bebd
00000040: 0635 87bd daa3 dd3c 3191 b5bd f872 db3d
00000050: 1819 323c 6d50 76bd 5b1e 39bd 3a1a 22bd
00000060: 3dae a03d bcb4 a53d 8086 02bd 7735 0c3f
00000070: bbd7 c73d bf88 de3c b354 0b3e 2098 1d3e

decoder.decoder.0.weight f4 [32, 16, 3, 3]
0.08130724 0.02288462 -0.0023847662 0.009891262 0.037763458 0.07645658 -0.009069824 0.025775818
0.03128645 0.0772455 0.05711156 0.13332532 0.033082098 0.16560599 0.1597601 0.05938202
0.17942923 0.13832805 0.125909 0.14281882 0.1417506 0.119451776 0.06987146 0.16423424
0.08029855 0.05824308 0.08809597 0.013692898 -0.06444879 0.022550896 -0.07828186 -0.061006658
-0.02396817 -0.08525117 -0.07428996 -0.104500026 0.13145556 0.05100389 0.13400273 0.1530526
0.19038028 0.02728469 0.06092956 0.072139576 0.06884414 0.021835592 0.010171869 0.016258346
0.1006779 0.122492775 0.14726101 0.06641536 0.12657826 0.03401396 0.07200593 0.026333552
-0.08130203 -0.024697104 0.001317553 -0.042127103 -0.019427165 -0.06634162 0.0035229663 0.063340716
0.028959416 0.079084545 0.018715732 0.055763695 0.024326282 0.0023398234 -0.006673855 0.021544868
-0.03321134 0.008808028 0.033635076 0.023948697 0.045483116 0.032237496 -0.053482413 0.063102424
-0.09829155 0.13117938 -0.00454083 -0.018403053 -0.006192389 0.018673401 0.042639047 0.13941102
0.105331615 0.09848794 0.07186555 0.054400872 0.12775992 -0.058686778 0.041774858 0.0653941
0.07928599 -0.0702126 0.10236602 0.018208982 -0.0077821612 0.044930134 -0.050445598 -0.04866322
0.06399555 0.040770978 0.015797585 -0.027631614 -0.08091597 0.009257856 -0.054114122 0.052035835
-0.07310134 -0.0038073873 -0.0035745201 -0.027167236 -0.05599318 0.10647985 0.1099264 -0.037942167
0.029492045 0.043013472 -0.05911342 0.06941494 0.11623636 0.012845964 0.05697954 -0.044058777
0.04034432 0.043712508 -0.06444301 0.012942624 -0.01396818 0.041091826 -0.06958255 0.03141834
-0.029357301 -0.0022047774 0.15739097 0.054094445 0.016215347 0.1363546 0.08848883 0.0083044125
0.083038285 0.07655795 0.008512905 0.108016945 -0.033821356 0.057022285 0.049334835 0.015547016
-0.030768612 -0.13518018 -0.011574091 -0.15036958 -0.025971154 -0.11210707 -0.10062879 -0.11464753
-0.05197107 -0.057450503 0.014158668 -0.08689725 -0.08177835 -0.08879234 -0.032624878 -0.043417603
-0.07195363 -0.006581859 -0.12631911 0.033033103 0.026162386 -0.06281894 0.048463196 -0.00961563
-0.049785227 -0.041524947 -0.036850803 -0.059924036 -0.19543995 -0.09591669 -0.025596626 -0.073289625
-0.2762371 -0.13565391 -0.20297354 -4.9353595e-05 -0.1636155 -0.03773166 -0.027382454 -0.05843893
-0.14109538 -0.060525853 -0.19358043 -0.082247466 0.00021257406 -0.0705945 -0.07030164 0.08112507
0.031200793 0.066651635 0.0054122712 0.15695612 -0.035150338 0.10874618 0.07228146 0.05928804
0.026164839 -0.005478132 0.13138029 0.11445867 0.119176194 0.022126652 0.13207948 0.1773726
0.04771875 -0.014477689 0.09375254 0.05933934 0.11792018 -0.0020624616 -0.03105134 -0.06923886
0.16598679 -0.055748917 -0.22844319 0.0070451302 -0.06130479 -0.093414254 -0.13948213 -0.025428297
-0.1429111 -0.0918237 -0.113989845 0.05353686 0.16821904 0.053441565 0.08484109 0.10511009
-0.31699866 0.057229213 -0.073717706 0.054280095 0.08101895 -0.026075862 0.022932447 0.06452132
-0.06212014 -0.050761633 -0.06475953 -0.06150785 0.077918015 -0.06063498 0.07362072 0.070246495
00000000: 6984 a63d 8778 bb3c bd49 1cbb f60e 223c
00000010: dbad 1a3d 4495 9c3d 9999 14bc cf27 d33c
00000020: 3826 003d e432 9e3d d0ed 693d 6f86 083e
00000030: 1881 073d 9e94 293e 2798 233e 903a 733d
00000040: 4cbc 373e dea5 0d3e 4aee 003e 193f 123e
00000050: 1227 113e 22a3 f43d c518 8f3d 052d 283e
00000060: 9173 a43d 4c90 6e3d a96b b43d 2d58 603c
00000070: bafd 83bd a8bc b83c 3d52 a0bd 1ee2 79bd
00000080: e558 c4bc 2a98 aebd 5625 98bd 1c04 d6bd
00000090: 499c 063e 74e9 503d 0338 093e d2b9 1c3e
000000a0: 0cf3 423e 2484 df3c 4691 793d eabd 933d
000000b0: 28fe 8c3d 8ee0 b23c e9a7 263c 3930 853c
000000c0: 3730 ce3d 7edd fa3d 97cb 163e c704 883d
000000d0: bb9d 013e 3952 0b3d d877 933d 76b9 d73c
000000e0: ae81 a6bd 9551 cabc beb1 ac3a 788d 2cbd
000000f0: b825 9fbc 1ede 87bd 91e1 663b c7b8 813d
00000100: 4c3c ed3c 14f7 a13d bc51 993c 7968 643d
00000110: e947 c73c b957 193b 5ab0 dabb dd7e b03c
00000120: 9d08 08bd 8c4f 103c efc4 093d 0f30 c43c
00000130: 814c 3a3d 770b 043d 6010 5bbd d83b 813d
00000140: 154d c9bd e353 063e 3ecb 94bb 00c2 96bc
00000150: 86e9 cabb f6f8 983c 48a6 2e3d c3c1 0e3e
00000160: 1ab8 d73d 0cb4 c93d 3f2e 933d 73d3 5e3d
00000170: 7fd3 023e 8c61 70bd 1d1c 2b3d 58ed 853d
00000180: b160 a23d a0cb 8fbd 47a5 d13d 012b 953c
00000190: 8001 ffbb a908 383d 0ba0 4ebd 1653 47bd
000001a0: 1910 833d 78ff 263d f069 813c b25b e2bc
000001b0: 46b7 a5bd 43ae 173c c5a6 5dbd 8723 553d
000001c0: 28b6 95bd 5c85 79bb 7f42 6abb d38d debc
000001d0: 1b59 65bd 1c12 da3d 1821 e13d 3f69 1bbd
000001e0: 4d99 f13c e52e 303d ea20 72bd 6c29 8e3d
000001f0: 540d ee3d e177 523c 6163 693d fa76 34bd
00000200: 1640 253d e30b 333d b2fa 83bd 4d0d 543c
00000210: cbda 64bc e74f 283d 4c81 8ebd 84b0 003d
00000220: b97e f0bc 077e 10bb 192b 213e 2392 5d3d
00000230: 0cd6 843c 8aa0 0b3e a239 b53d 3b0f 083c
00000240: fa0f aa3d 6aca 9c3d b679 0b3c fd37 dd3d
00000250: 4388 0abd 3390 693d 5313 4a3d e9b8 7e3c
00000260: 750e fcbc ac6c 0abe 42a1 3dbc 7cfa 19be
00000270: 75c1 d4bc 6498 e5bd 7816 cebd 53cc eabd
00000280: 9edf 54bd 3851 6bbd c2f9 673c 2ff7 b1bd
00000290: 687b a7bd c2d8 b5bd aaa1 05bd a8d6 31bd
000002a0: 6d5c 93bd a3ac d7bb cc59 01be b84d 073d
000002b0: 8052 d63c 37a7 80bd 5881 463d e08a 1dbc
000002c0: 98eb 4bbd 1016 2abd def0 16bd e872 75bd
000002d0: 6921 48be f86f c4bd 04b0 d1bc df18 96bd
000002e0: f36e 8dbe dce8 0abe 4cd8 4fbe 0501 4fb8
000002f0: d28a 27be 838c 1abd 2b51 e0bc a95d 6fbd
00000300: 4f7b 10be f5e9 77bd f339 46be 5c71 a8bd
00000310: 6ae6 5e39 d993 90bd 4efa 8fbd e724 a63d
00000320: ce98 ff3c a780 883d 6c59 b13b 1bb9 203e
00000330: cdf9 0fbd 51b6 de3d 4d08 943d 04d8 723d
00000340: a557 d63c e781 b3bb 8e88 063e 4f69 ea3d
00000350: a612 f43d f442 b53c d83f 073e 2aa1 353e
00000360: bc74 433d d433 6dbc 5501 c03d cf0d 733d
00000370: 2380 f13d 5d2a 07bb 615f febc 1acd 8dbd
00000380: 71f8 293e fa58 64bd 03ed 69be d6da e63b
00000390: bb1a 7bbd f94f bfbd 67d4 0ebe 014f d0bc
000003a0: 4a57 12be 100e bcbd 8273 e9bd 7749 5b3d
000003b0: 9d41 2c3e 8be5 5a3d 2ac1 ad3d f543 d73d
000003c0: a64d a2be 2e69 6a3d 4ff9 96bd ce54 5e3d
000003d0: 43ed a53d 0c9d d5bc d4dc bb3c c123 843d
000003e0: b071 7ebd 6eeb 4fbd a5a0 84bd a8ef 7bbd
000003f0: 7b93 9f3d 635c 78bd 76c6 963d 65dd 8f3d

decoder.decoder.0.bias f4 [16]
-0.07421424 0.08744052 0.105442435 0.03986661 0.06551637 0.09447925 -0.047500767 -0.019906363
-0.023091706 0.09888479 -0.0739369 -0.07897464 0.050673053 0.06739799 0.03675029 0.11434868
00000000: a3fd 97bd 0414 b33d 34f2 d73d 2c4b 233d
00000010: 722d 863d 567e c13d 2a90 42bd ab12 a3bc
00000020: d12a bdbc 1c84 ca3d 3b6c 97bd 75bd a1bd
00000030: 8c8e 4f3d f507 8a3d 7987 163d a42f ea3d

decoder.decoder.2.weight f4 [16, 1, 3, 3]
0.34372967 -0.1877389 0.30218095 0.17334616 -0.21114282 -0.029278394 -0.026720898 0.24250184
0.21373634 -0.04743196 0.060619477 0.20449063 0.114100136 -0.37189925 -0.39484486 0.04907667
-0.23541941 -0.19135845 -0.27822292 -0.0066330996 -0.18616647 -0.30509567 -0.37695995 -0.13893513
0.037784375 0.087380596 -0.36339483 -0.02537959 0.036202457 0.29793903 -0.06316659 -0.28493443
0.16274491 -0.013687742 -0.22375529 0.1976667 -0.23744935 -0.26061583 -0.36428517 0.076562285
-0.4540199 0.07815821 -0.18369775 -0.31528473 -0.0818837 -0.04133267 -0.0720245 -0.01112879
-0.14639316 -0.17457746 -0.08300188 -0.3162997 0.12666927 -0.2803852 -0.10236328 0.33445218
0.37646428 0.012430444 -0.048902765 0.26951396 0.27560097 0.3651202 0.46051 -0.38159686
0.050529238 0.016443718 0.23183198 0.35877874 0.3546306 0.12298434 0.31881803 -0.12584898
-0.12980305 0.07412547 -0.22922412 0.04918563 0.20162225 0.2800341 -0.23989895 0.13586737
0.22217774 -0.33149627 0.0031549039 -0.30798784 -0.010180231 0.008477425 -0.36028394 -0.08186603
-0.43446875 -0.3156464 0.17633061 -0.12799063 0.37986034 -0.14365828 0.2360826 -0.007129035
0.35769922 0.08461912 0.5048512 -0.6271447 0.28911263 -0.30208048 -0.13266157 0.2616202
0.048608597 -0.26502374 -0.31221595 -0.44126824 0.19775385 0.1444135 0.3109548 -0.31764904
-0.2912329 0.30338177 0.06760794 0.25839052 -0.10373017 0.21035823 -0.3820608 0.28063208
0.09504695 0.10552063 -0.13373896 -0.29695818 -0.30594987 -0.32918087 -0.13913731 0.28115758
-0.26059958 -0.18837684 0.26282528 -0.266555 0.024414094 0.12366207 0.06775968 0.13081966
-0.34473413 -0.20938347 -0.23909955 0.18735403 -0.17062563 -0.023031995 0.00634238 -0.24320392
00000000: 56fd af3e a03e 40be 76b7 9a3e a881 313e
00000010: d335 58be 3ed9 efbc c9e5 dabc 6752 783e
00000020: b3dd 5a3e 0448 42bd 214c 783d fe65 513e
00000030: 55ad e93d 9469 bebe 1b29 cabe 9e04 493d
00000040: c911 71be 78f3 43be 3c73 8ebe 795a d9bb
00000050: 6ca2 3ebe 8035 9cbe e500 c1be 0345 0ebe
00000060: cac3 1a3d 99f4 b23d e30e babe dce8 cfbc
00000070: 0749 143d 778b 983e 7c5d 81bd ede2 91be
00000080: 9aa6 263e 8d42 60bc 1b20 65be 2469 4a3e
00000090: ec25 73be 706f 85be 9683 babe b0cc 9c3d
000000a0: 4c75 e8be 6911 a03d 431b 3cbe 006d a1be
000000b0: a4b2 a7bd 724c 29bd 9581 93bd 8755 36bc
000000c0: 17e8 15be 6fc4 32be e4fc a9bd 09f2 a1be
000000d0: 97b5 013e a68e 8fbe d7a3 d1bd 513d ab3e
000000e0: edbf c03e 10a9 4b3c 444e 48bd bcfd 893e
000000f0: 921b 8d3e 09f1 ba3e f7c7 eb3e aa60 c3be
00000100: bff7 4e3d fab4 863c 5d65 6d3e d9b1 b73e
00000110: 2492 b53e 37df fb3d 1e3c a33e 8ede 00be
00000120: 17eb 04be 18cf 973d bab9 6abe df76 493d
00000130: 1076 4e3e a160 8f3e 12a8 75be d120 0b3e
00000140: 9082 633e e1b9 a9be 81c2 4e3b 95b0 9dbe
00000150: fcca 26bc e6e4 0a3c 2377 b8be 61a9 a7bd
00000160: b072 debe 689c a1be 0390 343e fa0f 03be
00000170: 0e7d c23e 281b 13be a3bf 713e ae9a e9bb
00000180: 5a24 b73e ca4c ad3d ee3d 013f 8e8c 20bf
00000190: 9206 943e 4baa 9abe 6fd8 07be 15f3 853e
000001a0: cf19 473d 31b1 87be c5da 9fbe e9ed e1be
000001b0: fc7f 4a3e 22e1 133e 7835 9f3e e5a2 a2be
000001c0: 7b1c 95be db54 9b3e 0876 8a3d c34b 843e
000001d0: 7c70 d4bd 2668 573e 799d c3be 02af 8f3e
000001e0: faa7 c23d 331b d83d def2 08be e70a 98be
000001f0: 76a5 9cbe 658a a8be 037a 0ebe e3f3 8f3e
00000200: 4f6d 85be dce5 40be 0991 863e e679 88be
00000210: 1100 c83c 8a42 fd3d 96c5 8a3d 97f5 053e
00000220: fe80 b0be 9f68 56be 83d6 74be bcd9 3f3e
00000230: 7cb8 2ebe 98ad bcbc bdd3 cf3b 730a 79be
