500_ML/models/weights_4699_10-04_04:16.pt (torch_old, 39980 bytes, 7 tensors)

encoder.encoder.0.weight f4 [16, 1, 3, 3]
0	0xbdcbb4f2	-0.09946622
1	0x3d9dff78	0.077147424
2	0xbe32ce4b	-0.17461507
3	0x3eafc34f	0.34328696
4	0x3ea2465b	0.31694302
5	0x3ec55feb	0.38549742
6	0x3eccda53	0.40010318
7	0x3dfa01c6	0.122073695
8	0x3eb1e6fa	0.34746534
9	0x3e484d2b	0.19560687
10	0xbda21808	-0.0791474
11	0xbe2da228	-0.16956389
12	0x3ee1aa09	0.4407504
13	0x3ee76831	0.4519668
14	0xbd29d5eb	-0.041463774
15	0x3e68047b	0.22657959
16	0x3e967926	0.29389304
17	0x3d589036	0.052871905
18	0x3e302ad5	0.17203839
19	0x3e306a5e	0.17228076
20	0xbce914d3	-0.028452313
21	0x3ed10046	0.4082052
22	0x3e34a6e0	0.17641783
23	0x3e977540	0.29581642
24	0x3e804a3f	0.25056645
25	0x3d9fe4d5	0.07807318
26	0x3e8d796a	0.27631694
27	0xbe8a815a	-0.27051812
28	0x3e859fa9	0.26098374
29	0xbe43695e	-0.19083163
30	0xbc70a8e0	-0.0146887
31	0xbc8ac550	-0.016939789
32	0xbe842b70	-0.2581439
33	0x3e5a92b2	0.21345022
34	0xbe043938	-0.12912452
35	0xbe5ce52b	-0.21571796
36	0x3e6f2222	0.23352864
37	0xbd806d1e	-0.062708125
38	0xbcd4aa5a	-0.025960136
39	0x3e9c72dc	0.3055638
40	0xbcaaa503	-0.020830637
41	0x3ca75dbc	0.020430438
42	0x3df679f0	0.120349765
43	0xbd73de51	-0.05953819
44	0xbdaad7a6	-0.08341913
45	0xbe56fd6e	-0.20995113
46	0x3d8526fc	0.06501576
47	0x3e6ccb91	0.2312453
48	0xbdbde2c9	-0.092717715
49	0x3ed54163	0.4165145
50	0x3ebafa12	0.36518914
51	0x3e8459ec	0.25849855
52	0x3ea7b890	0.32757998
53	0x3eae657c	0.340618
54	0x3df3e66e	0.11909185
55	0xbdaf796b	-0.085680805
56	0x3e8eee90	0.27916384
57	0xbd7b145d	-0.061298717
58	0xbcc48de2	-0.023993436
59	0xbe7a92ef	-0.24470113
60	0x3e9ecda2	0.3101626
61	0xbe09fdc3	-0.13475709
62	0xbe4c345a	-0.19941846
63	0xbdb15470	-0.08658683
64	0xbb815900	-0.003947377
65	0x3e3346ba	0.17507449
66	0xbd86a68c	-0.06574735
67	0xbe47343e	-0.19453523
68	0xbe1c3b90	-0.15257096
69	0xbd5c1e08	-0.053739578
70	0xbea6537e	-0.32485574
71	0x3e686432	0.22694471
72	0xbe62d9dd	-0.22153421
73	0xbe24b3fa	-0.1608428
74	0x3e219d0e	0.15782568
75	0x3ccd088b	0.025028488
76	0x39a44497	0.0003133162
77	0x3da77ca8	0.08178073
78	0x3e3f7739	0.18697824
79	0x3e6e7f70	0.23290801
80	0x3e5e4d28	0.2170912
81	0x3ddf180c	0.108932585
82	0xbe8f82a2	-0.28029352
83	0xbc1c3980	-0.009535193
84	0xbe2ff5e3	-0.17183642
85	0x3d7cb180	0.061692715
86	0xbdc20a8c	-0.09474668
87	0xbdd98cd6	-0.106225654
88	0xbe9f6dcc	-0.31138456
89	0x3e9de991	0.3084226
90	0x3ebb0861	0.3652983
91	0x3e3d1b8d	0.18467541
92	0xbe40b1af	-0.18817781
93	0xbb2fde00	-0.0026835203
94	0x3e977958	0.29584765
95	0xbc3fc7d8	-0.011705361
96	0xbdbc0385	-0.09180359
97	0x3e8e9d2b	0.27854285
98	0xbe5fc9d4	-0.21854335
99	0x3c7093d3	0.014683682
100	0xbe038b67	-0.12846147
101	0x3e9638e6	0.29340285
102	0xbe4eae71	-0.20183732
103	0xbc207b56	-0.009795031
104	0xbc258f55	-0.010104974
105	0x3d831f99	0.06402511
106	0x3e907725	0.282159
107	0x3d72a5df	0.05924022
108	0xbe535d06	-0.20640954
109	0xbe029025	-0.127503
110	0x3e3e9476	0.18611321
111	0xbe5b1d24	-0.21397835
112	0x3c4990b6	0.012302568
113	0x3eb5f661	0.35539535
114	0x3ebca5e9	0.3684533
115	0x3e40a0c4	0.18811327
116	0x3e96212b	0.2932218
117	0x3d3271c0	0.04356551
118	0x3d929910	0.071581006
119	0xbe8a2e58	-0.26988482
120	0xbd229df8	-0.039701432
121	0x3dd5c420	0.104377985
122	0xbe86fe6c	-0.26365983
123	0x3e28d0ea	0.16485944
124	0x3d2eb788	0.042655498
125	0xbe23bdd0	-0.15990376
126	0xbdc29610	-0.095012784
127	0xbda0aef4	-0.0784587
128	0x3e45a936	0.1930283
129	0xbe81f1fb	-0.2537993
130	0x3dbbcb74	0.09169665
131	0xbe6b4d58	-0.22978723
132	0x3de24370	0.11048019
133	0x3d1b4888	0.037910968
134	0xbe91a10f	-0.2844319
135	0x3e997fbd	0.2998027
136	0x3ea355ea	0.31901485
137	0x3c66d689	0.014089235
138	0xbe230a24	-0.15921837
139	0x3e99db01	0.300499
140	0xbca465ef	-0.020068137
141	0x3e495128	0.19659865
142	0xbbae80d8	-0.005325418
143	0x3e7fa5d1	0.24965598

encoder.encoder.0.bias f4 [16]
0	0x3eadd75f	0.33953378
1	0xbbd6855d	-0.00654666
2	0xbc3caf2b	-0.011516373
3	0xbe825eca	-0.25462943
4	0x3e7784a1	0.24171688
5	0xbca02dfb	-0.019553175
6	0xbe3daa6c	-0.18522042
7	0xbe7f028e	-0.24903318
8	0x3e70d3b7	0.23518263
9	0xbe3ca16b	-0.18420951
10	0x3deb3248	0.114842
11	0x3e345476	0.17610344
12	0x3e4b0bcb	0.19828717
13	0xbe42da5b	-0.19028609
14	0xbe7b9870	-0.24569869
15	0xbdc9d584	-0.09855178

encoder.encoder.2.weight f4 [32, 16, 3, 3]
0	0x3e0ff5c7	0.140586
1	0x3e1d58d4	0.15365916
2	0x3e13bb25	0.14426859
3	0x3d6cfd12	0.057858534
4	0x3d18cb99	0.03730354
5	0x3e13d1dd	0.14435525
6	0x3dbc34fe	0.09189795
7	0x3d372421	0.04471219
8	0x3e204cf0	0.1565435
9	0xbdaefa35	-0.08543817
10	0xbd604c6d	-0.054760385
11	0xbdc9e620	-0.09858346
12	0xbd6b091c	-0.057381734
13	0xbdd1d07f	-0.102448456
14	0xbe0b7517	-0.13618885
15	0xbd3b9fc6	-0.04580667
16	0xbdb89e1c	-0.09014532
17	0xbe2624ef	-0.16225027
18	0xbc214883	-0.009843948
19	0xbd0dcf51	-0.03462154
20	0xbdf5f707	-0.12010007
21	0xbbf1e584	-0.0073820967
22	0xbc10991f	-0.008825569
23	0xbd073c26	-0.033016346
24	0xbda75309	-0.081701346
25	0xbd51186c	-0.05104868
26	0xbe1327a1	-0.14370586
27	0xbce390fc	-0.027779095
28	0x3cbe5510	0.02323392
29	0xbcb7a38c	-0.022416852
30	0xbda9260a	-0.082592085
31	0x3c945c7c	0.018110506
32	0x3d941599	0.07230682
33	0xbcba0f50	-0.02271238
34	0x3d026d00	0.03184223
35	0xbd741313	-0.059588503
36	0x3dd615ab	0.104533516
37	0x3ddd05a7	0.10792094
38	0x3d350376	0.044192754
39	0x3d7d3929	0.06182209
40	0x3d8885b8	0.0666613
41	0x3e0d769f	0.13814782
42	0x3dc5f014	0.09664932
43	0x3d70dc68	0.058803946
44	0x3d8b96ef	0.06815898
45	0xbde39c24	-0.11113766
46	0xbd245831	-0.04012317
47	0xbc936c86	-0.017996084
48	0x3bb5f5ce	0.005552984
49	0xbd2563c2	-0.04037834
50	0xbdf22867	-0.118241124
51	0xbd1b850f	-0.03796869
52	0xbe166009	-0.14685072
53	0xbe22baeb	-0.15891616
54	0xbdb5ed05	-0.088830985
55	0xbd9c0fc9	-0.07620198
56	0xbda39ce6	-0.079889104
57	0x3d888a19	0.06666965
58	0xbcc59081	-0.024116756
59	0xbc8dc2f5	-0.017304877
60	0x3b9a70c0	0.004713148
61	0xbce6215d	-0.02809208
62	0xbc0a7afb	-0.008452172
63	0x3cf511bc	0.029915683
64	0x3cbd6a64	0.02312202
65	0xbd8e12a4	-0.06937149
66	0x3bb34890	0.0054712966
67	0x3d1c0048	0.038086206
68	0x3d56e2aa	0.052462257
69	0xbd859556	-0.06522624
70	0xbd995b8b	-0.074881636
71	0xbcadf300	-0.021234035
72	0x3e069088	0.13141072
73	0x3de0bdbe	0.109736905
74	0x3dd00564	0.10157278
75	0x3dd1b057	0.10238712
76	0x3e2f5cfd	0.17125316
77	0x3d9d82a5	0.07690934
78	0x3c9b90b8	0.018989906
79	0x3c832624	0.016009398
80	0x3dd0f91c	0.10203764
81	0xbd0c1f7b	-0.03420971
82	0x3d1201b6	0.035646163
83	0xbd99ed9f	-0.07516026
84	0xbcf9ece6	-0.03050847
85	0xbd569d2b	-0.05239598
86	0xbd80273a	-0.06257482
87	0xbd30df46	-0.04318168
88	0x3cf08ae0	0.029363096
89	0x3bc10b80	0.0058912635
90	0x3e39e669	0.18154301
91	0x3d6ce368	0.05783406
92	0x3e040907	0.12894069
93	0x3d615bf4	0.055019334
94	0x3ddb2efd	0.10702322
95	0x3de1a1ff	0.110172264
96	0x3df6d2ec	0.12051949
97	0x3e2aba17	0.1667255
98	0x3db46276	0.088078424
99	0x3cf6e0ce	0.030136492
100	0x3e1aa04b	0.1510021
101	0x3d5802b8	0.052736968
102	0x3c9e3e99	0.019316958
103	0x3d1e983a	0.038719393
104	0x3e2c7902	0.16843036
105	0x3d7695b4	0.06020136
106	0x3d006388	0.03134492
107	0x3c83b45d	0.016077215
108	0x3e058d17	0.13042103
109	0x3e23b656	0.15987524
110	0x3e13077b	0.14358322
111	0x3e15b2d9	0.14619006
112	0x3d9729b5	0.07381002
113	0x3e2a678f	0.16641067
114	0x3e0b416c	0.13599175
115	0x3d8af40a	0.06784828
116	0x3d9d4b5c	0.07680389
117	0x3c93c624	0.018038817
118	0xbd0b6068	-0.034027487
119	0x3d2830e2	0.041062243
120	0xbc95e5ac	-0.018297993
121	0x3d2646b0	0.040594757
122	0x3b1f1800	0.002427578
123	0x3ce8dba4	0.028425045
124	0xb9de6f00	-0.0004242584
125	0xba851b40	-0.0010155216
126	0x3d8a1653	0.06742539
127	0xbda9b403	-0.08286288
128	0x3ce4d844	0.027935155
129	0xbd570778	-0.052497357
130	0xbd809736	-0.06278841
131	0x3c4cebd8	0.012507401
132	0x3d35528e	0.044268183
133	0xbc126000	-0.008934021
134	0x3da15541	0.07877589
135	0xbd46c6b8	-0.048529357
136	0xbd78d640	-0.0607512
137	0xbe1d802b	-0.15380923
138	0x3c4be1a6	0.0124439355
139	0xbe118c8c	-0.1421377
140	0xbd1babda	-0.038005687
141	0xbdd05548	-0.10172516
142	0xbd8785f0	-0.066173434
143	0xbe0cd16e	-0.13751766
144	0xbc1e36e1	-0.009656639
145	0xba825525	-0.0009943588
146	0x3de81032	0.11331214
147	0xbc37b868	-0.0112133995
148	0xbccfb54d	-0.025355006
149	0xbc523020	-0.012828857
150	0x3d834ed3	0.06411519
151	0x3d714d3b	0.058911543
152	0x3dce792e	0.10081707
153	0xb8877431	-6.458944e-05
154	0x3d8de5d5	0.069286026
155	0xbc6161a5	-0.01375619
156	0x3d3e4394	0.046451166
157	0x3da9a399	0.08283157
158	0x3d7de123	0.061982285
159	0x3e04ee45	0.12981518
160	0x3df7b90e	0.12095843
161	0x3e220d41	0.15825368
162	0xbbd02a88	-0.0063527264
163	0x3dfd257d	0.12360666
164	0x3dd95a54	0.10612932
165	0x3d3995c9	0.045308862
166	0x3d28d7d5	0.04122146
167	0x3e228522	0.15871099
168	0xbc10d549	-0.008839914
169	0x3cd7983f	0.026317714
170	0x3d7a056b	0.061040323
171	0x3c853894	0.01626233
172	0x3d1b600e	0.0379334
173	0x3bd4e510	0.006497033
174	0xbda574da	-0.08078928
175	0xbd9b231c	-0.07575056
176	0x3d7e767a	0.062124707
177	0x3d5c6bca	0.053813733
178	0x3d3b2236	0.045686923
179	0x3d0534d8	0.0325211
180	0xbc87a075	-0.016556004
181	0xbd940ac2	-0.072286144
182	0x3ccab6b6	0.024745326
183	0x3d580d46	0.052747034
184	0x3d6e190e	0.058129363
185	0xbd6cc1b1	-0.057801906
186	0x3cc56fe5	0.024101207
187	0xbd02ba71	-0.031916086
188	0xbcd8a848	-0.02644743
189	0x3cbfbb57	0.02340476
190	0x3e012ee2	0.1261554
191	0x3de63c16	0.11241929
192	0x3da59964	0.080858976
193	0x3e20036b	0.15626304
194	0x3d6316e5	0.055441756
195	0x3c260a6d	0.010134322
196	0x3da1cc15	0.07900254
197	0x3dd8c595	0.10584561
198	0xbd5eadf3	-0.05436511
199	0x3c5d0d60	0.013491958
200	0xbd0fca50	-0.03510505
201	0x3c0d2720	0.008615285
202	0xbc94d170	-0.018166274
203	0xbb4bc498	-0.003109252
204	0xbda1d61f	-0.079021685
205	0xbd88de82	-0.06683065
206	0x3d17ea49	0.037088666
207	0x3d11dec8	0.03561285
208	0x3c7f5780	0.0155848265
209	0xbd9f74c7	-0.077859454
210	0xbd045716	-0.032309614
211	0x3cf6c320	0.03012234
212	0x3ba0e7c0	0.0049104393
213	0x3cf94acc	0.030431174
214	0x3d50d4f2	0.05098433
215	0xbc85127c	-0.016244166
216	0xbb8f2150	-0.004367985
217	0x3d7bac51	0.06144363
218	0x3d36f11f	0.044663545
219	0xbd96b04b	-0.07357844
220	0x3ce2f1c3	0.027703172
221	0xbcc90094	-0.024536408
222	0x3c8bcf11	0.01706651
223	0xbca055f3	-0.019572234
224	0x3ccc8eab	0.024970373
225	0xbd0ec968	-0.034860045
226	0x3d2b253a	0.04178355
227	0xbd2ef403	-0.042713176
228	0xbaf7fd00	-0.0018920004
229	0xbd2ce720	-0.042212605
230	0x3b663ca0	0.003513135
231	0xba34e180	-0.0006900057
232	0xbd2a8c53	-0.04163773
233	0xbd8ff6e4	-0.070295125
234	0xbd25997f	-0.04042959
235	0x3cc9c4d2	0.024629984
236	0x3d7f6fa7	0.06236234
237	0xbc6587c7	-0.014009423
238	0x3d4226d6	0.047400318
239	0xbcb07bc1	-0.021543385
240	0x3da8b40a	0.08237465
241	0xbd37332f	-0.044726547
242	0xbc5a73aa	-0.0133332405
243	0x3d2572a2	0.040392525
244	0x3dadabf7	0.08480065
245	0xbca2660a	-0.019824047
246	0xbd26d9c5	-0.040735025
247	0xbd2b4b7e	-0.04182004
248	0xbd41bd22	-0.04729951
249	0x3d708ee2	0.058730014
250	0xbd023905	-0.03179266
251	0x3d12f873	0.03588147
252	0xbc0ecb3c	-0.008715447
253	0x3d23ed65	0.04002132
254	0x3d40947a	0.0470166
255	0x3a9918e4	0.0011680392

encoder.encoder.2.bias f4 [32]
0	0x3d11ad4a	0.035565652
1	0xbcefc7d1	-0.029270085
2	0x3e0d4c14	0.13798553
3	0x3df89151	0.12137092
4	0x3e0c91c5	0.13727482
5	0xbd4b5786	-0.049644016
6	0x3e0cd3b9	0.13752641
7	0x3e1de3d0	0.15418935
8	0xbc16ada0	-0.009196669
9	0x3db17c5c	0.08666298
10	0xbcf52b20	-0.02992779
11	0x3e22ffdd	0.15917917
12	0x3e2de3c9	0.16981424
13	0xbef876cd	-0.48528138
14	0x3db3c280	0.08777332
15	0xbdbf6702	-0.09345819
16	0xbd86e63d	-0.06586883
17	0x3cc9d987	0.024639858
18	0xbdb59131	-0.08865584
19	0x3ddb3914	0.10704246
20	0x3c321918	0.010870241
21	0xbd76506d	-0.060135294
22	0xbd393aa0	-0.045221925
23	0xbd221dec	-0.039579317
24	0x3da07849	0.078354426
25	0x3da56f39	0.08077855
26	0xbd028680	-0.03186655
27	0x3f084731	0.5323363
28	0x3dc76e27	0.09737807
29	0x3cdd3348	0.027001992
30	0x3e0b2250	0.13587308
31	0x3e1d3a95	0.15354379

decoder.decoder.0.weight f4 [32, 16, 3, 3]
0	0x3da4ab70	0.080405116
1	0x3cbbeb0e	0.022939231
2	0xbaaf4056	-0.0013370614
3	0x3bfaf4f4	0.007658595
4	0x3d2381f9	0.039918873
5	0x3d8ffffe	0.070312485
6	0xbc1f2157	-0.009712539
7	0x3cd399f3	0.025830245
8	0x3cd362cb	0.025803944
9	0x3d9f2344	0.07770398
10	0x3d69c215	0.057069857
11	0x3e081bf8	0.13291919
12	0x3d0846c5	0.033270616
13	0x3e29d462	0.16584924
14	0x3e237177	0.15961252
15	0x3d74e9d0	0.059793293
16	0x3e379793	0.17928915
17	0x3e0d24ee	0.13783619
18	0x3e00be9e	0.12572715
19	0x3e129ded	0.14318056
20	0x3e118764	0.14211804
21	0x3df55508	0.11979109
22	0x3d8f9bf4	0.070121676
23	0x3e285ea6	0.16442356
24	0x3da41f12	0.08013739
25	0x3d6f47f2	0.05841822
26	0x3db47ac5	0.08812479
27	0x3c60582d	0.013692898
28	0xbd872604	-0.06599048
29	0x3cb8bca8	0.022550896
30	0xbda0523d	-0.07828186
31	0xbd79e21e	-0.061006658
32	0xbcc458e5	-0.02396817
33	0xbdae982a	-0.08525117
34	0xbd8ca7f0	-0.06867969
35	0xbdd6041c	-0.104500026
36	0x3e066db4	0.13127786
37	0x3d52029e	0.051272027
38	0x3e09a58b	0.13442056
39	0x3e1dab1f	0.15397309
40	0x3e429a86	0.19004259
41	0x3ce1a3f9	0.027544009
42	0x3d7b8e2e	0.06141489
43	0x3d92dc0e	0.07170878
44	0x3d8d1fec	0.06890854
45	0x3cb59b56	0.022168797
46	0x3c37388a	0.011182914
47	0x3c858c70	0.016302317
48	0x3dd00d75	0.10158817
49	0x3dfc38ab	0.12315496
50	0x3e173520	0.1476636
51	0x3d80506f	0.062653415
52	0x3e01aa56	0.12662634
53	0x3cf5671d	0.029956395
54	0x3d93a1b9	0.072085805
55	0x3cd62e6c	0.026145183
56	0xbda68337	-0.08130496
57	0xbcdc4fc7	-0.02689351
58	0x3ab5cb76	0.001386984
59	0xbd30502c	-0.043045208
60	0xbc9f25b8	-0.019427165
61	0xbd86a56d	-0.06574521
62	0x3b66e191	0.0035229663
63	0x3d83ab43	0.0642915
64	0x3ce20c8c	0.027593873
65	0x3db29e34	0.08721581
66	0x3c7c3b82	0.015395047
67	0x3d60f10a	0.054917373
68	0x3cbc1f63	0.022964185
69	0x3ce5db0a	0.028058548
70	0xbbf9422e	-0.007606766
71	0x3ce7c200	0.028290749
72	0xbd1cddbd	-0.038297404
73	0x3c101ac0	0.00879544
74	0x3d1192cb	0.035540383
75	0x3cd69e74	0.026198603
76	0x3d071357	0.03297743
77	0x3cc43f21	0.023955883
78	0xbd5c49a5	-0.05378117
79	0x3d813bd8	0.063102424
80	0xbda5ae4b	-0.08089884
81	0x3e066da3	0.1312776
82	0xbb94353b	-0.004522947
83	0xbc9638bb	-0.018337598
84	0xbbc0f14f	-0.005888141
85	0x3c983fc3	0.018585091
86	0x3d2f782c	0.042839214
87	0x3e0f3512	0.13985088
88	0x3dd4a22a	0.10382493
89	0x3dcb1087	0.09915262
90	0x3d904d4d	0.07045994
91	0x3d5dee76	0.054182492
92	0x3e037f6a	0.12841573
93	0xbd7baa93	-0.06144197
94	0x3d262da6	0.040570877
95	0x3d815a73	0.0631608
96	0x3da38cc5	0.07985834
97	0xbd926675	-0.071484484
98	0x3dccfd0a	0.10009201
99	0x3c952b01	0.018208982
100	0xbbff0180	-0.0077821612
101	0x3d3808a9	0.044930134
102	0xbd4ea00b	-0.050445598
103	0xbd347938	-0.044060916
104	0x3d831019	0.06399555
105	0x3d26ff78	0.040770978
106	0x3c8169f0	0.015797585
107	0xbce25bb2	-0.027631614
108	0xbda5afd4	-0.08090177
109	0x3c17ae43	0.009257856
110	0xbd5da6c5	-0.054114122
111	0x3d552387	0.052035835
112	0xbd95b628	-0.07310134
113	0xbb79855c	-0.0038073873
114	0xbb6a3a81	-0.0035740437
115	0xbcde8dd3	-0.027167236
116	0xbd653130	-0.055955112
117	0x3dd8dcb5	0.105889715
118	0x3de057f3	0.10954275
119	0xbd181fb8	-0.037139624
120	0x3cf1a070	0.029495448
121	0x3d29a5ef	0.041418012
122	0xbd6baaa4	-0.057535782
123	0x3d8fc3e2	0.070197836
124	0x3debd26a	0.11514743
125	0x3c7e732f	0.015530392
126	0x3d696361	0.05697954
127	0xbd511bf2	-0.05105204
128	0x3d27493f	0.040841337
129	0x3cb8ecaf	0.022573797
130	0xbd83fab2	-0.06444301
131	0x3c446a0c	0.011988174
132	0xbc64dacb	-0.01396818
133	0x3d494b4d	0.049144078
134	0xbd9d9bb8	-0.076957166
135	0x3d000808	0.03125766
136	0xbcf0553e	-0.029337522
137	0xbb030f97	-0.0019998306
138	0x3e2189dc	0.15775245
139	0x3d5d9223	0.054094445
140	0x3c867eac	0.016417824
141	0x3e0a987d	0.13534732
142	0x3db53759	0.08848447
143	0x3c0584be	0.008149324
144	0x3dab5c91	0.08367265
145	0x3d9cdc20	0.07659173
146	0x3c00bd1d	0.007857588
147	0x3de2c7b2	0.11073245
148	0xbcdc1e80	-0.026870012
149	0x3d699b9c	0.057033166
150	0x3d9c17f9	0.0762176
151	0x3c68a038	0.014198355
152	0xbc8561aa	-0.016281921
153	0xbe0b41cb	-0.13599317
154	0xbc99682e	-0.018726435
155	0xbe147ca2	-0.14500669
156	0xbdf294e2	-0.118448034
157	0xbdf573b6	-0.11984961
158	0xbe1bcb95	-0.15214379
159	0xbde70126	-0.11279516
160	0xbd5fef79	-0.05467174
161	0xbd3ca04d	-0.046051312
162	0x3849a15a	4.8072405e-05
163	0xbe00ade3	-0.12566333
164	0xbdb7b6ae	-0.0897039
165	0xbdbb4581	-0.09144116
166	0xbd083b20	-0.03325951
167	0xbd266b00	-0.040629387
168	0xbdafae26	-0.08578138
169	0xbce142a2	-0.027497593
170	0xbe024463	-0.127214
171	0x3d074db8	0.033033103
172	0x3c841f29	0.01612814
173	0xbd80a737	-0.06281894
174	0x3d468158	0.048463196
175	0xbc1d8ae0	-0.00961563
176	0xbd4beb98	-0.049785227
177	0xbd2a1610	-0.041524947
178	0xbd585219	-0.05281267
179	0xbd7572e8	-0.059924036
180	0xbe603654	-0.21895725
181	0xbe0b7715	-0.13619645
182	0xbd01e18f	-0.03170925
183	0xbda94094	-0.082642704
184	0xbe96c1fa	-0.29444867
185	0xbe12bb84	-0.14329344
186	0xbe7ffd98	-0.24999082
187	0xbcf66f4e	-0.030082371
188	0xbe357f58	-0.17724359
189	0xbcaa3469	-0.020776944
190	0xbd74e05c	-0.05978428
191	0xbd216392	-0.0394016
192	0xbe1d432d	-0.15357657
193	0xbd84e902	-0.06489755
194	0xbe477603	-0.19478612
195	0xbd8b5bc9	-0.06804616
196	0xbccd3c58	-0.025053188
197	0xbd68cc82	-0.05683566
198	0xbd874edb	-0.06606837
199	0x3dae04db	0.0849702
200	0x3d0b56a6	0.03401818
201	0x3d8b393b	0.06798025
202	0x3bb1596c	0.0054122712
203	0x3e20f548	0.15718567
204	0xbd056550	-0.032567322
205	0x3de8bc12	0.113639966
206	0x3d96b8c0	0.07359457
207	0x3d6c3ab9	0.05767319
208	0x3d0c175c	0.034201965
209	0xbc143fc7	-0.009048409
210	0x3e0a2447	0.13490401
211	0x3deae494	0.11469379
212	0x3df76691	0.1208011
213	0x3ce66768	0.02812548
214	0x3e04da82	0.12973979
215	0x3e31c82a	0.17361513
216	0x3d6340d6	0.055481754
217	0xbc624e0b	-0.013812552
218	0x3db7ab5e	0.089682326
219	0x3d855cc6	0.06511836
220	0x3df2d75e	0.11857484
221	0xbbafc63a	-0.0053642066
222	0xbc92399e	-0.01784974
223	0xbd8d0c5a	-0.068871215
224	0x3e1327cf	0.14370655
225	0xbd48b60e	-0.049001746
226	0xbe23d02a	-0.15997377
227	0x3c861929	0.01636942
228	0xbd90a348	-0.070623934
229	0xbde2f402	-0.11081697
230	0xbe0f45c4	-0.13991457
231	0xbd4037f2	-0.046928354
232	0xbe079e5f	-0.13244008
233	0xbdbfe2fd	-0.093694665
234	0xbdf20d16	-0.11818902
235	0x3d66cab0	0.05634564
236	0x3e15432c	0.14576405
237	0x3d74451a	0.059636213
238	0x3db84316	0.089971706
239	0x3de42688	0.11140162
240	0xbe9e3e1b	-0.30906758
241	0x3d814a9a	0.06313057
242	0xbdbb8f75	-0.09158222
243	0x3d5e54ce	0.054280095
244	0x3da5ed43	0.08101895
245	0xbcd59d0c	-0.026075862
246	0x3cbbdcd4	0.022932447
247	0x3d87f628	0.066387475
248	0xbd7e71b0	-0.06212014
249	0xbd4feb6e	-0.050761633
250	0xbd84a0a5	-0.06475953
251	0xbd7befa8	-0.06150785
252	0x3dcc38ec	0.099717945
253	0xbd785c63	-0.06063498
254	0x3db680f9	0.08911318
255	0x3d8fdd65	0.070246495

decoder.decoder.0.bias f4 [16]
0	0xbd9687c8	-0.07350117
1	0x3db2c129	0.087282486
2	0x3dd7e030	0.10540807
3	0x3d234a48	0.039865762
4	0x3d86036a	0.0654362
5	0x3dc1ad11	0.09456838
6	0xbd440763	-0.047858607
7	0xbca16bfa	-0.019704808
8	0xbcb38e74	-0.021918513
9	0x3dca894a	0.09889467
10	0xbd974010	-0.07385266
11	0xbda0add3	-0.07845654
12	0x3d4f8e8c	0.050673053
13	0x3d8a68c0	0.06758261
14	0x3d174330	0.03692931
15	0x3dea5380	0.114417076

decoder.decoder.2.weight f4 [16, 1, 3, 3]
0	0x3eb1ef1d	0.3475274
1	0xbe3e6185	-0.18591888
2	0x3e990126	0.2988369
3	0x3e3b1e3b	0.18273251
4	0xbe53b591	-0.20674731
5	0xbce8ad44	-0.028402932
6	0xbd13c8f0	-0.0360803
7	0x3e7d56fd	0.24740215
8	0x3e57cd83	0.2107449
9	0xbd494771	-0.049140397
10	0x3d7a57b8	0.06111881
11	0x3e4fbf3a	0.20287791
12	0x3dea23f4	0.11432639
13	0xbebe0eb9	-0.37120607
14	0xbeca2a20	-0.39485264
15	0x3d401cb0	0.04690236
16	0xbe6fc4df	-0.23414944
17	0xbe454ed3	-0.1926835
18	0xbe8f0f3a	-0.27941304
19	0xbbd6d7d0	-0.0065564886
20	0xbe3f6b39	-0.18693246
21	0xbe9c1e43	-0.30491838
22	0xbec0bd4c	-0.37644422
23	0xbe0e7ed9	-0.13915576
24	0x3d12fdae	0.03588646
25	0x3db4c57b	0.08826729
26	0xbeba6234	-0.36403048
27	0xbcdbb1f3	-0.026818251
28	0x3d31e0ef	0.043427404
29	0x3e996444	0.2995931
30	0xbd714d5e	-0.058911674
31	0xbe8dec0a	-0.27719146
32	0x3e28aaf8	0.1647147
33	0xbc118e8c	-0.0088840835
34	0xbe63b90d	-0.2223856
35	0x3e4cdbb4	0.20005685
36	0xbe74ddfa	-0.23912802
37	0xbe85489c	-0.2603196
38	0xbebb078a	-0.3652919
39	0x3d9cc4bc	0.076547116
40	0xbee829e6	-0.45344466
41	0x3da01dc0	0.07818174
42	0xbe3de50a	-0.18544403
43	0xbea0e8ab	-0.31427512
44	0xbdaadbdf	-0.08342718
45	0xbd24c573	-0.040227365
46	0xbd903acb	-0.07042464
47	0xbc373f38	-0.011184506
48	0xbe15b3b8	-0.14619339
49	0xbe3227b9	-0.17397965
50	0xbda6ea84	-0.08150199
51	0xbea1dee9	-0.3161538
52	0x3e04bd70	0.1296289
53	0xbe8d9988	-0.27656198
54	0xbdcd05a3	-0.10010841
55	0x3eadd646	0.3395254
56	0x3ec698d3	0.3878847
57	0x3c07a719	0.008279585
58	0xbd3d43c7	-0.046207216
59	0x3e87ba6e	0.26509422
60	0x3e8ec052	0.27881104
61	0x3eb8e6a5	0.36113468
62	0x3ee8fc54	0.4550501
63	0xbec1e1e7	-0.37867662
64	0x3d4f4304	0.05060102
65	0x3c921355	0.017831484
66	0x3e705e5c	0.23473495
67	0x3eb55345	0.35415092
68	0x3eb4ad86	0.35288638
69	0x3dfbbd11	0.12291921
70	0x3e9fc80a	0.31207305
71	0xbe065416	-0.13118014
72	0xbddbc347	-0.107306056
73	0x3da81013	0.08206191
74	0xbe6e98d8	-0.23300493
75	0x3d2197c2	0.03945137
76	0x3e417b35	0.18894656
77	0x3e90622a	0.28199893
78	0xbe760c74	-0.24028188
79	0x3deee31a	0.1166441
80	0x3e5ca876	0.21548638
81	0xbeab1d17	-0.3342063
82	0x3ba8438f	0.0051350067
83	0xbe9dab34	-0.3079468
84	0xbc138789	-0.009004482
85	0x3c2bd558	0.010487877
86	0xbeb85e0c	-0.36009252
87	0xbda47478	-0.08030027
88	0xbeddc6f8	-0.43315864
89	0xbea0f6e8	-0.31438375
90	0x3e343303	0.17597584
91	0xbe04ea79	-0.12980069
92	0x3ec39ad1	0.38204053
93	0xbe22c36b	-0.15894859
94	0x3e70a94b	0.2350208
95	0xbc03ad90	-0.008036986
96	0x3eb6753f	0.35636327
97	0x3da3c0a1	0.079957254
98	0x3f0001ba	0.50002635
99	0xbf069f0a	-0.52586424
100	0x3e6d634c	0.2318241
101	0xbeab2456	-0.3342616
102	0x3bc89fc1	0.00612256
103	0x3ebbd6a5	0.36687198
104	0x3e88b6c5	0.26701942
105	0xbe74989f	-0.23886345
106	0xbe59d51a	-0.21272698
107	0xbe8f9ff8	-0.28051734
108	0x3e4a0809	0.19729628
109	0x3e13e122	0.1444135
110	0x3e9f3578	0.3109548
111	0xbea2a2e5	-0.31764904
112	0xbe952dbb	-0.29136452
113	0x3e9b54db	0.30338177
114	0x3d8a7608	0.06760794
115	0x3e844bc3	0.25839052
116	0xbdd4707c	-0.10373017
117	0x3e564524	0.20924813
118	0xbec3238f	-0.38113067
119	0x3e9029cb	0.28156886
120	0x3dc53244	0.09628728
121	0x3ddaf011	0.1069032
122	0xbe08b2c2	-0.1334944
123	0xbe983288	-0.29726052
124	0xbe9bb77b	-0.30413422
125	0xbea9047a	-0.33011228
126	0xbe0b8a1a	-0.136269
127	0x3e91469a	0.28374177
128	0xbe852bc7	-0.26009962
129	0xbe45078f	-0.19241165
130	0x3e84c1f7	0.25929233
131	0xbe86d83b	-0.26336846
132	0x3cabbe1f	0.02096468
133	0x3df6d6e3	0.12052705
134	0x3d89ffae	0.0673822
135	0x3e05b136	0.13055882
136	0xbeb08575	-0.3447682
137	0xbe55b4e0	-0.2086978
138	0xbe74b59d	-0.23897405
139	0x3e40751a	0.1879467
140	0xbe2e3b5f	-0.17014836
141	0xbcc11633	-0.023570156
142	0x3bf0b437	0.007345702
143	0xbe7706b3	-0.2412365
