500_ML/models/weights_499_10-04_04:16.pt (torch_old, 39980 bytes, 7 tensors)

encoder.encoder.0.weight f4 [16, 1, 3, 3]
0	0xbdcf4f92	-0.10122599
1	0x3d9cf319	0.07663555
2	0xbe330ad6	-0.17484602
3	0x3eaf577a	0.34246427
4	0x3ea25a1e	0.3170938
5	0x3ec5aacf	0.3860688
6	0x3ecd02d3	0.40041217
7	0x3dfcde4b	0.123470865
8	0x3eb2e437	0.3493974
9	0x3e424684	0.18972212
10	0xbdc930cf	-0.098237626
11	0xbe434007	-0.19067393
12	0x3ed80c64	0.42196953
13	0x3ed711e7	0.42005846
14	0xbd9b9963	-0.075976156
15	0x3e4ec23d	0.20191284
16	0x3e8345db	0.25639233
17	0x3c4b5bab	0.012411992
18	0x3e331ab3	0.17490654
19	0x3e0e85eb	0.13918273
20	0xbd860b79	-0.06545157
21	0x3ec68cd5	0.3877932
22	0x3df784e5	0.120858945
23	0x3e70fe20	0.23534441
24	0x3e5ef8b0	0.21774554
25	0x3c25d77d	0.010122177
26	0x3e4f47bb	0.20242207
27	0xbe8a815a	-0.27051812
28	0x3e859fa9	0.26098374
29	0xbe43695e	-0.19083163
30	0xbc70a8e0	-0.0146887
31	0xbc8ac550	-0.016939789
32	0xbe842b70	-0.2581439
33	0x3e5a92b2	0.21345022
34	0xbe043938	-0.12912452
35	0xbe5ce52b	-0.21571796
36	0x3e6e7abb	0.23289005
37	0xbd63c906	-0.055611633
38	0xbc94f679	-0.018183934
39	0x3e9e9a54	0.30977118
40	0xbc1305ed	-0.008973581
41	0x3d086454	0.033298805
42	0x3e0182c2	0.12647536
43	0xbd3aa05c	-0.045563087
44	0xbd8bb0f1	-0.06820858
45	0xbe53968a	-0.20662895
46	0x3d423f86	0.047423862
47	0x3e585f74	0.21130162
48	0xbdd6602d	-0.10467563
49	0x3ec4a5b1	0.38407663
50	0x3ea8b46a	0.32950145
51	0x3e757268	0.23969424
52	0x3e9369d4	0.28791678
53	0x3e980468	0.29690862
54	0x3df3e66e	0.11909185
55	0xbdaf796b	-0.085680805
56	0x3e8eee90	0.27916384
57	0xbd7b145d	-0.061298717
58	0xbcc48de2	-0.023993436
59	0xbe7a92ef	-0.24470113
60	0x3e9ecda2	0.3101626
61	0xbe09fdc3	-0.13475709
62	0xbe4c345a	-0.19941846
63	0xbdb15470	-0.08658683
64	0xbb815900	-0.003947377
65	0x3e3346ba	0.17507449
66	0xbd86a68c	-0.06574735
67	0xbe47343e	-0.19453523
68	0xbe1c3b90	-0.15257096
69	0xbd5c1e08	-0.053739578
70	0xbea6537e	-0.32485574
71	0x3e686432	0.22694471
72	0xbe5f5546	-0.21809873
73	0xbe1ca5b0	-0.1529758
74	0x3e2a1fd5	0.16613705
75	0x3cfc9cb6	0.030836444
76	0x3c27e8cd	0.010248375
77	0x3dbd371a	0.092390254
78	0x3e465db0	0.19371676
79	0x3e79b34d	0.24384804
80	0x3e6a4453	0.22877626
81	0x3ddf180c	0.108932585
82	0xbe8f82a2	-0.28029352
83	0xbc1c3980	-0.009535193
84	0xbe2ff5e3	-0.17183642
85	0x3d7cb180	0.061692715
86	0xbdc20a8c	-0.09474668
87	0xbdd98cd6	-0.106225654
88	0xbe9f6dcc	-0.31138456
89	0x3e9de991	0.3084226
90	0x3eb94f61	0.36193374
91	0x3e3a1793	0.18173055
92	0xbe43a9a5	-0.19107683
93	0xbbb9a334	-0.0056652073
94	0x3e95ebb6	0.29281396
95	0xbc6b2ab4	-0.014353443
96	0xbdc0d82f	-0.09416234
97	0x3e8d797f	0.27631757
98	0xbe618e49	-0.22026934
99	0x3c8d14d5	0.017221848
100	0xbdfbc11c	-0.12292692
101	0x3e993ddd	0.2993001
102	0xbe484bc2	-0.1956015
103	0xba4800b3	-0.0007629499
104	0xb9fa3bcc	-0.00047728268
105	0x3d921a7b	0.07133957
106	0x3e95abfc	0.29232776
107	0x3d8f84b5	0.07007734
108	0xbe52bd93	-0.2058013
109	0xbe03693c	-0.12833112
110	0x3e3dd39a	0.18537751
111	0xbe5add01	-0.21373369
112	0x3c308394	0.010773558
113	0x3eb54605	0.35404983
114	0x3ebd004e	0.36914295
115	0x3e3f95ba	0.1870946
116	0x3e95b8a5	0.29242435
117	0x3d3271c0	0.04356551
118	0x3d929910	0.071581006
119	0xbe8a2e58	-0.26988482
120	0xbd229df8	-0.039701432
121	0x3dd5c420	0.104377985
122	0xbe86fe6c	-0.26365983
123	0x3e28d0ea	0.16485944
124	0x3d2eb788	0.042655498
125	0xbe23bdd0	-0.15990376
126	0xbdc29610	-0.095012784
127	0xbda0aef4	-0.0784587
128	0x3e45a936	0.1930283
129	0xbe81f1fb	-0.2537993
130	0x3dbbcb74	0.09169665
131	0xbe6b4d58	-0.22978723
132	0x3de24370	0.11048019
133	0x3d1b4888	0.037910968
134	0xbe91a10f	-0.2844319
135	0x3e997d4c	0.29978406
136	0x3ea34bbb	0.31893715
137	0x3c658c9a	0.014010573
138	0xbe231829	-0.15927185
139	0x3e99ce48	0.30040193
140	0xbca5330d	-0.020165944
141	0x3e494321	0.19654514
142	0xbbb1b583	-0.005423249
143	0x3e7f8c0d	0.24955769

encoder.encoder.0.bias f4 [16]
0	0x3eabf71f	0.33586976
1	0xbd6f6a78	-0.058451146
2	0xbcb37847	-0.021907939
3	0xbe825eca	-0.25462943
4	0x3e737de1	0.23778488
5	0xbcca110e	-0.024666335
6	0xbe3daa6c	-0.18522042
7	0xbe7f028e	-0.24903318
8	0x3e6c80aa	0.23095956
9	0xbe3ca16b	-0.18420951
10	0x3de02b87	0.10945802
11	0x3e302b99	0.17204131
12	0x3e4743c6	0.19459447
13	0xbe42da5b	-0.19028609
14	0xbe7b9870	-0.24569869
15	0xbdca09ca	-0.09865148

encoder.encoder.2.weight f4 [32, 16, 3, 3]
0	0x3e0f879b	0.14016573
1	0x3e1cc60f	0.15309928
2	0x3e133a83	0.14377789
3	0x3d6ca9d9	0.057779167
4	0x3d149bbd	0.036281336
5	0x3e12d99a	0.14340821
6	0x3dbbe4fa	0.09174533
7	0x3d32a6d8	0.043616146
8	0x3e1f43fb	0.15553276
9	0xbdd73ca0	-0.1050961
10	0xbd893e6e	-0.06701361
11	0xbdd24ab8	-0.10268158
12	0xbd74655b	-0.059666973
13	0xbdc3a2c3	-0.09552529
14	0xbdf9b222	-0.12192179
15	0xbd50ed05	-0.05100729
16	0xbdaf62bc	-0.08563754
17	0xbe17e5b9	-0.14833726
18	0xbcdd65b0	-0.027026027
19	0xbd3370fa	-0.043808915
20	0xbdfe5368	-0.12418252
21	0xbc0a14eb	-0.008427839
22	0x3967d294	0.00022108323
23	0xbc991e6b	-0.018691262
24	0xbda7e2f5	-0.081975855
25	0xbd26bfff	-0.040710445
26	0xbe02d11c	-0.12775081
27	0xbce390fc	-0.027779095
28	0x3cbe5510	0.02323392
29	0xbcb7a38c	-0.022416852
30	0xbda9260a	-0.082592085
31	0x3c945c7c	0.018110506
32	0x3d941599	0.07230682
33	0xbcba0f50	-0.02271238
34	0x3d026d00	0.03184223
35	0xbd741313	-0.059588503
36	0x3dd556fa	0.1041698
37	0x3ddb6aed	0.10713754
38	0x3d326688	0.043554813
39	0x3d7c2f9b	0.061568838
40	0x3d853219	0.06503696
41	0x3e0bf4af	0.13667558
42	0x3dc57660	0.09641719
43	0x3d6a52fb	0.057208043
44	0x3d88a288	0.066716254
45	0xbdf71f3f	-0.120665066
46	0xbd245c44	-0.040127054
47	0xbc99062e	-0.018679705
48	0x3bf9b565	0.007620501
49	0xbce64629	-0.028109627
50	0xbdda00aa	-0.10644658
51	0xbd13bd5b	-0.036069255
52	0xbe09c349	-0.13453402
53	0xbe167518	-0.14693105
54	0xbdb5ed05	-0.088830985
55	0xbd9c0fc9	-0.07620198
56	0xbda39ce6	-0.079889104
57	0x3d888a19	0.06666965
58	0xbcc59081	-0.024116756
59	0xbc8dc2f5	-0.017304877
60	0x3b9a70c0	0.004713148
61	0xbce6215d	-0.02809208
62	0xbc0a7afb	-0.008452172
63	0x3cf511bc	0.029915683
64	0x3cbd6a64	0.02312202
65	0xbd8e12a4	-0.06937149
66	0x3bb34890	0.0054712966
67	0x3d1c0048	0.038086206
68	0x3d56e2aa	0.052462257
69	0xbd859556	-0.06522624
70	0xbd995b8b	-0.074881636
71	0xbcadf300	-0.021234035
72	0x3e06579e	0.13119361
73	0x3ddfb87e	0.10923861
74	0x3dcefb6c	0.10106549
75	0x3dd193dd	0.10233281
76	0x3e2df86e	0.169893
77	0x3d9ab1d8	0.07553452
78	0x3c9a8540	0.018862367
79	0x3c6e8ee4	0.014560435
80	0x3dcdfad5	0.10057608
81	0xbd0c1f7b	-0.03420971
82	0x3d1201b6	0.035646163
83	0xbd99ed9f	-0.07516026
84	0xbcf9ece6	-0.03050847
85	0xbd569d2b	-0.05239598
86	0xbd80273a	-0.06257482
87	0xbd30df46	-0.04318168
88	0x3cf08ae0	0.029363096
89	0x3bc10b80	0.0058912635
90	0x3e37841d	0.17921491
91	0x3d6216ba	0.055197455
92	0x3e019e1b	0.12657969
93	0x3d5c2e41	0.05375505
94	0x3dd28e8b	0.10281094
95	0x3dd9c673	0.10633554
96	0x3df541d6	0.11975448
97	0x3e26f8b3	0.16305809
98	0x3dadc17b	0.08484169
99	0x3cf43984	0.029812582
100	0x3e19f965	0.15036543
101	0x3d552910	0.052041113
102	0x3c9c912e	0.019112196
103	0x3d176b2f	0.036967453
104	0x3e2a9c62	0.16661218
105	0x3d763662	0.060110457
106	0x3cf32da9	0.029684858
107	0x3c6b150b	0.014348279
108	0x3e052f4a	0.1300632
109	0x3e2331a8	0.15936911
110	0x3e127b58	0.14304864
111	0x3e15b228	0.14618742
112	0x3d94a469	0.07257921
113	0x3e291b93	0.16514425
114	0x3e0b2f0f	0.1359217
115	0x3d884213	0.06653228
116	0x3d9a85fb	0.07545086
117	0x3c93c624	0.018038817
118	0xbd0b6068	-0.034027487
119	0x3d2830e2	0.041062243
120	0xbc95e5ac	-0.018297993
121	0x3d2646b0	0.040594757
122	0x3b1f1800	0.002427578
123	0x3ce8dba4	0.028425045
124	0xb9de6f00	-0.0004242584
125	0xba851b40	-0.0010155216
126	0x3d8a1653	0.06742539
127	0xbda9b403	-0.08286288
128	0x3ce4d844	0.027935155
129	0xbd570778	-0.052497357
130	0xbd809736	-0.06278841
131	0x3c4cebd8	0.012507401
132	0x3d35528e	0.044268183
133	0xbc126000	-0.008934021
134	0x3da15541	0.07877589
135	0xbd4689b7	-0.04847118
136	0xbd789de2	-0.060697444
137	0xbe1d716f	-0.15375303
138	0x3c4d1e27	0.012519396
139	0xbe117909	-0.14206327
140	0xbd1b6516	-0.0379382
141	0xbdd027dd	-0.10163853
142	0xbd875a5e	-0.06609033
143	0xbe0cbe4e	-0.1374447
144	0x3b972b54	0.0046133194
145	0xbb73eb20	-0.0037219003
146	0x3ddb66b7	0.10712951
147	0xbbd4ee2c	-0.006498119
148	0xbd16bc36	-0.036800586
149	0xbce63829	-0.028102951
150	0x3d982b15	0.07430092
151	0x3d5b5d1a	0.053555585
152	0x3dbb7d69	0.091547795
153	0x3c9d2caf	0.019186346
154	0x3da61742	0.08109905
155	0xbc644188	-0.0139316395
156	0x3d4bf4e5	0.049794096
157	0x3d9c3085	0.07626442
158	0x3d369e0d	0.044584323
159	0x3e1091ac	0.1411807
160	0x3dfe5cf2	0.12420072
161	0x3e186680	0.1488285
162	0x3c7ba9e4	0.015360329
163	0x3e098739	0.1343049
164	0x3dda760c	0.10667047
165	0x3d442e72	0.047895856
166	0x3cf887e1	0.03033823
167	0x3e0dac3d	0.13835235
168	0xbb364e36	-0.0027817613
169	0x3ca080f4	0.01959274
170	0x3d35054c	0.044194505
171	0x3c853894	0.01626233
172	0x3d1b600e	0.0379334
173	0x3bd4e510	0.006497033
174	0xbda574da	-0.08078928
175	0xbd9b231c	-0.07575056
176	0x3d7e767a	0.062124707
177	0x3d5c6bca	0.053813733
178	0x3d3b2236	0.045686923
179	0x3d0534d8	0.0325211
180	0xbafb8ff1	-0.0019192678
181	0xbd902489	-0.070382185
182	0x3ca93428	0.020654753
183	0x3d830d53	0.06399026
184	0x3d6dff3e	0.058104746
185	0xbd85a830	-0.0652622
186	0x3d0d8d0a	0.034558333
187	0xbd0590c9	-0.03260878
188	0xbd0e3e80	-0.034727573
189	0x3d11ef0d	0.035628367
190	0x3dff5245	0.124668635
191	0x3de24563	0.11048391
192	0x3da16e58	0.078823745
193	0x3e103373	0.14082126
194	0x3d204ad3	0.039133858
195	0x3c59c47b	0.0132914735
196	0x3d8d3f3d	0.06896827
197	0x3dc2ed8f	0.09517967
198	0xbd5eadf3	-0.05436511
199	0x3c5d0d60	0.013491958
200	0xbd0fca50	-0.03510505
201	0x3c0d2720	0.008615285
202	0xbc94d170	-0.018166274
203	0xbb4bc498	-0.003109252
204	0xbda1d61f	-0.079021685
205	0xbd88de82	-0.06683065
206	0x3d17ea49	0.037088666
207	0x3d11dec8	0.03561285
208	0x3c7f5780	0.0155848265
209	0xbd9f74c7	-0.077859454
210	0xbd045716	-0.032309614
211	0x3cf6c320	0.03012234
212	0x3ba0e7c0	0.0049104393
213	0x3cf94acc	0.030431174
214	0x3d50d4f2	0.05098433
215	0xbc85127c	-0.016244166
216	0x3bea95e7	0.007158983
217	0x3d555098	0.052078813
218	0x3d0ec54c	0.034856126
219	0xbd8c4dce	-0.068507776
220	0x3c53a21c	0.012917068
221	0xbd22f90b	-0.039788287
222	0x3cec4839	0.028843032
223	0xbcd52827	-0.026020123
224	0x3c980c1a	0.018560458
225	0xbd0ec968	-0.034860045
226	0x3d2b253a	0.04178355
227	0xbd2ef403	-0.042713176
228	0xbaf7fd00	-0.0018920004
229	0xbd2ce720	-0.042212605
230	0x3b663ca0	0.003513135
231	0xba34e180	-0.0006900057
232	0xbd2a8c53	-0.04163773
233	0xbd8ff6e4	-0.070295125
234	0x3ccf5007	0.025306715
235	0x3d17feaf	0.03710812
236	0x3d7f1736	0.062277995
237	0x3ce8f3a4	0.02843649
238	0x3d00f04b	0.03147916
239	0xbd5bcbf3	-0.053661298
240	0x3de0333c	0.10947272
241	0xbd9d7507	-0.07688337
242	0xbd8500e9	-0.06494314
243	0x3d6514e9	0.055928145
244	0x3d9b451c	0.07581541
245	0xbcdfdfec	-0.027328454
246	0xbcfded6f	-0.030997006
247	0xbd6177c8	-0.055045873
248	0xbd6f1ef3	-0.058379125
249	0x3d8bfb18	0.06835002
250	0xbd36d1ef	-0.044633802
251	0x3cce5b84	0.025190122
252	0x3bfe4710	0.007759936
253	0x3cebfb20	0.02880627
254	0x3d109edd	0.035307754
255	0x3b9e64dd	0.004833801

encoder.encoder.2.bias f4 [32]
0	0x3d0d344e	0.03447371
1	0xbcff3981	-0.03115535
2	0x3e0ad746	0.13558683
3	0x3df565bc	0.11982295
4	0x3e0b2bc3	0.13590913
5	0xbd3f3a5c	-0.046686515
6	0x3e0bd3c0	0.13654995
7	0x3e1cedf5	0.15325148
8	0xbc16ada0	-0.009196669
9	0x3db01867	0.085984044
10	0xbcf52b20	-0.02992779
11	0x3e221074	0.15826589
12	0x3e2ca955	0.1686147
13	0xbed3ad7f	-0.41343305
14	0x3daf3cd1	0.08556522
15	0xbdbda6ac	-0.09260306
16	0xbd8c2c09	-0.068443365
17	0x3ce173b0	0.027520984
18	0xbdb59131	-0.08865584
19	0x3dd8d51f	0.105875246
20	0x3c321918	0.010870241
21	0xbd76506d	-0.060135294
22	0xbd1c96c4	-0.03822972
23	0xbd263d12	-0.040585585
24	0x3d9ee71f	0.077589266
25	0x3da3b63a	0.07993741
26	0xbd025e27	-0.031828072
27	0x3e9499fb	0.29023728
28	0x3dc4ada1	0.096034296
29	0x3cd381b0	0.025818676
30	0x3e097f25	0.13427408
31	0x3e1bc166	0.15210494

decoder.decoder.0.weight f4 [32, 16, 3, 3]
0	0x3db56f9b	0.08859178
1	0x3cbbf8ad	0.022945726
2	0x3b78f942	0.0037990366
3	0x3bb5a994	0.005543897
4	0x3d08094c	0.03321199
5	0x3d834a36	0.06410639
6	0xbc58678d	-0.013208282
7	0x3cd3ba1e	0.025845584
8	0x3c8fb34e	0.017541554
9	0x3da26b83	0.079306625
10	0x3d6a124b	0.05714635
11	0x3e084a9e	0.13309714
12	0x3d08b63c	0.033376917
13	0x3e27c5d0	0.16384053
14	0x3e202263	0.15638117
15	0x3d71fcb9	0.059078906
16	0x3e34169e	0.17586753
17	0x3e0aa380	0.13538933
18	0x3e006ba1	0.12541057
19	0x3e12c0fe	0.14331433
20	0x3e10b4c8	0.14131463
21	0x3df4cbf5	0.11952964
22	0x3d8e8a60	0.06959987
23	0x3e269da1	0.16271068
24	0x3da337f9	0.0796966
25	0x3d6e726e	0.058214597
26	0x3db318ee	0.08744989
27	0x3c60582d	0.013692898
28	0xbd822755	-0.06355158
29	0x3cb8bca8	0.022550896
30	0xbda0523d	-0.07828186
31	0xbd79e21e	-0.061006658
32	0xbcc458e5	-0.02396817
33	0xbdae982a	-0.08525117
34	0xbd8dbbac	-0.06920561
35	0xbdd6041c	-0.104500026
36	0x3e06852e	0.13136742
37	0x3d4f7d7a	0.050656773
38	0x3e08b359	0.13349666
39	0x3e1d08f1	0.15335442
40	0x3e40ea7c	0.18839449
41	0x3ce41c74	0.027845599
42	0x3d7e6cc3	0.062115442
43	0x3d8de890	0.069291234
44	0x3d8d21df	0.06891226
45	0x3cba6b8c	0.02275636
46	0x3c3d4e97	0.011554382
47	0x3c806b77	0.015676243
48	0x3dcee778	0.10102743
49	0x3dff3886	0.12461953
50	0x3e16e5a7	0.14736043
51	0x3d6f1665	0.058370966
52	0x3e0247c7	0.12722693
53	0x3ce6e3b3	0.028184747
54	0x3d94092d	0.07228313
55	0x3ce14da5	0.027502844
56	0xbda56a4f	-0.080769174
57	0xbceaf1bd	-0.028679723
58	0x3b19adf2	0.0023449627
59	0xbd39c7a5	-0.04535641
60	0xbc5ffbe8	-0.013670899
61	0xbd8e1c23	-0.069389604
62	0x3c801563	0.015635198
63	0x3da671c4	0.08127168
64	0x3cccbeab	0.024993261
65	0x3d90ea76	0.0707597
66	0x3c759f01	0.014991523
67	0x3d6dd898	0.058067888
68	0x3cb3a88e	0.02193096
69	0x3d2c91db	0.042131286
70	0xbc276733	-0.010217476
71	0xbbb62d5e	-0.0055596074
72	0xbd4832a3	-0.048876416
73	0x3c108db8	0.008822851
74	0x3d51f453	0.051258396
75	0x3bd0edc9	0.0063760024
76	0x3d343090	0.043991625
77	0x3ca422f8	0.020036206
78	0xbd0111d7	-0.031511154
79	0x3d8621a9	0.06549389
80	0xbd9ad7c8	-0.07560688
81	0x3e05eaa2	0.13077787
82	0xbb8be41a	-0.004269135
83	0xbc9f59d0	-0.019452006
84	0xbbc4ff5b	-0.006011886
85	0x3c93a178	0.01802133
86	0x3d2e4173	0.042542886
87	0x3e0f038c	0.13966197
88	0x3dd361c2	0.1032138
89	0x3dcbf801	0.09959412
90	0x3e118c65	0.14213713
91	0x3d5e8e5f	0.054334994
92	0x3de044d0	0.10950625
93	0xbd774f0d	-0.060378123
94	0x3d148843	0.03626276
95	0x3d6c4651	0.057684246
96	0x3e80f045	0.2518331
97	0xbda05ca2	-0.07830168
98	0x3d9ca3e6	0.07648449
99	0x3c952b01	0.018208982
100	0xbbff0180	-0.0077821612
101	0x3d3808a9	0.044930134
102	0xbd4ea00b	-0.050445598
103	0xbd1720bc	-0.036896452
104	0x3d831019	0.06399555
105	0x3d26ff78	0.040770978
106	0x3c8169f0	0.015797585
107	0xbce25bb2	-0.027631614
108	0xbda5b54f	-0.080912225
109	0x3c17ae43	0.009257856
110	0xbd5daa13	-0.054117274
111	0x3d552387	0.052035835
112	0xbd95b628	-0.07310134
113	0xbb79855c	-0.0038073873
114	0xbb6b8373	-0.0035936504
115	0xbcde8dd3	-0.027167236
116	0xbd653130	-0.055955112
117	0x3dce3e45	0.10070471
118	0x3de0cc5d	0.10976479
119	0xbd07acd5	-0.03312381
120	0x3cf4e225	0.02989299
121	0x3d260205	0.04052927
122	0xbd5a70dd	-0.05333029
123	0x3d8960be	0.06707905
124	0x3de32a7a	0.11092086
125	0x3c84a7ed	0.016193355
126	0x3d696381	0.05697966
127	0xbd872b91	-0.066001065
128	0x3d2efb80	0.042720318
129	0xbcab30d4	-0.020897307
130	0xbd83fab2	-0.06444301
131	0x3b1e5ba8	0.0024163518
132	0xbc64d38c	-0.013966452
133	0x3d014b25	0.031565804
134	0xbda4d920	-0.08049226
135	0x3cf58370	0.0299699
136	0xbcf23408	-0.029565826
137	0xbb4d767b	-0.0031351137
138	0x3e2265ae	0.158591
139	0x3d5d9223	0.054094445
140	0x3c82eec5	0.015982995
141	0x3e099df9	0.13439168
142	0x3db4e55d	0.0883281
143	0x3be2f7e3	0.006926523
144	0x3db14896	0.08656423
145	0x3d9bf98c	0.07615957
146	0x3c54f6e9	0.012998321
147	0x3dded712	0.10880865
148	0xbca76ee1	-0.020438613
149	0x3d7ae166	0.061250113
150	0x3db2085a	0.08692999
151	0x3c5c0352	0.013428526
152	0xbbe4c3f2	-0.0069813663
153	0xbe03cc17	-0.12870823
154	0xbcebba9f	-0.028775511
155	0xbe0ee82e	-0.13955757
156	0xbe79399a	-0.2433838
157	0xbdd2159e	-0.102580294
158	0xbe2895ee	-0.16463444
159	0xbddd01bd	-0.10791347
160	0xbd5c0eeb	-0.053725164
161	0xbd157e1d	-0.036497224
162	0xba81143b	-0.0009847948
163	0xbe112ff0	-0.14178443
164	0xbdbb109f	-0.091340296
165	0xbdbb94ec	-0.09159264
166	0xbcff2447	-0.031145228
167	0xbd198444	-0.037479654
168	0xbdb4a242	-0.08820011
169	0xbc321626	-0.010869538
170	0xbe011da8	-0.12608969
171	0x3d074db8	0.033033103
172	0x3c5844d6	0.0132000055
173	0xbd80a737	-0.06281894
174	0x3d468158	0.048463196
175	0xbc1d8ae0	-0.00961563
176	0xbd4beb98	-0.049785227
177	0xbd2a1610	-0.041524947
178	0xbd694a01	-0.05695534
179	0xbd757453	-0.05992539
180	0xbe010057	-0.12597786
181	0xbe3381de	-0.17530009
182	0xbdb37c81	-0.087639816
183	0xbdc9bf29	-0.09850914
184	0xbe29b3ce	-0.16572496
185	0xbe169d74	-0.14708501
186	0xbe2e414f	-0.17017101
187	0xbd121575	-0.035664994
188	0xbe39bb6f	-0.18137906
189	0xbbb2dbfc	-0.005458353
190	0xbe01a814	-0.12661773
191	0xbceaa5e9	-0.028643565
192	0xbe20310b	-0.15643708
193	0xbd7970af	-0.06089848
194	0xbe1dc895	-0.15408547
195	0xbd72bc65	-0.0592617
196	0xbd932a98	-0.071858585
197	0xbd3b855a	-0.04578147
198	0xbd592adf	-0.0530194
199	0x3daf6101	0.08563424
200	0x3cbcd5d9	0.02305119
201	0x3d94dd1b	0.07268735
202	0x3bb1596c	0.0054122712
203	0x3e240793	0.16018514
204	0xbc3ae1a7	-0.011406339
205	0x3dddfec0	0.10839605
206	0x3d8f9ebb	0.07012697
207	0x3d6c1348	0.057635576
208	0x3d06b336	0.032885753
209	0xbc575a04	-0.01314402
210	0x3e0917a2	0.13387921
211	0x3de1d69c	0.110272616
212	0x3de91666	0.11381225
213	0x3ccfba60	0.025357425
214	0x3df0f87c	0.11766145
215	0x3e275b29	0.16343369
216	0x3d75420f	0.05987745
217	0xbcf515c6	-0.029917609
218	0x3db6bda4	0.0892289
219	0x3d8d80e6	0.06909351
220	0x3ddae5b9	0.10688347
221	0xbc46d5c3	-0.012135926
222	0xbc676988	-0.014124282
223	0xbd85f356	-0.06540553
224	0x3e012fca	0.12615886
225	0x3b8cda8e	0.0042985147
226	0xbd9fa4c8	-0.077951014
227	0xbca04789	-0.01956536
228	0xbdfd9f75	-0.1238393
229	0xbd7e2c71	-0.0620541
230	0xbe1b75cc	-0.15181655
231	0xbd862298	-0.06549567
232	0xbd849954	-0.064745575
233	0xbdc14b4d	-0.094381906
234	0x3dc344e7	0.095346265
235	0x3d897eb9	0.067136236
236	0x3e8c9f01	0.2746506
237	0x3d89f507	0.067361884
238	0x3db41aa0	0.08794141
239	0x3de9b949	0.114122935
240	0x3e8df347	0.27724668
241	0x3d85f32e	0.065405235
242	0x3e16bdaa	0.14720789
243	0x3d5e54ce	0.054280095
244	0x3da5ed43	0.08101895
245	0xbcd59d0c	-0.026075862
246	0x3cbbdcd4	0.022932447
247	0x3d85484b	0.065079294
248	0xbd7e71b0	-0.06212014
249	0xbd4feb6e	-0.050761633
250	0xbd84a0a5	-0.06475953
251	0xbd7befa8	-0.06150785
252	0x3c3a38a0	0.0113660395
253	0xbd785c63	-0.06063498
254	0x3cd9d600	0.026591301
255	0x3d8fdd65	0.070246495

decoder.decoder.0.bias f4 [16]
0	0xbd99e3ee	-0.07514177
1	0x3daf299f	0.085528605
2	0x3dd7324f	0.105076425
3	0x3d23258e	0.039830737
4	0x3d84f1e5	0.0649145
5	0x3dc1c873	0.09462061
6	0xbd448e36	-0.047987185
7	0xbc9bcd66	-0.01901884
8	0xbcab5ea6	-0.020919155
9	0x3dca4f6c	0.0987843
10	0xbd97e70a	-0.07417114
11	0xbd998211	-0.07495511
12	0x3d4f8e8c	0.050673053
13	0x3d89de4b	0.06731852
14	0x3d1a4ec3	0.03767277
15	0x3dea1199	0.11429138

decoder.decoder.2.weight f4 [16, 1, 3, 3]
0	0x3eb81853	0.35956058
1	0xbe33a94b	-0.17545049
2	0x3ea2014b	0.3164161
3	0x3e40bbd3	0.18821649
4	0xbe326cf0	-0.17424369
5	0x3d0f0ebe	0.03492617
6	0xbdfca801	-0.12336732
7	0x3e874a22	0.26423746
8	0x3e36410f	0.17798255
9	0xbd7d812c	-0.061890766
10	0x3d83438b	0.06409367
11	0x3e44823e	0.19190308
12	0x3dee3387	0.11630922
13	0xbeba1fa3	-0.36352262
14	0xbec864d0	-0.39139414
15	0x3cd5a18c	0.026078008
16	0xbe66ab34	-0.22526246
17	0xbe559332	-0.20856932
18	0xbe938577	-0.28812763
19	0xbb9b0f00	-0.0047320127
20	0xbe45c9e3	-0.19315295
21	0xbe9b44fa	-0.30326062
22	0xbebd84fa	-0.37015516
23	0xbe0b5b27	-0.1360899
24	0x3caf75fe	0.021418568
25	0x3dc1cf73	0.09463396
26	0xbebdf919	-0.3710411
27	0xbcd84154	-0.026398338
28	0x3d34756a	0.044057287
29	0x3e99b335	0.30019537
30	0xbd7345fb	-0.05939291
31	0xbe8cc2cf	-0.27492377
32	0x3e29c63b	0.16579525
33	0xbbe5b8f0	-0.0070105717
34	0xbe63d3dd	-0.22248788
35	0x3e4da05b	0.20080702
36	0xbe7df3a3	-0.24799971
37	0xbe83fb09	-0.25777462
38	0xbebff062	-0.37488085
39	0x3da04cc8	0.07827145
40	0xbee479bc	-0.44624126
41	0x3da76b5f	0.08174776
42	0xbe4c92d3	-0.19977884
43	0xbe9ce906	-0.30646533
44	0xbdc34167	-0.09533959
45	0xbd2a517c	-0.041581616
46	0xbd8ee30d	-0.069769
47	0xbc6debf1	-0.014521585
48	0xbe14532a	-0.1448485
49	0xbe2e19df	-0.17002057
50	0xbd9fdb2c	-0.078054756
51	0xbea55ed7	-0.3229892
52	0x3e08de73	0.13366108
53	0xbe8f7796	-0.28020924
54	0xbd9fbf38	-0.07800144
55	0x3eb182cd	0.34670106
56	0x3ed460bc	0.41480052
57	0x3ae29f76	0.0017289955
58	0xbd2813e4	-0.041034594
59	0x3e8517ac	0.25994623
60	0x3ea8d8f2	0.32978016
61	0x3eb537af	0.35394046
62	0x3ed00af2	0.4063335
63	0xbe83bc19	-0.25729445
64	0x3d8a3af6	0.06749527
65	0x3d72879d	0.059211362
66	0x3e5f714b	0.21820562
67	0x3ea03977	0.31293842
68	0x3eb0ccec	0.34531343
69	0x3e802b0a	0.25032836
70	0x3e7e6b7e	0.24845693
71	0xbdd571b4	-0.10422078
72	0x3cd620b4	0.026138641
73	0x3e05587e	0.13022038
74	0xbe68fd8e	-0.22752973
75	0x3c786917	0.015161774
76	0x3e179619	0.14803351
77	0x3e8f66a8	0.28008008
78	0xbe2eb003	-0.1705933
79	0x3d6f538a	0.05842928
80	0x3e4a440b	0.19752519
81	0xbeb00794	-0.34380782
82	0x3bf35a71	0.007426553
83	0xbea0c136	-0.31397408
84	0xbbebf31f	-0.007200613
85	0x3c91a165	0.017777154
86	0xbeb688af	-0.35651156
87	0xbdc096b8	-0.09403747
88	0xbeda5486	-0.4264261
89	0xbea30af3	-0.3184429
90	0x3e67fe2d	0.22655554
91	0xbd9f181f	-0.077682726
92	0x3eb9d7a2	0.36297327
93	0xbde7d1b9	-0.11319298
94	0x3e8b537b	0.27212128
95	0x3d31e623	0.043432366
96	0x3ebe0c85	0.37118927
97	0x3df53ef3	0.11974897
98	0x3ed05169	0.4068711
99	0xbe2e21e9	-0.17005123
100	0x3e3ba257	0.18323646
101	0xbde60d01	-0.11232949
102	0x3e7132ca	0.2355453
103	0x3ec52678	0.38505912
104	0x3ea92639	0.33036974
105	0xbdd37cf6	-0.10326569
106	0xbe660916	-0.22464404
107	0x3d9d8f80	0.07693386
108	0x3e49df9b	0.19714205
109	0x3e13e122	0.1444135
110	0x3e9f3523	0.31095228
111	0xbea2a2e5	-0.31764904
112	0xbe953898	-0.2914474
113	0x3e9b54db	0.30338177
114	0x3d8a5f4b	0.06756457
115	0x3e844bc3	0.25839052
116	0xbdd470cb	-0.10373076
117	0x3e48f756	0.19625601
118	0xbec1cc1c	-0.37851036
119	0x3e8b3376	0.271877
120	0x3dc88bd7	0.09792297
121	0x3de651ac	0.112460464
122	0xbe07a60e	-0.13246939
123	0xbe9d4636	-0.3071763
124	0xbe984fee	-0.29748482
125	0xbead3035	-0.33825842
126	0xbe0be893	-0.13662939
127	0x3e907716	0.28215855
128	0xbe82f9ef	-0.2558131
129	0xbe44caf8	-0.19218051
130	0x3e869f27	0.262933
131	0xbe811888	-0.25214028
132	0x3c0ca120	0.008583337
133	0x3de81b2a	0.11333306
134	0x3d9438d4	0.072374016
135	0x3e044e56	0.12920508
136	0xbeb09f35	-0.34496465
137	0xbe548752	-0.20754746
138	0xbe7427a5	-0.23843248
139	0x3e42464e	0.18972132
140	0xbe2c895a	-0.1684927
141	0xbce351da	-0.02774899
142	0x3c1262f4	0.008934725
143	0xbe754a9a	-0.2395424
