500_ML/models/weights_2699_10-04_04:16.pt (torch_old, 39980 bytes, 7 tensors)

encoder.encoder.0.weight f4 [16, 1, 3, 3]
-0.101663485 0.07616088 -0.17548068 0.34173045 0.31667116 0.38545698 0.39901507 0.12235967
0.3480475 0.19487551 -0.087845124 -0.17892174 0.4351546 0.43814692 -0.056420777 0.21874394
0.27799177 0.035618614 0.1849781 0.16692653 -0.03511641 0.41270143 0.16202855 0.27930006
0.24993712 0.058298144 0.25375685 -0.27051812 0.26098374 -0.19083163 -0.0146887 -0.016939789
-0.2581439 0.21345022 -0.12912452 -0.21571796 0.2298931 -0.061546877 -0.024575232 0.30362236
-0.017428119 0.02433532 0.11911619 -0.05521832 -0.07843422 -0.20000839 0.06204068 0.22745906
-0.088823594 0.40685794 0.3539864 0.25957856 0.3146813 0.32563326 0.11909185 -0.085680805
0.27916384 -0.061298717 -0.023993436 -0.24470113 0.3101626 -0.13475709 -0.19941846 -0.08658683
-0.003947377 0.17507449 -0.06574735 -0.19453523 -0.15257096 -0.053739578 -0.32485574 0.22694471
-0.2223279 -0.15877633 0.16003321 0.024934338 0.003329946 0.085124455 0.18700431 0.23613554
0.22069529 0.108932585 -0.28029352 -0.009535193 -0.17183642 0.061692715 -0.09474668 -0.106225654
-0.31138456 0.3084226 0.36276868 0.1833452 -0.18944556 -0.004128372 0.29573455 -0.011502887
-0.09288063 0.27889672 -0.2178088 0.013981543 -0.12718828 0.2947796 -0.2010527 -0.0067476793
-0.006752332 0.06518262 0.2856445 0.06309136 -0.20658106 -0.12792344 0.1857691 -0.2139841
0.012065094 0.35529923 0.36860096 0.18805453 0.29331517 0.04356551 0.071581006 -0.26988482
-0.039701432 0.104377985 -0.26365983 0.16485944 0.042655498 -0.15990376 -0.095012784 -0.0784587
0.1930283 -0.2537993 0.09169665 -0.22978723 0.11048019 0.037910968 -0.2844319 0.2998024
0.31896874 0.014048288 -0.15924501 0.3004475 -0.020113163 0.196572 -0.005370437 0.2496083
00000000: f234 d0bd 3cfa 9b3d 35b1 33be 4bf7 ae3e
00000010: b922 a23e 9e5a c53e b44b cc3e b597 fa3d
00000020: 4833 b23e 728d 473e 25e8 b3bd 4337 37be
00000030: 95cc de3e cb54 e03e 7919 67bd 69fe 5f3e
00000040: f054 8e3e d3e4 113d e66a 3d3e caee 2a3e
00000050: 3ad6 0fbd 9a4d d33e d0ea 253e 6b00 8f3e
00000060: 84ef 7f3e 09ca 6e3d 6bec 813e 5a81 8abe
00000070: a99f 853e 5e69 43be e0a8 70bc 50c5 8abc
00000080: 702b 84be b292 5a3e 3839 04be 2be5 5cbe
00000090: 1969 6b3e 9418 7cbd ff51 c9bc 6474 9b3e
000000a0: 6ac5 8ebc dd5a c73c 30f3 f33d 9b2c 62bd
000000b0: 1fa2 a0bd 00cf 4cbe 5e1e 7e3d 07eb 683e
000000c0: 25e9 b5bd af4f d03e b53d b53e 7be7 843e
000000d0: e81d a13e 67b9 a63e 6ee6 f33d 6b79 afbd
000000e0: 90ee 8e3e 5d14 7bbd e28d c4bc ef92 7abe
000000f0: a2cd 9e3e c3fd 09be 5a34 4cbe 7054 b1bd
00000100: 0059 81bb ba46 333e 8ca6 86bd 3e34 47be
00000110: 903b 1cbe 081e 5cbd 7e53 a6be 3264 683e
00000120: eda9 63be 4396 22be bfdf 233e 1943 cc3c
00000130: 393b 5a3b bb55 ae3d 0f7e 3f3e 84cd 713e
00000140: f2fd 613e 0c18 df3d a282 8fbe 8039 1cbc
00000150: e3f5 2fbe 80b1 7c3d 8c0a c2bd d68c d9bd
00000160: cc6d 9fbe 91e9 9d3e d1bc b93e d8be 3b3e
00000170: 04fe 41be 4b47 87bb 856a 973e 9b76 3cbc
00000180: 3338 bebd 8dcb 8e3e 4509 5fbe d712 653c
00000190: a53d 02be 5aed 963e c2e0 4dbe a31b ddbb
000001a0: ab42 ddbb 777e 853d ff3f 923e 0b36 813d
000001b0: fc89 53be 5dfe 02be 413a 3e3e a61e 5bbe
000001c0: acac 453c c8e9 b53e 44b9 bc3e 5e91 403e
000001d0: 682d 963e c071 323d 1099 923d 582e 8abe
000001e0: f89d 22bd 20c4 d53d 6cfe 86be ead0 283e
000001f0: 88b7 2e3d d0bd 23be 1096 c2bd f4ae a0bd
00000200: 36a9 453e fbf1 81be 74cb bb3d 584d 6bbe
00000210: 7043 e23d 8848 1b3d 0fa1 91be b37f 993e
00000220: df4f a33e ca2a 663c 2011 23be 41d4 993e
00000230: 5cc4 a4bc 2c4a 493e 7efa afbb 5199 7f3e

encoder.encoder.0.bias f4 [16]
0.3390184 -0.006007631 -0.012129703 -0.25462943 0.24108905 -0.02102362 -0.18522042 -0.24903318
0.23449394 -0.18420951 0.11403972 0.1754211 0.19775148 -0.19028609 -0.24569869 -0.09860079
00000000: d293 ad3e a9db c4bb a9bb 46bc ca5e 82be
00000010: 0ce0 763e ba39 acbc 6caa 3dbe 8e02 7fbe
00000020: 2e1f 703e 6ba1 3cbe a88d e93d 97a1 333e
00000030: 5d7f 4a3e 5bda 42be 7098 7bbe 36ef c9bd

encoder.encoder.2.weight f4 [32, 16, 3, 3]
0.14064239 0.15351619 0.144139 0.057912916 0.037169863 0.14426784 0.09189834 0.04452554
0.15640861 -0.097285 -0.061693735 -0.10325555 -0.062677294 -0.10138397 -0.13168593 -0.05412936
-0.09176786 -0.15905116 -0.021321619 -0.04188666 -0.12616937 -0.012310069 -0.0077743754 -0.02964853
-0.08781984 -0.050674744 -0.14029455 -0.027779095 0.02323392 -0.022416852 -0.082592085 0.018110506
0.07230682 -0.02271238 0.03184223 -0.059588503 0.104701735 0.10773786 0.044066377 0.061912578
0.0663693 0.13793962 0.09672967 0.058503315 0.06795736 -0.117933825 -0.04257375 -0.021339567
0.0032401483 -0.03719407 -0.115479544 -0.041260082 -0.14410569 -0.15657182 -0.088830985 -0.07620198
-0.079889104 0.06666965 -0.024116756 -0.017304877 0.004713148 -0.02809208 -0.008452172 0.029915683
0.02312202 -0.06937149 0.0054712966 0.038086206 0.052462257 -0.06522624 -0.074881636 -0.021234035
0.13168082 0.10969506 0.101517454 0.10255193 0.1710876 0.07674549 0.01912048 0.015805736
0.10182691 -0.03420971 0.035646163 -0.07516026 -0.03050847 -0.05239598 -0.06257482 -0.04318168
0.029363096 0.0058912635 0.1812274 0.056932494 0.12808816 0.05486522 0.106361166 0.1095962
0.120394744 0.1661347 0.087731056 0.03042182 0.15091683 0.05261454 0.019498061 0.038493656
0.16815637 0.060412396 0.031160777 0.015848199 0.13061178 0.15980291 0.14348012 0.14633952
0.07369616 0.16628268 0.13609692 0.06769266 0.07662387 0.018038817 -0.034027487 0.041062243
-0.018297993 0.040594757 0.002427578 0.028425045 -0.0004242584 -0.0010155216 0.06742539 -0.08286288
0.027935155 -0.052497357 -0.06278841 0.012507401 0.044268183 -0.008934021 0.07877589 -0.04849387
-0.060713015 -0.15376486 0.01247979 -0.14209318 -0.037966542 -0.101690054 -0.06613476 -0.13748391
-0.009879236 -0.0040991735 0.10897451 -0.008463313 -0.026629856 -0.01595875 0.0709186 0.062179353
0.10212783 0.010116717 0.07449291 -0.0131778 0.05187527 0.08149808 0.05546674 0.14192705
0.12766187 0.15831578 0.0065094205 0.13053888 0.10923781 0.0510527 0.03894082 0.15214032
0.0019911916 0.029491182 0.059055068 0.01626233 0.0379334 0.006497033 -0.08078928 -0.07575056
0.062124707 0.053813733 0.045686923 0.0325211 -0.018959962 -0.07409105 0.020513587 0.056015212
0.061617125 -0.057785146 0.027599482 -0.028082723 -0.026302528 0.030850276 0.1268662 0.11333381
0.0832673 0.15118603 0.05020854 0.017593022 0.07877571 0.10562953 -0.05436511 0.013491958
-0.03510505 0.008615285 -0.018166274 -0.003109252 -0.079021685 -0.06683065 0.037088666 0.03561285
0.0155848265 -0.077859454 -0.032309614 0.03012234 0.0049104393 0.030431174 0.05098433 -0.016244166
-0.009320481 0.053860474 0.03700415 -0.07246148 0.025459602 -0.02704604 0.02263902 -0.016527822
0.028115507 -0.034860045 0.04178355 -0.042713176 -0.0018920004 -0.042212605 0.003513135 -0.0006900057
-0.04163773 -0.070295125 -0.02918069 0.027318731 0.061436255 0.0030296405 0.050129116 -0.024831695
0.0976027 -0.04401652 -0.02180292 0.036716297 0.07785029 -0.025904031 -0.03915737 -0.044122007
-0.04845621 0.062162753 -0.0320687 0.036720745 -0.011485981 0.032018647 0.038967166 0.002777158
00000000: 8f04 103e 5933 1d3e 2d99 133e 1836 6d3d
00000010: 6d3f 183d f3ba 133e 3235 bc3d 6a60 363d
00000020: 9429 203e 5c3d c7bd 92b2 7cbd a577 d3bd
00000030: f45c 80bd 66a2 cfbd add8 06be bfb6 5dbd
00000040: caf0 bbbd 4fde 22be adaa aebc 5991 2bbd
00000050: 8b32 01be 2cb0 49bc 30c0 febb 79e1 f2bc
00000060: e3da b3bd 5290 4fbd 60a9 0fbe fc90 e3bc
00000070: 1055 be3c 8ca3 b7bc 0a26 a9bd 7c5c 943c
00000080: 9915 943d 500f babc 006d 023d 1313 74bd
00000090: dd6d d63d aba5 dc3d f27e 343d 0b98 7d3d
000000a0: a1ec 873d 0b40 0d3e 351a c63d 2ca1 6f3d
000000b0: 3a2d 8b3d 4a87 f1bd d061 2ebd 51d0 aebc
000000c0: ab58 543b cf58 18bd 8a80 ecbd 5500 29bd
000000d0: 7190 13be 5d54 20be 05ed b5bd c90f 9cbd
000000e0: e69c a3bd 198a 883d 8190 c5bc f5c2 8dbc
000000f0: c070 9a3b 5d21 e6bc fb7a 0abc bc11 f53c
00000100: 646a bd3c a412 8ebd 9048 b33b 4800 1c3d
00000110: aae2 563d 5695 85bd 8b5b 99bd 00f3 adbc
00000120: 56d7 063e cea7 e03d 62e8 cf3d bf06 d23d
00000130: 9631 2f3e bd2c 9d3d 8ea2 9c3c 087b 813c
00000140: a18a d03d 7b1f 0cbd b601 123d 9fed 99bd
00000150: e6ec f9bc 2b9d 56bd 3a27 80bd 46df 30bd
00000160: e08a f03c 800b c13b ad93 393e 0c32 693d
00000170: 8b29 033e 5aba 603d e2d3 d93d f973 e03d
00000180: 8591 f63d 371f 2a3e 57ac b33d 2e37 f93c
00000190: f189 1a3e 5882 573d 66ba 9f3c 86ab 1d3d
000001a0: 2f31 2c3e fd72 773d e344 ff3c 15d4 813c
000001b0: 18bf 053e 60a3 233e 74ec 123e 07da 153e
000001c0: 03ee 963d 0246 2a3e fe5c 0b3e 73a2 8a3d
000001d0: faec 9c3d 24c6 933c 6860 0bbd e230 283d
000001e0: ace5 95bc b046 263d 0018 1f3b a4db e83c
000001f0: 006f deb9 401b 85ba 5316 8a3d 03b4 a9bd
00000200: 44d8 e43c 7807 57bd 3697 80bd d8eb 4c3c
00000210: 8e52 353d 0060 12bc 4155 a13d 82a1 46bd
00000220: 36ae 78bd 8974 1dbe 0878 4c3c e080 11be
00000230: ce82 1bbd e042 d0bd a971 87bd 95c8 0cbe
00000240: 85dc 21bc 5c52 86bb 072e df3d b5a9 0abc
00000250: db26 dabc edbb 82bc c53d 913d c7af 7e3d
00000260: 6528 d13d 96c0 253c bd8f 983d b3e7 57bc
00000270: 2a7b 543d 77e8 a63d 1831 633d 5355 113e
00000280: cbb9 023e 881d 223e fa4c d53b fcab 053e
00000290: 13b8 df3d a31c 513d 6980 1f3d acca 1b3e
000002a0: a77e 023b 7e97 f13c bae3 713d 9438 853c
000002b0: 0e60 1b3d 10e5 d43b da74 a5bd 1c23 9bbd
000002c0: 7a76 7e3d ca6b 5c3d 3622 3b3d d834 053d
000002d0: ec51 9bbc 0cbd 97bd 1c0c a83c 3570 653d
000002e0: 3d62 7c3d 1eb0 6cbd 4f18 e23c bd0d e6bc
000002f0: 6678 d7bc b8b9 fc3c 37e9 013e 8e1b e83d
00000300: 0c88 aa3d 83d0 1a3e 78a7 4d3d 3e1f 903c
00000310: 2955 a13d 4c54 d83d f3ad 5ebd 600d 5d3c
00000320: 50ca 0fbd 2027 0d3c 70d1 94bc 98c4 4bbb
00000330: 1fd6 a1bd 82de 88bd 49ea 173d c8de 113d
00000340: 8057 7f3c c774 9fbd 1657 04bd 20c3 f63c
00000350: c0e7 a03b cc4a f93c f2d4 503d 7c12 85bc
00000360: eeb4 18bc cd9c 5c3d aa91 173d af66 94bd
00000370: a890 d03c a88f ddbc 7775 b93c 5b65 87bc
00000380: 7e52 e63c 68c9 0ebd 3a25 2b3d 03f4 2ebd
00000390: 00fd f7ba 20e7 2cbd a03c 663b 80e1 34ba
000003a0: 538c 2abd e4f6 8fbd 580c efbc 88cb df3c
000003b0: 95a4 7b3d ef8c 463b 3054 4d3d d76b cbbc
000003c0: ede3 c73d ab4a 34bd 0a9c b2bc d463 163d
000003d0: f96f 9f3d b134 d4bc 7a63 20bd 47b9 34bd
000003e0: 057a 46bd 5f9e 7e3d 785a 03bd 7e68 163d
000003f0: b22f 3cbc fc25 033d 099c 1f3d fb00 363b

encoder.encoder.2.bias f4 [32]
0.03540482 -0.028356474 0.1375984 0.121141516 0.1369858 -0.04862684 0.13733701 0.1541159
-0.009196669 0.086555995 -0.02992779 0.15902792 0.1695822 -0.47030392 0.08745125 -0.09115978
-0.06538568 0.024841668 -0.08865584 0.10688958 0.010870241 -0.060135294 -0.043703977 -0.040104065
0.07828115 0.08066373 -0.03186655 0.49751624 0.097207226 0.026810994 0.1357131 0.15321319
00000000: a504 113d d64b e8bc 98e6 0c3e 0b19 f83d
00000010: 0146 0c3e f02c 47bd 13a2 0c3e 8fd0 1d3e
00000020: a0ad 16bc 4544 b13d 202b f5bc 37d8 223e
00000030: f5a6 2d3e adcb f0be a419 b33d fbb1 babd
00000040: ede8 85bd c180 cb3c 3191 b5bd ede8 da3d
00000050: 1819 323c 6d50 76bd f102 33bd 2944 24bd
00000060: de51 a03d 0733 a53d 8086 02bd 73ba fe3e
00000070: 9514 c73d bba2 db3c 60f8 0a3e ebe3 1c3e

decoder.decoder.0.weight f4 [32, 16, 3, 3]
0.078359455 0.022952681 0.00022003376 0.0044109486 0.039352335 0.06838562 -0.010732459 0.025845619
0.021535102 0.07796371 0.05730885 0.13251202 0.033576615 0.16550578 0.15951449 0.059246413
0.17886528 0.13777934 0.12582155 0.14349051 0.14198422 0.11974081 0.07009753 0.16432706
0.080124214 0.05854285 0.08827621 0.013692898 -0.063663244 0.022550896 -0.07828186 -0.061006658
-0.02396817 -0.08525117 -0.069145456 -0.104500026 0.13151352 0.051268235 0.13437001 0.15411274
0.18961205 0.027979964 0.061778538 0.07121196 0.06910231 0.022619529 0.011579856 0.016191801
0.101619296 0.123747215 0.14794211 0.060079522 0.12696901 0.028271882 0.07216453 0.027259579
-0.08102598 -0.028221428 0.0015658227 -0.04431664 -0.018241849 -0.06678788 0.005328813 0.07808973
0.025974402 0.09167768 0.014743902 0.05575275 0.021827392 0.050263252 -0.009461628 0.0262179
-0.042887382 0.0073614214 0.054402985 0.012292021 0.039294474 0.015650712 -0.017250327 0.06317943
-0.07062008 0.13176905 -0.0045518074 -0.018640816 -0.00555518 0.01840779 0.043103438 0.13981977
0.10295283 0.09965783 0.073851004 0.05475303 0.11484835 -0.06273561 0.039422072 0.06012741
0.082373664 -0.074330024 0.09799709 0.018208982 -0.0077821612 0.044930134 -0.050445598 -0.04334143
0.06399555 0.040770978 0.015797585 -0.027631614 -0.08090177 0.009257856 -0.054114122 0.052035835
-0.07310134 -0.0038073873 -0.003589204 -0.027167236 -0.055955112 0.105967134 0.109405525 -0.03647185
0.029206622 0.040709894 -0.055957515 0.070118025 0.114172794 0.017306743 0.05697954 -0.061302733
0.040769152 0.008160194 -0.06444301 0.011909166 -0.01396818 0.047070384 -0.08186512 0.031041726
-0.029346801 -0.0019457284 0.15771309 0.054094445 0.016283574 0.13471955 0.08844877 0.008315145
0.08521173 0.07644356 0.011330517 0.108407974 -0.022832409 0.05874756 0.0901895 0.01357519
-0.008143629 -0.1332942 -0.032644525 -0.14150769 -0.24077757 -0.118005395 -0.23506565 -0.11251525
-0.060258094 -0.03899832 -0.0040398673 -0.15865126 -0.09316639 -0.0925461 -0.033617694 -0.03950264
-0.089553475 -0.046911392 -0.12668857 0.033033103 0.012900828 -0.06281894 0.048463196 -0.00961563
-0.049785227 -0.041524947 -0.057289645 -0.059924036 -0.23712735 -0.16995053 -0.05374475 -0.09299392
-0.27542436 -0.14834525 -0.31630793 -0.051120434 -0.20425957 -0.009820036 -0.11501102 -0.031364538
-0.15970142 -0.066226356 -0.18761517 -0.06237366 -0.06243876 -0.05198409 -0.05418982 0.08546816
0.02385557 0.071132876 0.0054122712 0.15957502 -0.012983117 0.112899736 0.0746411 0.05837337
0.036752358 -0.010032019 0.13751942 0.113649055 0.121267475 0.02966698 0.1264714 0.17014797
0.056934837 -0.01847233 0.088207394 0.06906798 0.11556795 -0.0074751126 -0.013190701 -0.060453694
0.13279565 -0.0072105513 -0.10460058 0.018317984 -0.08408432 -0.10733632 -0.14726835 -0.063288376
-0.11827905 -0.09414547 -0.10424351 0.06306812 0.11572177 0.0631333 0.09083988 0.11431426
-0.27262083 0.06700006 -0.077553995 0.054280095 0.08101895 -0.026075862 0.022932447 0.067441806
-0.06212014 -0.050761633 -0.06475953 -0.06150785 0.12811369 -0.06063498 0.10441293 0.070246495
00000000: ec7a a03d 4307 bc3c ddb8 6639 b889 903b
00000010: ea2f 213d c30d 8c3d 32d7 2fbc 31ba d33c
00000020: 626a b03c 70ab 9f3d afbc 6a3d 3bb1 073e
00000030: a287 093d 597a 293e c457 233e 5eac 723d
00000040: 7628 373e 0716 0d3e 5dd7 003e 2def 123e
00000050: 5064 113e ab3a f53d 4b8f 8f3d 5a45 283e
00000060: 2a18 a43d a1ca 6f3d 28ca b43d 2d58 603c
00000070: e061 82bd a8bc b83c 3d52 a0bd 1ee2 79bd
00000080: e558 c4bc 2a98 aebd 229c 8dbd 1c04 d6bd
00000090: 7bab 063e a4fe 513d 4b98 093e bbcf 1d3e
000000a0: a929 423e 3d36 e53c 7e0b 7d3d 93d7 913d
000000b0: 8385 8d3d 974c b93c 70b9 3d3c aba4 843c
000000c0: c71d d03d 2e6f fd3d 237e 173e f215 763d
000000d0: 2a04 023e 6f9a e73c ffca 933d 7b4f df3c
000000e0: f3f0 a5bd a030 e7bc 4b3c cd3a 5d85 35bd
000000f0: ee6f 95bc 16c8 88bd 539d ae3b 82ed 9f3d
00000100: 45c8 d43c 82c1 bb3d 6890 713c ff5c 643d
00000110: 5ccf b23c d7e0 4d3d f204 1bbc ecc6 d63c
00000120: aeaa 2fbd 1438 f13b aad5 5e3d 7964 493c
00000130: 3ef3 203d ec35 803c 8f50 8dbc 3864 813d
00000140: 43a1 90bd 77ee 063e 5427 95bb a0b4 98bc
00000150: 3a08 b6bb efcb 963c 3b8d 303d ea2c 0f3e
00000160: efd8 d23d 6819 cc3d 323f 973d b744 603d
00000170: 9d35 eb3d 877b 80bd 0a79 213d 2948 763d
00000180: 86b3 a83d 573a 98bd b3b2 c83d 012b 953c
00000190: 8001 ffbb a908 383d 0ba0 4ebd c986 31bd
000001a0: 1910 833d 78ff 263d f069 813c b25b e2bc
000001b0: d4af a5bd 43ae 173c c5a6 5dbd 8723 553d
000001c0: 28b6 95bd 5c85 79bb da38 6bbb d38d debc
000001d0: 3031 65bd 4c05 d93d 0110 e03d 8263 15bd
000001e0: ba42 ef3c 6bbf 263d b533 65bd 0a9a 8f3d
000001f0: 6dd3 e93d dfc6 8d3c 6163 693d 9318 7bbd
00000200: 8efd 263d 56b2 053c b2fa 83bd aa1e 433c
00000210: cbda 64bc e0cc 403d e6a8 a7bd 384b fe3c
00000220: b468 f0bc d007 ffba 8a7f 213e 2392 5d3d
00000230: 2165 853c ecf3 093e a124 b53d 3f3c 083c
00000240: 7d83 ae3d 718e 9c3d a2a3 393c 0005 de3d
00000250: 080b bbbc 48a1 703d 46b5 b83d 796a 5e3c
00000260: db6c 05bc 467e 08be 44b6 05bd 64e7 10be
00000270: 658e 76be d0ac f1bd 0db5 70be 656e e6bd
00000280: 31d1 76bd b4bc 1fbd dd60 84bb 7a75 22be
00000290: 05ce bebd cf88 bdbd b5b2 09bd 85cd 21bd
000002a0: d067 b7bd 2926 40bd a6ba 01be b84d 073d
000002b0: ff5d 533c 37a7 80bd 5881 463d e08a 1dbc
000002c0: 98eb 4bbd 1016 2abd 8ca8 6abd e872 75bd
000002d0: 83d1 72be 8307 2ebe 7423 5cbd 9973 bebd
000002e0: 6c04 8dbe d1e7 17be 1df3 a1be a963 51bd
000002f0: 6c29 51be 37e4 20bc e68a ebbd 1a78 00bd
00000300: c588 23be afa1 87bd 311e 40be 867b 7fbd
00000310: c9bf 7fbd 45ed 54bd 25f6 5dbd ee09 af3d
00000320: c26c c33c 1dae 913d 6c59 b13b a267 233e
00000330: 24b7 54bc fa37 e73d 6fdd 983d ea18 6f3d
00000340: a489 163d 565d 24bc e4d1 0c3e d6c0 e83d
00000350: 155b f83d 2b08 f33c b881 013e 453b 2e3e
00000360: 8134 693d 4953 97bc 14a6 b43d 8373 8d3d
00000370: e4ae ec3d caf1 f4bb cf1d 58bc 4b9e 77bd
00000380: 95fb 073e 7d46 ecbb d438 d6bd 990f 963c
00000390: 6634 acbd 25d3 dbbd 84cd 16be 569d 81bd
000003a0: 493c f2bd 57cf c0bd 9f7d d5bd dc29 813d
000003b0: 89ff ec3d 084c 813d 420a ba3d 981d ea3d
000003c0: f594 8bbe 5437 893d a1d4 9ebd ce54 5e3d
000003d0: 43ed a53d 0c9d d5bc d4dc bb3c ee1e 8a3d
000003e0: b071 7ebd 6eeb 4fbd a5a0 84bd a8ef 7bbd
000003f0: 3c30 033e 635c 78bd 72d6 d53d 65dd 8f3d

decoder.decoder.0.bias f4 [16]
-0.07282115 0.087055184 0.1053549 0.03983156 0.06532016 0.0946024 -0.048032712 -0.01975764
-0.021899173 0.09888072 -0.07358005 -0.0784304 0.050673053 0.06760243 0.037080653 0.11443702
00000000: 4123 95bd fd49 b23d 4fc4 d73d 6b26 233d
00000010: 93c6 853d e7be c13d f3bd 44bd c6da a1bc
00000020: e565 b3bc fa81 ca3d 23b1 96bd 1ea0 a0bd
00000030: 8c8e 4f3d 2573 8a3d e2e1 173d f55d ea3d

decoder.decoder.2.weight f4 [16, 1, 3, 3]
0.3552868 -0.18452753 0.29789984 0.18278725 -0.19995013 -0.02187606 -0.0595175 0.2522747
0.20367658 -0.05083007 0.06163564 0.20123774 0.11454149 -0.36986724 -0.39479387 0.042754386
-0.2322704 -0.19495244 -0.2810846 -0.0063754646 -0.18755536 -0.30472118 -0.37542868 -0.13914283
0.03250291 0.089577526 -0.36447483 -0.02647174 0.043943714 0.29993364 -0.05911327 -0.27545857
0.16554692 -0.007550204 -0.22245629 0.20056295 -0.24024762 -0.25973636 -0.36640453 0.07664611
-0.45220858 0.07841892 -0.18859181 -0.31267083 -0.085685015 -0.039114267 -0.06996156 -0.01103492
-0.14595692 -0.1734433 -0.08078875 -0.3170684 0.1308395 -0.2755097 -0.10299437 0.34292638
0.40882584 0.0026376792 -0.044362437 0.26120988 0.29339722 0.35965887 0.44928694 -0.37937978
0.05187665 0.023046926 0.22587468 0.34658614 0.35132954 0.12953995 0.2977594 -0.13635261
-0.06595833 0.09105942 -0.24260798 0.025338095 0.17200674 0.27828148 -0.2353117 0.088249795
0.20020102 -0.33588737 0.0059411847 -0.30782354 -0.008522202 0.012164769 -0.35985574 -0.08273262
-0.43175095 -0.3139323 0.18239512 -0.12860987 0.38343674 -0.17298768 0.2439863 0.00011762571
0.34799498 0.08582775 0.4824739 -0.3775952 0.18648213 -0.30146843 0.11445603 0.3961964
0.33457223 -0.19732133 -0.19260056 -0.049549222 0.19718736 0.1444135 0.3109548 -0.31764904
-0.29143986 0.30338177 0.067599446 0.25839052 -0.10373017 0.20662686 -0.3804574 0.28114656
0.09666276 0.108018704 -0.1337365 -0.29918537 -0.30253074 -0.33104688 -0.13323405 0.28501043
-0.26022506 -0.19600597 0.25705987 -0.26131275 0.018339418 0.11781965 0.067998745 0.13040872
-0.34483534 -0.20822504 -0.23888989 0.18844071 -0.16980788 -0.024565443 0.008039976 -0.2399605
00000000: 27e8 b53e c9f4 3cbe 5486 983e 952c 3b3e
00000010: babf 4cbe 6c35 b3bc 9fc8 73bd 262a 813e
00000020: 9890 503e 3133 50bd a775 7c3d 4411 4e3e
00000030: bb94 ea3d 3d5f bdbe 6c22 cabe 391f 2f3d
00000040: 4bd8 6dbe 9da1 47be 52ea 8fbe 46e9 d0bb
00000050: 830e 40be 6a04 9cbe 3038 c0be 757b 0ebe
00000060: c521 053d 6c74 b73d 729c babe 43db d8bc
00000070: 53fe 333d e790 993e c220 72bd e808 8dbe
00000080: 2285 293e b467 f7bb 95cb 63be 6060 4d3e
00000090: 7903 76be 2afc 84be 6099 bbbe a3f8 9c3d
000000a0: e287 e7be 199a a03d 361e 41be 6416 a0be
000000b0: a07b afbd 4836 20bd 0248 8fbd cfcb 34bc
000000c0: bb75 15be 1f9b 31be 9274 a5bd ca56 a2be
000000d0: cafa 053e 9b0f 8dbe b6ee d2bd 0c94 af3e
000000e0: 9f51 d13e eadc 2c3b 63b5 35bd 4dbd 853e
000000f0: 2938 963e 3525 b83e f008 e63e 113e c2be
00000100: 9c7c 543d e8cc bc3c b14b 673e bd73 b13e
00000110: 77e1 b33e 1fa6 043e ec73 983e 05a0 0bbe
00000120: 2915 87bd 5c7d ba3d 3a6e 78be d691 cf3c
00000130: 8922 303e e97a 8e3e 8df5 70be 4fbc b43d
00000140: 7f01 4d3e 6ef9 abbe 45ae c23b 0c9b 9dbe
00000150: b5a0 0bbc bd4e 473c 033f b8be b86f a9bd
00000160: 760e ddbe bcbb a0be c9c5 3a3e 4eb2 03be
00000170: d251 c43e af23 31be 8bd7 793e d2ad f638
00000180: 662c b23e 76c6 af3d d206 f73e 2854 c1be
00000190: 2cf5 3e3e 125a 9abe ec67 ea3d 41da ca3e
000001a0: 0d4d ab3e 9a0e 4abe 1539 45be 20f4 4abd
000001b0: 7ceb 493e 22e1 133e 7835 9f3e e5a2 a2be
000001c0: 9b37 95be db54 9b3e 9471 8a3d c34b 843e
000001d0: 7c70 d4bd fe95 533e 50cb c2be 71f2 8f3e
000001e0: 20f7 c53d e938 dd3d 39f2 08be d32e 99be
000001f0: 4fe5 9abe fa7e a9be 826e 08be e3ec 913e
00000200: 383c 85be cab5 48be 5a9d 833e c9ca 85be
00000210: 8c3c 963c 6e4b f13d ed42 8b3d dd89 053e
00000220: 428e b0be f238 55be 8d9f 74be 9af6 403e
00000230: 1ee2 2dbe 783d c9bc 1aba 033c 35b8 75be
