500_ML/models/weights_1999_10-04_04:16.pt (torch_old, 39980 bytes, 7 tensors)

encoder.encoder.0.weight f4 [16, 1, 3, 3]
0	0xbdd184ec	-0.10230431
1	0x3d9b310e	0.07577716
2	0xbe34044b	-0.17579763
3	0x3eaecb03	0.3413926
4	0x3ea21856	0.31659192
5	0x3ec55bbe	0.38546556
6	0x3ecc3e0d	0.3989109
7	0x3dfaed11	0.12252248
8	0x3eb2569f	0.34831712
9	0x3e48b4ea	0.19600263
10	0xbdb8aaa8	-0.09016925
11	0xbe3a2e11	-0.18181635
12	0x3eddcd82	0.43320853
13	0x3edda5f5	0.43290678
14	0xbd7f1d1b	-0.062283617
15	0x3e5c964a	0.21541706
16	0x3e8afaed	0.27144566
17	0x3ce89eba	0.028396
18	0x3e43a2a7	0.19105016
19	0x3e2a1253	0.16608553
20	0xbd179e7e	-0.037016384
21	0x3ed39913	0.41327724
22	0x3e1fa3d3	0.15589838
23	0x3e8b40ce	0.2719788
24	0x3e7daa76	0.24772057
25	0x3d4aaaa0	0.049479127
26	0x3e797409	0.2436067
27	0xbe8a815a	-0.27051812
28	0x3e859fa9	0.26098374
29	0xbe43695e	-0.19083163
30	0xbc70a8e0	-0.0146887
31	0xbc8ac550	-0.016939789
32	0xbe842b70	-0.2581439
33	0x3e5a92b2	0.21345022
34	0xbe043938	-0.12912452
35	0xbe5ce52b	-0.21571796
36	0x3e6a4d36	0.22881016
37	0xbd7a84b6	-0.06116172
38	0xbcc476c1	-0.023982408
39	0x3e9b8153	0.30372104
40	0xbc81d4d8	-0.015848562
41	0x3cd65090	0.026161462
42	0x3df52c62	0.11971356
43	0xbd59a944	-0.05313994
44	0xbd9bd1b6	-0.076083586
45	0xbe48e902	-0.19620135
46	0x3d7de9f3	0.06199069
47	0x3e6836cc	0.22677153
48	0xbdb552eb	-0.08853706
49	0x3ece8759	0.40337637
50	0x3eb3138a	0.34975845
51	0x3e843ba3	0.2582675
52	0x3e9e86ec	0.30962312
53	0x3ea3b334	0.3197266
54	0x3df3e66e	0.11909185
55	0xbdaf796b	-0.085680805
56	0x3e8eee90	0.27916384
57	0xbd7b145d	-0.061298717
58	0xbcc48de2	-0.023993436
59	0xbe7a92ef	-0.24470113
60	0x3e9ecda2	0.3101626
61	0xbe09fdc3	-0.13475709
62	0xbe4c345a	-0.19941846
63	0xbdb15470	-0.08658683
64	0xbb815900	-0.003947377
65	0x3e3346ba	0.17507449
66	0xbd86a68c	-0.06574735
67	0xbe47343e	-0.19453523
68	0xbe1c3b90	-0.15257096
69	0xbd5c1e08	-0.053739578
70	0xbea6537e	-0.32485574
71	0x3e686432	0.22694471
72	0xbe63da60	-0.22251272
73	0xbe21e275	-0.15809043
74	0x3e24b768	0.16085589
75	0x3cd0ba1a	0.025479365
76	0x3b9b888f	0.0047465037
77	0x3db193f3	0.08670797
78	0x3e405edb	0.18786184
79	0x3e7390eb	0.2378575
80	0x3e63eee4	0.22259098
81	0x3ddf180c	0.108932585
82	0xbe8f82a2	-0.28029352
83	0xbc1c3980	-0.009535193
84	0xbe2ff5e3	-0.17183642
85	0x3d7cb180	0.061692715
86	0xbdc20a8c	-0.09474668
87	0xbdd98cd6	-0.106225654
88	0xbe9f6dcc	-0.31138456
89	0x3e9de991	0.3084226
90	0x3eb96c8e	0.36215633
91	0x3e3b4136	0.18286595
92	0xbe42784a	-0.18991199
93	0xbb95039a	-0.0045475485
94	0x3e97463f	0.2954578
95	0xbc3ffa69	-0.011717417
96	0xbdbeda9b	-0.093190394
97	0x3e8eb84f	0.2787499
98	0xbe5f1c31	-0.21788098
99	0x3c6235cc	0.0138067715
100	0xbe01ccdf	-0.12675808
101	0x3e9734d4	0.29532492
102	0xbe4d21b0	-0.20032382
103	0xbbb10053	-0.00540165
104	0xbbac8236	-0.005264546
105	0x3d879846	0.06620841
106	0x3e931693	0.2872816
107	0x3d84ddb9	0.06487603
108	0xbe53937f	-0.20661734
109	0xbe03467a	-0.12819853
110	0x3e3df4b0	0.18550372
111	0xbe5b2417	-0.21400486
112	0x3c4186f6	0.011811962
113	0x3eb5cc1a	0.3550728
114	0x3ebcc1ff	0.36866757
115	0x3e406848	0.1878978
116	0x3e961d33	0.29319152
117	0x3d3271c0	0.04356551
118	0x3d929910	0.071581006
119	0xbe8a2e58	-0.26988482
120	0xbd229df8	-0.039701432
121	0x3dd5c420	0.104377985
122	0xbe86fe6c	-0.26365983
123	0x3e28d0ea	0.16485944
124	0x3d2eb788	0.042655498
125	0xbe23bdd0	-0.15990376
126	0xbdc29610	-0.095012784
127	0xbda0aef4	-0.0784587
128	0x3e45a936	0.1930283
129	0xbe81f1fb	-0.2537993
130	0x3dbbcb74	0.09169665
131	0xbe6b4d58	-0.22978723
132	0x3de24370	0.11048019
133	0x3d1b4888	0.037910968
134	0xbe91a10f	-0.2844319
135	0x3e997fb3	0.2998024
136	0x3ea34fdf	0.31896874
137	0x3c662493	0.014046806
138	0xbe231120	-0.15924501
139	0x3e99d441	0.3004475
140	0xbca4c8cc	-0.020115279
141	0x3e494a2c	0.196572
142	0xbbb00c83	-0.0053725853
143	0x3e7f9951	0.2496083

encoder.encoder.0.bias f4 [16]
0	0x3ead5d97	0.33860466
1	0xbbc84d52	-0.006112733
2	0xbc5056c0	-0.012715995
3	0xbe825eca	-0.25462943
4	0x3e7661e1	0.24060775
5	0xbcb59495	-0.022165576
6	0xbe3daa6c	-0.18522042
7	0xbe7f028e	-0.24903318
8	0x3e6fa084	0.23401076
9	0xbe3ca16b	-0.18420951
10	0x3de85a29	0.11345322
11	0x3e332328	0.1749388
12	0x3e4a1398	0.19734037
13	0xbe42da5b	-0.19028609
14	0xbe7b9870	-0.24569869
15	0xbdc9efe0	-0.09860206

encoder.encoder.2.weight f4 [32, 16, 3, 3]
0	0x3e0feeff	0.14056014
1	0x3e1d2371	0.15345551
2	0x3e138e46	0.14409742
3	0x3d6d1268	0.05787888
4	0x3d17eff0	0.037094057
5	0x3e13acac	0.14421338
6	0x3dbc20b3	0.091859244
7	0x3d360a41	0.044443373
8	0x3e201a02	0.15634921
9	0xbdd04f36	-0.10171358
10	0xbd844c14	-0.06459823
11	0xbdd5c871	-0.10438622
12	0xbd81d78f	-0.06339943
13	0xbdcdb6a4	-0.100446016
14	0xbe045921	-0.12924625
15	0xbd616864	-0.055031195
16	0xbdba3c26	-0.09093504
17	0xbe202b6f	-0.15641569
18	0xbcd15d70	-0.02555725
19	0xbd363599	-0.04448471
20	0xbe02993f	-0.12753771
21	0xbc59e2c4	-0.013298694
22	0xbbe1b127	-0.0068875733
23	0xbce1a2f0	-0.027543515
24	0xbdb4e2aa	-0.08832295
25	0xbd49c097	-0.049255934
26	0xbe0ce1f5	-0.13758071
27	0xbce390fc	-0.027779095
28	0x3cbe5510	0.02323392
29	0xbcb7a38c	-0.022416852
30	0xbda9260a	-0.082592085
31	0x3c945c7c	0.018110506
32	0x3d941599	0.07230682
33	0xbcba0f50	-0.02271238
34	0x3d026d00	0.03184223
35	0xbd741313	-0.059588503
36	0x3dd652f8	0.10465044
37	0x3ddc7c58	0.10765904
38	0x3d344cba	0.044018485
39	0x3d7d5cbc	0.061856017
40	0x3d8798a7	0.06620913
41	0x3e0d1f08	0.13781369
42	0x3dc600b0	0.096681
43	0x3d6f013d	0.05835079
44	0x3d8aefdb	0.0678403
45	0xbdf6db89	-0.12053592
46	0xbd313710	-0.043265402
47	0xbcb3d709	-0.021953123
48	0x3b47f665	0.0030511853
49	0xbd111831	-0.03542346
50	0xbde8be45	-0.11364416
51	0xbd290b22	-0.041270383
52	0xbe118481	-0.14210702
53	0xbe1e3a48	-0.1545192
54	0xbdb5ed05	-0.088830985
55	0xbd9c0fc9	-0.07620198
56	0xbda39ce6	-0.079889104
57	0x3d888a19	0.06666965
58	0xbcc59081	-0.024116756
59	0xbc8dc2f5	-0.017304877
60	0x3b9a70c0	0.004713148
61	0xbce6215d	-0.02809208
62	0xbc0a7afb	-0.008452172
63	0x3cf511bc	0.029915683
64	0x3cbd6a64	0.02312202
65	0xbd8e12a4	-0.06937149
66	0x3bb34890	0.0054712966
67	0x3d1c0048	0.038086206
68	0x3d56e2aa	0.052462257
69	0xbd859556	-0.06522624
70	0xbd995b8b	-0.074881636
71	0xbcadf300	-0.021234035
72	0x3e06cefa	0.13164893
73	0x3de09a2d	0.10966907
74	0x3dcfdb8b	0.101492964
75	0x3dd1fb3d	0.10252998
76	0x3e2f17b2	0.17098883
77	0x3d9cf9a1	0.076648004
78	0x3c9c60ce	0.019089129
79	0x3c809276	0.015694838
80	0x3dd05058	0.10171574
81	0xbd0c1f7b	-0.03420971
82	0x3d1201b6	0.035646163
83	0xbd99ed9f	-0.07516026
84	0xbcf9ece6	-0.03050847
85	0xbd569d2b	-0.05239598
86	0xbd80273a	-0.06257482
87	0xbd30df46	-0.04318168
88	0x3cf08ae0	0.029363096
89	0x3bc10b80	0.0058912635
90	0x3e392369	0.18079914
91	0x3d67d3c5	0.056598444
92	0x3e02e6ae	0.1278331
93	0x3d5f7105	0.054551143
94	0x3dd8f744	0.10594037
95	0x3ddfc4b6	0.109261915
96	0x3df62c8f	0.120202176
97	0x3e29d023	0.16583304
98	0x3db34581	0.08753491
99	0x3cf8d8b6	0.030376773
100	0x3e1a8172	0.15088442
101	0x3d575845	0.052574415
102	0x3c9f479f	0.019443331
103	0x3d1d169c	0.03835164
104	0x3e2c092b	0.16800372
105	0x3d77522e	0.060381107
106	0x3cfe46fa	0.031039704
107	0x3c80be6e	0.015715804
108	0x3e05acc2	0.13054183
109	0x3e239aee	0.1597707
110	0x3e12e432	0.14344862
111	0x3e15d3fe	0.1463165
112	0x3d96c805	0.073623694
113	0x3e2a32d2	0.16620949
114	0x3e0b55cc	0.13606948
115	0x3d8a7851	0.0676123
116	0x3d9cc126	0.07654028
117	0x3c93c624	0.018038817
118	0xbd0b6068	-0.034027487
119	0x3d2830e2	0.041062243
120	0xbc95e5ac	-0.018297993
121	0x3d2646b0	0.040594757
122	0x3b1f1800	0.002427578
123	0x3ce8dba4	0.028425045
124	0xb9de6f00	-0.0004242584
125	0xba851b40	-0.0010155216
126	0x3d8a1653	0.06742539
127	0xbda9b403	-0.08286288
128	0x3ce4d844	0.027935155
129	0xbd570778	-0.052497357
130	0xbd809736	-0.06278841
131	0x3c4cebd8	0.012507401
132	0x3d35528e	0.044268183
133	0xbc126000	-0.008934021
134	0x3da15541	0.07877589
135	0xbd46a0b6	-0.04849311
136	0xbd78adef	-0.06071275
137	0xbe1d7489	-0.15376486
138	0x3c4c7f07	0.012481458
139	0xbe1180e0	-0.14209318
140	0xbd1b822f	-0.03796595
141	0xbdd041ff	-0.10168838
142	0xbd877127	-0.06613379
143	0xbe0cc895	-0.13748391
144	0xbc01ba0c	-0.007917892
145	0xbba5734c	-0.005049145
146	0x3ddbbef4	0.10729781
147	0xbbcd22e3	-0.0062602623
148	0xbcdb3783	-0.026759868
149	0xbc8a3ec0	-0.016875625
150	0x3d96eff9	0.0736999
151	0x3d807dbc	0.06273982
152	0x3dd0b570	0.101908565
153	0x3c71d762	0.014760824
154	0x3d9ed92c	0.07756266
155	0xbc4de953	-0.012567836
156	0x3d59f0c3	0.053208124
157	0x3da5cb0e	0.0809537
158	0x3d588922	0.052865155
159	0x3e1378eb	0.14401595
160	0x3e03351d	0.1281323
161	0x3e203f37	0.15649115
162	0x3c45569b	0.012044574
163	0x3e09051d	0.13380857
164	0x3de202cd	0.110356905
165	0x3d58ba2e	0.05291193
166	0x3d1caa32	0.03824825
167	0x3e192330	0.14954829
168	0x3b784bf9	0.003788708
169	0x3cec75b2	0.028864715
170	0x3d677d1a	0.05651579
171	0x3c853894	0.01626233
172	0x3d1b600e	0.0379334
173	0x3bd4e510	0.006497033
174	0xbda574da	-0.08078928
175	0xbd9b231c	-0.07575056
176	0x3d7e767a	0.062124707
177	0x3d5c6bca	0.053813733
178	0x3d3b2236	0.045686923
179	0x3d0534d8	0.0325211
180	0xbc922ebe	-0.017844554
181	0xbd9989df	-0.07497
182	0x3c9778d9	0.018490242
183	0x3d72eaca	0.059305944
184	0x3d827cf6	0.06371491
185	0xbd69a16b	-0.057038706
186	0x3cfb45f5	0.030673007
187	0xbcd689bc	-0.026188724
188	0xbcd31e4d	-0.025771284
189	0x3d0c6e2e	0.034284763
190	0x3e029a5e	0.12754199
191	0x3de907b1	0.1137842
192	0x3dabc546	0.08387236
193	0x3e18ca2d	0.14920874
194	0x3d447f0f	0.047972735
195	0x3c9811b9	0.018563138
196	0x3d9e38a3	0.07725646
197	0x3dd4cc9a	0.10390587
198	0xbd5eadf3	-0.05436511
199	0x3c5d0d60	0.013491958
200	0xbd0fca50	-0.03510505
201	0x3c0d2720	0.008615285
202	0xbc94d170	-0.018166274
203	0xbb4bc498	-0.003109252
204	0xbda1d61f	-0.079021685
205	0xbd88de82	-0.06683065
206	0x3d17ea49	0.037088666
207	0x3d11dec8	0.03561285
208	0x3c7f5780	0.0155848265
209	0xbd9f74c7	-0.077859454
210	0xbd045716	-0.032309614
211	0x3cf6c320	0.03012234
212	0x3ba0e7c0	0.0049104393
213	0x3cf94acc	0.030431174
214	0x3d50d4f2	0.05098433
215	0xbc85127c	-0.016244166
216	0xbc0cee9b	-0.00860181
217	0x3d512c43	0.051067602
218	0x3d0b98dd	0.03408133
219	0xbd8f8833	-0.070084
220	0x3ccdc301	0.0251174
221	0xbce15a36	-0.027508836
222	0x3cd33e0a	0.025786418
223	0xbc81b088	-0.015831247
224	0x3cebbf0a	0.028777618
225	0xbd0ec968	-0.034860045
226	0x3d2b253a	0.04178355
227	0xbd2ef403	-0.042713176
228	0xbaf7fd00	-0.0018920004
229	0xbd2ce720	-0.042212605
230	0x3b663ca0	0.003513135
231	0xba34e180	-0.0006900057
232	0xbd2a8c53	-0.04163773
233	0xbd8ff6e4	-0.070295125
234	0xbca1a97c	-0.019734137
235	0x3ce1f19b	0.027581027
236	0x3d710d76	0.058850728
237	0x3c7fef6e	0.015621049
238	0x3d5fb9b5	0.054620463
239	0xbcc2f3f8	-0.023797974
240	0x3ddb6573	0.10712709
241	0xbd2f46b6	-0.042792045
242	0xbcc907ed	-0.024539912
243	0x3d1adb0c	0.037806556
244	0x3d991d51	0.07476295
245	0xbcebb267	-0.028771592
246	0xbd12c51a	-0.035832502
247	0xbd34155c	-0.043965682
248	0xbd44b32e	-0.04802244
249	0x3d85a129	0.065248795
250	0xbd034737	-0.032050338
251	0x3d17bdfd	0.03704642
252	0xbc1c55be	-0.009541927
253	0x3ceee3a2	0.029161278
254	0x3d130aaa	0.035898842
255	0x3baeb343	0.0053314283

encoder.encoder.2.bias f4 [32]
0	0x3d109f5b	0.035308223
1	0xbce1357c	-0.027491324
2	0x3e0cb435	0.13740619
3	0x3df7d886	0.121018454
4	0x3e0c256e	0.13686153
5	0xbd42a739	-0.047522757
6	0x3e0c89ee	0.13724491
7	0x3e1dbee0	0.15404844
8	0xbc16ada0	-0.009196669
9	0x3db12755	0.0865008
10	0xbcf52b20	-0.02992779
11	0x3e22c59e	0.15895697
12	0x3e2d8a19	0.16947211
13	0xbee6bf33	-0.45067748
14	0x3db2a8ac	0.08723578
15	0xbdbec9e5	-0.09315852
16	0xbd862ba4	-0.065512925
17	0x3cd302c2	0.025758151
18	0xbdb59131	-0.08865584
19	0x3ddaaf45	0.10677961
20	0x3c321918	0.010870241
21	0xbd76506d	-0.060135294
22	0xbd2ca59f	-0.042150136
23	0xbd2758c5	-0.04085614
24	0x3da033cd	0.0782238
25	0x3da50f0a	0.08059509
26	0xbd028680	-0.03186655
27	0x3ef0ce2b	0.47032294
28	0x3dc6ea66	0.09712677
29	0x3cdab022	0.026695315
30	0x3e0ad77a	0.1355876
31	0x3e1cbf75	0.1530741

decoder.decoder.0.weight f4 [32, 16, 3, 3]
0	0x3d9dfb5f	0.07713961
1	0x3cbc0743	0.022952681
2	0x3a99f4dd	0.0011745949
3	0x3b33e886	0.0027451827
4	0x3d1ed369	0.038775835
5	0x3d8bd159	0.06827039
6	0xbc3312f4	-0.010929812
7	0x3cd3ba31	0.025845619
8	0x3ca93b71	0.020658227
9	0x3d9fadb9	0.07796807
10	0x3d6afd25	0.057370324
11	0x3e0799fd	0.13242336
12	0x3d099f94	0.03359945
13	0x3e2940f8	0.1652869
14	0x3e2307c5	0.15920933
15	0x3d71c5e3	0.05902661
16	0x3e36c342	0.17847922
17	0x3e0d1ac5	0.13779743
18	0x3e00eede	0.1259112
19	0x3e12edb1	0.14348485
20	0x3e1149f4	0.14188367
21	0x3df514a6	0.11966829
22	0x3d8f5fa0	0.07000661
23	0x3e280efa	0.16411963
24	0x3da40559	0.080088325
25	0x3d6fad40	0.058514833
26	0x3db4d4ff	0.08829688
27	0x3c60582d	0.013692898
28	0xbd821af4	-0.06352797
29	0x3cb8bca8	0.022550896
30	0xbda0523d	-0.07828186
31	0xbd79e21e	-0.061006658
32	0xbcc458e5	-0.02396817
33	0xbdae982a	-0.08525117
34	0xbd8dd905	-0.06926159
35	0xbdd6041c	-0.104500026
36	0x3e06ddf0	0.131706
37	0x3d516a82	0.051126964
38	0x3e09798e	0.13425276
39	0x3e1db0c7	0.15399466
40	0x3e41fe6e	0.18944713
41	0x3ce5a7e4	0.028034158
42	0x3d7de06b	0.0619816
43	0x3d913354	0.07089868
44	0x3d8daba9	0.06917507
45	0x3cbaa204	0.022782333
46	0x3c3b6d32	0.011439608
47	0x3c83d4e4	0.016092725
48	0x3dcfbf10	0.10143864
49	0x3dfdb62e	0.12388264
50	0x3e177daa	0.14794031
51	0x3d733b08	0.05938247
52	0x3e0232c3	0.12714677
53	0x3ce61529	0.028086262
54	0x3d93d260	0.0721786
55	0x3ce62b3c	0.028096788
56	0xbda5eeb0	-0.08102167
57	0xbce52d12	-0.027975593
58	0x3ae4c667	0.0017454148
59	0xbd36fdbf	-0.044675585
60	0xbc9479ea	-0.01812454
61	0xbd8a12c8	-0.067418635
62	0x3baeb7ec	0.005331984
63	0x3db77871	0.08958519
64	0x3ccb4a2d	0.024815643
65	0x3db75d68	0.08953363
66	0x3c78293e	0.015146552
67	0x3d678e71	0.056532327
68	0x3cae7f95	0.02130107
69	0x3d4bb1de	0.049730174
70	0xbc2982a7	-0.010346091
71	0x3cbf430f	0.023347406
72	0xbd250794	-0.04029043
73	0x3bf3d151	0.007440724
74	0x3d802b6c	0.06258282
75	0xbb81050b	-0.0039373687
76	0x3d1d6e10	0.038435042
77	0x3c342094	0.010994095
78	0xbbea1be5	-0.0071444386
79	0x3d817368	0.0632084
80	0xbd98efc9	-0.074676104
81	0x3e0733f5	0.13203414
82	0xbb99fcf6	-0.0046993447
83	0xbc99bc64	-0.01876659
84	0xbbb5b5bf	-0.0055453475
85	0x3c960d99	0.01831703
86	0x3d306dfc	0.04307364
87	0x3e0f1084	0.13971144
88	0x3dd2a8e1	0.10286117
89	0x3dcc6b57	0.09981411
90	0x3d951ef7	0.07281297
91	0x3d632bd4	0.05546172
92	0x3dd216d3	0.102582596
93	0xbd801d01	-0.06255532
94	0x3d1f3303	0.038867008
95	0x3d713db5	0.05889674
96	0x3dc54e2d	0.096340515
97	0xbd9aa47b	-0.075509034
98	0x3dc08ed8	0.09402245
99	0x3c952b01	0.018208982
100	0xbbff0180	-0.0077821612
101	0x3d3808a9	0.044930134
102	0xbd4ea00b	-0.050445598
103	0xbd319eff	-0.04336452
104	0x3d831019	0.06399555
105	0x3d26ff78	0.040770978
106	0x3c8169f0	0.015797585
107	0xbce25bb2	-0.027631614
108	0xbda5afd4	-0.08090177
109	0x3c17ae43	0.009257856
110	0xbd5da6c5	-0.054114122
111	0x3d552387	0.052035835
112	0xbd95b628	-0.07310134
113	0xbb79855c	-0.0038073873
114	0xbb6b3a89	-0.0035893044
115	0xbcde8dd3	-0.027167236
116	0xbd653130	-0.055955112
117	0x3dd8d5bc	0.105876416
118	0x3de031bb	0.10946985
119	0xbd13a325	-0.03604426
120	0x3cee7ab4	0.029111244
121	0x3d261452	0.040546723
122	0xbd62c425	-0.05536284
123	0x3d8f0c32	0.06984748
124	0x3de90b59	0.113791175
125	0x3c8ddc88	0.017317072
126	0x3d696361	0.05697954
127	0xbd80572a	-0.06266625
128	0x3d234e46	0.03986957
129	0x3b9f099c	0.0048534404
130	0xbd83fab2	-0.06444301
131	0x3c43791c	0.01193073
132	0xbc64dacb	-0.01396818
133	0x3d2adc60	0.041714072
134	0xbda9ff6f	-0.08300673
135	0x3cfd475d	0.030917818
136	0xbcf0d7e5	-0.029399822
137	0xbafdad60	-0.0019354038
138	0x3e214f4f	0.1575291
139	0x3d5d9223	0.054094445
140	0x3c8456cb	0.016154667
141	0x3e09d8b7	0.13461576
142	0x3db51c6a	0.0884331
143	0x3c07d066	0.008289432
144	0x3daa2d98	0.083094776
145	0x3d9c86f0	0.07642925
146	0x3c519458	0.012791716
147	0x3dda494d	0.10658512
148	0xbcb51c4e	-0.022108223
149	0x3d71e343	0.059054624
150	0x3dbdf422	0.0927508
151	0x3c5e3492	0.013562338
152	0xbbb8316e	-0.005621127
153	0xbe0859d4	-0.13315517
154	0xbd038c1c	-0.03211604
155	0xbe1108d9	-0.14163531
156	0xbe8abafa	-0.27095777
157	0xbdedeec1	-0.11617804
158	0xbe98b377	-0.2982442
159	0xbde755ef	-0.112956874
160	0xbd785b2a	-0.060633816
161	0xbd1b3bce	-0.03789883
162	0xbb654095	-0.003498112
163	0xbe1f224c	-0.15540427
164	0xbdc08b0d	-0.09401522
165	0xbdbd2089	-0.09234721
166	0xbd08d5df	-0.03340709
167	0xbd214941	-0.0393765
168	0xbdb7faf1	-0.0898341
169	0xbd2e501e	-0.042556874
170	0xbe027bac	-0.1274249
171	0x3d074db8	0.033033103
172	0x3c5b69b0	0.013391897
173	0xbd80a737	-0.06281894
174	0x3d468158	0.048463196
175	0xbc1d8ae0	-0.00961563
176	0xbd4beb98	-0.049785227
177	0xbd2a1610	-0.041524947
178	0xbd694294	-0.05694826
179	0xbd7572e8	-0.059924036
180	0xbe60df37	-0.2196015
181	0xbe3307a5	-0.17483385
182	0xbd94799e	-0.07249759
183	0xbdc2869c	-0.09498331
184	0xbe7918f4	-0.24325925
185	0xbe18db2b	-0.14927356
186	0xbeaa4675	-0.3325688
187	0xbd5b59fe	-0.05355262
188	0xbe70d1c0	-0.23517513
189	0xbbfc7e8d	-0.0077055157
190	0xbdf9bb0c	-0.121938795
191	0xbcf6d4ae	-0.03013071
192	0xbe244398	-0.1604141
193	0xbd86ef75	-0.065886416
194	0xbe3ce934	-0.18448335
195	0xbd7be5d3	-0.061498474
196	0xbd82a729	-0.063795395
197	0xbd5037f2	-0.050834604
198	0xbd5040d4	-0.050843075
199	0x3dae39b4	0.085071
200	0x3cd50b45	0.02600635
201	0x3d954d5c	0.07290146
202	0x3bb1596c	0.0054122712
203	0x3e24fdb3	0.16112404
204	0xbc272e60	-0.010203928
205	0x3de4a491	0.11164201
206	0x3d9a8318	0.075445354
207	0x3d72c28b	0.059267562
208	0x3d11608f	0.035492476
209	0xbc29a8f9	-0.010355228
210	0x3e0d6850	0.13809323
211	0x3de7a20b	0.11310204
212	0x3df79c92	0.1209041
213	0x3cf007af	0.029300539
214	0x3dff4659	0.124645896
215	0x3e2d4f42	0.16924766
216	0x3d6e9540	0.058247805
217	0xbc797a14	-0.01522686
218	0x3db77432	0.08957709
219	0x3d8e117c	0.06936929
220	0x3de9881d	0.11402915
221	0xbbfe83f7	-0.0077671963
222	0xbc519bcb	-0.012793492
223	0xbd6ba1a5	-0.057527203
224	0x3e0596bb	0.1304578
225	0x3ca12433	0.019670581
226	0xbdb740ea	-0.08947928
227	0x3c4b14a6	0.01239506
228	0xbdaf96b1	-0.08573664
229	0xbdc69f1d	-0.09698317
230	0xbe1aa4d4	-0.1510194
231	0xbd8affa5	-0.067870416
232	0xbdd14ec1	-0.10220099
233	0xbdc45ceb	-0.09588035
234	0xbdcb5671	-0.09928597
235	0x3d84daa5	0.06487016
236	0x3de774b6	0.11301558
237	0x3d833ff6	0.06408684
238	0x3db93922	0.090441
239	0x3deb65ed	0.1149405
240	0xbe5c4e4e	-0.21514246
241	0x3d88fc3c	0.06688735
242	0xbcbc56ab	-0.022990545
243	0x3d5e54ce	0.054280095
244	0x3da5ed43	0.08101895
245	0xbcd59d0c	-0.026075862
246	0x3cbbdcd4	0.022932447
247	0x3d8ae13f	0.067812435
248	0xbd7e71b0	-0.06212014
249	0xbd4feb6e	-0.050761633
250	0xbd84a0a5	-0.06475953
251	0xbd7befa8	-0.06150785
252	0x3e0772c5	0.13227375
253	0xbd785c63	-0.06063498
254	0x3ddba9de	0.10725759
255	0x3d8fdd65	0.070246495

decoder.decoder.0.bias f4 [16]
0	0xbd94cf51	-0.07266105
1	0x3db1f3e0	0.086890936
2	0x3dd7b13e	0.10531853
3	0x3d23262b	0.03983132
4	0x3d85a486	0.06525521
5	0x3dc1c0f8	0.09460634
6	0xbd44b5b3	-0.048024844
7	0xbca23e53	-0.01980511
8	0xbcb754bd	-0.022379274
9	0x3dca765a	0.09885855
10	0xbd9677a5	-0.07347039
11	0xbda0bd8d	-0.07848654
12	0x3d4f8e8c	0.050673053
13	0x3d8a66f8	0.06757921
14	0x3d17f96d	0.037103105
15	0x3dea594e	0.11442815

decoder.decoder.2.weight f4 [16, 1, 3, 3]
0	0x3eb8043e	0.35940737
1	0xbe3c1506	-0.18367395
2	0x3e985ec4	0.297598
3	0x3e3bef70	0.18353057
4	0xbe4854e4	-0.19563633
5	0xbc568bca	-0.013094852
6	0xbd93b7b1	-0.07212771
7	0x3e81d053	0.2535425
8	0x3e4ce10a	0.2000772
9	0xbd539b0b	-0.051661532
10	0x3d7d3f2a	0.061827816
11	0x3e4d0919	0.20023002
12	0x3deb1335	0.11478273
13	0xbebcf38e	-0.36904567
14	0xbeca0ac2	-0.39461333
15	0x3d25f302	0.040514953
16	0xbe6ca602	-0.23110202
17	0xbe491774	-0.19637853
18	0xbe90597c	-0.2819327
19	0xbbce1356	-0.006288926
20	0xbe4095e3	-0.18807177
21	0xbe9be9da	-0.30451852
22	0xbebfe26c	-0.37477434
23	0xbe0e4e9a	-0.13897172
24	0x3cfb8311	0.030702146
25	0x3db92572	0.09040345
26	0xbebac73f	-0.36480138
27	0xbcd8099d	-0.026371771
28	0x3d346d64	0.044049636
29	0x3e99ab92	0.3001371
30	0xbd730a3c	-0.059335932
31	0xbe8cd183	-0.27503595
32	0x3e29bd62	0.1657615
33	0xbbe9c162	-0.0071336487
34	0xbe63ceb3	-0.22246818
35	0x3e4d9ab6	0.20078549
36	0xbe7675a1	-0.2406831
37	0xbe84dc15	-0.2594916
38	0xbebc092d	-0.3672575
39	0x3d9d6a01	0.07686234
40	0xbee72182	-0.45142752
41	0x3da12601	0.07868577
42	0xbe42c355	-0.19019826
43	0xbe9f8f5b	-0.3116406
44	0xbdb2056c	-0.086924404
45	0xbd1ef928	-0.038811833
46	0xbd8f5617	-0.06998842
47	0xbc3660a1	-0.011131437
48	0xbe1546fa	-0.14577857
49	0xbe314171	-0.1731012
50	0xbda4bac9	-0.08043439
51	0xbea29f7a	-0.31762296
52	0x3e066066	0.1312271
53	0xbe8d2866	-0.27569884
54	0xbdd3c9a6	-0.10341196
55	0x3eb0151a	0.343911
56	0x3ed5a827	0.41729853
57	0x3a2b7ec1	0.000654202
58	0xbd34b8f9	-0.044121716
59	0x3e85c6a1	0.26128104
60	0x3e9c4185	0.30518737
61	0x3eb753fd	0.35806265
62	0x3ee3567b	0.44401917
63	0xbec42282	-0.38307577
64	0x3d5610b7	0.052262034
65	0x3cdbb709	0.026820676
66	0x3e63b9e3	0.22238879
67	0x3eb03d1e	0.3442163
68	0x3eb35a58	0.35029864
69	0x3e0ab9d8	0.13547456
70	0x3e94d638	0.29069686
71	0xbe0a20d8	-0.13489091
72	0xbd4e1e41	-0.05032182
73	0x3dc7370f	0.097272985
74	0xbe797d42	-0.24364188
75	0x3cc5a6d0	0.024127394
76	0x3e2badba	0.1676549
77	0x3e901be4	0.2814628
78	0xbe6a223f	-0.22864626
79	0x3d9c4970	0.076311946
80	0x3e49fc3e	0.19725129
81	0xbeac67b0	-0.33672857
82	0x3bc851fc	0.006113289
83	0xbe9dc757	-0.30816147
84	0xbc07d35b	-0.008290137
85	0x3c53ce2d	0.012927574
86	0xbeb821ec	-0.3596338
87	0xbdacfae6	-0.084462926
88	0xbedca1b3	-0.43092117
89	0xbea0b094	-0.31384718
90	0x3e3f4fb5	0.1868275
91	0xbe011d01	-0.1260872
92	0x3ec21814	0.37908995
93	0xbe2ffc48	-0.17186081
94	0x3e7fa499	0.24965133
95	0x3b9045ea	0.0044028657
96	0x3eb027d5	0.3440539
97	0x3dbb9833	0.09159889
98	0x3ef0d5af	0.47038028
99	0xbe9bbe6a	-0.30418712
100	0x3dfac818	0.12245196
101	0xbe9a44b4	-0.3013054
102	0x3e276a45	0.16349132
103	0x3ecd280a	0.4006961
104	0x3eb14aca	0.34627372
105	0xbe2acbd9	-0.16679324
106	0xbe450a31	-0.19242169
107	0x3d3c58a0	0.045982957
108	0x3e49e986	0.19717988
109	0x3e13e122	0.1444135
110	0x3e9f3578	0.3109548
111	0xbea2a2e5	-0.31764904
112	0xbe953898	-0.2914474
113	0x3e9b54db	0.30338177
114	0x3d8a7194	0.067599446
115	0x3e844bc3	0.25839052
116	0xbdd4707c	-0.10373017
117	0x3e523559	0.20528163
118	0xbec2abc7	-0.3802168
119	0x3e8f94b7	0.28043148
120	0x3dc6582d	0.09684787
121	0x3dde6cf7	0.10860627
122	0xbe090228	-0.13379729
123	0xbe99cec7	-0.3004057
124	0xbe9a6d49	-0.30161503
125	0xbea9b886	-0.33148593
126	0xbe0713ba	-0.13191119
127	0x3e922bfa	0.28549176
128	0xbe854ecc	-0.2603668
129	0xbe48ebfd	-0.19621272
130	0x3e83a7b7	0.25713894
131	0xbe850700	-0.25981903
132	0x3c8d1f65	0.017226884
133	0x3def74f8	0.11692232
134	0x3d8bbb79	0.06822867
135	0x3e05a3db	0.13050787
136	0xbeb08bfd	-0.34481803
137	0xbe551d3b	-0.20811932
138	0xbe74916b	-0.23883598
139	0x3e4129f2	0.18863657
140	0xbe2db206	-0.16962442
141	0xbcccf6cb	-0.025020024
142	0x3c084db6	0.008319309
143	0xbe7572d8	-0.2396959
