500_ML/models/weights_4199_10-04_04:16.pt (torch_old, 39980 bytes, 7 tensors)

encoder.encoder.0.weight f4 [16, 1, 3, 3]
000000 43 e1 cc bd df 76 9d 3d 45 11 33 be 2a 8a af 3e
       -0.10003903 0.076886885 -0.17487057 0.34285098
000010 e1 38 a2 3e 77 57 c5 3e b7 ad cc 3e a3 0f fa 3d
       0.3168402 0.38543293 0.39976284 0.12210014
000020 40 f2 b1 3e 5e c4 47 3e 44 60 a6 bd db b3 2f be
       0.34755135 0.19508502 -0.0812383 -0.17158453
000030 06 f5 e0 3e 3d d2 e5 3e af 02 37 bd e4 49 66 3e
       0.43936938 0.44886962 -0.044680294 0.22489125
000040 06 ba 94 3e f5 cb 49 3d 98 77 32 3e d0 bc 2e 3e
       0.29048175 0.049266774 0.17428434 0.17064214
000050 b6 5b f5 bc 96 7a d1 3e 26 4e 31 3e b0 b4 95 3e
       -0.029950958 0.40913838 0.17314968 0.29239416
000060 27 51 80 3e aa f9 96 3d 2f 0d 8b 3e 5a 81 8a be
       0.25061914 0.073718384 0.27158496 -0.27051812
000070 a9 9f 85 3e 5e 69 43 be e0 a8 70 bc 50 c5 8a bc
       0.26098374 -0.19083163 -0.0146887 -0.016939789
000080 70 2b 84 be b2 92 5a 3e 38 39 04 be 2b e5 5c be
       -0.2581439 0.21345022 -0.12912452 -0.21571796
000090 54 4b 6e 3e 18 a5 7f bd 6d b2 d2 bc fb 23 9c 3e
       0.23270923 -0.062413305 -0.025719846 0.304962
0000a0 2a d1 a4 bc 16 8f ad 3c 80 68 f5 3d 73 3e 70 bd
       -0.020119268 0.021186393 0.119828224 -0.058653306
0000b0 9a d1 a8 bd 6d d5 54 be 82 1d 83 3d 0c e3 6b 3e
       -0.08243103 -0.2078454 0.064021125 0.2303583
0000c0 85 c7 bb bd 22 0b d4 3e 8b ae b9 3e 83 a4 84 3e
       -0.09168915 0.41414744 0.36265978 0.25906762
0000d0 dd 28 a6 3e de a7 ac 3e 6e e6 f3 3d 6b 79 af bd
       0.3245305 0.33721823 0.11909185 -0.085680805
0000e0 90 ee 8e 3e 5d 14 7b bd e2 8d c4 bc ef 92 7a be
       0.27916384 -0.061298717 -0.023993436 -0.24470113
0000f0 a2 cd 9e 3e c3 fd 09 be 5a 34 4c be 70 54 b1 bd
       0.3101626 -0.13475709 -0.19941846 -0.08658683
000100 00 59 81 bb ba 46 33 3e 8c a6 86 bd 3e 34 47 be
       -0.003947377 0.17507449 -0.06574735 -0.19453523
000110 90 3b 1c be 08 1e 5c bd 7e 53 a6 be 32 64 68 3e
       -0.15257096 -0.053739578 -0.32485574 0.22694471
000120 44 04 63 be 06 2f 24 be 4a 19 22 3e 6b ad cb 3c
       -0.22169596 -0.16033563 0.1582996 0.024862966
000130 61 69 6d 3a 61 c3 a8 3d 1b 33 3f 3e 4f 0e 6f 3e
       0.0009056535 0.082403906 0.18671839 0.23345302
000140 0c e9 5e 3e 0c 18 df 3d a2 82 8f be 80 39 1c bc
       0.21768588 0.108932585 -0.28029352 -0.009535193
000150 e3 f5 2f be 80 b1 7c 3d 8c 0a c2 bd d6 8c d9 bd
       -0.17183642 0.061692715 -0.09474668 -0.106225654
000160 cc 6d 9f be 91 e9 9d 3e e8 a8 ba 3e 96 b6 3c 3e
       -0.31138456 0.3084226 0.3645699 0.18429026
000170 54 14 41 be 4d 5e 48 bb e4 79 97 3e 1d 34 3e bc
       -0.18855411 -0.0030573786 0.29585183 -0.011609104
000180 d0 8b bc bd 24 b1 8e 3e d4 83 5f be 7b 03 6e 3c
       -0.092063546 0.27869523 -0.21827632 0.014527197
000190 71 3d 03 be 85 5b 96 3e 02 9a 4e be 95 26 16 bc
       -0.12816407 0.293667 -0.20175937 -0.009164472
0001a0 24 97 1a bc 11 53 83 3d 08 d1 90 3e 48 b7 75 3d
       -0.009435449 0.06412328 0.28284478 0.059989244
0001b0 4f 7a 53 be a9 af 02 be 58 7d 3e 3e 1f 2b 5b be
       -0.20652126 -0.12762322 0.18602502 -0.21403168
0001c0 c1 6d 48 3c bd f3 b5 3e 45 a2 bc 3e 15 97 40 3e
       0.012233199 0.3553752 0.36842552 0.18807633
0001d0 08 23 96 3e c0 71 32 3d 10 99 92 3d 58 2e 8a be
       0.29323602 0.04356551 0.071581006 -0.26988482
0001e0 f8 9d 22 bd 20 c4 d5 3d 6c fe 86 be ea d0 28 3e
       -0.039701432 0.104377985 -0.26365983 0.16485944
0001f0 88 b7 2e 3d d0 bd 23 be 10 96 c2 bd f4 ae a0 bd
       0.042655498 -0.15990376 -0.095012784 -0.0784587
000200 36 a9 45 3e fb f1 81 be 74 cb bb 3d 58 4d 6b be
       0.1930283 -0.2537993 0.09169665 -0.22978723
000210 70 43 e2 3d 88 48 1b 3d 0f a1 91 be b3 7f 99 3e
       0.11048019 0.037910968 -0.2844319 0.2998024
000220 f6 53 a3 3e 8a a2 66 3c 18 0c 23 be 0d d9 99 3e
       0.31899995 0.014076838 -0.15922582 0.3004841
000230 02 81 a4 bc 34 4f 49 3e fa ec ae bb e9 a1 7f 3e
       -0.020081047 0.1965912 -0.0053383084 0.24964108

encoder.encoder.0.bias f4 [16]
000000 38 ce ad 3e ba e6 d3 bb 3f b7 3e bc ca 5e 82 be
       0.33946395 -0.0064667137 -0.011640369 -0.25462943
000010 4e 6b 77 3e d6 b5 a2 bc 6c aa 3d be 8e 02 7f be
       0.24162027 -0.019862097 -0.18522042 -0.24903318
000020 0f b7 70 3e 6b a1 3c be d3 f5 ea 3d 8e 38 34 3e
       0.23507331 -0.18420951 0.114726685 0.17599699
000030 1e f8 4a 3e 5b da 42 be 70 98 7b be 54 dd c9 bd
       0.19821212 -0.19028609 -0.24569869 -0.09856668

encoder.encoder.2.weight f4 [32, 16, 3, 3]
000000 bd 00 10 3e 34 4f 1d 3e bf af 13 3e 04 20 6d 3d
       0.14062782 0.15362245 0.1442251 0.05789186
000010 19 af 18 3d 5e cc 13 3e 0a 3d bc 3d ad f6 36 3d
       0.03727636 0.14433429 0.0919133 0.044668842
000020 ce 43 20 3e 39 5b b4 bd ff 3a 66 bd 31 0c cd bd
       0.15650865 -0.08806462 -0.056208607 -0.10012091
000030 34 fd 70 bd a0 3a d1 bd e2 9a 0a be f0 cf 45 bd
       -0.058835223 -0.1021626 -0.13535646 -0.048294008
000040 00 da b9 bd ac c6 25 be d1 39 4c bc 80 42 15 bd
       -0.09074783 -0.16189069 -0.012464956 -0.036440372
000050 3b 24 fa bd 1f d6 0c bc e5 b9 0c bc 6d 3c 05 bd
       -0.12213942 -0.008595972 -0.008589243 -0.03252833
000060 3b 02 ab bd f9 a7 51 bd d4 c3 12 be fc 90 e3 bc
       -0.08350035 -0.05118558 -0.14332515 -0.027779095
000070 10 55 be 3c 8c a3 b7 bc 0a 26 a9 bd 7c 5c 94 3c
       0.02323392 -0.022416852 -0.082592085 0.018110506
000080 99 15 94 3d 50 0f ba bc 00 6d 02 3d 13 13 74 bd
       0.07230682 -0.02271238 0.03184223 -0.059588503
000090 0c 38 d6 3d 51 ed dc 3d f4 d9 34 3d f5 6c 7d 3d
       0.10459909 0.10787452 0.04415317 0.061871488
0000a0 58 67 88 3d 9a 6b 0d 3e a6 06 c6 3d b9 99 70 3d
       0.06660336 0.13810578 0.09669237 0.05874035
0000b0 17 81 8b 3d 13 9b e6 bd 07 58 27 bd 39 39 9d bc
       0.06811731 -0.11260047 -0.040855434 -0.019192325
0000c0 4d 8b a2 3b 59 e3 22 bd 24 6c f1 bd 2a 8f 1f bd
       0.0049604536 -0.039767597 -0.11788204 -0.03895489
0000d0 63 f0 15 be 5e 87 22 be 05 ed b5 bd c9 0f 9c bd
       -0.14642482 -0.15871951 -0.088830985 -0.07620198
0000e0 e6 9c a3 bd 19 8a 88 3d 81 90 c5 bc f5 c2 8d bc
       -0.079889104 0.06666965 -0.024116756 -0.017304877
0000f0 c0 70 9a 3b 5d 21 e6 bc fb 7a 0a bc bc 11 f5 3c
       0.004713148 -0.02809208 -0.008452172 0.029915683
000100 64 6a bd 3c a4 12 8e bd 90 48 b3 3b 48 00 1c 3d
       0.02312202 -0.06937149 0.0054712966 0.038086206
000110 aa e2 56 3d 56 95 85 bd 8b 5b 99 bd 00 f3 ad bc
       0.052462257 -0.06522624 -0.074881636 -0.021234035
000120 bc aa 06 3e e7 b6 e0 3d cc fa cf 3d 16 d3 d1 3d
       0.13151067 0.10972386 0.101552576 0.102453396
000130 b4 53 2f 3e c5 6f 9d 3d 10 09 9c 3c ad c9 82 3c
       0.17121774 0.07687334 0.01904729 0.015965307
000140 38 e0 d0 3d 7b 1f 0c bd b6 01 12 3d 9f ed 99 bd
       0.10199016 -0.03420971 0.035646163 -0.07516026
000150 e6 ec f9 bc 2b 9d 56 bd 3a 27 80 bd 46 df 30 bd
       -0.03050847 -0.05239598 -0.06257482 -0.04318168
000160 e0 8a f0 3c 80 0b c1 3b 71 e3 39 3e fb e2 6b 3d
       0.029363096 0.0058912635 0.18153168 0.057589512
000170 56 c1 03 3e 3f 95 61 3d 1c f6 da 3d 42 61 e1 3d
       0.1286672 0.055073973 0.10691473 0.110048786
000180 f3 df f6 3d b0 9a 2a 3e 59 38 b4 3d 11 bc f7 3c
       0.12054434 0.16660571 0.0879981 0.030241044
000190 14 98 1a 3e d9 d4 57 3d 80 eb 9e 3c 43 68 1e 3d
       0.15097076 0.05269322 0.019399405 0.03867365
0001a0 12 69 2c 3e 8e f0 76 3d f7 3d 00 3d 42 4d 83 3c
       0.16836956 0.060288005 0.031309094 0.01602805
0001b0 88 a3 05 3e 30 b0 23 3e 68 fd 12 3e b3 c3 15 3e
       0.13050663 0.15985179 0.1435448 0.14625435
0001c0 48 1c 97 3d 21 5f 2a 3e c4 4e 0b 3e 0d e1 8a 3d
       0.07378441 0.16637851 0.13604265 0.06781206
0001d0 6f 33 9d 3d 24 c6 93 3c 68 60 0b bd e2 30 28 3d
       0.07675826 0.018038817 -0.034027487 0.041062243
0001e0 ac e5 95 bc b0 46 26 3d 00 18 1f 3b a4 db e8 3c
       -0.018297993 0.040594757 0.002427578 0.028425045
0001f0 00 6f de b9 40 1b 85 ba 53 16 8a 3d 03 b4 a9 bd
       -0.0004242584 -0.0010155216 0.06742539 -0.08286288
000200 44 d8 e4 3c 78 07 57 bd 36 97 80 bd d8 eb 4c 3c
       0.027935155 -0.052497357 -0.06278841 0.012507401
000210 8e 52 35 3d 00 60 12 bc 41 55 a1 3d 0c b9 46 bd
       0.044268183 -0.008934021 0.07877589 -0.04851632
000220 af c8 78 bd 43 7c 1d be 90 14 4c 3c a4 88 11 be
       -0.06073826 -0.15379433 0.012456074 -0.1421228
000230 15 a0 1b bd 6c 4f d0 bd 14 80 87 bd 7a cf 0c be
       -0.037994463 -0.101713985 -0.06616226 -0.13751021
000240 31 db 23 bc be 21 d7 ba 7f 78 e6 3d f1 52 32 bc
       -0.01000099 -0.0016413254 0.112534516 -0.010884033
000250 ac 8a d3 bc 6f a4 5f bc 9f d1 86 3d 11 9b 75 3d
       -0.02582296 -0.013650044 0.06582951 0.059962336
000260 87 cb cf 3d 42 8b eb 3a 76 4d 8f 3d f0 58 60 bc
       0.10146242 0.0017970579 0.069971964 -0.013693079
000270 65 2b 43 3d b2 6b a8 3d 7f 32 77 3d 65 96 08 3e
       0.047648806 0.08223666 0.06035089 0.13338621
000280 4e 37 fc 3d 20 bc 22 3e 1f fa 75 bb 95 05 00 3e
       0.12315236 0.15892076 -0.0037533117 0.1250213
000290 f5 47 db 3d ab fd 3d 3d 98 44 25 3d 1b d7 20 3e
       0.10707084 0.046384495 0.04034862 0.15707056
0002a0 be 8d bb bb 3d cc e1 3c 7d 86 7a 3d 94 38 85 3c
       -0.005723684 0.027563209 0.061163414 0.01626233
0002b0 0e 60 1b 3d 10 e5 d4 3b da 74 a5 bd 1c 23 9b bd
       0.0379334 0.006497033 -0.08078928 -0.07575056
0002c0 7a 76 7e 3d ca 6b 5c 3d 36 22 3b 3d d8 34 05 3d
       0.062124707 0.053813733 0.045686923 0.0325211
0002d0 1b 1c 8c bc 41 3a 94 bd e8 99 c6 3c e1 85 59 3d
       -0.017103245 -0.072376736 0.02424331 0.053106192
0002e0 cb 6f 70 3d da 71 6d bd ba a1 c9 3c 92 33 ff bc
       0.058700364 -0.057969905 0.02461325 -0.03115252
0002f0 16 26 d9 bc 0d ba ca 3c 78 37 01 3e e1 be e6 3d
       -0.026507419 0.024746919 0.12618816 0.11266876
000300 97 63 a6 3d 8e aa 1e 3e 0c 03 5e 3d a7 1b 4b 3c
       0.08124464 0.15494749 0.054202124 0.01239673
000310 48 ae a2 3d e0 e0 d9 3d f3 ad 5e bd 60 0d 5d 3c
       0.07943398 0.106385946 -0.05436511 0.013491958
000320 50 ca 0f bd 20 27 0d 3c 70 d1 94 bc 98 c4 4b bb
       -0.03510505 0.008615285 -0.018166274 -0.003109252
000330 1f d6 a1 bd 82 de 88 bd 49 ea 17 3d c8 de 11 3d
       -0.079021685 -0.06683065 0.037088666 0.03561285
000340 80 57 7f 3c c7 74 9f bd 16 57 04 bd 20 c3 f6 3c
       0.0155848265 -0.077859454 -0.032309614 0.03012234
000350 c0 e7 a0 3b cc 4a f9 3c f2 d4 50 3d 7c 12 85 bc
       0.0049104393 0.030431174 0.05098433 -0.016244166
000360 6c 0a be bb 8f 2d 75 3d fe 90 30 3d 3f fd 96 bd
       -0.005799582 0.0598579 0.043107025 -0.073725216
000370 39 96 dd 3c 47 bc ce bc 4a b9 96 3c d9 d6 97 bc
       0.02704917 -0.025236262 0.0183989 -0.018535065
000380 6d 81 d5 3c 68 c9 0e bd 3a 25 2b 3d 03 f4 2e bd
       0.026062692 -0.034860045 0.04178355 -0.042713176
000390 00 fd f7 ba 20 e7 2c bd a0 3c 66 3b 80 e1 34 ba
       -0.0018920004 -0.042212605 0.003513135 -0.0006900057
0003a0 53 8c 2a bd e4 f6 8f bd a1 4f 1b bd b2 bc d7 3c
       -0.04163773 -0.070295125 -0.037917737 0.026335094
0003b0 e0 3a 83 3d c5 e1 40 bc bb bc 3f 3d 0a 19 bb bc
       0.06407714 -0.011772578 0.046810847 -0.022839088
0003c0 d8 c1 ad 3d 78 c5 38 bd 1c 1e 7c bc f2 bb 21 3d
       0.084842384 -0.045110196 -0.015388038 0.03948588
0003d0 39 6e ab 3d 8e 64 a9 bc 46 e2 27 bd 82 94 2e bd
       0.08370633 -0.020677831 -0.040987276 -0.042622097
0003e0 e8 b5 43 bd 67 ea 72 3d 10 08 02 bd 83 61 14 3d
       -0.0477809 0.059305575 -0.03174597 0.036225807
0003f0 cf 9a 20 bc 55 02 1d 3d 46 02 3a 3d b0 bc 86 3a
       -0.009802534 0.038332302 0.045412324 0.0010279622

encoder.encoder.2.bias f4 [32]
000000 8b 8b 11 3d 55 cb ee bc 0f 37 0d 3e bd 76 f8 3d
       0.03553347 -0.02914969 0.13790534 0.121320225
000010 bf 80 0c 3e e3 a7 4a bd 53 c9 0c 3e ef e1 1d 3e
       0.13720988 -0.049476516 0.13748674 0.15418218
000020 a0 ad 16 bc b9 6f b1 3d 20 2b f5 bc 0b f8 22 3e
       -0.009196669 0.086638875 -0.02992779 0.15914933
000030 3d d7 2d 3e 10 92 f7 be b7 a0 b3 3d ed d5 be bd
       0.16976638 -0.48353624 0.08770888 -0.09318147
000040 14 c7 86 bd cd bc c9 3c 31 91 b5 bd c3 2b db 3d
       -0.0658094 0.02462616 -0.08865584 0.10701706
000050 18 19 32 3c 6d 50 76 bd 30 8b 38 bd 8f 15 22 bd
       0.010870241 -0.060135294 -0.045054615 -0.03957134
000060 95 6f a0 3d f6 61 a5 3d 80 86 02 bd 4a dc 06 3f
       0.078337826 0.08075325 -0.03186655 0.52679884
000070 83 5a c7 3d 16 e5 dc 3c 33 1a 0b 3e 91 25 1d 3e
       0.097340606 0.026964705 0.13584213 0.15346362

decoder.decoder.0.weight f4 [32, 16, 3, 3]
000000 81 33 a4 3d 9f f5 bb 3c 56 9a 8e ba 90 96 e0 3b
       0.08017636 0.02294427 -0.0010879736 0.006853886
000010 40 89 23 3d ab 4c 8e 3d 20 25 22 bc dd a4 d3 3c
       0.039925814 0.06948217 -0.009896547 0.025835449
000020 e2 45 ca 3c 7f 3d 9f 3d 25 ed 69 3d 3b 03 08 3e
       0.024691526 0.07775401 0.057110924 0.13282482
000030 ad 95 08 3d e3 c7 29 3e a9 75 23 3e fc c2 74 3d
       0.033345867 0.16580157 0.15962853 0.059756264
000040 5a 8c 37 3e 29 18 0d 3e e4 bb 00 3e c3 b7 12 3e
       0.17924634 0.13778748 0.12571675 0.14327912
000050 2d 8d 11 3e f2 57 f5 3d 28 a7 8f 3d 72 61 28 3e
       0.1421401 0.11979665 0.070143044 0.16443422
000060 f2 10 a4 3d ce 7a 6f 3d 18 7d b4 3d 2d 58 60 3c
       0.080110446 0.058466725 0.08812922 0.013692898
000070 03 f0 85 bd a8 bc b8 3c 3d 52 a0 bd 1e e2 79 bd
       -0.06539919 0.022550896 -0.07828186 -0.061006658
000080 e5 58 c4 bc 2a 98 ae bd d6 1a 8d bd 1c 04 d6 bd
       -0.02396817 -0.08525117 -0.06889884 -0.104500026
000090 53 6b 06 3e 14 31 52 3d 04 b0 09 3e b0 c7 1d 3e
       0.13126878 0.051316336 0.13446051 0.15408206
0000a0 e0 7d 42 3e c5 5c e2 3c 17 e3 7b 3d 41 b3 92 3d
       0.1899333 0.027632127 0.061495867 0.07163096
0000b0 d5 33 8d 3d 84 28 b6 3c 1d 06 3b 3c 8f 67 85 3c
       0.06894652 0.022236116 0.011415032 0.016284732
0000c0 11 38 d0 3d c8 81 fc 3d c8 49 17 3e f3 02 7e 3d
       0.10166944 0.12329441 0.14774239 0.06201453
0000d0 84 b8 01 3e 55 0b f1 3c 94 aa 93 3d 0f c5 d6 3c
       0.12668043 0.029424349 0.072102696 0.026217012
0000e0 fc 8a a6 bd 79 1c e1 bc 75 c1 b8 3a c9 c1 31 bd
       -0.08131978 -0.027479397 0.0014095741 -0.0433977
0000f0 b8 25 9f bc 19 bd 86 bd 3d e3 66 3b f6 77 85 3d
       -0.019427165 -0.06579036 0.003523066 0.06517021
000100 73 d3 de 3c f2 54 b6 3d 91 44 75 3c 1e 5e 61 3d
       0.027200436 0.08902921 0.014969961 0.055021398
000110 28 9e b9 3c 0e 9d 13 3d 5f 4b 02 bc 95 af ee 3c
       0.022658423 0.03603845 -0.00795254 0.029136458
000120 8f 9f 22 bd d2 dc 0e 3c 23 0c 18 3d e0 2b cc 3c
       -0.03970295 0.00871964 0.03712095 0.024923265
000130 08 c2 09 3d e5 39 b1 3c 50 d9 4f bd d8 3b 81 3d
       0.03363231 0.021634052 -0.050744355 0.063102424
000140 65 a4 9f bd 4b 77 06 3e b5 b3 93 bb 68 9f 96 bc
       -0.07795028 0.13131444 -0.0045075067 -0.018386558
000150 41 35 bd bb 6e cb 97 3c 6f d1 2f 3d 68 42 0f 3e
       -0.0057741706 0.01852962 0.04292434 0.13990176
000160 eb 0f d4 3d e5 58 cb 3d 83 68 90 3d 93 be 5d 3d
       0.103545986 0.09929065 0.07051184 0.054136824
000170 07 2f 03 3e 9e 0d 7e bd 47 44 25 3d 91 e5 7f 3d
       0.12810908 -0.062024705 0.040348317 0.06247479
000180 8f 3b a4 3d da 85 93 bd e4 81 ca 3d 01 2b 95 3c
       0.080191724 -0.072032645 0.09888056 0.018208982
000190 80 01 ff bb a9 08 38 3d 0b a0 4e bd 72 05 33 bd
       -0.0077821612 0.044930134 -0.050445598 -0.043706365
0001a0 19 10 83 3d 78 ff 26 3d f0 69 81 3c b2 5b e2 bc
       0.06399555 0.040770978 0.015797585 -0.027631614
0001b0 d4 af a5 bd 43 ae 17 3c c5 a6 5d bd 87 23 55 3d
       -0.08090177 0.009257856 -0.054114122 0.052035835
0001c0 28 b6 95 bd 5c 85 79 bb 84 90 6a bb d3 8d de bc
       -0.07310134 -0.0038073873 -0.0035791704 -0.027167236
0001d0 30 31 65 bd 79 b3 d8 3d 37 34 e0 3d ee 6d 17 bd
       -0.055955112 0.10581107 0.10947459 -0.03697007
0001e0 05 6c f1 3c a2 ca 28 3d 8f 63 6a bd 32 f7 8f 3d
       0.029470453 0.04120887 -0.057223853 0.07029571
0001f0 0f 54 eb 3d c7 8c 83 3c 61 63 69 3d 4e 75 5b bd
       0.11490642 0.016058339 0.05697954 -0.053578667
000200 13 cc 27 3d 9a ce 9b 3c b2 fa 83 bd ba 52 42 3c
       0.040966105 0.019019414 -0.06444301 0.011860544
000210 cb da 64 bc 1f 2f 4c 3d 6e 5b a0 bd 88 8f ff 3c
       -0.01396818 0.049849626 -0.07829939 0.03119637
000220 8c 52 f0 bc 17 01 01 bb af 97 21 3e 23 92 5d 3d
       -0.029336236 -0.0019684487 0.15780519 0.054094445
000230 08 b4 86 3c 21 6c 0a 3e 23 35 b5 3d 9f 4b 06 3c
       0.016443267 0.1351781 0.08848026 0.00819674
000240 a3 98 ad 3d 99 d4 9c 3d 8b 60 09 3c 45 b0 e1 3d
       0.08476379 0.07657737 0.008384834 0.11019949
000250 21 b8 d2 bc 01 3e 6a 3d d5 26 a6 3d 00 71 65 3c
       -0.025722565 0.057188038 0.08112875 0.014003992
000260 1a 15 63 bc 1a d5 0a be d6 99 bd bc f8 5c 13 be
       -0.0138600115 -0.13557854 -0.023144644 -0.14390934
000270 5e eb 19 be 20 eb f5 bd 5a ed 25 be 89 9f e6 bd
       -0.15031192 -0.12007737 -0.16203824 -0.11260898
000280 1f 65 65 bd 31 79 34 bd 16 fb e9 ba 3c ee 0b be
       -0.05600464 -0.04406089 -0.0017851319 -0.13665098
000290 30 93 b9 bd 94 14 bc bd 2f b9 08 bd 43 88 24 bd
       -0.09061277 -0.091836125 -0.03337973 -0.04016901
0002a0 6b 71 b3 bd 8c c0 08 bd 73 4d 02 be b8 4d 07 3d
       -0.08761867 -0.033386752 -0.12724857 0.033033103
0002b0 18 db 6d 3c 37 a7 80 bd 58 81 46 3d e0 8a 1d bc
       0.014517568 -0.06281894 0.048463196 -0.00961563
0002c0 98 eb 4b bd 10 16 2a bd 5f 71 62 bd e8 72 75 bd
       -0.049785227 -0.041524947 -0.0552839 -0.059924036
0002d0 a9 4e 69 be 9c 5b 16 be 09 4b 08 bd ee 34 ae bd
       -0.22783913 -0.14683384 -0.033274684 -0.08506189
0002e0 07 46 97 be 82 47 14 be 54 d0 87 be 0a 9d 13 bd
       -0.29545614 -0.14480403 -0.2652613 -0.036038436
0002f0 7d b9 37 be e8 d5 90 bc b6 28 93 bd 6b aa 16 bd
       -0.17941852 -0.017680123 -0.07185499 -0.036783617
000300 2a 81 1f be b7 1c 86 bd c8 d6 45 be c2 58 87 bd
       -0.15576616 -0.06548446 -0.19320214 -0.06608726
000310 32 5e 0f bd f9 1b 62 bd 44 84 83 bd 86 75 ae 3d
       -0.03500194 -0.055202458 -0.06421712 0.085185096
000320 c0 65 0c 3d 69 60 8c 3d 6c 59 b1 3b 66 33 21 3e
       0.034276724 0.06854326 0.0054122712 0.15742263
000330 7c be 00 bd d6 47 e9 3d c4 dd 96 3d b8 a5 6b 3d
       -0.03143166 0.11390655 0.07366517 0.05753109
000340 63 d7 11 3d 13 49 1a bc 57 0d 0b 3e f7 a5 ea 3d
       0.0356058 -0.009416836 0.13579307 0.114574365
000350 20 fa f7 3d 12 9f ec 3c ce 4f 04 3e 4c da 30 3e
       0.121082544 0.028884444 0.12921068 0.17270774
000360 8f 38 68 3d fc fb 5e bc e2 be b6 3d 6f 01 88 3d
       0.056694563 -0.013609882 0.08923127 0.066408984
000370 84 3c f2 3d 7e ae ca bb 81 2d 80 bc be c2 8c bd
       0.11827949 -0.006185352 -0.015646698 -0.068730816
000380 9a 0c 10 3e 9c 2b 39 bd 0d 28 14 be 55 7d 9a 3c
       0.14067307 -0.045207605 -0.14468403 0.018858591
000390 5c 64 94 bd 50 da e7 bd ba e5 0f be fa 7d 52 bd
       -0.072457045 -0.11320937 -0.14052477 -0.05138967
0003a0 d1 d4 06 be 19 da be bd 08 26 f2 bd 87 95 6c 3d
       -0.1316712 -0.093189426 -0.1182366 0.057759788
0003b0 58 42 0e 3e 25 93 77 3d 04 1a b9 3d e8 b0 e5 3d
       0.13892496 0.060443062 0.09038165 0.11215383
0003c0 25 62 9c be 68 dd 83 3d 5f 74 c5 bd ce 54 5e 3d
       -0.30543628 0.06438714 -0.09641337 0.054280095
0003d0 43 ed a5 3d 0c 9d d5 bc d4 dc bb 3c 4d d9 88 3d
       0.08101895 -0.026075862 0.022932447 0.06682072
0003e0 b0 71 7e bd 6e eb 4f bd a5 a0 84 bd a8 ef 7b bd
       -0.06212014 -0.050761633 -0.06475953 -0.06150785
0003f0 95 85 d9 3d 63 5c 78 bd 1f 5a bf 3d 65 dd 8f 3d
       0.10621182 -0.06063498 0.09343361 0.070246495

decoder.decoder.0.bias f4 [16]
000000 2c 36 96 bd 56 ac b2 3d 0e db d7 3d eb 48 23 3d
       -0.07334551 0.08724277 0.10539828 0.039864462
000010 5b f7 85 3d a5 b1 c1 3d 2b 4a 44 bd b4 66 a1 bc
       0.0654132 0.09457711 -0.047922295 -0.019702293
000020 cc c6 b2 bc b6 89 ca 3d aa 28 97 bd 9f af a0 bd
       -0.02182331 0.098895475 -0.07380803 -0.07845997
000030 8c 8e 4f 3d 92 76 8a 3d c6 7f 17 3d c8 57 ea 3d
       0.050673053 0.06760897 0.03698709 0.11442524

decoder.decoder.2.weight f4 [16, 1, 3, 3]
000000 61 55 b2 3e b5 d8 3d be 82 7f 98 3e cf 88 3c 3e
       0.34830764 -0.18539698 0.2978478 0.18411563
000010 27 60 52 be 96 41 e4 bc 53 9a 23 bd 06 ea 7e 3e
       -0.20544492 -0.027863305 -0.039942097 0.2489396
000020 4e 06 57 3e ad 65 4a bd af 05 7b 3d f2 79 4f 3e
       0.20998499 -0.04941337 0.061284717 0.20261362
000030 79 2f ea 3d 4e ef bd be 34 2a ca be 0c 1e 3d 3d
       0.11434836 -0.37096637 -0.39485323 0.046171233
000040 64 70 6f be 11 b9 45 be 14 35 8f be 48 cf d4 bb
       -0.23382717 -0.19308878 -0.27970183 -0.0064944364
000050 5a 81 3f be 2c 19 9c be 2a a5 c0 be 83 85 0e be
       -0.18701687 -0.30487955 -0.3762601 -0.13918118
000060 b2 8e 10 3d 77 3f b5 3d 98 70 ba be ee 81 db bc
       0.035292335 0.088499956 -0.36414027 -0.026795354
000070 eb e3 32 3d 56 73 99 3e be c2 70 bd d3 99 8d be
       0.04367439 0.29970807 -0.05877947 -0.2765642
000080 f7 e0 28 3e 71 13 0a bc f7 ac 63 be 71 10 4d 3e
       0.16492067 -0.008427487 -0.2223395 0.20025803
000090 f5 2a 75 be 3a 36 85 be 62 1a bb be 90 c0 9c 3d
       -0.23942168 -0.26017934 -0.36543566 0.07653916
0000a0 e9 0d e8 be 1f 2e a0 3d b4 74 3e be e2 c5 a0 be
       -0.45323113 0.07821297 -0.18599206 -0.31400973
0000b0 88 bb ab bd d7 ce 23 bd 59 db 8f bd f3 b6 36 bc
       -0.08385378 -0.03999218 -0.07024259 -0.011152017
0000c0 fa a6 15 be c1 0c 32 be ad 87 a6 bd 90 ed a1 be
       -0.14614478 -0.17387678 -0.08131347 -0.31626558
0000d0 e3 21 05 3e e9 57 8d be 64 81 cd bd c0 4e ae 3e
       0.13001208 -0.27606133 -0.10034445 0.34044456
0000e0 d8 8b c8 3e e4 30 e9 3b 07 3a 3c bd 0e 7e 87 3e
       0.39169192 0.007116424 -0.045953777 0.2646336
0000f0 16 93 8f 3e 39 88 b8 3e 12 50 e8 3e 26 ff c1 be
       0.28041905 0.3604143 0.4537359 -0.37889975
000100 4f 37 4e 3d d3 94 92 3c f2 d2 6f 3e af 66 b4 3e
       0.050345715 0.01789323 0.23420313 0.3523459
000110 18 74 b4 3e 6a 78 fd 3d de 65 9e 3e 4f 8f 07 be
       0.35244823 0.12376483 0.30937093 -0.13238262
000120 5f 90 cd bd 39 78 ac 3d f3 7b 71 be 71 2c 19 3d
       -0.10037302 0.08421368 -0.23582439 0.0373959
000130 55 74 3d 3e f5 cc 8f 3e e4 57 75 be bb 7d e1 3d
       0.18501408 0.28086057 -0.23959309 0.11010309
000140 f3 58 5a 3e 18 4e ab be aa 82 b1 3b e3 9e 9d be
       0.21322994 -0.33458018 0.0054171877 -0.30785283
000150 cf 4b 11 bc 1e 6f 32 3c 37 59 b8 be b6 d9 a4 bd
       -0.008868172 0.01089075 -0.36005566 -0.080493376
000160 ea a3 dd be 1d e2 a0 be a1 4a 34 3e a5 a9 04 be
       -0.4328912 -0.3142251 0.17606594 -0.12955339
000170 8f 03 c4 3e 0d 57 27 be ce 94 71 3e aa d2 d7 bb
       0.38283965 -0.16341801 0.2359192 -0.0065863924
000180 a3 13 b6 3e a2 eb a2 3d 9d dd fe 3e 1d 40 00 bf
       0.35561857 0.079551 0.49778453 -0.5009783
000190 37 0a 6a 3e 59 02 ae be b5 cb f6 3c 33 fe c0 3e
       0.22855459 -0.33986166 0.030126432 0.3769394
0001a0 e5 30 94 3e 22 65 6d be 11 59 51 be 7f 25 70 be
       0.28943554 -0.2318311 -0.20444132 -0.23451804
0001b0 a2 fd 49 3e 22 e1 13 3e 78 35 9f 3e e5 a2 a2 be
       0.1972566 0.1444135 0.3109548 -0.31764904
0001c0 e3 2f 95 be db 54 9b 3e 08 76 8a 3d c3 4b 84 3e
       -0.29138097 0.30338177 0.06760794 0.25839052
0001d0 7c 70 d4 bd 39 dd 55 3e 89 09 c3 be 0b 35 90 3e
       -0.10373017 0.20885171 -0.38093212 0.2816547
0001e0 01 72 c5 3d f8 72 db 3d 48 be 08 be a2 57 98 be
       0.09640885 0.10715288 -0.13353837 -0.2975436
0001f0 f3 90 9b be 17 25 a9 be b7 09 0b be f6 66 91 3e
       -0.30384025 -0.3303611 -0.13577925 0.28398865
000200 9b 34 85 be e3 fc 45 be 82 55 84 3e 5f 90 86 be
       -0.26016697 -0.1933475 0.25846487 -0.2628202
000210 de 0b a7 3c d6 9d f5 3d 19 31 8a 3d fe a7 05 3e
       0.0203914 0.119929954 0.06747646 0.13052365
000220 c1 88 b0 be 9b 94 55 be cc af 74 be 98 94 40 3e
       -0.34479335 -0.2085747 -0.23895186 0.18806684
000230 d7 27 2e be 63 b6 c2 bc 76 d1 f6 3b 4f ae 76 be
       -0.17007385 -0.02376861 0.007532294 -0.24089931
