500_ML/models/weights_2399_10-04_04:16.pt (torch_old, 39980 bytes, 7 tensors)

encoder.encoder.0.weight f4 [16, 1, 3, 3]
00000000: 13d2 d0bd 27a3 9b3d f3d4 33be 2ae1 ae3e
00000010: fe1e a23e f35b c53e 5642 cc3e ecbd fa3d
00000020: 4743 b23e d402 483e 59fe b5bd 0582 38be
00000030: e064 de3e 1d31 df3e 8552 71bd 3e98 5e3e
00000040: e8ea 8c3e 0d62 053d 8b2f 403e 7ca1 2a3e
00000050: b3e8 12bd 3c8d d33e 6f64 233e 2179 8d3e
00000060: 533b 7f3e e110 603d 2e92 7f3e 5a81 8abe
00000070: a99f 853e 5e69 43be e0a8 70bc 50c5 8abc
00000080: 702b 84be b292 5a3e 3839 04be 2be5 5cbe
00000090: f4df 6a3e 5080 7bbd c363 c7bc 7e6e 9b3e
000000a0: e972 89bc 6094 cd3c 3e48 f43d d6a7 5ebd
000000b0: c09f 9ebd f204 4bbe c81b 7e3d 97a1 683e
000000c0: ce47 b5bd a293 cf3e 4c56 b43e 4db7 843e
000000d0: 470a a03e 5074 a53e 6ee6 f33d 6b79 afbd
000000e0: 90ee 8e3e 5d14 7bbd e28d c4bc ef92 7abe
000000f0: a2cd 9e3e c3fd 09be 5a34 4cbe 7054 b1bd
00000100: 0059 81bb ba46 333e 8ca6 86bd 3e34 47be
00000110: 903b 1cbe 081e 5cbd 7e53 a6be 3264 683e
00000120: 58c8 63be ba4b 22be c039 243e fdb3 cd3c
00000130: a671 803b b6b1 af3d becc 3f3e 2588 723e
00000140: b9cc 623e 0c18 df3d a282 8fbe 8039 1cbc
00000150: e3f5 2fbe 80b1 7c3d 8c0a c2bd d68c d9bd
00000160: cc6d 9fbe 91e9 9d3e 7996 b93e a98a 3b3e
00000170: 1330 42be 646a 8dbb b15f 973e 314b 3dbc
00000180: 4b81 bebd 30c8 8e3e 2806 5fbe 7c5e 633c
00000190: 910f 02be d00a 973e c99a 4dbe 679f cabb
000001a0: 33b5 c8bb 934a 863d b199 923e 8dbf 823d
000001b0: 788e 53be 4919 03be 9d20 3e3e 7b1f 5bbe
000001c0: a157 443c e0e0 b53e 35bd bc3e 0e86 403e
000001d0: c329 963e c071 323d 1099 923d 582e 8abe
000001e0: f89d 22bd 20c4 d53d 6cfe 86be ead0 283e
000001f0: 88b7 2e3d d0bd 23be 1096 c2bd f4ae a0bd
00000200: 36a9 453e fbf1 81be 74cb bb3d 584d 6bbe
00000210: 7043 e23d 8848 1b3d 0fa1 91be b37f 993e
00000220: df4f a33e cc26 663c 2011 23be 41d4 993e
00000230: 0ec7 a4bc 2c4a 493e 4905 b0bb 5199 7f3e
-0.101963185 0.07599478 -0.17561702 0.34156162 0.3166427 0.38546714 0.3989436 0.12243256
0.34816954 0.19532329 -0.088864036 -0.18018349 0.43436337 0.43592158 -0.058916587 0.21737763
0.2752297 0.03256421 0.18768136 0.16663164 -0.03586645 0.4131869 0.15956281 0.27631477
0.24924974 0.054703597 0.24958107 -0.27051812 0.26098374 -0.19083163 -0.0146887 -0.016939789
-0.2581439 0.21345022 -0.12912452 -0.21571796 0.22936994 -0.061401665 -0.024339562 0.30357736
-0.016778426 0.025095165 0.119278416 -0.05435928 -0.07745314 -0.19826105 0.062038213 0.22717892
-0.08851586 0.40542322 0.3522209 0.25921097 0.3125784 0.32315302 0.11909185 -0.085680805
0.27916384 -0.061298717 -0.023993436 -0.24470113 0.3101626 -0.13475709 -0.19941846 -0.08658683
-0.003947377 0.17507449 -0.06574735 -0.19453523 -0.15257096 -0.053739578 -0.32485574 0.22694471
-0.22244394 -0.158492 0.16037655 0.02511024 0.003919798 0.085788175 0.18730447 0.23684748
0.22148408 0.108932585 -0.28029352 -0.009535193 -0.17183642 0.061692715 -0.09474668 -0.106225654
-0.31138456 0.3084226 0.36247614 0.18314613 -0.18963651 -0.0043156613 0.29565194 -0.011553572
-0.093020044 0.27887106 -0.21779692 0.013877507 -0.1270125 0.29500437 -0.20078577 -0.006183553
-0.0061251163 0.06557193 0.28632882 0.06384192 -0.20659816 -0.12802614 0.18567128 -0.21398728
0.011983783 0.35523129 0.36863104 0.18801138 0.29328737 0.04356551 0.071581006 -0.26988482
-0.039701432 0.104377985 -0.26365983 0.16485944 0.042655498 -0.15990376 -0.095012784 -0.0784587
0.1930283 -0.2537993 0.09169665 -0.22978723 0.11048019 0.037910968 -0.2844319 0.2998024
0.31896874 0.014047336 -0.15924501 0.3004475 -0.020114448 0.196572 -0.005371724 0.2496083

encoder.encoder.0.bias f4 [16]
00000000: ee80 ad3e 08f0 c5bb af59 49bc ca5e 82be
00000010: 53b3 763e cc9c afbc 6caa 3dbe 8e02 7fbe
00000020: c2f1 6f3e 6ba1 3cbe f620 e93d e373 333e
00000030: c059 4a3e 5bda 42be 7098 7bbe e0ef c9bd
0.33887428 -0.006040577 -0.012289449 -0.25462943 0.24091844 -0.021437071 -0.18522042 -0.24903318
0.23432067 -0.18420951 0.1138324 0.17524676 0.197608 -0.19028609 -0.24569869 -0.09860206

encoder.encoder.2.weight f4 [32, 16, 3, 3]
00000000: 26fe 0f3e 282d 1d3e f294 133e fe2a 6d3d
00000010: 7d24 183d a6b6 133e 222e bc3d e141 363d
00000020: 9224 203e d62f cbbd 09e6 80bd 9787 d4bd
00000030: b63e 81bd 1af3 cebd f4d4 05be 78fe 5fbd
00000040: 3f76 bbbd c9ce 21be 24c8 bdbc 6f31 30bd
00000050: 2dd8 01be 9534 52bc 8756 f4bb d7fd ebbc
00000060: bb9a b4bd 1786 4dbd b791 0ebe fc90 e3bc
00000070: 1055 be3c 8ca3 b7bc 0a26 a9bd 7c5c 943c
00000080: 9915 943d 500f babc 006d 023d 1313 74bd
00000090: 1d69 d63d 9e95 dc3d 326c 343d 6586 7d3d
000000a0: bdcd 873d 8634 0d3e d712 c63d 0a66 6f3d
000000b0: e617 8b3d 10db f3bd a8af 2fbd 603f b1bc
000000c0: cd11 4a3b 5977 15bd dc02 ebbd 8675 29bd
000000d0: 09c4 12be 1a83 1fbe 05ed b5bd c90f 9cbd
000000e0: e69c a3bd 198a 883d 8190 c5bc f5c2 8dbc
000000f0: c070 9a3b 5d21 e6bc fb7a 0abc bc11 f53c
00000100: 646a bd3c a412 8ebd 9048 b33b 4800 1c3d
00000110: aae2 563d 5695 85bd 8b5b 99bd 00f3 adbc
00000120: 6bd7 063e 90a3 e03d 6ae4 cf3d 5405 d23d
00000130: e328 2f3e cd1b 9d3d 6894 9c3c e32a 813c
00000140: 8076 d03d 7b1f 0cbd b601 123d 9fed 99bd
00000150: e6ec f9bc 2b9d 56bd 3a27 80bd 46df 30bd
00000160: e08a f03c 800b c13b 006d 393e 01a3 683d
00000170: 260e 033e 9441 603d 7384 d93d cd36 e03d
00000180: 956c f63d 2203 2a3e 6a8c b33d 9131 f93c
00000190: 2f87 1a3e 8973 573d c49d 9f3c 9878 1d3d
000001a0: 3123 2c3e 2c6e 773d f3f0 fe3c 6275 813c
000001b0: 00bb 053e 8ea0 233e 9fe9 123e f2d8 153e
000001c0: 7fe2 963d 3b40 2a3e 655b 0b3e fe94 8a3d
000001d0: afde 9c3d 24c6 933c 6860 0bbd e230 283d
000001e0: ace5 95bc b046 263d 0018 1f3b a4db e83c
000001f0: 006f deb9 401b 85ba 5316 8a3d 03b4 a9bd
00000200: 44d8 e43c 7807 57bd 3697 80bd d8eb 4c3c
00000210: 8e52 353d 0060 12bc 4155 a13d dfa0 46bd
00000220: efad 78bd 8974 1dbe 6a7c 4c3c e080 11be
00000230: 6382 1bbd 3442 d0bd 4671 87bd 95c8 0cbe
00000240: 5efc 18bc 7073 95bb 4b9f dd3d df8c f7bb
00000250: d306 dbbc 2168 86bc f4af 933d 63a2 7f3d
00000260: deef d03d 1600 463c 9b26 9b3d ade7 53bc
00000270: 0948 573d 1a8c a63d a8cb 5e3d bb70 123e
00000280: 3316 033e e06e 213e 6041 113c 4112 073e
00000290: 7bb3 e03d c4bc 543d f876 1e3d ecb1 1a3e
000002a0: f375 413b 6394 f03c 1dee 6d3d 9438 853c
000002b0: 0e60 1b3d 10e5 d43b da74 a5bd 1c23 9bbd
000002c0: 7a76 7e3d ca6b 5c3d 3622 3b3d d834 053d
000002d0: a66f 9abc 54a0 98bd 2198 a03c fdb9 6a3d
000002e0: 0497 7f3d 45df 6bbd 7614 ec3c 1827 e0bc
000002f0: 1c76 d6bc 5b58 043d ae31 023e 087f e83d
00000300: 6135 ab3d 72fc 193e c3e6 493d b0b3 943c
00000310: 1f33 a03d f407 d73d f3ad 5ebd 600d 5d3c
00000320: 50ca 0fbd 2027 0d3c 70d1 94bc 98c4 4bbb
00000330: 1fd6 a1bd 82de 88bd 49ea 173d c8de 113d
00000340: 8057 7f3c c774 9fbd 1657 04bd 20c3 f63c
00000350: c0e7 a03b cc4a f93c f2d4 503d 7c12 85bc
00000360: 0551 1abc 8473 573d dd32 123d 3782 92bd
00000370: 488f ce3c df08 e0bc 19fc c33c 457a 85bc
00000380: 3025 e83c 68c9 0ebd 3a25 2b3d 03f4 2ebd
00000390: 00fd f7ba 20e7 2cbd a03c 663b 80e1 34ba
000003a0: 538c 2abd e4f6 8fbd 1c6f d5bc eaae df3c
000003b0: 4ed7 763d 50e5 043c 91a1 533d 1871 cabc
000003c0: f104 d03d bbd6 32bd 12c7 bdbc 2f7e 163d
000003d0: 0da0 9c3d d9a5 debc 7235 1bbd a415 35bd
000003e0: d74c 46bd 0bcf 813d 30c2 03bd b594 163d
000003f0: 62b8 35bc 16b4 fb3c 35f8 193d 34f8 783b
0.14061794 0.15349257 0.14412287 0.05790233 0.037144173 0.14425144 0.09188487 0.04449642
0.1563895 -0.09921233 -0.06293876 -0.10377424 -0.06310789 -0.10104962 -0.13069516 -0.05468604
-0.09153413 -0.15801539 -0.023166724 -0.043015894 -0.12680121 -0.012829919 -0.007456604 -0.028807564
-0.08818575 -0.050176706 -0.13922773 -0.027779095 0.02323392 -0.022416852 -0.082592085 0.018110506
0.07230682 -0.02271238 0.03184223 -0.059588503 0.104692675 0.10770725 0.044048496 0.061895747
0.06631038 0.13789567 0.09671562 0.05844692 0.06791668 -0.11907017 -0.04289213 -0.021636665
0.0030833364 -0.036490772 -0.11475155 -0.041371845 -0.14332594 -0.15577355 -0.088830985 -0.07620198
-0.079889104 0.06666965 -0.024116756 -0.017304877 0.004713148 -0.02809208 -0.008452172 0.029915683
0.02312202 -0.06937149 0.0054712966 0.038086206 0.052462257 -0.06522624 -0.074881636 -0.021234035
0.13168113 0.10968697 0.101509884 0.102549225 0.17105441 0.07671318 0.019113734 0.01576752
0.10178852 -0.03420971 0.035646163 -0.07516026 -0.03050847 -0.05239598 -0.06257482 -0.04318168
0.029363096 0.0058912635 0.18107986 0.056796078 0.12798366 0.05475004 0.10620966 0.109479524
0.12032429 0.16602758 0.08767016 0.030419143 0.15090631 0.052600417 0.019484408 0.038445085
0.168103 0.060407802 0.031120753 0.015803043 0.13059616 0.15979216 0.14346932 0.1463354
0.073674195 0.16626064 0.13609083 0.06766699 0.07659661 0.018038817 -0.034027487 0.041062243
-0.018297993 0.040594757 0.002427578 0.028425045 -0.0004242584 -0.0010155216 0.06742539 -0.08286288
0.027935155 -0.052497357 -0.06278841 0.012507401 0.044268183 -0.008934021 0.07877589 -0.048493262
-0.06071275 -0.15376486 0.0124808345 -0.14209318 -0.037966143 -0.10168877 -0.06613402 -0.13748391
-0.009337513 -0.0045608804 0.10821398 -0.007554635 -0.026736652 -0.016407074 0.07211295 0.062410723
0.10202001 0.012084981 0.07575723 -0.012933654 0.052558932 0.08132191 0.05439344 0.14300816
0.12801437 0.15764952 0.008865684 0.13190557 0.10971733 0.051937833 0.038687676 0.15106934
0.0029519766 0.029367631 0.05808841 0.01626233 0.0379334 0.006497033 -0.08078928 -0.07575056
0.062124707 0.053813733 0.045686923 0.0325211 -0.018852066 -0.07452455 0.01960379 0.05730628
0.06239988 -0.057585973 0.02881835 -0.027362391 -0.026179366 0.032310825 0.12714264 0.11352354
0.083597906 0.15037706 0.049292337 0.018152088 0.078222506 0.10499564 -0.05436511 0.013491958
-0.03510505 0.008615285 -0.018166274 -0.003109252 -0.079021685 -0.06683065 0.037088666 0.03561285
0.0155848265 -0.077859454 -0.032309614 0.03012234 0.0049104393 0.030431174 0.05098433 -0.016244166
-0.009418731 0.0526004 0.03569304 -0.07153743 0.025214806 -0.02734798 0.02392392 -0.016293654
0.028338045 -0.034860045 0.04178355 -0.042713176 -0.0018920004 -0.042212605 0.003513135 -0.0006900057
-0.04163773 -0.070295125 -0.026053958 0.027305085 0.060263924 0.008111313 0.051667754 -0.02471213
0.101571925 -0.043661814 -0.023166213 0.03674143 0.07647715 -0.027178692 -0.037892766 -0.04421009
-0.048413124 0.063383184 -0.032167614 0.03676291 -0.011091324 0.03072552 0.037590224 0.0037989737

encoder.encoder.2.bias f4 [32]
00000000: b2e0 103d ea04 e6bc 50d3 0c3e 2b01 f83d
00000010: 0d39 0c3e 6dc3 45bd ef98 0c3e ecca 1d3e
00000020: a0ad 16bc a739 b13d 202b f5bc 55d1 223e
00000030: 559b 2d3e c77c edbe 90f3 b23d 8515 babd
00000040: 7bc4 85bd f247 cd3c 3191 b5bd 67d4 da3d
00000050: 1819 323c 6d50 76bd abd9 30bd 4cfa 25bd
00000060: e547 a03d 0726 a53d 8086 02bd 00e5 f93e
00000070: 7405 c73d ec49 db3c 59ed 0a3e b5d5 1c3e
0.035370536 -0.028078515 0.13752484 0.12109598 0.13693638 -0.048282076 0.13730215 0.1540944
-0.009196669 0.086535744 -0.02992779 0.15900166 0.16953786 -0.4638426 0.08737862 -0.09086136
-0.06531616 0.02505872 -0.08865584 0.10685044 0.010870241 -0.060135294 -0.043176334 -0.040521905
0.07826213 0.08063894 -0.03186655 0.48807526 0.09717837 0.026768647 0.13567103 0.15315898

decoder.decoder.0.weight f4 [32, 16, 3, 3]
00000000: b626 9f3d 4307 bc3c b783 273a 96fc 723b
00000010: c22a 203d 240b 8c3d 741e 2fbc 31ba d33c
00000020: db1b ac3c 61c0 9f3d 3eec 6a3d 93a5 073e
00000030: 97b5 093d 7f61 293e 9e41 233e 8f2e 723d
00000040: 9804 373e 6f1a 0d3e 8be2 003e eef1 123e
00000050: 5c57 113e d033 f53d a67c 8f3d f632 283e
00000060: f70f a43d 4cc7 6f3d e1da b43d 2d58 603c
00000070: 2739 82bd a8bc b83c 3d52 a0bd 1ee2 79bd
00000080: e558 c4bc 2a98 aebd 61c9 8dbd 1c04 d6bd
00000090: f4c1 063e dcc6 513d 0f8c 093e 83c3 1d3e
000000a0: 3418 423e 718e e53c 6654 7d3d ab9e 913d
000000b0: 3793 8d3d 88aa b93c 04d8 3c3c 014b 843c
000000c0: c3f7 cf3d 4297 fd3d 1b82 173e 36a3 743d
000000d0: de16 023e a36a e63c 09cf 933d e125 e23c
000000e0: 3ff0 a5bd f270 e6bc 12db d43a ad47 36bd
000000f0: 3cce 94bc b650 89bd 3cb2 ae3b 53b6 aa3d
00000100: 608e d23c 1227 ba3d 67cc 733c 5585 653d
00000110: 0755 b13c 7213 4c3d 6fd1 1dbc 3312 d33c
00000120: fc10 31bd a820 f23b 9667 763d d5a2 f13b
00000130: ab24 203d a4b6 673c 1299 2cbc b76f 813d
00000140: 9d9c 92bd c911 073e c407 97bb 2630 99bc
00000150: e168 b5bb 4a87 963c ff98 303d 771e 0f3e
00000160: 20c0 d23d dc3d cc3d 546f 983d ab67 613d
00000170: aec2 e13d 5e48 80bd 2f8f 203d 4210 743d
00000180: 4cfe ad3d f642 99bd fe5f c73d 012b 953c
00000190: 8001 ffbb a908 383d 0ba0 4ebd 7aec 31bd
000001a0: 1910 833d 78ff 263d f069 813c b25b e2bc
000001b0: d4af a5bd 43ae 173c c5a6 5dbd 8723 553d
000001c0: 28b6 95bd 5c85 79bb 6a3a 6bbb d38d debc
000001d0: 3031 65bd eb06 d93d 3319 e03d 4db1 14bd
000001e0: b5e7 ee3c 8466 263d 7e13 64bd 2478 8f3d
000001f0: 627b e93d bd23 8e3c 6163 693d 403d 7fbd
00000200: da56 253d f0d9 d53b b2fa 83bd 7405 463c
00000210: cbda 64bc 0fa3 373d 47df a8bd ade0 fd3c
00000220: 5a81 f0bc 379b fdba 626f 213e 2392 5d3d
00000230: 5bf9 843c c1eb 093e 4721 b53d d533 083c
00000240: b68f ac3d 538a 9c3d 73aa 443c ffac dc3d
00000250: d208 b8bc 41c5 713d 80cd bb3d 4946 5e3c
00000260: a336 e7bb 3d1d 08be 79dc 05bd 25c2 10be
00000270: 1e4a 80be 6982 f0bd 3349 85be daab e6bd
00000280: eb17 78bd ab0a 1dbd 21e8 79bb ed41 22be
00000290: d69a bfbd b74d bdbd c7a1 09bd 06ab 21bd
000002a0: 14a1 b7bd 54ee 3ebd f7e2 01be b84d 073d
000002b0: 1ee0 563c 37a7 80bd 5881 463d e08a 1dbc
000002c0: 98eb 4bbd 1016 2abd 602c 6abd e872 75bd
000002d0: 7dcb 6bbe 8f92 30be 1983 7abd fdbe c0bd
000002e0: f591 87be f568 18be a036 a7be e5af 55bd
000002f0: 49ee 5ebe 08d3 10bc 3c8f f5bd ecf0 fbbc
00000300: 14f8 23be 2372 87bd 5e1c 3fbe 5f01 7ebd
00000310: 8409 85bd b151 53bd 6cc1 56bd e3cb ae3d
00000320: c28f cc3c a330 933d 6c59 b13b 8e14 243e
00000330: e54b 39bc e35b e63d 4ae6 993d 51b4 703d
00000340: f69d 143d cafa 26bc 100c 0d3e a649 e83d
00000350: 0135 f83d 0a9f f13c 3db1 003e fad7 2d3e
00000360: aa24 693d f9f5 89bc 9817 b53d cac9 8d3d
00000370: dc68 eb3d 1cc5 fabb d6df 58bc d81d 70bd
00000380: f091 063e 14af b33b 5bba c7bd 4f97 843c
00000390: 9972 aebd c87c d4bd 879b 18be 4c51 86bd
000003a0: 3c0f e5bd c68b c2bd 0631 cfbd c807 833d
000003b0: 8949 e93d 5262 823d 66f0 b93d 10e5 ea3d
000003c0: 25b7 82be 2a94 893d 9100 6cbd ce54 5e3d
000003d0: 43ed a53d 0c9d d5bc d4dc bb3c 4655 8a3d
000003e0: b071 7ebd 6eeb 4fbd a5a0 84bd a8ef 7bbd
000003f0: da9c 053e 635c 78bd cc25 d93d 65dd 8f3d
0.077710554 0.022952681 0.00063901715 0.0037076822 0.039103277 0.068380624 -0.010688413 0.025845619
0.021009376 0.07800365 0.057354204 0.13246755 0.033620443 0.16541098 0.15943 0.059126433
0.17872846 0.13779615 0.1258642 0.14350101 0.14193481 0.11972773 0.07006197 0.1642569
0.080108576 0.058539674 0.0883081 0.013692898 -0.06358557 0.022550896 -0.07828186 -0.061006658
-0.02396817 -0.08525117 -0.069231756 -0.104500026 0.13159925 0.051215038 0.13432334 0.15406613
0.18954545 0.028022023 0.061848067 0.07110342 0.06912845 0.022664323 0.0115261115 0.016149046
0.10154679 0.12382366 0.14795725 0.059725963 0.12704036 0.02812702 0.07217223 0.027605953
-0.08102464 -0.028130028 0.0016239604 -0.04450195 -0.018164746 -0.067048475 0.005331306 0.08335557
0.025702655 0.09089483 0.014880276 0.05603536 0.02164699 0.049823232 -0.009632452 0.025765514
-0.04322909 0.007389147 0.06015738 0.0073741474 0.03909747 0.014142666 -0.010534542 0.06320136
-0.07158778 0.13190378 -0.00460908 -0.018699717 -0.005536184 0.018375058 0.04311466 0.13976465
0.10290551 0.09972736 0.07443109 0.055030506 0.1102346 -0.06263803 0.03919905 0.059585817
0.08495769 -0.07483475 0.09735106 0.018208982 -0.0077821612 0.044930134 -0.050445598 -0.043438412
0.06399555 0.040770978 0.015797585 -0.027631614 -0.08090177 0.009257856 -0.054114122 0.052035835
-0.07310134 -0.0038073873 -0.0035892972 -0.027167236 -0.055955112 0.105970226 0.10942306 -0.0363019
0.02916322 0.04062511 -0.05568265 0.07005337 0.114004865 0.017351026 0.05697954 -0.062314272
0.04036603 0.0065262243 -0.06444301 0.012086261 -0.01396818 0.04483324 -0.08245712 0.030990923
-0.029358555 -0.0019348626 0.15765145 0.054094445 0.016232183 0.13468839 0.08844238 0.008313139
0.08425848 0.07643571 0.012003529 0.10775184 -0.022465143 0.059026007 0.091700554 0.013566562
-0.0070560738 -0.13292404 -0.032680962 -0.1413656 -0.25056547 -0.11743624 -0.2603241 -0.11263247
-0.060569685 -0.038340252 -0.0038132744 -0.15845461 -0.093557045 -0.092433386 -0.03360155 -0.03946974
-0.0896627 -0.046614006 -0.12684236 0.033033103 0.013114957 -0.06281894 0.048463196 -0.00961563
-0.049785227 -0.041524947 -0.057171226 -0.059924036 -0.23026843 -0.17243408 -0.06116018 -0.09411428
-0.26478544 -0.14883788 -0.32658863 -0.0521697 -0.21770586 -0.008839376 -0.119902104 -0.030754529
-0.16012603 -0.06613567 -0.18663165 -0.062013026 -0.064959556 -0.05159158 -0.052430555 0.08534982
0.024970893 0.07187011 0.0054122712 0.16023466 -0.011309599 0.11247995 0.07514627 0.058765713
0.036283456 -0.010191629 0.13774133 0.11342172 0.12119485 0.029494781 0.12567611 0.1697692
0.05691973 -0.016840922 0.08842391 0.06923254 0.1149461 -0.007652892 -0.01323696 -0.05862221
0.13141608 0.0054835174 -0.09752341 0.01618543 -0.085179515 -0.10375363 -0.14903079 -0.06558475
-0.11184546 -0.09499316 -0.10116772 0.063979685 0.11390979 0.06366409 0.090790555 0.114694715
-0.25530353 0.06717713 -0.057617728 0.054280095 0.08101895 -0.026075862 0.022932447 0.06754546
-0.06212014 -0.050761633 -0.06475953 -0.06150785 0.13048115 -0.06063498 0.10602912 0.070246495

decoder.decoder.0.bias f4 [16]
00000000: f4f8 94bd 5f2b b23d e6bd d73d 1626 233d
00000010: bbb9 853d 69c1 c13d 45c9 44bd dce4 a1bc
00000020: 75b3 b4bc 6e7e ca3d 449e 96bd dcba a0bd
00000030: 8c8e 4f3d d96d 8a3d 28f5 173d c95c ea3d
-0.072740465 0.08699679 0.10534267 0.039831243 0.06529566 0.09460718 -0.048043508 -0.019762449
-0.022058228 0.09887396 -0.073544055 -0.078481406 0.050673053 0.06759233 0.037099034 0.114434786

decoder.decoder.2.weight f4 [16, 1, 3, 3]
00000000: 6d2e b73e 34b2 3cbe 7387 983e a74e 3b3e
00000010: cc16 4bbe f034 9bbc e617 83bd 7179 813e
00000020: e260 4e3e ecb8 51bd 36c0 7c3d 56a4 4d3e
00000030: 10c2 ea3d 9c36 bdbe 0c1d cabe ce5c 2b3d
00000040: 8961 6dbe 023d 48be a81a 90be 14f9 cfbb
00000050: e542 40be d9fa 9bbe 3f18 c0be f171 0ebe
00000060: 881f 023d 2a1d b83d 00b0 babe 5b4a d8bc
00000070: 823c 343d c79a 993e be8e 72bd 6def 8cbe
00000080: 4ba3 293e 6565 f1bb a8cd 63be cf7b 4d3e
00000090: 4e30 76be 04ef 84be 5dc6 bbbe e81e 9d3d
000000a0: 7c61 e7be 98c2 a03d 62cf 41be 9de2 9fbe
000000b0: 528b b0bd fa93 1fbd b348 8fbd 973f 35bc
000000c0: 3463 15be 3b79 31be 7a31 a5bd 5978 a2be
000000d0: ce22 063e f117 8dbe 857e d3bd 4dd1 af3e
000000e0: feae d33e 6e4e de3a 03c5 35bd b488 853e
000000f0: bf1a 993e 04c3 b73e 503a e53e 21b8 c2be
00000100: 5de4 543d 2a67 ce3c cb76 653e 2ce6 b03e
00000110: d8b5 b33e fadd 073e dbcb 963e c933 0bbe
00000120: 4517 6abd 102d be3d defe 78be 9b08 c03c
00000130: ee09 2e3e fbc1 8e3e febf 6dbe d875 aa3d
00000140: fd31 4a3e e929 acbe f6ee c43b f0a8 9dbe
00000150: fa1b 0abc b13a 4c3c 9a36 b8be 95ce aabd
00000160: 98e3 dcbe 38bb a0be cb2c 3d3e 19f2 02be
00000170: dafa c33e d6d4 31be 0011 7c3e 98f6 a73a
00000180: 9b50 b13e a412 b43d a874 f43e 2ebb b1be
00000190: bff6 243e db44 96be f39b 083e 5b1f cc3e
000001a0: ad16 ae3e 15e8 3ebe 9789 44be b762 85bb
000001b0: 50ea 493e 22e1 133e 7835 9f3e e5a2 a2be
000001c0: 9838 95be db54 9b3e 9471 8a3d c34b 843e
000001d0: 7c70 d4bd 9101 533e f6be c2be 3acc 8f3e
000001e0: 6716 c63d b6aa dd3d 1fff 08be 596e 99be
000001f0: 5bb6 9abe ab94 a9be 28c3 07be 2d0e 923e
00000200: d53b 85be d4e6 48be 1389 833e 258f 85be
00000210: f875 923c de63 f03d 61a5 8b3d 3c8e 053e
00000220: cc8d b0be d92b 55be 169a 74be c30a 413e
00000230: c8d1 2dbe 17dd cabc f79d 053c 8e97 75be
0.35777608 -0.18427354 0.2979084 0.18291722 -0.19832915 -0.018946141 -0.06401043 0.25287965
0.20154145 -0.051201746 0.061706744 0.2008222 0.11462796 -0.36955726 -0.39475286 0.041836552
-0.23181738 -0.19554523 -0.28145337 -0.006346831 -0.18775518 -0.3046482 -0.37518498 -0.13910653
0.03176835 0.089899376 -0.36462402 -0.026402643 0.044003017 0.30000898 -0.05921816 -0.27526417
0.16566198 -0.0073668235 -0.2224642 0.2006676 -0.24041864 -0.25963604 -0.36674777 0.076719105
-0.45191562 0.07849616 -0.18926767 -0.3122758 -0.08620323 -0.03895948 -0.06996288 -0.011062524
-0.14588624 -0.17331402 -0.080660775 -0.31732443 0.13099214 -0.27557328 -0.10326866 0.3433937
0.41344446 0.001696063 -0.04437734 0.2608086 0.29903218 0.35890973 0.4477105 -0.38031104
0.051975597 0.025195677 0.22408597 0.34550607 0.35099673 0.13268271 0.29452404 -0.13593973
-0.057151098 0.09285939 -0.24315974 0.023441603 0.16995975 0.2788237 -0.2321777 0.08323258
0.19745632 -0.33625725 0.0060099317 -0.30792952 -0.008429522 0.012465165 -0.35979158 -0.08340184
-0.4314239 -0.31392837 0.18474118 -0.12787665 0.38277322 -0.17366347 0.2461586 0.001281458
0.3463181 0.08792618 0.47745252 -0.3471312 0.16109751 -0.29349408 0.1334074 0.39867672
0.34001675 -0.1864322 -0.19193111 -0.0040706056 0.1971829 0.1444135 0.3109548 -0.31764904
-0.2914474 0.30338177 0.067599446 0.25839052 -0.10373017 0.20606066 -0.38036317 0.280855
0.09672242 0.10823576 -0.13378571 -0.29967 -0.3021725 -0.33121237 -0.1325804 0.2852644
-0.2602221 -0.19619304 0.25690517 -0.26085773 0.017878518 0.11737798 0.06818653 0.1304254
-0.34483182 -0.20817508 -0.23886904 0.18851762 -0.16974556 -0.024763627 0.008155338 -0.23983595
