500_ML/models/weights_3199_10-04_04:16.pt (torch_old, 39980 bytes, 7 tensors)

encoder.encoder.0.weight f4 [16, 1, 3, 3]
000000 4b 1b cf bd 77 84 9c 3d d7 78 33 be 24 24 af 3e
       -0.101126276 0.07642453 -0.17526565 0.3420726
000010 21 2a a2 3e ab 58 c5 3e 8f 65 cc 3e 7a 62 fa 3d
       0.31672767 0.3854421 0.39921233 0.12225814
000020 1e 1b b2 3e 5e 24 47 3e 8b e1 af bd 10 d5 34 be
       0.34786314 0.19447467 -0.08587941 -0.17659402
000030 de 79 df 3e 6e 34 e2 3e 09 5e 56 bd 75 32 62 3e
       0.43647665 0.44180626 -0.052335773 0.2208956
000040 58 98 90 3e c8 e4 25 3d 59 fc 38 3e cb af 2b 3e
       0.2824123 0.040501386 0.18065013 0.16766278
000050 3f f5 09 bd 50 ad d2 3e 24 d1 29 3e 19 60 91 3e
       -0.03368115 0.41147852 0.16583687 0.2839363
000060 a8 3b 80 3e 7e a9 82 3d 3e 39 85 3e 5a 81 8a be
       0.25045514 0.06379984 0.26020235 -0.27051812
000070 a9 9f 85 3e 5e 69 43 be e0 a8 70 bc 50 c5 8a bc
       0.26098374 -0.19083163 -0.0146887 -0.016939789
000080 70 2b 84 be b2 92 5a 3e 38 39 04 be 2b e5 5c be
       -0.2581439 0.21345022 -0.12912452 -0.21571796
000090 5f 68 6c 3e f5 15 7d bd 83 73 cc bc cc 9c 9b 3e
       0.2308669 -0.061788518 -0.024957424 0.30393064
0000a0 87 c1 96 bc 86 dd bd 3c 9f fc f3 3d cb 6c 67 bd
       -0.018402828 0.02317692 0.11913418 -0.056500237
0000b0 ca af a3 bd 10 d1 4f be c0 28 7f 3d 24 a0 69 3e
       -0.079925135 -0.20294595 0.06229472 0.22814995
0000c0 c3 ae b7 bd b6 82 d1 3e 82 b8 b6 3e 8b f8 84 3e
       -0.0896888 0.40920037 0.35687643 0.25970873
0000d0 1e d5 a2 3e 5a c4 a8 3e 6e e6 f3 3d 6b 79 af bd
       0.3180322 0.32962304 0.11909185 -0.085680805
0000e0 90 ee 8e 3e 5d 14 7b bd e2 8d c4 bc ef 92 7a be
       0.27916384 -0.061298717 -0.023993436 -0.24470113
0000f0 a2 cd 9e 3e c3 fd 09 be 5a 34 4c be 70 54 b1 bd
       0.3101626 -0.13475709 -0.19941846 -0.08658683
000100 00 59 81 bb ba 46 33 3e 8c a6 86 bd 3e 34 47 be
       -0.003947377 0.17507449 -0.06574735 -0.19453523
000110 90 3b 1c be 08 1e 5c bd 7e 53 a6 be 32 64 68 3e
       -0.15257096 -0.053739578 -0.32485574 0.22694471
000120 dc 6b 63 be 04 16 23 be 85 48 23 3e 49 21 cb 3c
       -0.22209114 -0.15926367 0.15945633 0.024796145
000130 92 a3 1f 3b f2 41 ac 3d 0f 32 3f 3e a7 ba 70 3e
       0.002435897 0.084110156 0.1867144 0.23508702
000140 cf c9 60 3e 0c 18 df 3d a2 82 8f be 80 39 1c bc
       0.21951984 0.108932585 -0.28029352 -0.009535193
000150 e3 f5 2f be 80 b1 7c 3d 8c 0a c2 bd d6 8c d9 bd
       -0.17183642 0.061692715 -0.09474668 -0.106225654
000160 cc 6d 9f be 91 e9 9d 3e f1 05 ba 3e fb 13 3c 3e
       -0.31138456 0.3084226 0.36332658 0.18366997
000170 0c ae 41 be 1b 9a 77 bb 7e 76 97 3e 6a 05 3c bc
       -0.1891405 -0.0037781063 0.2958259 -0.0114759
000180 e3 a9 bd bd f1 ca 8e 3e 44 1e 5f be a7 71 68 3c
       -0.09260919 0.27889207 -0.21788889 0.014187253
000190 c6 8c 02 be 2a bc 96 3e 86 35 4e be 44 a5 f9 bb
       -0.12749013 0.29440433 -0.20137605 -0.007618578
0001a0 ff 36 fd bb 4f 7c 84 3d 8b b7 91 3e 7d b3 7d 3d
       -0.0077275033 0.064690225 0.28460345 0.06193875
0001b0 4b 86 53 be 25 dd 02 be df 58 3e 3e b8 21 5b be
       -0.20656697 -0.12779672 0.18588589 -0.21399581
0001c0 c0 24 47 3c 4c f2 b5 3e 62 b1 bc 3e 96 9a 40 3e
       0.012154758 0.3553642 0.36854082 0.1880897
0001d0 82 2e 96 3e c0 71 32 3d 10 99 92 3d 58 2e 8a be
       0.29332358 0.04356551 0.071581006 -0.26988482
0001e0 f8 9d 22 bd 20 c4 d5 3d 6c fe 86 be ea d0 28 3e
       -0.039701432 0.104377985 -0.26365983 0.16485944
0001f0 88 b7 2e 3d d0 bd 23 be 10 96 c2 bd f4 ae a0 bd
       0.042655498 -0.15990376 -0.095012784 -0.0784587
000200 36 a9 45 3e fb f1 81 be 74 cb bb 3d 58 4d 6b be
       0.1930283 -0.2537993 0.09169665 -0.22978723
000210 70 43 e2 3d 88 48 1b 3d 0f a1 91 be b3 7f 99 3e
       0.11048019 0.037910968 -0.2844319 0.2998024
000220 0e 50 a3 3e 9b 42 66 3c 00 10 23 be 25 d5 99 3e
       0.31897014 0.014053966 -0.15924072 0.3004543
000230 01 b6 a4 bc 4c 4b 49 3e 9c c0 af bb 3f 9b 7f 3e
       -0.020106317 0.1965763 -0.005363537 0.24961565

encoder.encoder.0.bias f4 [16]
000000 0d ad ad 3e 97 b5 cb bb 4b 6e 42 bc ca 5e 82 be
       0.3392109 -0.0062167156 -0.011867116 -0.25462943
000010 ed 1b 77 3e 8e 0e a8 bc 6c aa 3d be 8e 02 7f be
       0.24131747 -0.020514753 -0.18522042 -0.24903318
000020 95 5e 70 3e 6b a1 3c be 06 27 ea 3d 4b e1 33 3e
       0.2347358 -0.18420951 0.114332244 0.17566411
000030 60 b3 4a 3e 5b da 42 be 70 98 7b be a7 eb c9 bd
       0.19794989 -0.19028609 -0.24569869 -0.098594

encoder.encoder.2.weight f4 [32, 16, 3, 3]
000000 34 09 10 3e 6c 3c 1d 3e 31 9f 13 3e 10 3e 6d 3d
       0.1406601 0.1535508 0.14416195 0.057920516
000010 34 6a 18 3d 7e c1 13 3e 3b 3d bc 3d 2f 94 36 3d
       0.03721066 0.1442928 0.09191366 0.044574913
000020 39 32 20 3e 34 93 c0 bd c4 62 74 bd d9 92 d1 bd
       0.15644158 -0.09403077 -0.059664503 -0.10233087
000030 71 47 7c bd c7 4d d0 bd 0d 4c 08 be cb 92 57 bd
       -0.06159157 -0.10171085 -0.13310261 -0.052630227
000040 6c dc bb bd 66 3a 24 be a8 34 95 bc 20 db 23 bd
       -0.091729015 -0.16037902 -0.018213585 -0.040003896
000050 fd 04 00 be ab e9 36 bc c6 f3 04 bc 38 83 fc bc
       -0.12501903 -0.011164109 -0.008114761 -0.030824289
000060 00 9c b1 bd 36 69 51 bd b3 15 11 be fc 90 e3 bc
       -0.08672333 -0.051125728 -0.14168434 -0.027779095
000070 10 55 be 3c 8c a3 b7 bc 0a 26 a9 bd 7c 5c 94 3c
       0.02323392 -0.022416852 -0.082592085 0.018110506
000080 99 15 94 3d 50 0f ba bc 00 6d 02 3d 13 13 74 bd
       0.07230682 -0.02271238 0.03184223 -0.059588503
000090 9d 67 d6 3d 1b bd dc 3d 8a 98 34 3d cf a0 7d 3d
       0.104689814 0.107782565 0.044090785 0.061920937
0000a0 b8 1b 88 3d 18 51 0d 3e a0 1d c6 3d 71 fd 6f 3d
       0.06645912 0.13800466 0.09673619 0.05859131
0000b0 57 4d 8b 3d 70 9e ed bd b3 1f 2c bd ba 1d aa bc
       0.06801861 -0.11602485 -0.04202242 -0.020766128
0000c0 75 f4 73 3b fb 6e 1c bd 25 91 ee bd 2b d4 26 bd
       0.0037224565 -0.038191777 -0.11648778 -0.040729683
0000d0 42 9c 14 be 0a 61 21 be 05 ed b5 bd c9 0f 9c bd
       -0.14512733 -0.15759674 -0.088830985 -0.07620198
0000e0 e6 9c a3 bd 19 8a 88 3d 81 90 c5 bc f5 c2 8d bc
       -0.079889104 0.06666965 -0.024116756 -0.017304877
0000f0 c0 70 9a 3b 5d 21 e6 bc fb 7a 0a bc bc 11 f5 3c
       0.004713148 -0.02809208 -0.008452172 0.029915683
000100 64 6a bd 3c a4 12 8e bd 90 48 b3 3b 48 00 1c 3d
       0.02312202 -0.06937149 0.0054712966 0.038086206
000110 aa e2 56 3d 56 95 85 bd 8b 5b 99 bd 00 f3 ad bc
       0.052462257 -0.06522624 -0.074881636 -0.021234035
000120 72 cf 06 3e 86 ab e0 3d 2e ec cf 3d 19 00 d2 3d
       0.13165072 0.109702155 0.101524696 0.10253925
000130 b5 3e 2f 3e 54 46 9d 3d 2c 97 9c 3c f9 f6 81 3c
       0.17113765 0.0767943 0.019115053 0.015864836
000140 e1 a9 d0 3d 7b 1f 0c bd b6 01 12 3d 9f ed 99 bd
       0.10188652 -0.03420971 0.035646163 -0.07516026
000150 e6 ec f9 bc 2b 9d 56 bd 3a 27 80 bd 46 df 30 bd
       -0.03050847 -0.05239598 -0.06257482 -0.04318168
000160 e0 8a f0 3c 80 0b c1 3b 50 c0 39 3e 21 10 6a 3d
       0.029363096 0.0058912635 0.18139768 0.057144288
000170 ff 54 03 3e d9 4c 61 3d 7d 4a da 3d 86 cf e0 3d
       0.12825392 0.05500493 0.10658739 0.10977082
000180 1e c1 f6 3d 04 4d 2a 3e aa df b3 3d 22 f7 f8 3c
       0.12048553 0.16630942 0.08782895 0.03039128
000190 08 8d 1a 3e 69 95 57 3d 2d b3 9f 3c e2 f5 1d 3d
       0.15092862 0.052632723 0.019494617 0.03856457
0001a0 42 46 2c 3e 04 63 77 3d 58 c0 ff 3c 43 63 82 3c
       0.16823676 0.060397163 0.031219646 0.015916472
0001b0 ca bd 05 3e a4 a6 23 3e 27 f0 12 3e ca d7 15 3e
       0.1306068 0.15981537 0.14349423 0.14633098
0001c0 c6 ff 96 3d 44 4f 2a 3e 94 5c 0b 3e 79 b8 8a 3d
       0.07373004 0.166318 0.13609535 0.067734666
0001d0 cc 04 9d 3d 24 c6 93 3c 68 60 0b bd e2 30 28 3d
       0.076669306 0.018038817 -0.034027487 0.041062243
0001e0 ac e5 95 bc b0 46 26 3d 00 18 1f 3b a4 db e8 3c
       -0.018297993 0.040594757 0.002427578 0.028425045
0001f0 00 6f de b9 40 1b 85 ba 53 16 8a 3d 03 b4 a9 bd
       -0.0004242584 -0.0010155216 0.06742539 -0.08286288
000200 44 d8 e4 3c 78 07 57 bd 36 97 80 bd d8 eb 4c 3c
       0.027935155 -0.052497357 -0.06278841 0.012507401
000210 8e 52 35 3d 00 60 12 bc 41 55 a1 3d f2 a4 46 bd
       0.044268183 -0.008934021 0.07877589 -0.048497148
000220 a4 b2 78 bd 1d 76 1d be a5 66 4c 3c af 82 11 be
       -0.06071724 -0.15377088 0.012475644 -0.14210008
000230 49 88 1b bd f7 44 d0 bd bd 74 87 bd 7b ca 0c be
       -0.03797177 -0.10169404 -0.06614063 -0.13749115
000240 e5 e7 27 bc 37 57 53 bb 2f e8 e1 3d 14 8b 1d bc
       -0.010248159 -0.003224803 0.11030614 -0.009615678
000250 6d cf d8 bc 10 bb 79 bc 67 90 8d 3d cf 4a 7c 3d
       -0.026466096 -0.015242353 0.06912308 0.06159478
000260 0f 19 d1 3d 10 39 e4 3b ab aa 94 3d 35 e2 5c bc
       0.10209858 0.00696481 0.07259115 -0.013481666
000270 49 da 4e 3d a2 45 a7 3d fd 01 6a 3d 69 ec 0e 3e
       0.05050114 0.08167578 0.057130802 0.13957371
000280 e7 a3 01 3e 38 ce 22 3e 3e c1 31 3b 2e 81 03 3e
       0.1266018 0.15898979 0.0027123238 0.12842247
000290 a1 2f de 3d 90 64 4a 3d 0f f7 20 3d 9c 81 1d 3e
       0.10848928 0.04941231 0.039298113 0.15381473
0002a0 4c 7c 1d b9 8a 9b ef 3c 7f aa 76 3d 94 38 85 3c
       -0.00015018991 0.029248971 0.06022119 0.01626233
0002b0 0e 60 1b 3d 10 e5 d4 3b da 74 a5 bd 1c 23 9b bd
       0.0379334 0.006497033 -0.08078928 -0.07575056
0002c0 7a 76 7e 3d ca 6b 5c 3d 36 22 3b 3d d8 34 05 3d
       0.062124707 0.053813733 0.045686923 0.0325211
0002d0 41 e1 97 bc 9f 27 96 bd 47 a2 b4 3c e7 4a 5f 3d
       -0.018540027 -0.07331776 0.022050036 0.05451479
0002e0 a9 74 77 3d 06 ac 6d bd d1 3d d6 3c 6b a1 ef bc
       0.06041399 -0.058025382 0.026152523 -0.029251775
0002f0 31 ed d8 bc f6 9f e9 3c e6 88 01 3e c2 8c e7 3d
       -0.02648029 0.028518658 0.12649879 0.11306144
000300 62 19 a9 3d b6 1b 1c 3e 19 69 53 3d 0a fa 84 3c
       0.082567945 0.15244946 0.0516139 0.01623251
000310 82 85 a2 3d fb b6 d9 3d f3 ad 5e bd 60 0d 5d 3c
       0.07935621 0.10630604 -0.05436511 0.013491958
000320 50 ca 0f bd 20 27 0d 3c 70 d1 94 bc 98 c4 4b bb
       -0.03510505 0.008615285 -0.018166274 -0.003109252
000330 1f d6 a1 bd 82 de 88 bd 49 ea 17 3d c8 de 11 3d
       -0.079021685 -0.06683065 0.037088666 0.03561285
000340 80 57 7f 3c c7 74 9f bd 16 57 04 bd 20 c3 f6 3c
       0.0155848265 -0.077859454 -0.032309614 0.03012234
000350 c0 e7 a0 3b cc 4a f9 3c f2 d4 50 3d 7c 12 85 bc
       0.0049104393 0.030431174 0.05098433 -0.016244166
000360 e1 c1 0a bc 3a 8f 65 3d 65 c8 20 3d 54 49 96 bd
       -0.008469076 0.056044795 0.03925361 -0.07338205
000370 19 01 d4 3c d6 69 d9 bc 66 b4 ab 3c 39 d1 8b bc
       0.02587943 -0.026539724 0.020960044 -0.017067539
000380 a2 f1 e1 3c 68 c9 0e bd 3a 25 2b 3d 03 f4 2e bd
       0.02758104 -0.034860045 0.04178355 -0.042713176
000390 00 fd f7 ba 20 e7 2c bd a0 3c 66 3b 80 e1 34 ba
       -0.0018920004 -0.042212605 0.003513135 -0.0006900057
0003a0 53 8c 2a bd e4 f6 8f bd 2e 83 06 bd 11 4e e1 3c
       -0.04163773 -0.070295125 -0.032839946 0.027503045
0003b0 f3 b2 81 3d f4 80 71 bb e6 c1 44 3d 6c 8e ca bc
       0.0633296 -0.0036850544 0.04803648 -0.024726115
0003c0 60 c7 bc 3d 60 37 37 bd fa 9c a1 bc 05 25 19 3d
       0.09217715 -0.044730544 -0.019728173 0.03738882
0003d0 0e 2a a4 3d 14 d6 c2 bc dc af 25 bd ad 99 33 bd
       0.08015834 -0.023783721 -0.040450916 -0.04384773
0003e0 77 59 46 bd 34 e2 78 3d 74 e7 02 bd e8 d2 15 3d
       -0.048425164 0.0607626 -0.031959012 0.03657809
0003f0 83 5a 3a bc c3 70 0c 3d 10 54 29 3d 84 b1 d9 3a
       -0.011374119 0.034287225 0.041339934 0.001660869

encoder.encoder.2.bias f4 [32]
000000 6c 39 11 3d b0 73 eb bc d7 04 0d 3e fd 3b f8 3d
       0.035455152 -0.028741688 0.13771378 0.12120817
000010 a6 5b 0c 3e 2d f1 48 bd 90 b1 0c 3e 32 d8 1d 3e
       0.13706836 -0.04905813 0.1373961 0.15414503
000020 a0 ad 16 bc 71 54 b1 3d 20 2b f5 bc d7 e3 22 3e
       -0.009196669 0.08658684 -0.02992779 0.15907227
000030 7d b9 2d 3e 62 58 f4 be bb 4e b3 3d ef 8f bc bd
       0.1696529 -0.4772368 0.08755251 -0.09207141
000040 64 5c 86 bd b7 dd ca 3c 31 91 b5 bd 79 06 db 3d
       -0.06560591 0.024763925 -0.08865584 0.10694594
000050 18 19 32 3c 6d 50 76 bd f7 b8 35 bd 4c 38 22 bd
       0.010870241 -0.060135294 -0.04436585 -0.03960447
000060 d2 5d a0 3d af 45 a5 3d 80 86 02 bd fa 89 02 3f
       0.07830395 0.08069932 -0.03186655 0.50991786
000070 1d 2e c7 3d a7 22 dc 3c b7 05 0b 3e 31 fb 1c 3e
       0.09725592 0.026871992 0.13576399 0.15330197

decoder.decoder.0.weight f4 [32, 16, 3, 3]
000000 62 a5 a2 3d 83 05 bc 3c b1 be dc b9 2d 06 af 3b
       0.079417005 0.022951847 -0.00042103746 0.0053413124
000010 46 8d 22 3d 28 91 8c 3d 50 7d 2e bc 7e b7 d3 3c
       0.03968551 0.06863624 -0.010649994 0.025844332
000020 fd 75 b9 3c 86 78 9f 3d ea 69 6a 3d 4c cb 07 3e
       0.022639269 0.0778666 0.057229914 0.13261145
000030 55 33 09 3d 02 9b 29 3e 16 70 23 3e 1e 98 73 3d
       0.03349622 0.16563037 0.15960726 0.059471242
000040 5d 5a 37 3e df 0e 0d 3e 09 c4 00 3e 79 e5 12 3e
       0.17905565 0.13775204 0.12574781 0.1434535
000050 cd 7c 11 3e 73 45 f5 3d 84 9f 8f 3d 8e 5b 28 3e
       0.14207764 0.11976137 0.07012847 0.16441175
000060 e9 13 a4 3d 39 ba 6f 3d 20 a0 b4 3d 2d 58 60 3c
       0.0801161 0.058527205 0.08819604 0.013692898
000070 ad 6e 83 bd a8 bc b8 3c 3d 52 a0 bd 1e e2 79 bd
       -0.06417594 0.022550896 -0.07828186 -0.061006658
000080 e5 58 c4 bc 2a 98 ae bd 64 49 8d bd 1c 04 d6 bd
       -0.02396817 -0.08525117 -0.06898764 -0.104500026
000090 e1 86 06 3e 9a 3e 52 3d 7e a8 09 3e d8 db 1d 3e
       0.1313739 0.051329233 0.13443181 0.15415895
0000a0 d6 44 42 3e 06 52 e4 3c 63 aa 7c 3d cc 2c 92 3d
       0.18971571 0.027871143 0.06168593 0.071374506
0000b0 80 65 8d 3d 0d 20 b8 3c 65 e2 3e 3c 19 06 85 3c
       0.06904125 0.02247622 0.011650656 0.01623826
0000c0 91 4a d0 3d 5e 18 fd 3d f6 6f 17 3e ce ce 78 3d
       0.101704724 0.12358163 0.14788803 0.0607441
0000d0 36 f0 01 3e fa 7e ea 3c 85 c0 93 3d 8d f3 da 3c
       0.1268929 0.028625 0.072144546 0.026727462
0000e0 b2 dd a5 bd 8e 6c e7 bc a8 df c3 3a 70 22 34 bd
       -0.08098926 -0.028250005 0.0014943974 -0.043978155
0000f0 b0 77 9a bc fd d4 87 bd e4 12 ac 3b 1c 83 90 3d
       -0.0188559 -0.06632421 0.0052512754 0.07056257
000100 73 be d8 3c a9 7f bc 3d 62 c7 6f 3c 5d 15 63 3d
       0.026458 0.09204037 0.014634939 0.055440295
000110 05 ed b4 3c bf 13 47 3d 1e 48 14 bc 55 ac da 3c
       0.022085676 0.048602816 -0.009050397 0.026693502
000120 70 6b 2b bd 8f 66 00 3c d5 55 37 3d 1b 44 9d 3c
       -0.041850507 0.007836952 0.04475959 0.019197514
000130 2f 9c 18 3d 47 04 92 3c 72 33 fc bc a9 37 81 3d
       0.037258323 0.017824305 -0.03078625 0.063094445
000140 ea db 92 bd 56 b1 06 3e 16 51 93 bb 9f e6 97 bc
       -0.071708515 0.13153586 -0.00449575 -0.018542586
000150 27 7f b7 bb 2e 07 97 3c e9 5a 30 3d e6 41 0f 3e
       -0.0055998745 0.01843604 0.04305545 0.13989982
000160 64 21 d3 3d 44 d6 cb 3d 22 78 94 3d b6 b5 5e 3d
       0.10309103 0.09952977 0.07249476 0.05437251
000170 24 a5 f9 3d 7a 9e 80 bd 9f 19 23 3d 99 ac 79 3d
       0.12189701 -0.06280227 0.039819356 0.060955618
000180 9e 73 a6 3d b4 6b 96 bd 12 e8 c6 3d 01 2b 95 3c
       0.08127521 -0.073447615 0.09712233 0.018208982
000190 80 01 ff bb a9 08 38 3d 0b a0 4e bd cf c6 31 bd
       -0.0077821612 0.044930134 -0.050445598 -0.04340249
0001a0 19 10 83 3d 78 ff 26 3d f0 69 81 3c b2 5b e2 bc
       0.06399555 0.040770978 0.015797585 -0.027631614
0001b0 d4 af a5 bd 43 ae 17 3c c5 a6 5d bd 87 23 55 3d
       -0.08090177 0.009257856 -0.054114122 0.052035835
0001c0 28 b6 95 bd 5c 85 79 bb f8 1c 6b bb d3 8d de bc
       -0.07310134 -0.0038073873 -0.003587542 -0.027167236
0001d0 30 31 65 bd bb d6 d8 3d d7 0b e0 3d 97 1f 16 bd
       -0.055955112 0.105878316 0.10939758 -0.03665122
0001e0 4b 6d f0 3c 45 56 27 3d cf e4 66 bd 36 b1 8f 3d
       0.02934899 0.040853757 -0.056370553 0.07016222
0001f0 ea 6b ea 3d 80 60 8b 3c 61 63 69 3d 73 91 70 bd
       0.11446364 0.017013788 0.05697954 -0.05873246
000200 78 e9 27 3d f7 6a 3b 3c b2 fa 83 bd 34 83 41 3c
       0.040994138 0.011439077 -0.06444301 0.011811066
000210 cb da 64 bc cb 51 49 3d 0f 27 a5 bd cb c0 fe 3c
       -0.01396818 0.04915027 -0.080640905 0.03109779
000220 3a 49 f0 bc 52 18 00 bb 4c 95 21 3e 23 92 5d 3d
       -0.029331792 -0.0019545746 0.15779608 0.054094445
000230 53 05 86 3c 8e 16 0a 3e db 2b b5 3d 0e 33 08 3c
       0.01635996 0.13485166 0.088462554 0.008312954
000240 b5 ce b0 3d 7b a4 9c 3d 3d 11 27 3c db 34 df 3d
       0.08633176 0.0764856 0.010196981 0.10898753
000250 50 f0 c1 bc 9f e8 6d 3d 5e d9 b3 3d 77 be 5f 3c
       -0.02367416 0.058083173 0.08781694 0.01365625
000260 d2 c3 1e bc c9 6b 09 be a3 25 fc bc 03 82 11 be
       -0.009690242 -0.13420023 -0.030779665 -0.14209752
000270 36 83 5e be a1 94 f3 bd f3 a0 4b be 50 49 e6 bd
       -0.2172974 -0.11893583 -0.19885616 -0.11244452
000280 4c 60 71 bd 3f 01 26 bd 95 79 7f bb 44 f6 1d be
       -0.058929726 -0.040528532 -0.003898238 -0.15425974
000290 ce d6 bc bd 33 54 bd bd 42 7d 09 bd d3 de 21 bd
       -0.09220658 -0.09244575 -0.03356672 -0.039519142
0002a0 de f7 b6 bd 2e cb 36 bd 5d e8 01 be b8 4d 07 3d
       -0.08933996 -0.04462736 -0.12686296 0.033033103
0002b0 9b f6 51 3c 37 a7 80 bd 58 81 46 3d e0 8a 1d bc
       0.012815143 -0.06281894 0.048463196 -0.00961563
0002c0 98 eb 4b bd 10 16 2a bd 40 8d 6a bd e8 72 75 bd
       -0.049785227 -0.041524947 -0.057263613 -0.059924036
0002d0 74 1d 78 be 15 e3 27 be 13 99 33 bd c2 02 b9 bd
       -0.24229985 -0.16395219 -0.043847155 -0.09033729
0002e0 d4 b3 92 be 5c ce 16 be 11 0d 99 be a5 d6 43 bd
       -0.28652823 -0.14727157 -0.2989278 -0.047812123
0002f0 61 e1 43 be 10 73 48 bc 10 73 cd bd 2a 9f 06 bd
       -0.19128944 -0.012234464 -0.10031712 -0.032866634
000300 21 9b 22 be 0f c4 87 bd 16 f3 41 be 55 a8 81 bd
       -0.1587949 -0.06629192 -0.18940386 -0.06330935
000310 76 86 5c bd 83 3f 58 bd 62 c1 6d bd c8 d8 ae 3d
       -0.05383917 -0.052794944 -0.058045752 0.085374415
000320 57 dc e3 3c 14 95 8f 3d 6c 59 b1 3b 0f 7f 22 3e
       0.027815027 0.07010856 0.0054122712 0.15868782
000330 5b fa b0 bc f4 58 e8 3d 83 1a 97 3d 98 b9 6c 3d
       -0.021603754 0.113450915 0.073781036 0.057794183
000340 d2 8d 17 3d 13 71 20 bc 6f 67 0c 3e cc 87 e9 3d
       0.037000485 -0.009792584 0.13711332 0.11402854
000350 cb 68 f8 3d d3 66 f3 3c d8 a4 02 3e e5 fe 2e 3e
       0.12129363 0.029712116 0.12758195 0.17089422
000360 1f bd 6a 3d 44 73 8d bc 2c dc b4 3d e5 91 8c 3d
       0.057309266 -0.017266877 0.08831057 0.06863765
000370 66 fc ee 3d 40 2b ea bb 4a 2b 5a bc d2 2a 8b bd
       0.11669235 -0.007146269 -0.013315985 -0.06795277
000380 1e a9 0a 3e 9d 27 dd bc 28 47 ee bd 33 e9 a2 3c
       0.13541076 -0.026996428 -0.11634666 0.019886589
000390 ca d0 a2 bd 6b 6d e4 bd 8e cc 13 be 6c 1d 74 bd
       -0.079499796 -0.11153682 -0.144335 -0.05959837
0003a0 11 e5 00 be 2d 0b c0 bd d7 a0 e5 bd d4 77 7a 3d
       -0.12587382 -0.093771316 -0.112123184 0.061149433
0003b0 6b 37 f9 3d af 4c 7e 3d 56 f4 b9 3d 70 88 e8 3d
       0.12168773 0.06208485 0.090798065 0.113541484
0003c0 fa 6d 94 be b5 08 88 3d ff 26 c3 bd ce 54 5e 3d
       -0.28990155 0.06642286 -0.09528922 0.054280095
0003d0 43 ed a5 3d 0c 9d d5 bc d4 dc bb 3c 87 d4 89 3d
       0.08101895 -0.026075862 0.022932447 0.067299895
0003e0 b0 71 7e bd 6e eb 4f bd a5 a0 84 bd a8 ef 7b bd
       -0.06212014 -0.050761633 -0.06475953 -0.06150785
0003f0 66 9a f8 3d 63 5c 78 bd f5 65 cf 3d 65 dd 8f 3d
       0.12138824 -0.06063498 0.10126869 0.070246495

decoder.decoder.0.bias f4 [16]
000000 6b 81 95 bd 27 73 b2 3d 8d cc d7 3d 96 30 23 3d
       -0.07300075 0.0871337 0.10537062 0.039841257
000010 93 d9 85 3d 0e b9 c1 3d 62 a5 44 bd 2c b7 a1 bc
       0.065356396 0.094591245 -0.048009284 -0.019740663
000020 d9 ae b2 bc c9 86 ca 3d f8 d7 96 bd 78 a5 a0 bd
       -0.02181189 0.098889895 -0.073654115 -0.07844061
000030 8c 8e 4f 3d 58 7e 8a 3d da be 17 3d 24 5f ea 3d
       0.050673053 0.067623794 0.037047245 0.11443928

decoder.decoder.2.weight f4 [16, 1, 3, 3]
000000 d2 1f b4 3e c3 f0 3c be bb 43 98 3e 06 00 3c 3e
       0.35180527 -0.18451218 0.29739174 0.18359384
000010 28 10 4f be 10 49 cc bc 99 b2 55 bd 65 ac 80 3e
       -0.20221007 -0.024937183 -0.052172277 0.25131527
000020 42 de 53 3e fd ca 4d bd 1f 09 7c 3d 93 b2 4e 3e
       0.20690253 -0.050242413 0.061532136 0.20185308
000030 d2 67 ea 3d 29 98 bd be d8 25 ca be 59 df 34 3d
       0.114455834 -0.3703015 -0.39481997 0.044158313
000040 91 8a 6e be 1f ce 46 be 34 9f 8f be 28 ee d1 bb
       -0.23295046 -0.19414566 -0.2805115 -0.0064065643
000050 e7 cb 3f be 45 0d 9c be 25 64 c0 be b4 81 0e be
       -0.18730126 -0.30478874 -0.37576404 -0.13916665
000060 1c d4 09 3d 1c 80 b6 3d 25 86 ba be c4 fe d9 bc
       0.03364955 0.08911154 -0.3643047 -0.02661074
000070 52 98 33 3d cd 84 99 3e 3b 52 71 bd 0c 33 8d be
       0.043846436 0.2998413 -0.05891631 -0.27578008
000080 9a 47 29 3e 93 3c 00 bc ee bf 63 be 41 43 4d 3e
       0.1653122 -0.007826942 -0.22241184 0.20045187
000090 b7 c2 75 be 94 10 85 be 1d 5b bb be 80 d8 9c 3d
       -0.24000059 -0.2598921 -0.3659295 0.076584816
0000a0 a0 bd e7 be 44 6e a0 3d 44 05 40 be 3c 63 a0 be
       -0.4526186 0.078335315 -0.18752009 -0.3132571
0000b0 a1 f4 ad bd a0 9b 21 bd 77 6a 8f bd dc 00 35 bc
       -0.08493925 -0.039455056 -0.070027284 -0.011047568
0000c0 49 89 15 be 1d c8 31 be e9 d5 a5 bd 20 26 a2 be
       -0.14603151 -0.17361493 -0.08097441 -0.31669712
0000d0 77 b9 05 3e 5f 11 8d be dd 3b d1 bd 4c 1d af 3e
       0.1305903 -0.27552316 -0.10216496 0.3420204
0000e0 c5 a5 cd 3e c7 c6 90 3b 24 78 37 bd 40 3e 86 3e
       0.40165535 0.0044182274 -0.04479231 0.26219368
0000f0 19 f1 92 3e 10 97 b8 3e 0f b7 e6 3e 26 0c c2 be
       0.28699568 0.36052752 0.45061538 -0.37899894
000100 71 ea 53 3d 65 7b a4 3c 03 c1 6a 3e a3 4c b2 3e
       0.051737253 0.02007837 0.2292519 0.34824094
000110 2f f8 b3 3e 8a 4e 01 3e 74 46 9b 3e 38 3d 0b be
       0.35150287 0.12627617 0.3032719 -0.13597572
000120 31 0c a5 bd 51 1d b8 3d cb d1 77 be 9a 39 f4 3c
       -0.08058966 0.08989967 -0.24201123 0.029812623
000130 4b cc 33 3e 4a 94 8e 3e 48 43 73 be d1 aa c5 3d
       0.175584 0.2784751 -0.23756135 0.09651721
000140 32 58 53 3e c3 b1 ab be e2 e6 be 3b 3e 90 9d be
       0.20639113 -0.3353406 0.005825863 -0.3077411
000150 d2 90 0d bc be ec 3f 3c 6c 48 b8 be 40 61 a7 bd
       -0.008640485 0.011714159 -0.35992754 -0.08172846
000160 b0 4d dd be 5f c2 a0 be 76 1c 37 3e bf 10 04 be
       -0.43223333 -0.31398293 0.1788195 -0.12897013
000170 0f 11 c4 3e 7f 0d 2e be 70 4f 76 3e a4 ba ff ba
       0.38294265 -0.16997336 0.2405374 -0.0019510579
000180 d7 4e b4 3e 22 20 a8 3d 53 a9 fa 3e 58 12 dc be
       0.352164 0.08209254 0.4895731 -0.42982745
000190 4b f2 59 3e 62 5f a5 be ed 9c af 3d 0a 3a c8 3e
       0.21283834 -0.32299334 0.08574853 0.3910678
0001a0 9a 1d a5 3e 20 8a 57 be 84 63 47 be 85 e1 ef bd
       0.32249147 -0.21048784 -0.19471556 -0.11712936
0001b0 cb ee 49 3e 22 e1 13 3e 78 35 9f 3e e5 a2 a2 be
       0.19719999 0.1444135 0.3109548 -0.31764904
0001c0 a7 35 95 be db 54 9b 3e a3 72 8a 3d c3 4b 84 3e
       -0.29142496 0.30338177 0.067601465 0.25839052
0001d0 7c 70 d4 bd 31 7f 54 3e 0f de c2 be 95 20 90 3e
       -0.10373017 0.20751645 -0.38060042 0.28149858
0001e0 d6 d3 c5 3d d8 92 dc 3d 3b dc 08 be b9 cb 98 be
       0.09659545 0.10770196 -0.13365261 -0.29842928
0001f0 9a 2d 9b be 82 60 a9 be b5 9b 09 be 32 ab 91 3e
       -0.3030823 -0.33081442 -0.13438304 0.28450924
000200 da 3b 85 be 9e ea 47 be 30 cc 83 3e 63 20 86 be
       -0.26022226 -0.19523093 0.2574172 -0.26196584
000210 71 1f 9d 3c 7d f9 f2 3d f0 8a 8a 3d a3 93 05 3e
       0.019180031 0.11863992 0.067647815 0.130446
000220 ba 8e b0 be 63 52 55 be 4e a5 74 be ed d5 40 3e
       -0.34483892 -0.2083221 -0.23891184 0.18831606
000230 1d fc 2d be 35 bb c6 bc f6 eb 00 3c 2c 07 76 be
       -0.16990705 -0.02425919 0.0078687575 -0.24026173
