500_ML/models/weights_1599_10-04_04:16.pt (torch_old, 39980 bytes, 7 tensors)

encoder.encoder.0.weight f4 [16, 1, 3, 3]
0	0xbdd1ff49	-0.1025377
1	0x3d9adc74	0.07561579
2	0xbe342615	-0.17592652
3	0x3eaec66d	0.34135762
4	0x3ea217e7	0.3165886
5	0x3ec560aa	0.3855031
6	0x3ecc4b71	0.39901307
7	0x3dfb358b	0.12266072
8	0x3eb26f2f	0.3485045
9	0x3e48ed10	0.19621682
10	0xbdbaaf86	-0.0911551
11	0xbe3b7cc9	-0.1830932
12	0x3edcd83e	0.4313373
13	0x3edc212d	0.4299406
14	0xbd86494c	-0.06556949
15	0x3e59da94	0.21274787
16	0x3e8910ed	0.26770726
17	0x3cc72575	0.024309853
18	0x3e45f0b4	0.19330102
19	0x3e285091	0.16436984
20	0xbd20eba0	-0.03928721
21	0x3ed2cf9f	0.41174027
22	0x3e1a71d8	0.1508249
23	0x3e885996	0.2663085
24	0x3e7a7af0	0.2446096
25	0x3d2fa076	0.042877637
26	0x3e7200c6	0.23633108
27	0xbe8a815a	-0.27051812
28	0x3e859fa9	0.26098374
29	0xbe43695e	-0.19083163
30	0xbc70a8e0	-0.0146887
31	0xbc8ac550	-0.016939789
32	0xbe842b70	-0.2581439
33	0x3e5a92b2	0.21345022
34	0xbe043938	-0.12912452
35	0xbe5ce52b	-0.21571796
36	0x3e6a1146	0.22858152
37	0xbd786761	-0.060645465
38	0xbcbf6461	-0.023363294
39	0x3e9bce09	0.3043063
40	0xbc6feba2	-0.014643582
41	0x3ce11de7	0.027480079
42	0x3df6f160	0.120577574
43	0xbd53986a	-0.051659025
44	0xbd988763	-0.07447698
45	0xbe47933c	-0.19489759
46	0x3d7b382a	0.06133286
47	0x3e6735dc	0.2257914
48	0xbdb77d4a	-0.08959444
49	0x3ecd1f9e	0.40063184
50	0x3eb17c78	0.34665275
51	0x3e833de0	0.25633144
52	0x3e9cad18	0.3060081
53	0x3ea1a378	0.3157003
54	0x3df3e66e	0.11909185
55	0xbdaf796b	-0.085680805
56	0x3e8eee90	0.27916384
57	0xbd7b145d	-0.061298717
58	0xbcc48de2	-0.023993436
59	0xbe7a92ef	-0.24470113
60	0x3e9ecda2	0.3101626
61	0xbe09fdc3	-0.13475709
62	0xbe4c345a	-0.19941846
63	0xbdb15470	-0.08658683
64	0xbb815900	-0.003947377
65	0x3e3346ba	0.17507449
66	0xbd86a68c	-0.06574735
67	0xbe47343e	-0.19453523
68	0xbe1c3b90	-0.15257096
69	0xbd5c1e08	-0.053739578
70	0xbea6537e	-0.32485574
71	0x3e686432	0.22694471
72	0xbe63ab20	-0.22233248
73	0xbe214493	-0.15748815
74	0x3e25676f	0.16152738
75	0x3cd68838	0.026188001
76	0x3bbdcbde	0.005792125
77	0x3db3e174	0.08783236
78	0x3e414af2	0.18876246
79	0x3e74d425	0.23909052
80	0x3e6547b4	0.22390634
81	0x3ddf180c	0.108932585
82	0xbe8f82a2	-0.28029352
83	0xbc1c3980	-0.009535193
84	0xbe2ff5e3	-0.17183642
85	0x3d7cb180	0.061692715
86	0xbdc20a8c	-0.09474668
87	0xbdd98cd6	-0.106225654
88	0xbe9f6dcc	-0.31138456
89	0x3e9de991	0.3084226
90	0x3eb95257	0.36195633
91	0x3e3afe87	0.18261157
92	0xbe42bc03	-0.19017033
93	0xbb995593	-0.0046793907
94	0x3e972796	0.2952239
95	0xbc438e78	-0.011935823
96	0xbdbf0411	-0.093269475
97	0x3e8ea22f	0.2785811
98	0xbe5f42b4	-0.21802789
99	0x3c64689b	0.0139409555
100	0xbe015d4d	-0.12633248
101	0x3e977466	0.29580992
102	0xbe4c6071	-0.19958664
103	0xbb91dbae	-0.0044512367
104	0xbb8b348d	-0.004248208
105	0x3d89732a	0.06711419
106	0x3e93a8ef	0.28839824
107	0x3d874acb	0.066060625
108	0xbe5390df	-0.20660733
109	0xbe0378d6	-0.12839064
110	0x3e3dc301	0.1853142
111	0xbe5b1e0c	-0.2139818
112	0x3c3e17ce	0.011602355
113	0x3eb5b1db	0.35487255
114	0x3ebcccb6	0.36874932
115	0x3e40427e	0.18775365
116	0x3e960c1f	0.29306123
117	0x3d3271c0	0.04356551
118	0x3d929910	0.071581006
119	0xbe8a2e58	-0.26988482
120	0xbd229df8	-0.039701432
121	0x3dd5c420	0.104377985
122	0xbe86fe6c	-0.26365983
123	0x3e28d0ea	0.16485944
124	0x3d2eb788	0.042655498
125	0xbe23bdd0	-0.15990376
126	0xbdc29610	-0.095012784
127	0xbda0aef4	-0.0784587
128	0x3e45a936	0.1930283
129	0xbe81f1fb	-0.2537993
130	0x3dbbcb74	0.09169665
131	0xbe6b4d58	-0.22978723
132	0x3de24370	0.11048019
133	0x3d1b4888	0.037910968
134	0xbe91a10f	-0.2844319
135	0x3e997fb3	0.2998024
136	0x3ea34fdf	0.31896874
137	0x3c661c7d	0.014044878
138	0xbe231120	-0.15924501
139	0x3e99d441	0.3004475
140	0xbca4ce52	-0.020117912
141	0x3e494a2c	0.196572
142	0xbbb02236	-0.005375172
143	0x3e7f9895	0.24960549

encoder.encoder.0.bias f4 [16]
0	0x3ead2f2b	0.3382505
1	0xbc6d507f	-0.014484524
2	0xbc519d99	-0.012793922
3	0xbe825eca	-0.25462943
4	0x3e75f7c4	0.24020296
5	0xbcb85eac	-0.02250608
6	0xbe3daa6c	-0.18522042
7	0xbe7f028e	-0.24903318
8	0x3e6f3b86	0.2336255
9	0xbe3ca16b	-0.18420951
10	0x3de768d2	0.1129929
11	0x3e32be90	0.17455506
12	0x3e49b95d	0.19699617
13	0xbe42da5b	-0.19028609
14	0xbe7b9870	-0.24569869
15	0xbdc9f157	-0.09860485

encoder.encoder.2.weight f4 [32, 16, 3, 3]
0	0x3e0fcf05	0.14043815
1	0x3e1d1674	0.15340596
2	0x3e13850d	0.14406224
3	0x3d6d0635	0.057867248
4	0x3d17b8b9	0.0370414
5	0x3e13a1b6	0.14417157
6	0x3dbc1996	0.09184568
7	0x3d35d05d	0.044388164
8	0x3e200e94	0.15630561
9	0xbdd48457	-0.10376804
10	0xbd8797e0	-0.06620765
11	0xbdd5f8dc	-0.10447857
12	0xbd80d733	-0.06291046
13	0xbdcba050	-0.099426866
14	0xbe0238cb	-0.12716977
15	0xbd5f1d36	-0.054471217
16	0xbdb7f5a6	-0.089824006
17	0xbe1dc74f	-0.15408061
18	0xbce1fc04	-0.02758599
19	0xbd3acc70	-0.045605123
20	0xbe02d813	-0.12777738
21	0xbc571dbd	-0.013129649
22	0xbbbd0db5	-0.0057694563
23	0xbcd2d241	-0.025735023
24	0xbdb382b3	-0.08765163
25	0xbd4325de	-0.047643535
26	0xbe0a8c5d	-0.13530107
27	0xbce390fc	-0.027779095
28	0x3cbe5510	0.02323392
29	0xbcb7a38c	-0.022416852
30	0xbda9260a	-0.082592085
31	0x3c945c7c	0.018110506
32	0x3d941599	0.07230682
33	0xbcba0f50	-0.02271238
34	0x3d026d00	0.03184223
35	0xbd741313	-0.059588503
36	0x3dd611f6	0.104526445
37	0x3ddc5736	0.10758822
38	0x3d341980	0.04396963
39	0x3d7d30a9	0.061813984
40	0x3d875b01	0.066091545
41	0x3e0d0559	0.13771571
42	0x3dc5eeb2	0.09664668
43	0x3d6e8e99	0.05824146
44	0x3d8ac018	0.0677492
45	0xbdf942d2	-0.12170948
46	0xbd3149d6	-0.043283306
47	0xbcb37349	-0.021905558
48	0x3b655f7c	0.003499954
49	0xbd0ae740	-0.033911943
50	0xbde59b06	-0.11211209
51	0xbd265099	-0.040604208
52	0xbe0fc765	-0.14040907
53	0xbe1c7512	-0.15279034
54	0xbdb5ed05	-0.088830985
55	0xbd9c0fc9	-0.07620198
56	0xbda39ce6	-0.079889104
57	0x3d888a19	0.06666965
58	0xbcc59081	-0.024116756
59	0xbc8dc2f5	-0.017304877
60	0x3b9a70c0	0.004713148
61	0xbce6215d	-0.02809208
62	0xbc0a7afb	-0.008452172
63	0x3cf511bc	0.029915683
64	0x3cbd6a64	0.02312202
65	0xbd8e12a4	-0.06937149
66	0x3bb34890	0.0054712966
67	0x3d1c0048	0.038086206
68	0x3d56e2aa	0.052462257
69	0xbd859556	-0.06522624
70	0xbd995b8b	-0.074881636
71	0xbcadf300	-0.021234035
72	0x3e06b019	0.13153113
73	0x3de086a5	0.109631814
74	0x3dcfc8a8	0.10145694
75	0x3dd1f30a	0.10251434
76	0x3e2f0385	0.17091186
77	0x3d9cd0a5	0.07656983
78	0x3c9c30c5	0.019066224
79	0x3c7fbc63	0.01560888
80	0x3dd0232a	0.10162957
81	0xbd0c1f7b	-0.03420971
82	0x3d1201b6	0.035646163
83	0xbd99ed9f	-0.07516026
84	0xbcf9ece6	-0.03050847
85	0xbd569d2b	-0.05239598
86	0xbd80273a	-0.06257482
87	0xbd30df46	-0.04318168
88	0x3cf08ae0	0.029363096
89	0x3bc10b80	0.0058912635
90	0x3e389f42	0.18029502
91	0x3d66dc34	0.056362346
92	0x3e02b7bf	0.12765406
93	0x3d5eae37	0.054365363
94	0x3dd85720	0.10563493
95	0x3ddf463b	0.10902067
96	0x3df603fc	0.12012479
97	0x3e299b50	0.16563153
98	0x3db2f8e0	0.087388754
99	0x3cf7a6bc	0.030230872
100	0x3e1a75fc	0.1508407
101	0x3d572549	0.052525792
102	0x3c9ee7c2	0.01939762
103	0x3d1ca00b	0.038238566
104	0x3e2bea45	0.16788585
105	0x3d77364a	0.06035451
106	0x3cfd77b5	0.03094087
107	0x3c7fc69e	0.015611319
108	0x3e0587e0	0.13040113
109	0x3e239172	0.15973452
110	0x3e12daf8	0.14341342
111	0x3e15d1f8	0.14630878
112	0x3d96aabb	0.07356783
113	0x3e2a238f	0.16615127
114	0x3e0b530c	0.13605899
115	0x3d8a57e8	0.06755048
116	0x3d9c9fd3	0.076476716
117	0x3c93c624	0.018038817
118	0xbd0b6068	-0.034027487
119	0x3d2830e2	0.041062243
120	0xbc95e5ac	-0.018297993
121	0x3d2646b0	0.040594757
122	0x3b1f1800	0.002427578
123	0x3ce8dba4	0.028425045
124	0xb9de6f00	-0.0004242584
125	0xba851b40	-0.0010155216
126	0x3d8a1653	0.06742539
127	0xbda9b403	-0.08286288
128	0x3ce4d844	0.027935155
129	0xbd570778	-0.052497357
130	0xbd809736	-0.06278841
131	0x3c4cebd8	0.012507401
132	0x3d35528e	0.044268183
133	0xbc126000	-0.008934021
134	0x3da15541	0.07877589
135	0xbd469f79	-0.04849193
136	0xbd78ad4b	-0.06071214
137	0xbe1d7489	-0.15376486
138	0x3c4c8766	0.012483453
139	0xbe1180e0	-0.14209318
140	0xbd1b8153	-0.03796513
141	0xbdd0406f	-0.1016854
142	0xbd876fed	-0.06613145
143	0xbe0cc874	-0.13748342
144	0xbba095da	-0.004900676
145	0xbbb44ec4	-0.0055025537
146	0x3dd9d2cb	0.10635909
147	0xbbaa969e	-0.0052059432
148	0xbce5dabe	-0.028058406
149	0xbc986344	-0.018602021
150	0x3d999708	0.0749951
151	0x3d7cc29d	0.061709035
152	0x3dcdba43	0.10045292
153	0x3c8c3c91	0.017118724
154	0x3da2cad4	0.07948843
155	0xbc4c7c81	-0.012480856
156	0x3d595b98	0.053065866
157	0x3da45240	0.080235004
158	0x3d4ffb7d	0.050776947
159	0x3e138d7c	0.14409441
160	0x3e02cab5	0.12772639
161	0x3e1e5755	0.15463002
162	0x3c7439d9	0.01490637
163	0x3e0ab0d9	0.13544025
164	0x3de278ce	0.11058198
165	0x3d59df8f	0.053191718
166	0x3d18943d	0.037250746
167	0x3e16fc0f	0.1474459
168	0x3b7066a1	0.0036682265
169	0x3ce1aa65	0.02754707
170	0x3d5dd063	0.05415381
171	0x3c853894	0.01626233
172	0x3d1b600e	0.0379334
173	0x3bd4e510	0.006497033
174	0xbda574da	-0.08078928
175	0xbd9b231c	-0.07575056
176	0x3d7e767a	0.062124707
177	0x3d5c6bca	0.053813733
178	0x3d3b2236	0.045686923
179	0x3d0534d8	0.0325211
180	0xbc706961	-0.014673562
181	0xbd9a09aa	-0.075213745
182	0x3c8f1abb	0.0174688
183	0x3d7b8894	0.061409548
184	0x3d826832	0.0636753
185	0xbd6d2cea	-0.05790416
186	0x3d055ecf	0.03256112
187	0xbcd8ae53	-0.026450312
188	0xbcdbcc2c	-0.026830755
189	0x3d137a7e	0.03600549
190	0x3e02bdf7	0.12767778
191	0x3de900f5	0.11377136
192	0x3dab42ac	0.08362326
193	0x3e172aa8	0.14762366
194	0x3d3d6485	0.04623844
195	0x3c95d96c	0.018292151
196	0x3d9b2253	0.07574906
197	0x3dd16e0d	0.10226069
198	0xbd5eadf3	-0.05436511
199	0x3c5d0d60	0.013491958
200	0xbd0fca50	-0.03510505
201	0x3c0d2720	0.008615285
202	0xbc94d170	-0.018166274
203	0xbb4bc498	-0.003109252
204	0xbda1d61f	-0.079021685
205	0xbd88de82	-0.06683065
206	0x3d17ea49	0.037088666
207	0x3d11dec8	0.03561285
208	0x3c7f5780	0.0155848265
209	0xbd9f74c7	-0.077859454
210	0xbd045716	-0.032309614
211	0x3cf6c320	0.03012234
212	0x3ba0e7c0	0.0049104393
213	0x3cf94acc	0.030431174
214	0x3d50d4f2	0.05098433
215	0xbc85127c	-0.016244166
216	0xbbb3c88d	-0.005486554
217	0x3d4b66f9	0.04965875
218	0x3d057e34	0.03259106
219	0xbd8cad40	-0.06868982
220	0x3cbf35e1	0.023341121
221	0xbcf03174	-0.029320456
222	0x3ce1f636	0.027583223
223	0xbc8b9c76	-0.01704238
224	0x3ce1a94a	0.027546544
225	0xbd0ec968	-0.034860045
226	0x3d2b253a	0.04178355
227	0xbd2ef403	-0.042713176
228	0xbaf7fd00	-0.0018920004
229	0xbd2ce720	-0.042212605
230	0x3b663ca0	0.003513135
231	0xba34e180	-0.0006900057
232	0xbd2a8c53	-0.04163773
233	0xbd8ff6e4	-0.070295125
234	0xbc089f36	-0.00833874
235	0x3ce3990b	0.027782938
236	0x3d69ce24	0.057081357
237	0x3cbce370	0.02305767
238	0x3d5bb077	0.053635087
239	0xbcddc7c8	-0.027072802
240	0x3de501b3	0.11181965
241	0xbd3f26c0	-0.046667814
242	0xbcfad6d5	-0.030620018
243	0x3d29b3f6	0.04143139
244	0x3d95c1fc	0.0731239
245	0xbcf7f7fd	-0.030269617
246	0xbd098f56	-0.03358396
247	0xbd39f74c	-0.045401856
248	0xbd49dea2	-0.049284585
249	0x3d89738c	0.06711492
250	0xbd0a5e4e	-0.033781342
251	0x3d1170d1	0.03550798
252	0xbbb80b2a	-0.0056165652
253	0x3ce23378	0.027612433
254	0x3d0c348a	0.034229793
255	0x3bd8a991	0.0066120108

encoder.encoder.2.bias f4 [32]
0	0x3d104e95	0.03523119
1	0xbce3a313	-0.02778772
2	0x3e0c8f26	0.13726482
3	0x3df7abe6	0.12093334
4	0x3e0c10cf	0.13678287
5	0xbd3f4539	-0.046696875
6	0x3e0c7957	0.13718162
7	0x3e1daf6a	0.15398946
8	0xbc16ada0	-0.009196669
9	0x3db11319	0.08646221
10	0xbcf52b20	-0.02992779
11	0x3e22b8dc	0.15890831
12	0x3e2d7717	0.1693996
13	0xbed95907	-0.42450735
14	0x3db24fc0	0.08706617
15	0xbdc3957d	-0.09549997
16	0xbd889b8b	-0.066702925
17	0x3cd3deed	0.025863135
18	0xbdb59131	-0.08865584
19	0x3dda8640	0.106701374
20	0x3c321918	0.010870241
21	0xbd76506d	-0.060135294
22	0xbd2682a8	-0.040651947
23	0xbd28b344	-0.041186586
24	0x3da01bd2	0.07817806
25	0x3da4f472	0.08054437
26	0xbd028680	-0.03186655
27	0x3ee3ad02	0.44467932
28	0x3dc6c5bc	0.097056836
29	0x3cd9f415	0.026605645
30	0x3e0abd4a	0.1354877
31	0x3e1ca311	0.1529658

decoder.decoder.0.weight f4 [32, 16, 3, 3]
0	0x3d9e07ee	0.07716356
1	0x3cbc06ab	0.022952398
2	0x3ac3994e	0.0014923008
3	0x3b16f4e3	0.0023034147
4	0x3d1d2b9d	0.03837167
5	0x3d8c94f4	0.06864348
6	0xbc3dd93b	-0.011587436
7	0x3cd3ba31	0.025845619
8	0x3cac2bdd	0.02101701
9	0x3d9f9873	0.07792749
10	0x3d6ae201	0.05734444
11	0x3e07a215	0.13245423
12	0x3d09b6e1	0.033621673
13	0x3e291614	0.16512328
14	0x3e22ca2d	0.15897436
15	0x3d716fd9	0.058944557
16	0x3e366c6e	0.178148
17	0x3e0cfeef	0.13769124
18	0x3e00eae6	0.12589607
19	0x3e12e81c	0.14346355
20	0x3e11398a	0.14182106
21	0x3df4f9a5	0.119616784
22	0x3d8f37a8	0.069930375
23	0x3e27e2c5	0.163951
24	0x3da3de9d	0.080014445
25	0x3d6f5f90	0.058440745
26	0x3db4a5c0	0.08820677
27	0x3c60582d	0.013692898
28	0xbd82215a	-0.063540176
29	0x3cb8bca8	0.022550896
30	0xbda0523d	-0.07828186
31	0xbd79e21e	-0.061006658
32	0xbcc458e5	-0.02396817
33	0xbdae982a	-0.08525117
34	0xbd8dbbac	-0.06920561
35	0xbdd6041c	-0.104500026
36	0x3e06f40b	0.13179033
37	0x3d511102	0.05104161
38	0x3e096821	0.13418628
39	0x3e1d95c3	0.15389161
40	0x3e41dcee	0.18931934
41	0x3ce52078	0.027969584
42	0x3d7e6b80	0.06211424
43	0x3d90942e	0.07059513
44	0x3d8db9ad	0.069201805
45	0x3cbbd1b9	0.022927152
46	0x3c3a53c2	0.0113725085
47	0x3c825dbd	0.015913839
48	0x3dcf772d	0.10130153
49	0x3dfdba18	0.1238901
50	0x3e176a71	0.14786698
51	0x3d71e0be	0.05905222
52	0x3e025950	0.12729383
53	0x3ce71881	0.028209927
54	0x3d93ed6d	0.0722302
55	0x3cea0c56	0.028570335
56	0xbda5960b	-0.08085259
57	0xbce35d54	-0.027754463
58	0x3afce370	0.0019293856
59	0xbd375e92	-0.044767924
60	0xbc8375c3	-0.016047364
61	0xbd8a19e8	-0.067432225
62	0x3be2b6a3	0.0069187446
63	0x3dc19bff	0.09453582
64	0x3cc262bf	0.023728726
65	0x3db39bf8	0.08769983
66	0x3c7d6098	0.015464924
67	0x3d689073	0.056778383
68	0x3ca9c593	0.020724094
69	0x3d41bcdf	0.047299262
70	0xbc33588b	-0.010946403
71	0x3c9e2e24	0.019309111
72	0xbd0f1e97	-0.034941282
73	0x3c06a969	0.0082191015
74	0x3d70c3a3	0.058780324
75	0xbbc9145d	-0.0061364607
76	0x3d1ef461	0.038807277
77	0x3c2d78f4	0.0105879195
78	0xbbe29248	-0.0069144107
79	0x3d83350c	0.06406602
80	0xbd9ea9f6	-0.07747261
81	0x3e074291	0.13208987
82	0xbb975390	-0.0046181157
83	0xbc9a01e2	-0.018799726
84	0xbbb5fcca	-0.0055538164
85	0x3c9526df	0.018207012
86	0x3d301ef0	0.042998254
87	0x3e0f054c	0.13966864
88	0x3dd2dfbf	0.102965824
89	0x3dcc7612	0.099834576
90	0x3d95d247	0.07315498
91	0x3d64c790	0.05585438
92	0x3dcde231	0.10052908
93	0xbd7f2976	-0.0622954
94	0x3d1ee38c	0.038791224
95	0x3d6ffe5c	0.058592185
96	0x3df48a76	0.11940472
97	0xbd9baa1c	-0.07600805
98	0x3db6a97e	0.08919047
99	0x3c952b01	0.018208982
100	0xbbff0180	-0.0077821612
101	0x3d3808a9	0.044930134
102	0xbd4ea00b	-0.050445598
103	0xbd2ff1a1	-0.042955045
104	0x3d831019	0.06399555
105	0x3d26ff78	0.040770978
106	0x3c8169f0	0.015797585
107	0xbce25bb2	-0.027631614
108	0xbda5afd4	-0.08090177
109	0x3c17ae43	0.009257856
110	0xbd5da6c5	-0.054114122
111	0x3d552387	0.052035835
112	0xbd95b628	-0.07310134
113	0xbb79855c	-0.0038073873
114	0xbb6b3dec	-0.0035895063
115	0xbcde8dd3	-0.027167236
116	0xbd653130	-0.055955112
117	0x3dd8b4d5	0.10581366
118	0x3de02c85	0.109459914
119	0xbd12ca08	-0.035837203
120	0x3ced5246	0.028969895
121	0x3d25add7	0.04044899
122	0xbd61a9b3	-0.05509348
123	0x3d8ea559	0.06965131
124	0x3de8a5e8	0.11359769
125	0x3c8c36a5	0.0171159
126	0x3d696361	0.05697954
127	0xbd848451	-0.0647055
128	0x3d1f0fee	0.03883355
129	0x3b7b1a2c	0.003831516
130	0xbd83fab2	-0.06444301
131	0x3c28ca7a	0.01030218
132	0xbc64dacb	-0.01396818
133	0x3d118532	0.035527416
134	0xbdaa9000	-0.08328247
135	0x3cfc4c38	0.030798063
136	0xbcf107f8	-0.029422745
137	0xbafc5bac	-0.0019253395
138	0x3e213598	0.157431
139	0x3d5d9223	0.054094445
140	0x3c83f9a5	0.01611025
141	0x3e09c7d6	0.13455138
142	0x3db50acc	0.0883995
143	0x3c074917	0.008257172
144	0x3da6d1f9	0.08145518
145	0x3d9c7a8c	0.076405615
146	0x3c3e7653	0.01162489
147	0x3dd70a66	0.1050003
148	0xbcb525fb	-0.022112837
149	0x3d71384c	0.05889158
150	0x3dbaf272	0.09128274
151	0x3c5dfb88	0.013548739
152	0xbbbeab7e	-0.0058187833
153	0xbe090d84	-0.13384062
154	0xbd02c2f3	-0.0319242
155	0xbe11a3c7	-0.14222632
156	0xbe926c5a	-0.2859829
157	0xbde8e69b	-0.113721095
158	0xbea246b2	-0.3169456
159	0xbde88500	-0.11353493
160	0xbd779258	-0.0604423
161	0xbd1c1ac1	-0.038111452
162	0xbb4dc191	-0.0031395892
163	0xbe1a7e56	-0.15087256
164	0xbdc09da9	-0.09405071
165	0xbdbc8d9c	-0.09206697
166	0xbd06fa53	-0.03295357
167	0xbd20141d	-0.03908168
168	0xbdb876f6	-0.09007065
169	0xbd14294e	-0.036172204
170	0xbe02e6c0	-0.12783337
171	0x3d074db8	0.033033103
172	0x3c5d2461	0.013497443
173	0xbd80a737	-0.06281894
174	0x3d468158	0.048463196
175	0xbc1d8ae0	-0.00961563
176	0xbd4beb98	-0.049785227
177	0xbd2a1610	-0.041524947
178	0xbd68a7a6	-0.056800507
179	0xbd7572e8	-0.059924036
180	0xbe449a37	-0.19199453
181	0xbe31c154	-0.17358905
182	0xbda66ed8	-0.081266105
183	0xbdc1adfa	-0.094570115
184	0xbe5784bd	-0.2104673
185	0xbe18e59d	-0.1493134
186	0xbe9f3f10	-0.311028
187	0xbd5383bc	-0.051639304
188	0xbe7a615e	-0.24451205
189	0xbbd9d869	-0.0066481126
190	0xbdf0ba7e	-0.117543206
191	0xbcf5306f	-0.029930321
192	0xbe2406a4	-0.16018158
193	0xbd85b6f6	-0.06529038
194	0xbe3819ba	-0.17978564
195	0xbd7a05ab	-0.06104056
196	0xbd5b5725	-0.053549904
197	0xbd4b9bf5	-0.04970928
198	0xbd718448	-0.058964044
199	0x3dadca17	0.08485811
200	0x3caef0aa	0.021354992
201	0x3d96700b	0.07345589
202	0x3bb1596c	0.0054122712
203	0x3e2531c9	0.16132273
204	0xbc71bfdc	-0.0147552155
205	0x3de2d385	0.110755004
206	0x3d999810	0.07499707
207	0x3d75b2a5	0.05998482
208	0x3d0f5017	0.03498849
209	0xbc24d5bb	-0.010060723
210	0x3e0dce6b	0.13848273
211	0x3de6ad49	0.1126352
212	0x3df5de59	0.120053
213	0x3cefbcfb	0.029264918
214	0x3dfdeb9e	0.12398456
215	0x3e2d19e1	0.16904403
216	0x3d795ba3	0.060878407
217	0xbc815045	-0.015785346
218	0x3dba7572	0.09104432
219	0x3d90f55c	0.070780486
220	0x3de737d6	0.11289947
221	0xbbe11386	-0.0068687825
222	0xbc3e7de8	-0.011626698
223	0xbd6bb96f	-0.05754989
224	0x3e05168c	0.12996882
225	0x3d06c1b0	0.03289956
226	0xbda1ec83	-0.07906439
227	0x3c5126f4	0.012765635
228	0xbda4f9d2	-0.08055462
229	0xbdb2c8b1	-0.08729685
230	0xbe1b335b	-0.1515631
231	0xbd8a512f	-0.06753766
232	0xbdb65e7a	-0.08904739
233	0xbdc3ad53	-0.09554543
234	0xbe0dc2d7	-0.13843857
235	0x3d859c60	0.06523967
236	0x3dc0a3f9	0.09406275
237	0x3d82d738	0.06388706
238	0x3db7d85c	0.08976814
239	0x3deaabc6	0.114585444
240	0xbe3fe031	-0.18737866
241	0x3d873a2c	0.06602892
242	0xbc128a91	-0.00894417
243	0x3d5e54ce	0.054280095
244	0x3da5ed43	0.08101895
245	0xbcd59d0c	-0.026075862
246	0x3cbbdcd4	0.022932447
247	0x3d8bf2fc	0.06833455
248	0xbd7e71b0	-0.06212014
249	0xbd4feb6e	-0.050761633
250	0xbd84a0a5	-0.06475953
251	0xbd7befa8	-0.06150785
252	0x3e012437	0.12611471
253	0xbd785c63	-0.06063498
254	0x3dd30e7b	0.10305496
255	0x3d8fdd65	0.070246495

decoder.decoder.0.bias f4 [16]
0	0xbd94ed5b	-0.072718345
1	0x3db1a6eb	0.08674415
2	0x3dd7a484	0.10529426
3	0x3d23258e	0.039830737
4	0x3d85899f	0.0652039
5	0x3dc1c527	0.09461432
6	0xbd447fc8	-0.047973424
7	0xbca2a8f4	-0.019855954
8	0xbcb75893	-0.022381103
9	0x3dca7154	0.09884897
10	0xbd966fa1	-0.0734551
11	0xbda08cd2	-0.07839359
12	0x3d4f8e8c	0.050673053
13	0x3d8a572f	0.0675491
14	0x3d182057	0.037140217
15	0x3dea501a	0.114410594

decoder.decoder.2.weight f4 [16, 1, 3, 3]
0	0x3eb85260	0.36000347
1	0xbe3b4cc7	-0.18291007
2	0x3e975deb	0.2956384
3	0x3e3ca48c	0.18422145
4	0xbe44fbf3	-0.19236736
5	0xbbfbde97	-0.007686447
6	0xbda488f1	-0.08033932
7	0x3e827852	0.25482422
8	0x3e4becae	0.19914505
9	0xbd56086d	-0.05225413
10	0x3d7e1a51	0.062036816
11	0x3e4c7574	0.1996668
12	0x3deb4810	0.11488354
13	0xbebc9dfa	-0.36839277
14	0xbec9fb73	-0.39449653
15	0x3d1ecbdd	0.038768638
16	0xbe6b9e0d	-0.2300951
17	0xbe4a075f	-0.19729374
18	0xbe909a6a	-0.2824281
19	0xbbc9b42a	-0.0061555104
20	0xbe40edc3	-0.18840699
21	0xbe9bdc91	-0.30441716
22	0xbebf9bf3	-0.37423667
23	0xbe0e2bc6	-0.13883886
24	0x3cf15d5b	0.02946346
25	0x3dba8d82	0.09109022
26	0xbebaec8e	-0.36508602
27	0xbcd839ea	-0.026394803
28	0x3d34756a	0.044057287
29	0x3e99b5c7	0.30021498
30	0xbd7345fb	-0.05939291
31	0xbe8cc2cf	-0.27492377
32	0x3e29c63b	0.16579525
33	0xbbe5b8f0	-0.0070105717
34	0xbe63d3dd	-0.22248788
35	0x3e4da457	0.20082222
36	0xbe76dd30	-0.24107814
37	0xbe84c11e	-0.25928587
38	0xbebc512f	-0.36780688
39	0x3d9da824	0.07698086
40	0xbee6d054	-0.45080817
41	0x3da1872f	0.07887112
42	0xbe43d87e	-0.19125554
43	0xbe9f1b1c	-0.3107537
44	0xbdb38c38	-0.08766979
45	0xbd1f4fc0	-0.038894415
46	0xbd8f6b7b	-0.07002922
47	0xbc36b9ef	-0.011152728
48	0xbe152feb	-0.1456906
49	0xbe30f91e	-0.1728253
50	0xbda43ae7	-0.08019047
51	0xbea2c277	-0.3178899
52	0x3e06b54d	0.13155098
53	0xbe8d3e27	-0.2758648
54	0xbdd0b530	-0.10190809
55	0x3eafd7e9	0.34344414
56	0x3ed7115a	0.42005426
57	0x3a8178d4	0.0009877929
58	0xbd3610ea	-0.044449724
59	0x3e8582e4	0.26076424
60	0x3ea00401	0.31253055
61	0x3eb844e6	0.35990065
62	0x3ee01779	0.43767908
63	0xbec2a3b8	-0.38015532
64	0x3d585b28	0.05282131
65	0x3ce399a2	0.027783219
66	0x3e65c8fc	0.2243995
67	0x3eaf4f04	0.34239972
68	0x3eb45c78	0.35226798
69	0x3e12a306	0.14320001
70	0x3e9268b0	0.28595495
71	0xbe081c0f	-0.13291954
72	0xbd1cdb38	-0.038295
73	0x3dd6ec8b	0.10494336
74	0xbe7b153f	-0.24519823
75	0x3cee113d	0.029060954
76	0x3e2a2774	0.16616613
77	0x3e93c896	0.28863972
78	0xbe5f5340	-0.21809101
79	0x3d8eb93a	0.06968923
80	0x3e498cb3	0.19682579
81	0xbeacb5d4	-0.33732474
82	0x3bcdb7eb	0.0062780282
83	0xbe9dfb51	-0.30855802
84	0xbc0629a2	-0.008188637
85	0x3c5d4a5a	0.013506496
86	0xbeb80d40	-0.3594761
87	0xbdaf7804	-0.08567813
88	0xbedc48ee	-0.4302439
89	0xbea0b464	-0.31387627
90	0x3e434c12	0.19071987
91	0xbdf8f05e	-0.121552214
92	0x3ec07e69	0.37596443
93	0xbe2d5833	-0.16928177
94	0x3e818d10	0.25302935
95	0x3be16efd	0.006879686
96	0x3eaf26ee	0.34209388
97	0x3dc7b7c8	0.0975185
98	0x3eed62a9	0.46364334
99	0xbe99ee8e	-0.30064815
100	0x3de1d2a8	0.110265076
101	0xbe9f1dd6	-0.3107745
102	0x3e4d6f93	0.20062093
103	0x3eccc64a	0.39995033
104	0x3eb4aad5	0.35286584
105	0xbe1634a2	-0.14668515
106	0xbe4a9762	-0.1978431
107	0x3d9631bc	0.07333705
108	0x3e49e7f6	0.19717392
109	0x3e13e122	0.1444135
110	0x3e9f3578	0.3109548
111	0xbea2a2e5	-0.31764904
112	0xbe953898	-0.2914474
113	0x3e9b54db	0.30338177
114	0x3d8a6d87	0.06759172
115	0x3e844bc3	0.25839052
116	0xbdd4707c	-0.10373017
117	0x3e518027	0.20459042
118	0xbec28eea	-0.3799966
119	0x3e8f5088	0.27991128
120	0x3dc6a1e8	0.0969885
121	0x3ddf707e	0.10910128
122	0xbe08fd47	-0.13377868
123	0xbe9a3e44	-0.3012563
124	0xbe9a0814	-0.30084288
125	0xbeaa12c0	-0.3321743
126	0xbe06f429	-0.13179077
127	0x3e91d45e	0.28482336
128	0xbe8530bd	-0.26013747
129	0xbe48205b	-0.19543593
130	0x3e839641	0.25700572
131	0xbe848552	-0.25882965
132	0x3c85e027	0.016342236
133	0x3deef16b	0.116671406
134	0x3d8ce9d3	0.06880536
135	0x3e059860	0.13046408
136	0xbeb08ccf	-0.34482428
137	0xbe54e4a4	-0.20790344
138	0xbe7485e9	-0.23879208
139	0x3e414a9a	0.18876114
140	0xbe2d939c	-0.1695084
141	0xbccf9c34	-0.025343038
142	0x3c0b3c65	0.008498286
143	0xbe754126	-0.23950633
