500_ML/models/weights_4099_10-04_04:16.pt (torch_old, 39980 bytes, 7 tensors)

encoder.encoder.0.weight f4 [16, 1, 3, 3]
-0.10014641 0.07684273 -0.1749111 0.3427722 0.31682873 0.3854317 0.39970326 0.12211439
0.3475796 0.19497097 -0.08170213 -0.17205697 0.4390765 0.4482016 -0.045387357 0.22451845
0.28973806 0.048470832 0.17477262 0.17028217 -0.030329973 0.40932947 0.17244013 0.29161558
0.2506103 0.07278173 0.27053967 -0.27051812 0.26098374 -0.19083163 -0.0146887 -0.016939789
-0.2581439 0.21345022 -0.12912452 -0.21571796 0.23254396 -0.062343262 -0.025649132 0.3048513
-0.019958653 0.021364791 0.11973865 -0.058456533 -0.082206436 -0.20742105 0.06380164 0.23012741
-0.09149513 0.4136458 0.3621017 0.25915802 0.32389238 0.33649105 0.11909185 -0.085680805
0.27916384 -0.061298717 -0.023993436 -0.24470113 0.3101626 -0.13475709 -0.19941846 -0.08658683
-0.003947377 0.17507449 -0.06574735 -0.19453523 -0.15257096 -0.053739578 -0.32485574 0.22694471
-0.22172472 -0.16022374 0.15841164 0.024844794 0.0010447091 0.08255448 0.18669163 0.23359047
0.21783811 0.108932585 -0.28029352 -0.009535193 -0.17183642 0.061692715 -0.09474668 -0.106225654
-0.31138456 0.3084226 0.3644419 0.18422943 -0.18861234 -0.0031235558 0.29586047 -0.011583334
-0.092109814 0.2787288 -0.21822098 0.014501138 -0.12809399 0.29373643 -0.2017309 -0.009021379
-0.009280635 0.064161435 0.28300261 0.0601628 -0.20653088 -0.12763974 0.18601373 -0.21403004
0.012228183 0.35537887 0.36843428 0.18807933 0.2932483 0.04356551 0.071581006 -0.26988482
-0.039701432 0.104377985 -0.26365983 0.16485944 0.042655498 -0.15990376 -0.095012784 -0.0784587
0.1930283 -0.2537993 0.09169665 -0.22978723 0.11048019 0.037910968 -0.2844319 0.2998024
0.31899697 0.014074304 -0.15922731 0.3004811 -0.020083748 0.19658971 -0.005341013 0.2496381
00000000: 9019 cdbd b95f 9d3d e51b 33be d67f af3e
00000010: 6037 a23e 4e57 c53e e8a5 cc3e 1c17 fa3d
00000020: f4f5 b13e 78a6 473e 7253 a7bd b42f 30be
00000030: a3ce e03e ae7a e53e 18e8 39bd 2ae8 653e
00000040: 8c58 943e 5a89 463d 98f7 323e 735e 2e3e
00000050: 9076 f8bc a293 d13e 2594 303e a34e 953e
00000060: fe4f 803e 960e 953d 2d84 8a3e 5a81 8abe
00000070: a99f 853e 5e69 43be e0a8 70bc 50c5 8abc
00000080: 702b 84be b292 5a3e 3839 04be 2be5 5cbe
00000090: 0120 6e3e a65b 7fbd 211e d2bc 7815 9c3e
000000a0: 5480 a3bc 3705 af3c 8a39 f53d 1e70 6fbd
000000b0: d95b a8bd 2f66 54be 6faa 823d 85a6 6b3e
000000c0: cc61 bbbd 62c9 d33e 6565 b93e 5cb0 843e
000000d0: 39d5 a53e 8e48 ac3e 6ee6 f33d 6b79 afbd
000000e0: 90ee 8e3e 5d14 7bbd e28d c4bc ef92 7abe
000000f0: a2cd 9e3e c3fd 09be 5a34 4cbe 7054 b1bd
00000100: 0059 81bb ba46 333e 8ca6 86bd 3e34 47be
00000110: 903b 1cbe 081e 5cbd 7e53 a6be 3264 683e
00000120: ce0b 63be b111 24be a936 223e 4f87 cb3c
00000130: 9fee 883a 5312 a93d 172c 3f3e 5732 6f3e
00000140: f410 5f3e 0c18 df3d a282 8fbe 8039 1cbc
00000150: e3f5 2fbe 80b1 7c3d 8c0a c2bd d68c d9bd
00000160: cc6d 9fbe 91e9 9d3e 2198 ba3e a4a6 3c3e
00000170: 9823 41be 92b4 4cbb 067b 973e 06c8 3dbc
00000180: 12a4 bcbd 8bb5 8e3e 5275 5fbe 2e96 6d3c
00000190: 122b 03be 9f64 963e 8c92 4ebe 68ce 13bc
000001a0: ce0d 18bc 1267 833d b8e5 903e 456d 763d
000001b0: d57c 53be feb3 02be 627a 3e3e b12a 5bbe
000001c0: b858 483c 38f4 b53e 6ba3 bc3e de97 403e
000001d0: a424 963e c071 323d 1099 923d 582e 8abe
000001e0: f89d 22bd 20c4 d53d 6cfe 86be ead0 283e
000001f0: 88b7 2e3d d0bd 23be 1096 c2bd f4ae a0bd
00000200: 36a9 453e fbf1 81be 74cb bb3d 584d 6bbe
00000210: 7043 e23d 8848 1b3d 0fa1 91be b37f 993e
00000220: 9253 a33e e997 663c 7c0c 23be a9d8 993e
00000230: ac86 a4bc d04e 493e aa03 afbb 21a1 7f3e

encoder.encoder.0.bias f4 [16]
0.3394484 -0.0064343372 -0.011668873 -0.25462943 0.24159874 -0.01992452 -0.18522042 -0.24903318
0.2350498 -0.18420951 0.11470254 0.1759735 0.19819602 -0.19028609 -0.24569869 -0.09856966
00000000: 2ecc ad3e 22d7 d2bb cd2e 3fbc ca5e 82be
00000010: a965 773e bf38 a3bc 6caa 3dbe 8e02 7fbe
00000020: e5b0 703e 6ba1 3cbe 2ae9 ea3d 6632 343e
00000030: e6f3 4a3e 5bda 42be 7098 7bbe e4de c9bd

encoder.encoder.2.weight f4 [32, 16, 3, 3]
0.14063476 0.15361577 0.14421813 0.057896797 0.037271008 0.14433058 0.091914825 0.044660192
0.15650204 -0.088616654 -0.05651577 -0.1003805 -0.059128486 -0.10211646 -0.1351651 -0.048781384
-0.09087481 -0.16179447 -0.01300432 -0.036791153 -0.12248298 -0.008850535 -0.0085444 -0.032397687
-0.083857805 -0.051209666 -0.14321779 -0.027779095 0.02323392 -0.022416852 -0.082592085 0.018110506
0.07230682 -0.02271238 0.03184223 -0.059588503 0.10461148 0.10786597 0.044146642 0.06187928
0.0665912 0.13809736 0.096699074 0.05872726 0.068108894 -0.11291168 -0.040983234 -0.019389125
0.004834527 -0.039631672 -0.11778098 -0.039154258 -0.14632753 -0.15865465 -0.088830985 -0.07620198
-0.079889104 0.06666965 -0.024116756 -0.017304877 0.004713148 -0.02809208 -0.008452172 0.029915683
0.02312202 -0.06937149 0.0054712966 0.038086206 0.052462257 -0.06522624 -0.074881636 -0.021234035
0.13152914 0.109722085 0.1015497 0.10246456 0.17121086 0.07686649 0.019056551 0.015956543
0.10198094 -0.03420971 0.035646163 -0.07516026 -0.03050847 -0.05239598 -0.06257482 -0.04318168
0.029363096 0.0058912635 0.18152861 0.057545237 0.1286212 0.05507746 0.10689064 0.11002533
0.120544106 0.166581 0.08798365 0.03026061 0.15096621 0.05268643 0.019412875 0.038664646
0.16835804 0.060302436 0.031301964 0.016018476 0.13052154 0.15984811 0.14353923 0.14626461
0.07377989 0.16637301 0.13605013 0.06780523 0.07674987 0.018038817 -0.034027487 0.041062243
-0.018297993 0.040594757 0.002427578 0.028425045 -0.0004242584 -0.0010155216 0.06742539 -0.08286288
0.027935155 -0.052497357 -0.06278841 0.012507401 0.044268183 -0.008934021 0.07877589 -0.04851371
-0.06073591 -0.15379135 0.01245849 -0.14211982 -0.037992228 -0.10171175 -0.06616002 -0.13750872
-0.010071089 -0.0017913368 0.11234151 -0.010787957 -0.025891118 -0.013800024 0.06617339 0.060168438
0.101578735 0.0022279911 0.07015662 -0.01368491 0.047918312 0.082153276 0.060032688 0.13407397
0.12356394 0.15901038 -0.0031870513 0.1253172 0.10722684 0.046645097 0.040209167 0.15674743
-0.005114631 0.027789507 0.0611473 0.01626233 0.0379334 0.006497033 -0.08078928 -0.07575056
0.062124707 0.053813733 0.045686923 0.0325211 -0.017251613 -0.07243407 0.024084173 0.05320904
0.058854915 -0.05797679 0.024741486 -0.030965695 -0.026496066 0.02505876 0.12619941 0.112707965
0.08135218 0.15469381 0.053953305 0.012829602 0.07948684 0.106451385 -0.05436511 0.013491958
-0.03510505 0.008615285 -0.018166274 -0.003109252 -0.079021685 -0.06683065 0.037088666 0.03561285
0.0155848265 -0.077859454 -0.032309614 0.03012234 0.0049104393 0.030431174 0.05098433 -0.016244166
-0.0061006737 0.05950769 0.04275868 -0.07372271 0.026942782 -0.025353532 0.018666863 -0.018333437
0.026272891 -0.034860045 0.04178355 -0.042713176 -0.0018920004 -0.042212605 0.003513135 -0.0006900057
-0.04163773 -0.070295125 -0.037474256 0.026556686 0.06422021 -0.011173296 0.046814717 -0.023049084
0.08545686 -0.045097444 -0.015773235 0.039265156 0.083421536 -0.020915447 -0.040991955 -0.042749446
-0.047846116 0.05943816 -0.031729408 0.03630093 -0.010020914 0.037956435 0.04504541 0.001044973
00000000: 8f02 103e 744d 1d3e ebad 133e 3125 6d3d
00000010: 7ca9 183d 65cb 133e d73d bc3d 9bed 363d
00000020: 1242 203e a67c b5bd 147d 67bd 4b94 cdbd
00000030: b630 72bd 6f22 d1bd b868 0abe fdce 47bd
00000040: 931c babd 73ad 25be 1210 55bc 52b2 16bd
00000050: 5bd8 fabd d601 11bc d0fd 0bbc 70b3 04bd
00000060: a4bd abbd 3ac1 51bd afa7 12be fc90 e3bc
00000070: 1055 be3c 8ca3 b7bc 0a26 a9bd 7c5c 943c
00000080: 9915 943d 500f babc 006d 023d 1313 74bd
00000090: 8b3e d63d d5e8 dc3d 1cd3 343d 2175 7d3d
000000a0: f860 883d 6569 0d3e 2a0a c63d ff8b 703d
000000b0: ad7c 8b3d 3d3e e7bd 09de 27bd f1d5 9ebc
000000c0: f46a 9e3b d254 22bd 2837 f1bd 3760 20bd
000000d0: e2d6 15be 5d76 22be 05ed b5bd c90f 9cbd
000000e0: e69c a3bd 198a 883d 8190 c5bc f5c2 8dbc
000000f0: c070 9a3b 5d21 e6bc fb7a 0abc bc11 f53c
00000100: 646a bd3c a412 8ebd 9048 b33b 4800 1c3d
00000110: aae2 563d 5695 85bd 8b5b 99bd 00f3 adbc
00000120: 93af 063e f9b5 e03d 4af9 cf3d f0d8 d13d
00000130: e651 2f3e 2e6c 9d3d 7c1c 9c3c 4cb7 823c
00000140: 62db d03d 7b1f 0cbd b601 123d 9fed 99bd
00000150: e6ec f9bc 2b9d 56bd 3a27 80bd 46df 30bd
00000160: e08a f03c 800b c13b a3e2 393e 8eb4 6b3d
00000170: 47b5 033e e798 613d 7be9 da3d f654 e13d
00000180: d4df f63d 3694 2a3e c630 b43d 19e5 f73c
00000190: e396 1a3e bacd 573d c007 9f3c d25e 1e3d
000001a0: 0d66 2c3e b0ff 763d 7d36 003d 2e39 833c
000001b0: 70a7 053e 39af 233e f3fb 123e 64c6 153e
000001c0: e919 973d b05d 2a3e ba50 0b3e 78dd 8a3d
000001d0: 092f 9d3d 24c6 933c 6860 0bbd e230 283d
000001e0: ace5 95bc b046 263d 0018 1f3b a4db e83c
000001f0: 006f deb9 401b 85ba 5316 8a3d 03b4 a9bd
00000200: 44d8 e43c 7807 57bd 3697 80bd d8eb 4c3c
00000210: 8e52 353d 0060 12bc 4155 a13d 50b6 46bd
00000220: 38c6 78bd 7b7b 1dbe b21e 4c3c dc87 11be
00000230: bd9d 1bbd 404e d0bd e87e 87bd 16cf 0cbe
00000240: 3501 25bc 4acb eaba 4e13 e63d f9bf 30bc
00000250: 9c19 d4bc 7f19 62bc ea85 873d 2e73 763d
00000260: 8308 d03d 7d03 123b 46ae 8f3d ac36 60bc
00000270: fe45 443d fa3f a83d d6e4 753d b04a 093e
00000280: 170f fd3d 9ed3 223e d9dd 50bb 2753 003e
00000290: bf99 db3d ee0e 3f3d 5eb2 243d 6682 203e
000002a0: a298 a7bb d2a6 e33c 9775 7a3d 9438 853c
000002b0: 0e60 1b3d 10e5 d43b da74 a5bd 1c23 9bbd
000002c0: 7a76 7e3d ca6b 5c3d 3622 3b3d d834 053d
000002d0: 4153 8dbc 5058 94bd 2c4c c53c b9f1 593d
000002e0: da11 713d 1279 6dbd a8ae ca3c c5ab fdbc
000002f0: 470e d9bc 0748 cd3c 6b3a 013e 6fd3 e63d
00000300: f99b a63d 0e68 1e3e 24fe 5c3d 4033 523c
00000310: ffc9 a23d 2f03 da3d f3ad 5ebd 600d 5d3c
00000320: 50ca 0fbd 2027 0d3c 70d1 94bc 98c4 4bbb
00000330: 1fd6 a1bd 82de 88bd 49ea 173d c8de 113d
00000340: 8057 7f3c c774 9fbd 1657 04bd 20c3 f63c
00000350: c0e7 a03b cc4a f93c f2d4 503d 7c12 85bc
00000360: 29e8 c7bb 56be 733d ba23 2f3d effb 96bd
00000370: 1cb7 dc3c 36b2 cfbc 40eb 983c 0130 96bc
00000380: 3f3a d73c 68c9 0ebd 3a25 2b3d 03f4 2ebd
00000390: 00fd f7ba 20e7 2cbd a03c 663b 80e1 34ba
000003a0: 538c 2abd e4f6 8fbd 9b7e 19bd 688d d93c
000003b0: e385 833d 3310 37bc cac0 3f3d 6fd1 bcbc
000003c0: 0204 af3d 19b8 38bd df36 81bc 80d4 203d
000003d0: e9d8 aa3d df56 abbc 2ee7 27bd 0b1a 2fbd
000003e0: 4afa 43bd 6e75 733d b2f6 01bd 49b0 143d
000003f0: c22e 24bc 3578 1b3d 8981 383d 7af7 883a

encoder.encoder.2.bias f4 [32]
0.035526935 -0.029107207 0.13788952 0.121310145 0.13719694 -0.049438752 0.13747835 0.15417977
-0.009196669 0.08663389 -0.02992779 0.15914308 0.16975637 -0.48303685 0.087696284 -0.09308498
-0.06579247 0.024646252 -0.08865584 0.10701141 0.010870241 -0.060135294 -0.044994853 -0.039566357
0.07833472 0.08074818 -0.03186655 0.5255452 0.09733277 0.026957145 0.13583659 0.15344793
00000000: b184 113d 3d72 eebc e932 0d3e 7471 f83d
00000010: 5b7d 0c3e 4a80 4abd 20c7 0c3e 4de1 1d3e
00000020: a0ad 16bc 1c6d b13d 202b f5bc 67f6 223e
00000030: 9dd4 2d3e 9b50 f7be 1c9a b33d 57a3 bebd
00000040: 34be 86bd f0e6 c93c 3191 b5bd cc28 db3d
00000050: 1819 323c 6d50 76bd 864c 38bd 5510 22bd
00000060: f46d a03d 4d5f a53d 8086 02bd 218a 063f
00000070: 6756 c73d 3bd5 dc3c bf18 0b3e 7421 1d3e

decoder.decoder.0.weight f4 [32, 16, 3, 3]
0.08013145 0.022945434 -0.001033868 0.0066986987 0.03991768 0.06935335 -0.009962534 0.025836688
0.02447142 0.07776455 0.057120822 0.13280609 0.03336118 0.16578917 0.15963045 0.059740912
0.17923576 0.13777846 0.1257159 0.14329898 0.14214066 0.119795166 0.07014568 0.1644343
0.080109306 0.058475856 0.0881327 0.013692898 -0.065249525 0.022550896 -0.07828186 -0.061006658
-0.02396817 -0.08525117 -0.068909116 -0.104500026 0.1312703 0.051323768 0.13446547 0.15409957
0.18991132 0.02765145 0.061513074 0.071612686 0.06895548 0.022257017 0.011455505 0.016282357
0.1016822 0.123322584 0.1477573 0.06189124 0.1266973 0.02933012 0.07210642 0.026244363
-0.08129273 -0.027591854 0.0014165856 -0.043469336 -0.019427165 -0.06582037 0.003637366 0.065415375
0.027120044 0.08938103 0.0149024 0.055056587 0.022601072 0.037624154 -0.008022632 0.029161833
-0.039931376 0.008687243 0.037619453 0.024671685 0.033858776 0.021206949 -0.049565487 0.063102424
-0.07725036 0.1313256 -0.004505249 -0.018398486 -0.005751612 0.018518548 0.042940717 0.13990977
0.10349253 0.09931687 0.07057283 0.05413773 0.12796521 -0.062135946 0.040304217 0.06233685
0.08027399 -0.07215378 0.09862618 0.018208982 -0.0077821612 0.044930134 -0.050445598 -0.043639492
0.06399555 0.040770978 0.015797585 -0.027631614 -0.08090177 0.009257856 -0.054114122 0.052035835
-0.07310134 -0.0038073873 -0.0035801767 -0.027167236 -0.055955112 0.10580172 0.10946168 -0.036936294
0.029463211 0.041172985 -0.05715727 0.07030196 0.114861906 0.016159177 0.05697954 -0.05411699
0.040977407 0.018320851 -0.06444301 0.011804096 -0.01396818 0.05001924 -0.07854652 0.031184802
-0.029335395 -0.001962814 0.15781263 0.054094445 0.01644653 0.13514532 0.088479035 0.008209927
0.08501424 0.07657242 0.008534991 0.110078506 -0.025498925 0.057242725 0.08198136 0.013964879
-0.013414264 -0.13547686 -0.024021005 -0.14370611 -0.15709628 -0.12005477 -0.16447295 -0.11258293
-0.056290984 -0.043694362 -0.0021010907 -0.13877955 -0.090787746 -0.09191912 -0.03339793 -0.040097293
-0.08789885 -0.034613237 -0.12723339 0.033033103 0.014256322 -0.06281894 0.048463196 -0.00961563
-0.049785227 -0.041524947 -0.05561043 -0.059924036 -0.22981462 -0.1488514 -0.033756237 -0.08558173
-0.29528132 -0.14510413 -0.26858833 -0.03730225 -0.17990889 -0.017087243 -0.07458081 -0.036321767
-0.15618011 -0.065587245 -0.1928865 -0.06574216 -0.037097026 -0.05492216 -0.06374612 0.085218266
0.034226224 0.06866938 0.0054122712 0.15749152 -0.031142332 0.113912724 0.073647976 0.057515655
0.035841007 -0.009475606 0.13595755 0.11453908 0.12112975 0.029009892 0.12909593 0.17252295
0.056889314 -0.013646775 0.08916301 0.06667216 0.11817628 -0.006323813 -0.015268183 -0.068698436
0.14014666 -0.04422041 -0.14174747 0.01922621 -0.07288374 -0.11351819 -0.14072862 -0.0522561
-0.13147828 -0.09314846 -0.118034445 0.05807271 0.13751133 0.060603343 0.090445206 0.112302266
-0.30438527 0.0646282 -0.097106785 0.054280095 0.08101895 -0.026075862 0.022932447 0.066888936
-0.06212014 -0.050761633 -0.06475953 -0.06150785 0.10773948 -0.06063498 0.09440014 0.070246495
00000000: f51b a43d 10f8 bb3c da82 87ba c280 db3b
00000010: b980 233d 2109 8e3d e539 23bc 76a7 d33c
00000020: 4a78 c83c 0543 9f3d 86f7 693d 52fe 073e
00000030: bca5 083d a3c4 293e 2a76 233e e3b2 743d
00000040: 9489 373e cc15 0d3e abbb 003e f8bc 123e
00000050: 528d 113e 2b57 f53d 8aa8 8f3d 7761 283e
00000060: 5910 a43d 6184 6f3d eb7e b43d 2d58 603c
00000070: 8ba1 85bd a8bc b83c 3d52 a0bd 1ee2 79bd
00000080: e558 c4bc 2a98 aebd 3920 8dbd 1c04 d6bd
00000090: b96b 063e df38 523d 51b1 093e 47cc 1d3e
000000a0: 1d78 423e 4b85 e23c 22f5 7b3d aca9 923d
000000b0: 8838 8d3d 5954 b63c dfaf 3b3c 9462 853c
000000c0: c23e d03d 8d90 fc3d b14d 173e ab81 7d3d
000000d0: f0bc 013e b845 f03c 88ac 933d 6bfe d63c
000000e0: ce7c a6bd 5008 e2bc baac b93a e70c 32bd
000000f0: b825 9fbc d5cc 86bd e060 6e3b 7ff8 853d
00000100: db2a de3c 670d b73d 3229 743c 0483 613d
00000110: e225 b93c c91b 1a3d 5c71 03bc cce4 ee3c
00000120: 158f 23bd f054 0e3c db16 1a3d 461c ca3c
00000130: 80af 0a3d 32ba ad3c 2e05 4bbd d83b 813d
00000140: 7035 9ebd 387a 063e c5a0 93bb 6cb8 96bc
00000150: 0578 bcbb 36b4 973c 9be2 2f3d 8244 0f3e
00000160: e4f3 d33d a566 cb3d 7d88 903d 86bf 5d3d
00000170: 5009 033e 4382 7ebd 0916 253d ed54 7f3d
00000180: b166 a43d 5cc5 93bd 86fc c93d 012b 953c
00000190: 8001 ffbb a908 383d 0ba0 4ebd 53bf 32bd
000001a0: 1910 833d 78ff 263d f069 813c b25b e2bc
000001b0: d4af a5bd 43ae 173c c5a6 5dbd 8723 553d
000001c0: 28b6 95bd 5c85 79bb 66a1 6abb d38d debc
000001d0: 3031 65bd 92ae d83d 722d e03d 834a 17bd
000001e0: d55c f13c 01a5 283d be1d 6abd 79fa 8f3d
000001f0: b83c eb3d 4060 843c 6163 693d c7a9 5dbd
00000200: edd7 273d 9c15 963c b2fa 83bd f865 413c
00000210: cbda 64bc f9e0 4c3d ffdc a0bd 4577 ff3c
00000220: c850 f0bc 8ea2 00bb a299 213e 2392 5d3d
00000230: e0ba 863c 8963 0a3e 7f34 b53d ee82 063c
00000240: f21b ae3d 00d2 9c3d 59d6 0b3c d770 e13d
00000250: 1fe3 d0bc 5977 6a3d d8e5 a73d f3cc 643c
00000260: 80c7 5bbc 72ba 0abe b3c7 c4bc b227 13be
00000270: d9dd 20be 46df f5bd 996b 28be e191 e6bd
00000280: 6091 66bd dcf8 32bd 74b2 09bb 3a1c 0ebe
00000290: edee b9bd 1740 bcbd 45cc 08bd 0f3d 24bd
000002a0: 5004 b4bd 9cc6 0dbd 7849 02be b84d 073d
000002b0: 5993 693c 37a7 80bd 5881 463d e08a 1dbc
000002c0: 98eb 4bbd 1016 2abd c3c7 63bd e872 75bd
000002d0: 8654 6bbe 806c 18be fb43 0abd 7945 afbd
000002e0: 1d2f 97be 2d96 14be 6984 89be 3eca 18bd
000002f0: 093a 38be 8cfa 8bbc d3bd 98bd 22c6 14bd
00000300: aeed 1fbe 9b52 86bd 0a84 45be d3a3 86bd
00000310: 0df3 17bd 0ff6 60bd 538d 82bd ea86 ae3d
00000320: cc30 0c3d 88a2 8c3d 6c59 b13b 7545 213e
00000330: 341e ffbc 134b e93d c0d4 963d 8995 6b3d
00000340: 05ce 123d 923f 1bbc 7538 0b3e 7793 ea3d
00000350: e012 f83d 27a6 ed3c b931 043e dba9 303e
00000360: c504 693d b996 5fbc 199b b63d 6a8b 883d
00000370: 6806 f23d fd37 cfbb 6727 7abc c4b1 8cbd
00000380: 9b82 0f3e 7620 35bd 4026 11be 4980 9d3c
00000390: 1244 95bd 3a7c e8bd 2a1b 10be 7e0a 56bd
000003a0: 3ea2 06be 9fc4 bebd 0bbc f1bd a6dd 6d3d
000003b0: c5cf 0c3e 363b 783d 563b b93d bbfe e53d
000003c0: 63d8 9bbe ca5b 843d ecdf c6bd ce54 5e3d
000003d0: 43ed a53d 0c9d d5bc d4dc bb3c 11fd 883d
000003e0: b071 7ebd 6eeb 4fbd a5a0 84bd a8ef 7bbd
000003f0: 84a6 dc3d 635c 78bd dc54 c13d 65dd 8f3d

decoder.decoder.0.bias f4 [16]
-0.07331045 0.087234095 0.10539602 0.039861854 0.06540806 0.09457847 -0.047931448 -0.019702839
-0.021812078 0.098895304 -0.073794074 -0.07845266 0.050673053 0.06761245 0.036995478 0.11442692
00000000: ca23 96bd caa7 b23d ded9 d73d 2f46 233d
00000010: a9f4 853d 5bb2 c13d c453 44bd d967 a1bc
00000020: 3eaf b2bc 9f89 ca3d 5921 97bd caab a0bd
00000030: 8c8e 4f3d 6578 8a3d 9288 173d a958 ea3d

decoder.decoder.2.weight f4 [16, 1, 3, 3]
0.34850368 -0.18529202 0.29771894 0.18423799 -0.2051624 -0.02770482 -0.0408697 0.24923018
0.20985131 -0.049471024 0.0613173 0.20255734 0.11435413 -0.37091392 -0.39485115 0.046015095
-0.23375645 -0.1931761 -0.2797646 -0.006481992 -0.18703523 -0.30487168 -0.37621987 -0.13918316
0.035162557 0.088550285 -0.36415944 -0.026783772 0.043699164 0.2997273 -0.058771763 -0.2764684
0.16495827 -0.008352302 -0.2223428 0.20028688 -0.23947796 -0.26014975 -0.3654683 0.076539226
-0.45318425 0.07822139 -0.18611129 -0.31395102 -0.08394382 -0.03994485 -0.07021218 -0.0111476965
-0.14613512 -0.17385532 -0.081278436 -0.31629157 0.13008155 -0.2759809 -0.10040857 0.34059766
0.39254767 0.0068715513 -0.04586855 0.26445508 0.28086093 0.3603625 0.45345473 -0.37898412
0.050301887 0.017977895 0.23392929 0.35198313 0.35231334 0.12392903 0.30875987 -0.1326504
-0.09880313 0.08459823 -0.23639423 0.036873937 0.18418206 0.28059244 -0.23949212 0.10868704
0.21274611 -0.3346515 0.0054686214 -0.3078359 -0.008844073 0.010970082 -0.3600465 -0.08056012
-0.43283585 -0.3141956 0.176211 -0.12948044 0.383008 -0.16421004 0.23619622 -0.0061949706
0.35549867 0.079585746 0.49722502 -0.49519515 0.22781894 -0.3402412 0.035184383 0.37865937
0.29346147 -0.2301331 -0.2030418 -0.22463825 0.19724914 0.1444135 0.3109548 -0.31764904
-0.29138693 0.30338177 0.06760794 0.25839052 -0.10373017 0.20875709 -0.38089335 0.28166375
0.096430406 0.10720263 -0.13354817 -0.29761058 -0.30377886 -0.33041015 -0.13566977 0.28402743
-0.26019374 -0.19354181 0.25833818 -0.26273328 0.02028221 0.11981819 0.06748087 0.13051748
-0.34479812 -0.20855054 -0.23894793 0.18809088 -0.17005832 -0.023809554 0.00756883 -0.24083684
00000000: 136f b23e 31bd 3dbe 9e6e 983e e2a8 3c3e
00000010: 1816 52be 38f5 e2bc fd66 27bd 3236 7f3e
00000020: 43e3 563e 21a2 4abd d927 7b3d 316b 4f3e
00000030: 8032 ea3d 6ee8 bdbe ee29 cabe 537a 3c3d
00000040: da5d 6fbe f5cf 45be 4e3d 8fbe e466 d4bb
00000050: 2a86 3fbe 2418 9cbe e49f c0be 0886 0ebe
00000060: 9d06 103d da59 b53d 1b73 babe a469 dbbc
00000070: e5fd 323d db75 993e a9ba 70bd 448d 8dbe
00000080: d2ea 283e 18d8 08bc d5ad 63be 0118 4d3e
00000090: b639 75be 5932 85be a91e bbbe 99c0 9c3d
000000a0: c407 e8be 8932 a03d f593 3ebe 30be a0be
000000b0: bdea abbd 369d 23bd 67cb 8fbd d4a4 36bc
000000c0: 72a4 15be 2107 32be 4f75 a6bd f8f0 a1be
000000d0: 1934 053e 5e4d 8dbe 02a3 cdbd d162 ae3e
000000e0: 02fc c83e c02a e13b a9e0 3bbd a866 873e
000000f0: 01cd 8f3e 6f81 b83e 382b e83e 350a c2be
00000100: 5a09 4e3d 6146 933c 298b 6f3e 2237 b43e
00000110: 6a62 b43e 81ce fd3d c615 9e3e 82d5 07be
00000120: 4c59 cabd d641 ad3d 5411 72be 2009 173d
00000130: 399a 3c3e d0a9 8f3e 6c3d 75be 5097 de3d
00000140: 1eda 593e 7157 abbe 1f32 b33b ab9c 9dbe
00000150: bbe6 10bc dcbb 333c 0458 b8be b4fc a4bd
00000160: a99c ddbe 3fde a0be a870 343e 8596 04be
00000170: a019 c43e ad26 28be 6cdd 713e 2eff cabb
00000180: ec03 b63e dafd a23d 4794 fe3e 388a fdbe
00000190: 5e49 693e 1834 aebe 801d 103d a4df c13e
000001a0: 9540 963e 03a8 6bbe 31ea 4fbe 9207 66be
000001b0: aefb 493e 22e1 133e 7835 9f3e e5a2 a2be
000001c0: ab30 95be db54 9b3e 0876 8a3d c34b 843e
000001d0: 7c70 d4bd 6bc4 553e 7404 c3be 3b36 903e
000001e0: 4e7d c53d 0d8d db3d dac0 08be 6a60 98be
000001f0: e788 9bbe 852b a9be 04ed 0abe 0b6c 913e
00000200: 1d38 85be d32f 46be e744 843e fa84 86be
00000210: e126 a63c 3d63 f53d 6933 8a3d 60a6 053e
00000220: 6189 b0be 468e 55be c4ae 74be e59a 403e
00000230: c523 2ebe 410c c3bc f303 f83b ef9d 76be
