500_ML/models/weights_3799_10-04_04:16.pt (torch_old, 39980 bytes, 7 tensors)

encoder.encoder.0.weight f4 [16, 1, 3, 3]
0	0xbdcdc6ba	-0.1004767
1	0x3d9d162f	0.07670247
2	0xbe333c82	-0.1750355
3	0x3eaf6013	0.34252986
4	0x3ea23244	0.31678975
5	0x3ec55676	0.38542527
6	0x3ecc8e66	0.3995239
7	0x3dfa2b5f	0.12215304
8	0x3eb200b6	0.34766167
9	0x3e475e8c	0.1946966
10	0xbdaa2f90	-0.08309853
11	0xbe31af40	-0.17352009
12	0x3ee05e8d	0.43822137
13	0x3ee46f2e	0.44616073
14	0xbd42dc55	-0.047573406
15	0x3e64bea4	0.22338349
16	0x3e932b4c	0.2874397
17	0x3d3c61bc	0.045991644
18	0x3e34b4eb	0.1764714
19	0x3e2d5ee0	0.16930723
20	0xbd00ccf0	-0.031445444
21	0x3ed1eebd	0.41002455
22	0x3e2e6917	0.17032276
23	0x3e941517	0.2892234
24	0x3e8054a7	0.25064585
25	0x3d8f41fa	0.06995006
26	0x3e88df0f	0.2673268
27	0xbe8a815a	-0.27051812
28	0x3e859fa9	0.26098374
29	0xbe43695e	-0.19083163
30	0xbc70a8e0	-0.0146887
31	0xbc8ac550	-0.016939789
32	0xbe842b70	-0.2581439
33	0x3e5a92b2	0.21345022
34	0xbe043938	-0.12912452
35	0xbe5ce52b	-0.21571796
36	0x3e6d92ae	0.23200485
37	0xbd7e9586	-0.062154315
38	0xbcd0640a	-0.025438327
39	0x3e9be81c	0.30450523
40	0xbc9f8fc1	-0.019477727
41	0x3cb384d4	0.021913923
42	0x3df4ad9e	0.11947177
43	0xbd6cfde8	-0.05785933
44	0xbda6f0cb	-0.08151396
45	0xbe52fbc4	-0.20603853
46	0x3d8174da	0.06321116
47	0x3e6af423	0.22944693
48	0xbdba169b	-0.09086343
49	0x3ed3084c	0.41217268
50	0x3eb88891	0.36041692
51	0x3e84d588	0.2594416
52	0x3ea4dc49	0.32199314
53	0x3eab2859	0.3342922
54	0x3df3e66e	0.11909185
55	0xbdaf796b	-0.085680805
56	0x3e8eee90	0.27916384
57	0xbd7b145d	-0.061298717
58	0xbcc48de2	-0.023993436
59	0xbe7a92ef	-0.24470113
60	0x3e9ecda2	0.3101626
61	0xbe09fdc3	-0.13475709
62	0xbe4c345a	-0.19941846
63	0xbdb15470	-0.08658683
64	0xbb815900	-0.003947377
65	0x3e3346ba	0.17507449
66	0xbd86a68c	-0.06574735
67	0xbe47343e	-0.19453523
68	0xbe1c3b90	-0.15257096
69	0xbd5c1e08	-0.053739578
70	0xbea6537e	-0.32485574
71	0x3e686432	0.22694471
72	0xbe632983	-0.22183804
73	0xbe23bddc	-0.15990394
74	0x3e228df3	0.15874462
75	0x3ccb13f0	0.02478978
76	0x3ac07896	0.0014684375
77	0x3daa0770	0.083022
78	0x3e3f1c54	0.1866315
79	0x3e6fa455	0.23402531
80	0x3e5f90a7	0.21832524
81	0x3ddf180c	0.108932585
82	0xbe8f82a2	-0.28029352
83	0xbc1c3980	-0.009535193
84	0xbe2ff5e3	-0.17183642
85	0x3d7cb180	0.061692715
86	0xbdc20a8c	-0.09474668
87	0xbdd98cd6	-0.106225654
88	0xbe9f6dcc	-0.31138456
89	0x3e9de991	0.3084226
90	0x3eba6540	0.36405373
91	0x3e3c7426	0.18403682
92	0xbe4153ba	-0.18879595
93	0xbb5af891	-0.0033412317
94	0x3e977b33	0.2958618
95	0xbc3cf0e3	-0.011532041
96	0xbdbcf8e9	-0.09227163
97	0x3e8ebf19	0.2788017
98	0xbe5f5248	-0.21808732
99	0x3c6bfb75	0.014403214
100	0xbe02f6d0	-0.12789464
101	0x3e967fcc	0.29394376
102	0xbe4e7c08	-0.20164502
103	0xbc0caf68	-0.008586742
104	0xbc103f26	-0.008804118
105	0x3d83a98c	0.06428823
106	0x3e91258f	0.28348967
107	0x3d78a32a	0.06070248
108	0xbe53831a	-0.2065548
109	0xbe02c1f3	-0.12769298
110	0x3e3e6f8d	0.18597241
111	0xbe5b2931	-0.21402432
112	0x3c480095	0.01220717
113	0x3eb5f481	0.35538104
114	0x3ebca723	0.36846265
115	0x3e409949	0.18808474
116	0x3e96288b	0.29327807
117	0x3d3271c0	0.04356551
118	0x3d929910	0.071581006
119	0xbe8a2e58	-0.26988482
120	0xbd229df8	-0.039701432
121	0x3dd5c420	0.104377985
122	0xbe86fe6c	-0.26365983
123	0x3e28d0ea	0.16485944
124	0x3d2eb788	0.042655498
125	0xbe23bdd0	-0.15990376
126	0xbdc29610	-0.095012784
127	0xbda0aef4	-0.0784587
128	0x3e45a936	0.1930283
129	0xbe81f1fb	-0.2537993
130	0x3dbbcb74	0.09169665
131	0xbe6b4d58	-0.22978723
132	0x3de24370	0.11048019
133	0x3d1b4888	0.037910968
134	0xbe91a10f	-0.2844319
135	0x3e997fb3	0.2998024
136	0x3ea35266	0.31898803
137	0x3c66771a	0.014066482
138	0xbe230da8	-0.15923178
139	0x3e99d77d	0.30047217
140	0xbca49840	-0.02009213
141	0x3e494da4	0.19658524
142	0xbbaf4969	-0.0053493273
143	0x3e7f9ec9	0.24962915

encoder.encoder.0.bias f4 [16]
0	0x3eadc3b4	0.33938372
1	0xbbd0bc2e	-0.006370089
2	0xbc417ecb	-0.011810015
3	0xbe825eca	-0.25462943
4	0x3e77514e	0.24152109
5	0xbca4e85e	-0.020130333
6	0xbe3daa6c	-0.18522042
7	0xbe7f028e	-0.24903318
8	0x3e7099d2	0.23496178
9	0xbe3ca16b	-0.18420951
10	0x3deab424	0.1146014
11	0x3e341bb0	0.17588687
12	0x3e4ae255	0.19812901
13	0xbe42da5b	-0.19028609
14	0xbe7b9870	-0.24569869
15	0xbdc9e394	-0.0985786

encoder.encoder.2.weight f4 [32, 16, 3, 3]
0	0x3e1006c9	0.14065088
1	0x3e1d47f1	0.15359475
2	0x3e13a89c	0.14419788
3	0x3d6d3110	0.057908118
4	0x3d189642	0.037252672
5	0x3e13c839	0.14431848
6	0x3dbc3ebd	0.09191654
7	0x3d36d09b	0.044632535
8	0x3e203cc2	0.15648177
9	0xbdb907a7	-0.09034663
10	0xbd6b830f	-0.057498034
11	0xbdcf10f6	-0.10110657
12	0xbd75ca1c	-0.0600072
13	0xbdd0e4cb	-0.10199889
14	0xbe09c93a	-0.13455668
15	0xbd4da2a7	-0.050203945
16	0xbdbae0f7	-0.0912494
17	0xbe2554c3	-0.16145615
18	0xbc7091be	-0.014683185
19	0xbd1b0fe9	-0.03785697
20	0xbdfcccd6	-0.12343757
21	0xbc1df845	-0.009641712
22	0xbc0a0c25	-0.008425747
23	0xbd02ed4c	-0.031964585
24	0xbdade856	-0.0849158
25	0xbd520170	-0.051270902
26	0xbe124550	-0.14284253
27	0xbce390fc	-0.027779095
28	0x3cbe5510	0.02323392
29	0xbcb7a38c	-0.022416852
30	0xbda9260a	-0.082592085
31	0x3c945c7c	0.018110506
32	0x3d941599	0.07230682
33	0xbcba0f50	-0.02271238
34	0x3d026d00	0.03184223
35	0xbd741313	-0.059588503
36	0x3dd65003	0.1046448
37	0x3ddcdad2	0.10783924
38	0x3d34bef5	0.044127423
39	0x3d7d896e	0.06189864
40	0x3d884c2d	0.066551544
41	0x3e0d6234	0.13806993
42	0x3dc612fb	0.09671589
43	0x3d705fe8	0.058685213
44	0x3d8b6e59	0.068081565
45	0xbde94399	-0.11389846
46	0xbd29646e	-0.041355543
47	0xbca33d6a	-0.019926745
48	0x3b918ff2	0.0044422084
49	0xbd209662	-0.039205916
50	0xbdf0813d	-0.117434
51	0xbd22cdb7	-0.039746966
52	0xbe1583d9	-0.14601077
53	0xbe2236d6	-0.15841231
54	0xbdb5ed05	-0.088830985
55	0xbd9c0fc9	-0.07620198
56	0xbda39ce6	-0.079889104
57	0x3d888a19	0.06666965
58	0xbcc59081	-0.024116756
59	0xbc8dc2f5	-0.017304877
60	0x3b9a70c0	0.004713148
61	0xbce6215d	-0.02809208
62	0xbc0a7afb	-0.008452172
63	0x3cf511bc	0.029915683
64	0x3cbd6a64	0.02312202
65	0xbd8e12a4	-0.06937149
66	0x3bb34890	0.0054712966
67	0x3d1c0048	0.038086206
68	0x3d56e2aa	0.052462257
69	0xbd859556	-0.06522624
70	0xbd995b8b	-0.074881636
71	0xbcadf300	-0.021234035
72	0x3e06bc8f	0.13157867
73	0x3de0b2be	0.10971592
74	0x3dcff4b2	0.10154094
75	0x3dd1e881	0.10249425
76	0x3e2f4c0f	0.17118858
77	0x3d9d60af	0.076844566
78	0x3c9c4ed5	0.019080559
79	0x3c827bb5	0.015928129
80	0x3dd0cbd7	0.10195129
81	0xbd0c1f7b	-0.03420971
82	0x3d1201b6	0.035646163
83	0xbd99ed9f	-0.07516026
84	0xbcf9ece6	-0.03050847
85	0xbd569d2b	-0.05239598
86	0xbd80273a	-0.06257482
87	0xbd30df46	-0.04318168
88	0x3cf08ae0	0.029363096
89	0x3bc10b80	0.0058912635
90	0x3e39dcd6	0.18150648
91	0x3d6b280c	0.05741124
92	0x3e0392b4	0.12848932
93	0x3d61930f	0.055071887
94	0x3ddabc68	0.10680467
95	0x3de12c33	0.109947585
96	0x3df6da0a	0.120533064
97	0x3e2a7e4a	0.16649738
98	0x3db41728	0.08793479
99	0x3cf854dc	0.030313902
100	0x3e1a934c	0.15095252
101	0x3d57b93b	0.052666884
102	0x3c9f50e0	0.019447744
103	0x3d1e3fab	0.038634937
104	0x3e2c5c3f	0.16832064
105	0x3d7727b1	0.060340587
106	0x3d001d30	0.031277835
107	0x3c82f7dc	0.01598733
108	0x3e05b190	0.13056016
109	0x3e23ac47	0.15983687
110	0x3e12f78c	0.14352244
111	0x3e15cd71	0.14629151
112	0x3d9711de	0.07376455
113	0x3e2a590e	0.16635534
114	0x3e0b55b7	0.13606916
115	0x3d8ad19e	0.067782626
116	0x3d9d210c	0.07672319
117	0x3c93c624	0.018038817
118	0xbd0b6068	-0.034027487
119	0x3d2830e2	0.041062243
120	0xbc95e5ac	-0.018297993
121	0x3d2646b0	0.040594757
122	0x3b1f1800	0.002427578
123	0x3ce8dba4	0.028425045
124	0xb9de6f00	-0.0004242584
125	0xba851b40	-0.0010155216
126	0x3d8a1653	0.06742539
127	0xbda9b403	-0.08286288
128	0x3ce4d844	0.027935155
129	0xbd570778	-0.052497357
130	0xbd809736	-0.06278841
131	0x3c4cebd8	0.012507401
132	0x3d35528e	0.044268183
133	0xbc126000	-0.008934021
134	0x3da15541	0.07877589
135	0xbd46ae3e	-0.048506014
136	0xbd78bf00	-0.060729027
137	0xbe1d7923	-0.15378241
138	0x3c4c3c8b	0.012465606
139	0xbe118584	-0.14211088
140	0xbd1b96b5	-0.037985522
141	0xbdd04abc	-0.101705045
142	0xbd877b64	-0.06615332
143	0xbe0ccdea	-0.13750425
144	0xbc27ecc7	-0.010249323
145	0xbb15b730	-0.0022844784
146	0x3de4bc91	0.11168779
147	0xbc2b507d	-0.010456202
148	0xbcd5b38c	-0.026086591
149	0xbc69a57e	-0.014260648
150	0x3d899a02	0.06718828
151	0x3d78c41d	0.060733903
152	0x3dd09be5	0.101859845
153	0x3b6ef0ed	0.003645952
154	0x3d9108a3	0.070817254
155	0xbc5fa8f1	-0.013651119
156	0x3d47c2f2	0.0487699
157	0x3da7d99c	0.081958026
158	0x3d720103	0.059082996
159	0x3e0b5554	0.13606769
160	0x3dff71c5	0.12472872
161	0x3e23002b	0.15918033
162	0xbab3b6f5	-0.0013711142
163	0x3e014af0	0.12626243
164	0x3ddc7fa3	0.10766532
165	0x3d42995f	0.047509547
166	0x3d233fd3	0.03985579
167	0x3e1f8665	0.15578611
168	0xbb5a0ec2	-0.0033272956
169	0x3ce8c4e5	0.0284142
170	0x3d79e6b8	0.061011046
171	0x3c853894	0.01626233
172	0x3d1b600e	0.0379334
173	0x3bd4e510	0.006497033
174	0xbda574da	-0.08078928
175	0xbd9b231c	-0.07575056
176	0x3d7e767a	0.062124707
177	0x3d5c6bca	0.053813733
178	0x3d3b2236	0.045686923
179	0x3d0534d8	0.0325211
180	0xbc915416	-0.01774029
181	0xbd94e4b3	-0.072701834
182	0x3cc04e05	0.023474703
183	0x3d5b5ae5	0.05355348
184	0x3d7308b1	0.05933446
185	0xbd6d97f4	-0.058006242
186	0x3cce02ed	0.02514788
187	0xbcf914ad	-0.030405367
188	0xbcd8ef4a	-0.02648129
189	0x3cd5be5b	0.026091745
190	0x3e0149c4	0.12625796
191	0x3de70f66	0.11282234
192	0x3da760bb	0.08172747
193	0x3e1da469	0.15394749
194	0x3d59eb21	0.053202752
195	0x3c66b987	0.014082319
196	0x3da2f860	0.0795753
197	0x3dda3c5b	0.10656043
198	0xbd5eadf3	-0.05436511
199	0x3c5d0d60	0.013491958
200	0xbd0fca50	-0.03510505
201	0x3c0d2720	0.008615285
202	0xbc94d170	-0.018166274
203	0xbb4bc498	-0.003109252
204	0xbda1d61f	-0.079021685
205	0xbd88de82	-0.06683065
206	0x3d17ea49	0.037088666
207	0x3d11dec8	0.03561285
208	0x3c7f5780	0.0155848265
209	0xbd9f74c7	-0.077859454
210	0xbd045716	-0.032309614
211	0x3cf6c320	0.03012234
212	0x3ba0e7c0	0.0049104393
213	0x3cf94acc	0.030431174
214	0x3d50d4f2	0.05098433
215	0xbc85127c	-0.016244166
216	0xbbe57a06	-0.0070030717
217	0x3d6f1466	0.058369063
218	0x3d2a7789	0.041617904
219	0xbd96e6c9	-0.073682375
220	0x3cd9efd5	0.026603619
221	0xbcd2c3c1	-0.025728108
222	0x3c9f47cf	0.01944342
223	0xbc91e46d	-0.017809117
224	0x3cdbb255	0.026818434
225	0xbd0ec968	-0.034860045
226	0x3d2b253a	0.04178355
227	0xbd2ef403	-0.042713176
228	0xbaf7fd00	-0.0018920004
229	0xbd2ce720	-0.042212605
230	0x3b663ca0	0.003513135
231	0xba34e180	-0.0006900057
232	0xbd2a8c53	-0.04163773
233	0xbd8ff6e4	-0.070295125
234	0xbd142312	-0.03616626
235	0x3cdce9be	0.026966926
236	0x3d838cfa	0.064233735
237	0xbc153e64	-0.009109113
238	0x3d406ea7	0.046980526
239	0xbcc1d9fb	-0.023663511
240	0x3db32306	0.087469146
241	0xbd385681	-0.04500437
242	0xbc8b1a23	-0.016980236
243	0x3d1df3b5	0.038562495
244	0x3da8c91c	0.082414836
245	0xbcb271f8	-0.02178286
246	0xbd27b3ea	-0.040943064
247	0xbd30b03d	-0.043136824
248	0xbd44d116	-0.048050962
249	0x3d751a34	0.059839442
250	0xbd0201fc	-0.031740174
251	0x3d155b79	0.03646419
252	0xbc2e4028	-0.010635413
253	0x3d168026	0.036743306
254	0x3d3394e5	0.04384317
255	0x3a97e3cb	0.0011588273

encoder.encoder.2.bias f4 [32]
0	0x3d116e4b	0.035505574
1	0xbced833f	-0.028993247
2	0x3e0d2565	0.13783796
3	0x3df860ec	0.121278614
4	0x3e0c72bf	0.13715647
5	0xbd4a07fa	-0.049324013
6	0x3e0cc059	0.1374525
7	0x3e1ddf1a	0.15417138
8	0xbc16ada0	-0.009196669
9	0x3db16539	0.08661885
10	0xbcf52b20	-0.02992779
11	0x3e22f0d8	0.15912187
12	0x3e2dcc7b	0.16972534
13	0xbef694e5	-0.48160473
14	0x3db38401	0.08765412
15	0xbdbe1423	-0.092811845
16	0xbd86a1f8	-0.06573862
17	0x3cca387f	0.024685143
18	0xbdb59131	-0.08865584
19	0x3ddb1f12	0.106992856
20	0x3c321918	0.010870241
21	0xbd76506d	-0.060135294
22	0xbd37a273	-0.044832658
23	0xbd220d6b	-0.039563578
24	0x3da068d3	0.07832494
25	0x3da5572a	0.08073266
26	0xbd028680	-0.03186655
27	0x3f056c1a	0.52118075
28	0x3dc74992	0.09730829
29	0x3cdca11c	0.026932292
30	0x3e0b138b	0.13581674
31	0x3e1d14d9	0.15339984

decoder.decoder.0.weight f4 [32, 16, 3, 3]
0	0x3da3cbe1	0.07997871
1	0x3cbbfdaf	0.022948114
2	0xba68583b	-0.0008863245
3	0x3bcb301e	0.0062008044
4	0x3d234fda	0.039871074
5	0x3d8d62f3	0.06903639
6	0xbc273028	-0.010204352
7	0x3cd3adac	0.02583965
8	0x3cc32274	0.02382014
9	0x3d9f5240	0.0777936
10	0x3d6a1802	0.057151802
11	0x3e07ef0b	0.13274781
12	0x3d08d53a	0.033406474
13	0x3e29b946	0.16574582
14	0x3e237717	0.15963398
15	0x3d746cf0	0.059674203
16	0x3e377e83	0.17919354
17	0x3e0d0ff4	0.13775617
18	0x3e00bb7c	0.1257152
19	0x3e12cbd9	0.14335574
20	0x3e118b61	0.14213325
21	0x3df5523a	0.11978574
22	0x3d8fa9cd	0.07014809
23	0x3e2860aa	0.16443124
24	0x3da4107b	0.08010956
25	0x3d6f9d5b	0.058499675
26	0x3db48545	0.08814482
27	0x3c60582d	0.013692898
28	0xbd84d10c	-0.06485185
29	0x3cb8bca8	0.022550896
30	0xbda0523d	-0.07828186
31	0xbd79e21e	-0.061006658
32	0xbcc458e5	-0.02396817
33	0xbdae982a	-0.08525117
34	0xbd8d2792	-0.06892313
35	0xbdd6041c	-0.104500026
36	0x3e066ecf	0.13128208
37	0x3d5249cd	0.051339913
38	0x3e09b303	0.13447194
39	0x3e1dd6ba	0.15413943
40	0x3e4266ec	0.18984574
41	0x3ce309e9	0.027714686
42	0x3d7c2ebb	0.061568003
43	0x3d928874	0.071549326
44	0x3d8d4842	0.06898548
45	0x3cb6d2e5	0.02231736
46	0x3c3d539b	0.011555578
47	0x3c85390e	0.016262557
48	0x3dd04d02	0.10170938
49	0x3dfcbdf3	0.123409174
50	0x3e17599e	0.1478028
51	0x3d7bf51e	0.06151306
52	0x3e01cdaf	0.12676118
53	0x3cee16c9	0.0290636
54	0x3d93b32f	0.07211911
55	0x3cd7e646	0.02635492
56	0xbda66772	-0.081251994
57	0xbce49e91	-0.027907642
58	0x3abc4a72	0.0014365448
59	0xbd32ea39	-0.043680403
60	0xbc9f25b8	-0.019427165
61	0xbd8711a3	-0.06595161
62	0x3b7db913	0.003871505
63	0x3d87e4f0	0.06635463
64	0x3cdc4801	0.026889803
65	0x3db9285e	0.090409026
66	0x3c719fb7	0.014747552
67	0x3d6201df	0.055177566
68	0x3cb7c0ad	0.022430742
69	0x3d2c5149	0.042069707
70	0xbc07c1c9	-0.008285948
71	0x3ceb5b75	0.028730134
72	0xbd264c70	-0.04060024
73	0x3c0beb4a	0.008539984
74	0x3d21362b	0.0393583
75	0x3cc13f12	0.023589645
76	0x3d0e4bae	0.034740143
77	0x3ca2fd1b	0.01989608
78	0xbd37bd96	-0.044858538
79	0x3d813bd8	0.063102424
80	0xbd99d77a	-0.07511802
81	0x3e06855b	0.13136809
82	0xbb9351e8	-0.004495848
83	0xbc970b29	-0.018437939
84	0xbbba5a56	-0.0056870384
85	0x3c97701b	0.018486073
86	0x3d301367	0.042987254
87	0x3e0f486c	0.1399247
88	0x3dd3a637	0.10334437
89	0x3dcb8ed2	0.0993935
90	0x3d913f53	0.07092156
91	0x3d5dd888	0.05416158
92	0x3e021b4f	0.1270573
93	0xbd7fcd1d	-0.06245147
94	0x3d247892	0.040154047
95	0x3d7d86f5	0.061896283
96	0x3da50746	0.08058028
97	0xbd949497	-0.07254904
98	0x3dc8657f	0.09784984
99	0x3c952b01	0.018208982
100	0xbbff0180	-0.0077821612
101	0x3d3808a9	0.044930134
102	0xbd4ea00b	-0.050445598
103	0xbd322bc1	-0.04349876
104	0x3d831019	0.06399555
105	0x3d26ff78	0.040770978
106	0x3c8169f0	0.015797585
107	0xbce25bb2	-0.027631614
108	0xbda5afd4	-0.08090177
109	0x3c17ae43	0.009257856
110	0xbd5da6c5	-0.054114122
111	0x3d552387	0.052035835
112	0xbd95b628	-0.07310134
113	0xbb79855c	-0.0038073873
114	0xbb6ad3bd	-0.0035831772
115	0xbcde8dd3	-0.027167236
116	0xbd653130	-0.055955112
117	0x3dd8a7ba	0.10578866
118	0x3de019b6	0.10942404
119	0xbd16ebb7	-0.03684589
120	0x3cf11a91	0.029431613
121	0x3d2834d3	0.041066002
122	0xbd69470f	-0.056952532
123	0x3d8fef3c	0.07028052
124	0x3deaf8b9	0.11473221
125	0x3c86c58d	0.016451621
126	0x3d696361	0.05697954
127	0xbd643776	-0.055716954
128	0x3d27f0c6	0.041001104
129	0x3c843224	0.01613719
130	0xbd83fab2	-0.06444301
131	0x3c3e069e	0.011598257
132	0xbc64dacb	-0.01396818
133	0x3d4e052f	0.050297912
134	0xbda24802	-0.07923891
135	0x3cff29ed	0.031147921
136	0xbcf04a8b	-0.02933242
137	0xbaff7f69	-0.0019492927
138	0x3e219da0	0.15782785
139	0x3d5d9223	0.054094445
140	0x3c86bb0f	0.016446618
141	0x3e0a48bb	0.13504307
142	0x3db53246	0.088474795
143	0x3c0726b1	0.008248971
144	0x3daf8616	0.08570497
145	0x3d9cc75a	0.07655211
146	0x3c130803	0.008974078
147	0x3de0a08a	0.109681204
148	0xbccb880a	-0.024845142
149	0x3d6b4f75	0.057448823
150	0x3dac7547	0.084208064
151	0x3c62db2e	0.013846202
152	0xbc47efe9	-0.012203195
153	0xbe0a5d96	-0.13512263
154	0xbcd99ee7	-0.026565028
155	0xbe128bf8	-0.14311206
156	0xbe365d86	-0.17809114
157	0xbdf57950	-0.11986029
158	0xbe310366	-0.17286453
159	0xbde66b37	-0.11250918
160	0xbd6a2693	-0.057165693
161	0xbd2e8b8e	-0.04261356
162	0xbb3ffd72	-0.0029295352
163	0xbe1441dd	-0.1447825
164	0xbdbaf514	-0.09128776
165	0xbdbcb772	-0.09214677
166	0xbd090400	-0.03345108
167	0xbd2366f3	-0.039893102
168	0xbdb57238	-0.08859676
169	0xbd1c8b0c	-0.038218543
170	0xbe023ae1	-0.12717773
171	0x3d074db8	0.033033103
172	0x3c5ee5c1	0.013604582
173	0xbd80a737	-0.06281894
174	0x3d468158	0.048463196
175	0xbc1d8ae0	-0.00961563
176	0xbd4beb98	-0.049785227
177	0xbd2a1610	-0.041524947
178	0xbd66f7e1	-0.05638874
179	0xbd7572e8	-0.059924036
180	0xbe714873	-0.23562793
181	0xbe1e235e	-0.15443179
182	0xbd12016a	-0.03564588
183	0xbdb287fb	-0.087173425
184	0xbe967713	-0.2938772
185	0xbe15721a	-0.14594308
186	0xbe8e95f9	-0.27848795
187	0xbd27a94f	-0.04093295
188	0xbe39f585	-0.18160065
189	0xbc7bd353	-0.015370208
190	0xbda9fb61	-0.082999
191	0xbd0f954a	-0.035054483
192	0xbe21145f	-0.15730427
193	0xbd86ddb6	-0.06585257
194	0xbe446497	-0.19178997
195	0xbd84b9a2	-0.06480719
196	0xbd305730	-0.0430519
197	0xbd5dd68b	-0.054159682
198	0xbd7e3cce	-0.062069707
199	0x3daeaf99	0.08529586
200	0x3d0953a0	0.033527017
201	0x3d8d706e	0.0690621
202	0x3bb1596c	0.0054122712
203	0x3e21858b	0.15773599
204	0xbcf6ac13	-0.030111348
205	0x3de929f7	0.11384957
206	0x3d963ade	0.07335447
207	0x3d6b8e88	0.057508975
208	0x3d152de7	0.03642073
209	0xbc1d9a0b	-0.009619246
210	0x3e0bb109	0.13641752
211	0x3dea5092	0.11441149
212	0x3df84a6d	0.121235706
213	0x3cf04182	0.029328112
214	0x3e03c5a5	0.12868364
215	0x3e301648	0.17196
216	0x3d6aa3ff	0.057285305
217	0xbc6536d0	-0.013990119
218	0x3db616b1	0.08891047
219	0x3d8a1b8e	0.06743537
220	0x3df13a2b	0.11778673
221	0xbbdbb042	-0.006704361
222	0xbc6b0e47	-0.014346666
223	0xbd8c657b	-0.06855293
224	0x3e0ded9d	0.13860174
225	0xbd25d6a1	-0.04048789
226	0xbe0826cf	-0.13296054
227	0x3ca5b614	0.020228423
228	0xbd984690	-0.07435334
229	0xbde94bdd	-0.11391423
230	0xbe10ea3f	-0.14151858
231	0xbd5ff734	-0.05467911
232	0xbe058eb7	-0.13042723
233	0xbdbe76e9	-0.09300024
234	0xbdefe452	-0.117134705
235	0x3d71cc0c	0.059032485
236	0x3e080c04	0.13285834
237	0x3d7a1f84	0.061065212
238	0x3db98bb9	0.09059853
239	0x3de6d81f	0.112716906
240	0xbe9a0311	-0.30080464
241	0x3d85b765	0.0652912
242	0xbdc9dbaa	-0.09856351
243	0x3d5e54ce	0.054280095
244	0x3da5ed43	0.08101895
245	0xbcd59d0c	-0.026075862
246	0x3cbbdcd4	0.022932447
247	0x3d89541f	0.06705498
248	0xbd7e71b0	-0.06212014
249	0xbd4feb6e	-0.050761633
250	0xbd84a0a5	-0.06475953
251	0xbd7befa8	-0.06150785
252	0x3de6d97f	0.11271953
253	0xbd785c63	-0.06063498
254	0x3dc78013	0.09741225
255	0x3d8fdd65	0.070246495

decoder.decoder.0.bias f4 [16]
0	0xbd95ecbf	-0.07320546
1	0x3db298fb	0.08720585
2	0x3dd7d62b	0.10538896
3	0x3d233dff	0.039854046
4	0x3d85ec52	0.06539215
5	0x3dc1b4c8	0.094583094
6	0xbd446f9e	-0.04795801
7	0xbca17593	-0.019709384
8	0xbcb28c5b	-0.021795442
9	0x3dca891f	0.09889435
10	0xbd970b54	-0.073752075
11	0xbda0a322	-0.07843615
12	0x3d4f8e8c	0.050673053
13	0x3d8a7c3a	0.067619756
14	0x3d17a096	0.03701838
15	0x3dea5b09	0.11443145

decoder.decoder.2.weight f4 [16, 1, 3, 3]
0	0x3eb2c1a9	0.34913376
1	0xbe3d6d59	-0.18498744
2	0x3e98343c	0.29727352
3	0x3e3cd15b	0.18439238
4	0xbe512d91	-0.20427538
5	0xbcde20e6	-0.027115297
6	0xbd34986b	-0.04409067
7	0x3e7fed8a	0.24992958
8	0x3e5644a2	0.20924619
9	0xbd4b7111	-0.049668375
10	0x3d7b880a	0.061409034
11	0x3e4f3a4b	0.20237081
12	0x3dea3ed6	0.11437766
13	0xbebdd1bd	-0.3707408
14	0xbeca28f7	-0.3948438
15	0x3d3a52ac	0.045489
16	0xbe6f1f80	-0.2335186
17	0xbe461b5e	-0.19346377
18	0xbe8f57f9	-0.27996805
19	0xbbd33e4d	-0.006446636
20	0xbe3f96be	-0.18709847
21	0xbe9c14cf	-0.30484626
22	0xbec08ebc	-0.37608898
23	0xbe0e86a9	-0.13918556
24	0x3d0e4322	0.03473199
25	0x3db5b1db	0.08871814
26	0xbeba7a29	-0.36421326
27	0xbcdb0ae5	-0.026738593
28	0x3d333a3a	0.0437567
29	0x3e997c1f	0.2997751
30	0xbd70c27d	-0.05877923
31	0xbe8d6b35	-0.27620855
32	0x3e290839	0.16507043
33	0xbc0592fd	-0.0081527205
34	0xbe63b28e	-0.22236082
35	0x3e4d2a57	0.20035683
36	0xbe756624	-0.23964745
37	0xbe85264f	-0.2600579
38	0xbebb2d7e	-0.36558145
39	0x3d9cc404	0.076545745
40	0xbee7f2fd	-0.45302573
41	0x3da042ac	0.07825217
42	0xbe3efba6	-0.18650684
43	0xbea0a414	-0.31375182
44	0xbdac840c	-0.084236234
45	0xbd2302c8	-0.039797574
46	0xbd8fa08e	-0.07013045
47	0xbc364d8a	-0.011126885
48	0xbe159c56	-0.14610419
49	0xbe31f51e	-0.17378661
50	0xbda63f77	-0.08117574
51	0xbea1fd47	-0.31638548
52	0x3e05673a	0.13027659
53	0xbe8d3168	-0.27576756
54	0xbdce6dd5	-0.100795425
55	0x3eae9862	0.34100634
56	0x3eca4e02	0.3951264
57	0x3bc92998	0.0061389916
58	0xbd3a92bc	-0.045550093
59	0x3e8712d8	0.26381564
60	0x3e908a2d	0.2823042
61	0x3eb8777c	0.3602866
62	0x3ee7aad0	0.45247507
63	0xbec233bc	-0.37930095
64	0x3d4e2090	0.050324023
65	0x3c954058	0.018219158
66	0x3e6e7a0b	0.23288743
67	0x3eb3a162	0.35084063
68	0x3eb432d4	0.3519503
69	0x3dfee52a	0.12446053
70	0x3e9cfd38	0.3066194
71	0xbe08c24e	-0.13355371
72	0xbdbffd10	-0.0937444
73	0x3daf8c51	0.08571685
74	0xbe73f2aa	-0.23823038
75	0x3d0fbba2	0.03509105
76	0x3e39e9ae	0.18155548
77	0x3e8f387f	0.2797279
78	0xbe74f528	-0.23921645
79	0x3dd58f24	0.104276925
80	0x3e580926	0.2109724
81	0xbeab7393	-0.33486614
82	0x3bb7edb5	0.0056130537
83	0xbe9d967d	-0.30778876
84	0xbc0fbfb5	-0.008773734
85	0x3c37ad4a	0.011210749
86	0xbeb853c3	-0.36001405
87	0xbda58abd	-0.08083103
88	0xbedd8548	-0.43265748
89	0xbea0d2f9	-0.3141096
90	0x3e34e81c	0.17666668
91	0xbe047174	-0.12933904
92	0x3ec43a57	0.3832576
93	0xbe2a6b08	-0.16642392
94	0x3e72ece7	0.23723184
95	0xbba0c61b	-0.0049064285
96	0x3eb5a81b	0.35479817
97	0x3da3d925	0.080004014
98	0x3efd856c	0.49515855
99	0xbef3c7af	-0.47613284
100	0x3e65b7c5	0.22433384
101	0xbead007e	-0.33789438
102	0x3d51ed9b	0.05125199
103	0x3ec44903	0.38336954
104	0x3e9beca6	0.30453986
105	0xbe659f2d	-0.22424002
106	0xbe4c1938	-0.19931495
107	0xbe44c6c7	-0.19216453
108	0x3e49f665	0.19722898
109	0x3e13e122	0.1444135
110	0x3e9f3578	0.3109548
111	0xbea2a2e5	-0.31764904
112	0xbe953303	-0.2914048
113	0x3e9b54db	0.30338177
114	0x3d8a74fb	0.067605935
115	0x3e844bc3	0.25839052
116	0xbdd4707c	-0.10373017
117	0x3e556f6b	0.20843284
118	0xbec2f608	-0.38078332
119	0x3e903721	0.2816706
120	0x3dc59d4b	0.09649142
121	0x3ddbdf33	0.10735931
122	0xbe08c8f5	-0.13357909
123	0xbe987da2	-0.2978335
124	0xbe9b6df1	-0.30357316
125	0xbea93f4e	-0.3305611
126	0xbe0a917f	-0.13532065
127	0x3e917d2a	0.28415805
128	0xbe8541c8	-0.2602675
129	0xbe46c419	-0.19410743
130	0x3e841869	0.25799873
131	0xbe8662c0	-0.26247215
132	0x3ca36d86	0.019949686
133	0x3df4a529	0.11945564
134	0x3d8a42d1	0.067510255
135	0x3e05a183	0.13049893
136	0xbeb08b0c	-0.34481084
137	0xbe557a37	-0.20847403
138	0xbe74ab86	-0.23893556
139	0x3e40ae54	0.18816501
140	0xbe2e1748	-0.17001069
141	0xbcc4251c	-0.023943476
142	0x3bfb8a92	0.007676431
143	0xbe766cfe	-0.24065015
