500_ML/models/weights_499_10-04_05:17.pt (torch_old, 743228 bytes, 11 tensors)

encoder.encoder.0.weight f4 [32, 1, 3, 3]
0.22471902 -0.22919023 -0.2446425 -0.25786433 -0.26407874 0.03939046 0.19576462 0.096160956
-0.2769963 0.14498986 -0.14172319 0.26181215 -0.23415731 0.28326657 -0.16663182 -0.18221876
0.042032875 -0.14600718 0.22076553 0.102397226 0.20117365 -0.07284677 0.2833909 -0.1353182
0.12808904 0.14606266 0.11758438 -0.034101486 -0.12587056 -0.2813825 0.34071174 0.27506828
-0.11473111 -0.1616305 -0.1315541 0.14029826 -0.19985284 -0.22415197 0.29616398 -0.22419457
0.18625742 -0.16940849 -0.16650829 0.12917978 0.2562062 -0.22287267 0.15724778 -0.0010782677
0.0032487768 0.048924312 -0.05321814 0.123438574 -0.24353388 0.08965306 -0.04857602 0.27665818
0.31213284 -0.006866591 0.13772917 -0.010420518 -0.07067016 -0.029515948 0.077154055 0.23774925
0.2832643 0.13896373 -0.2461727 -0.26490635 -0.30976424 -0.19881019 0.16477518 0.08222571
0.121943004 -0.16751467 -0.16506943 0.032551732 -0.21762554 0.09639193 0.24947779 -0.00591116
-0.08646946 -0.24127361 0.034004126 -0.09862581 0.16189514 -0.049489506 0.2703329 0.3194885
-0.19335197 0.08806833 -0.28686383 -0.26845756 0.06831916 0.24493994 0.018968081 0.10985388
-0.16487715 -0.19662026 -0.24840252 -0.18181483 0.16086999 0.31869707 -0.14793377 -0.06656507
-0.29379344 -0.13415405 -0.29764447 0.040768236 0.2413794 -0.030692149 0.21071456 -0.31079265
0.114874795 0.08159229 0.035882104 -0.25967306 0.287703 0.28121865 -0.24130099 0.082682684
0.15267305 -0.19274998 -0.06209961 -0.13268706 -0.27655143 -0.28958684 -0.14267874 -0.20719872
0.28341302 0.27203742 -0.17692019 -0.06715761 0.22365448 -0.19408019 0.108063444 -0.19351162
-0.20877261 0.23110065 0.13490355 -0.12047914 -0.19987972 0.2306199 -0.22620417 0.21785857
0.31454158 -0.2914254 0.26639113 -0.33834198 -0.09365533 0.30032855 0.224817 -0.29697698
0.06810967 0.21939951 0.055315398 -0.10495499 -0.027487215 0.30171376 -0.33126923 -0.09805857
-0.3254778 0.1921803 -0.30837154 -0.28690335 -0.23895833 -0.009653211 0.20834354 -0.08000657
-0.04360482 -0.1426131 -0.024909258 -0.27565485 0.040838744 0.09314062 0.115236424 0.07412884
0.20708463 -0.07219914 0.20897143 -0.081063725 -0.12696992 0.33933365 -0.2117746 -0.22955744
-0.16475521 -0.049505506 0.17760082 -0.21351218 -0.2157742 -0.041794807 0.075226575 -0.017351061
0.1399711 -0.32560182 0.028261185 -0.27343667 0.01038599 -0.31809196 -0.11009558 0.16531052
0.31892037 0.21436805 0.0585828 0.02690477 -0.10828441 -0.037794963 -0.12996173 0.32158878
-0.1378276 -0.30150872 -0.25296497 0.025812745 -0.056400508 0.18700728 -0.23984393 -0.07660779
-0.019379335 -0.21924058 0.26900825 -0.16137584 -0.13847166 -0.21987413 -0.3085942 -0.11654067
0.03091689 -0.29186678 -0.24862564 -0.106698155 0.15275538 0.27652535 -0.16830704 -0.1893948
-0.122857064 0.017060995 -0.2696013 0.15237 -0.34587544 0.023730999 -0.10810936 0.20289387
0.16336957 0.2162647 -0.08843978 0.06646263 -0.1543777 0.17569451 0.08421084 0.31063342
0.17683177 0.0050974227 0.042589877 -0.25617436 0.11351018 0.18020071 0.05053275 0.27396017
00000000: be1c 663e d8b0 6abe 9083 7abe cb06 84be
00000010: 5435 87be e457 213d 8576 483e 09f0 c43d
00000020: 76d2 8dbe 3978 143e e21f 11be 3e0c 863e
00000030: efc6 6fbe 5108 913e 88a1 2abe 8e97 3abe
00000040: aa2a 2c3d e882 15be 5c10 623e a3b5 d13d
00000050: 7700 4e3e b030 95bd 9d18 913e db90 0abe
00000060: c629 033e 7391 153e 14d0 f03d 00ae 0bbd
00000070: 36e4 00be 5e11 90be c571 ae3e c0d5 8c3e
00000080: 25f8 eabd 7782 25be 1eb6 06be 59aa 0f3e
00000090: 39a6 4cbe 1888 65be cea2 973e 4393 65be
000000a0: 44ba 3e3e 6b79 2dbe 2681 2abe b447 043e
000000b0: 762d 833e bc38 64be 9005 213e a954 8dba
000000c0: 6ee9 543b dc64 483d 44fb 59bd 5dcd fc3d
000000d0: f260 79be 069c b73d a6f7 46bd 24a6 8d3e
000000e0: e0cf 9f3e 2401 e1bb e008 0d3e d2ba 2abc
000000f0: 84bb 90bd 6ecb f1bc f202 9e3d 8a74 733e
00000100: 0508 913e 824c 0e3e b214 7cbe cea1 87be
00000110: 6b99 9ebe e694 4bbe d3ba 283e f465 a83d
00000120: 41bd f93d f788 2bbe f607 29be f754 053d
00000130: 3bd9 5ebe 2269 c53d 1b77 7f3e 67b2 c1bb
00000140: e616 b1bd 6e10 77be e947 0b3d 54fc c9bd
00000150: d7c7 253e 82b5 4abd 1369 8a3e ff93 a33e
00000160: 0ffe 45be 2b5d b43d d1df 92be 4573 89be
00000170: eaea 8b3d 89d1 7a3e f362 9b3c 12fb e03d
00000180: 8ed5 28be d256 49be 3b5d 7ebe ab2d 3abe
00000190: 1abb 243e 432c a33e f37b 17be 4453 88bd
000001a0: 186c 96be ae5f 09be db64 98be 98fc 263d
000001b0: 292c 773e 1a6e fbbc 8fc5 573e 3720 9fbe
000001c0: 7a43 eb3d dc19 a73d 1df9 123d def3 84be
000001d0: cf4d 933e e4fb 8f3e 9b17 77be 8a55 a93d
000001e0: 5356 1c3e 4060 45be 295c 7ebd 1edf 07be
000001f0: 2698 8dbe ba44 94be 601a 12be e72b 54be
00000200: 831b 913e 7d48 8b3e 912a 35be ee89 89bd
00000210: ae05 653e f5bc 46be 5e50 dd3d e927 46be
00000220: 7dc8 55be a6a5 6c3e 2824 0a3e c4bd f6bd
00000230: 45ad 4cbe a027 6c3e 11a2 67be 5116 5f3e
00000240: 980b a13e b635 95be 6b64 883e 293b adbe
00000250: 5ece bfbd aac4 993e 6d36 663e 5e0d 98be
00000260: 157d 8b3d 44aa 603e 6692 623d a4f2 d6bd
00000270: de2c e1bc 3a7a 9a3e 1f9c a9be eed2 c8bd
00000280: 07a5 a6be eaca 443e e0e2 9dbe ffe4 92be
00000290: 7eb1 74be 8028 1ebc 0258 553e 7cda a3bd
000002a0: f89a 32bd 2b09 12be 800e ccbc a222 8dbe
000002b0: 8746 273d 82c0 be3d 1301 ec3d dcd0 973d
000002c0: fe0d 543e 25dd 93bd 9bfc 553e bd04 a6bd
000002d0: 6704 02be 24bd ad3e 71db 58be 1b11 6bbe
000002e0: 97b5 28be 49c6 4abd fddc 353e f0a2 5abe
000002f0: e9f3 5cbe 0831 2bbd 6410 9a3d d023 8ebc
00000300: 9654 0f3e 48b5 a6be 0084 e73c e4ff 8bbe
00000310: 002a 2a3c f3dc a2be cb79 e1bd 2947 293e
00000320: 8849 a33e 4c83 5b3e 85f4 6f3d 6467 dc3c
00000330: 37c4 ddbd e4ce 1abd b014 05be 49a7 a43e
00000340: ae22 0dbe 5a5f 9abe a084 81be 4075 d33c
00000350: 3804 67bd d67e 3f3e a699 75be 8ce4 9cbd
00000360: 69c1 9ebc 9a80 60be 73bb 893e b53f 25be
00000370: 84cb 0dbe af26 61be 0f00 9ebe e0ac eebd
00000380: 6b45 fd3c 906f 95be b897 7ebe 9084 dabd
00000390: e86b 1c3e bb94 8d3e ae58 2cbe b6f0 41be
000003a0: 7c9c fbbd 80c3 8b3c 2e09 8abe e206 1c3e
000003b0: 9616 b1be 8367 c23c 7168 ddbd 69c3 4f3e
000003c0: 5a4a 273e 7e74 5d3e ea1f b5bd 8f1d 883d
000003d0: 3015 1ebe 43e9 333e bc76 ac3d 580b 9f3e
000003e0: 6313 353e 4808 a73b b972 2e3d 4929 83be
000003f0: 0678 e83d 8986 383e 6efb 4e3d 8244 8c3e

encoder.encoder.0.bias f4 [32]
0.09890756 0.11548345 0.35256258 -0.25544912 0.103235856 0.099584036 -0.26833186 0.25242665
0.31843537 0.16274968 0.18912645 -0.3176915 0.0918893 0.09215439 0.29220888 0.26604623
0.31723544 0.22483695 -0.07438028 -0.1275161 0.31290522 -0.16984472 -0.18099494 -0.2716185
0.25600824 -0.2922368 0.3086302 -0.26930308 -0.047629803 0.3549105 0.13378842 0.2989195
00000000: 0c90 ca3d 9682 ec3d 1583 b43e 3aca 82be
00000010: 526d d33d b7f2 cb3d cb62 89be 113e 813e
00000020: f609 a33e daa7 263e 5daa 413e 76a8 a2be
00000030: 7530 bc3d 71bb bc3d 679c 953e 3637 883e
00000040: af6c a23e a83b 663e b054 98bd 9593 02be
00000050: 1d35 a03e c6eb 2dbe bd56 39be 9411 8bbe
00000060: 8313 833e 10a0 95be c704 9e3e 18e2 89be
00000070: 7817 43bd d4b6 b53e d5ff 083e fa0b 993e

encoder.encoder.2.weight f4 [64, 32, 3, 3]
0.03653507 -0.028258495 -0.018644173 0.047933288 -0.024266351 0.039415937 0.03420062 0.020517336
0.011174767 0.004932417 0.029964829 0.014695347 0.020396752 -0.0017906376 0.008181154 -0.056017026
0.03793591 -0.0067442367 -0.061455015 -0.05456304 -0.0016853054 0.03082276 -0.04138049 -0.022294123
-0.011201195 0.04841589 -0.042400897 0.04789005 0.046107773 0.05011462 0.010188352 -0.026634483
-0.05265562 -0.036555722 0.02530368 0.038092125 0.045991708 -0.0060688923 -0.0044933143 0.013696046
-0.03494227 -0.031812783 -0.057075348 0.04650993 0.01075024 -0.00947032 0.031466447 0.030622197
-0.03602362 0.0015659542 -0.01637691 0.04672427 -0.029862424 0.019462718 0.037105132 -0.028766647
0.021085847 0.013787832 -0.0023751394 -0.045339745 0.010229211 -0.012123633 -0.040018253 0.04746377
0.0009245156 -0.024973672 -0.051697373 -0.025829297 -0.06289587 0.046167504 0.028048526 -0.02293266
0.029092722 -0.061992098 -0.05272056 -0.035052378 -0.019785257 0.019154087 0.008901704 -0.014721532
-0.0046412223 -0.032087594 0.05193789 -0.04254254 -0.035733894 0.0016845723 -0.06347087 0.004571148
-0.06046609 0.030170213 -0.011198012 -0.004389781 0.045602676 -0.0582274 0.03539343 0.0136248525
0.041227184 -0.008828776 0.030443784 -0.026502684 -0.029851012 -0.03894906 0.03886791 -0.018498752
-0.02363855 0.042652164 0.029105585 0.006367933 -0.019013038 0.05185133 -0.010532327 -0.054821465
0.032558184 -0.009981428 0.014830774 -0.03240826 0.010390515 0.030644897 -0.041019607 0.0035006164
-0.042767595 -0.01100143 -0.050353438 0.032990746 -0.03956936 -0.014963151 -0.02517775 0.008402513
-0.0271317 -0.015433763 0.0018142432 0.027405215 -0.017152347 0.033738144 0.00876882 -0.035451077
-0.05866539 0.0086229015 -0.05526783 -0.0561245 0.041632507 0.04257603 0.021419596 -0.043498825
0.008138707 -0.059619118 -0.0137223415 -0.0014866516 -0.03044907 0.0014806682 0.037547085 -0.063112564
0.0106827915 -0.04092233 -0.064196505 -0.006405424 -0.06299287 -0.060356613 -0.05505582 0.017710043
0.027825778 -0.03479583 0.023251217 -0.026348319 0.027360495 -0.053395584 0.019066062 0.0024884902
0.025539156 0.053439114 0.03218293 0.049507666 0.03548248 0.05060604 0.04365243 0.0313438
-0.017646601 -0.057064418 0.04203791 -0.00558912 0.049837656 0.024067122 0.03808803 -0.05267566
-0.048432387 0.043238103 -0.029174814 -0.046925634 0.038966607 0.04250944 0.040106643 -0.034420118
0.0067362078 0.022565696 -0.031669028 0.006574508 0.03641795 -0.004293345 -0.02690775 0.020341445
-0.032526862 -0.047159936 -0.027671522 0.03767412 -0.025802664 0.043078285 -0.011891216 0.0029068813
0.014342111 0.031237278 0.05772404 0.05845044 0.012994897 0.010976683 -0.045854717 -0.0182327
-0.054062564 0.019859368 0.03891911 0.029565616 -0.05450864 -0.039346136 0.044462122 -0.045799498
-0.044892244 0.013772074 -0.0028520785 -0.026542421 0.0067532174 0.0041460283 -0.013941433 0.04444403
0.01955777 -0.03595374 0.017183 0.024032388 -2.4208715e-05 0.048923012 0.04810896 -0.021146007
0.0029130606 -0.049515713 -0.044030648 -0.008411858 -0.041475907 -0.04276036 -0.043521 0.039294343
0.012074011 0.0056047835 0.018349184 -0.042146396 -0.042831346 0.034065843 0.065232776 -0.035456255
00000000: cca5 153d 5c7e e7bc aabb 98bc b255 443d
00000010: 3aca c6bc 9b72 213d f315 0c3d f913 a83c
00000020: 5f16 373c 1da0 a13b cd78 f53c c1c4 703c
00000030: 1717 a73c d4b3 eaba 3f0a 063c 1c72 65bd
00000040: af62 1b3d c2fe dcbb 41b8 7bbd 7f7d 5fbd
00000050: 77e5 dcba 0380 fc3c 977e 29bd 2aa2 b6bc
00000060: 3885 37bc be4f 463d 90ac 2dbd 5b28 443d
00000070: 81db 3c3d fd44 4d3d 0ced 263c 8f30 dabc
00000080: 6bad 57bd 74bb 15bd aa49 cf3c 7d06 1c3d
00000090: cd61 3c3d 8fdd c6bb a73c 93bb 6165 603c
000000a0: a01f 0fbd 1f4e 02bd d7c7 69bd 3281 3e3d
000000b0: c621 303c 6729 1bbc f6e2 003d 67db fa3c
000000c0: 818d 13bd b440 cd3a df28 86bc f361 3f3d
000000d0: 0ba2 f4bc 4770 9f3c 8dfb 173d 08a8 ebbc
000000e0: 3abc ac3c 5ce6 613c 3aa8 1bbb 2bb6 39bd
000000f0: 6c98 273c 34a2 46bc 2eea 23bd 5f69 423d
00000100: 315b 723a 9695 ccbc a0c0 53bd f697 d3bc
00000110: 8dcf 80bd 231a 3d3d 06c6 e53c 46dd bbbc
00000120: dc53 ee3c 6deb 7dbd 84f1 57bd 1593 0fbd
00000130: b114 a2bc 08e9 9c3c 74d8 113c 9532 71bc
00000140: 6515 98bb 486e 03bd d3bc 543d 1641 2ebd
00000150: b45d 12bd decc dc3a 04fd 81bd 92c9 953b
00000160: 4aab 77bd 8627 f73c de77 37bc 27d8 8fbb
00000170: dfc9 3a3d db7f 6ebd b4f8 103d c63a 5f3c
00000180: d6dd 283d 92a6 10bc 3e65 f93c 281c d9bc
00000190: 1c8a f4bc 0d89 1fbd f533 1f3d b28a 97bc
000001a0: a2a5 c1bc 09b4 2e3d d66e ee3c 18aa d03b
000001b0: 3bc1 9bbc 0f62 543d c88f 2cbc 798c 60bd
000001c0: bb5b 053d 2589 23bc c6fc 723c 86be 04bd
000001d0: fb3c 2a3c 020b fb3c 2d04 28bd 996a 653b
000001e0: 132d 2fbd 583f 34bc 683f 4ebd 4e21 073d
000001f0: 7b13 22bd 0128 75bc 9241 cebc b2aa 093c
00000200: 4d43 debc e5dd 7cbc e6cb ed3a e780 e03c
00000210: 1483 8cbc 0231 0a3d 19ab 0f3c 2635 11bd
00000220: 1f4b 70bd 1247 0d3c 8560 62bd cee2 65bd
00000230: d986 2a3d 3464 2e3d 2678 af3c d32b 32bd
00000240: 3658 053c 2d33 74bd acd3 60bc c0db c2ba
00000250: 5470 f9bc fb12 c23a f9ca 193d 2941 81bd
00000260: e006 2f3c 2c9e 27bd 7579 83bd 97e4 d1bb
00000270: 6802 81bd 7f38 77bd 3682 61bd a714 913c
00000280: e3f2 e33c 1286 0ebd 5679 be3c 6ed8 d7bc
00000290: 1e23 e03c 54b5 5abd 6e30 9c3c f015 233b
000002a0: 7e37 d13c f9e2 5a3d 3fd2 033d 8dc8 4a3d
000002b0: 1456 113d 4748 4f3d e4cc 323d 5b62 003d
000002c0: 9b8f 90bc 61bc 69bd f22f 2c3d f024 b7bb
000002d0: 9222 4c3d 6a28 c53c 3202 1c3d 6fc2 57bd
000002e0: 0a61 46bd 701a 313d 0500 efbc 1835 40bd
000002f0: 739b 1f3d 611e 2e3d dd46 243d 1cfc 0cbd
00000300: 68bb dc3b b2db b83c 62b7 01bd f86e d73b
00000310: fd2a 153d 30af 8cbb a46d dcbc 1aa3 a63c
00000320: e33a 05bd c72a 41bd 63af e2bc 2e50 1a3d
00000330: 1c60 d3bc db72 303d 60d3 42bc 6081 3e3b
00000340: 2cfb 6a3c 52e5 ff3c 0b70 6c3d bb69 6f3d
00000350: 8ce8 543c 8cd7 333c 28d2 3bbd be5c 95bc
00000360: b570 5dbd 1db0 a23c a569 1f3d 9733 f23c
00000370: 7444 5fbd 6a29 21bd ea1d 363d 4198 3bbd
00000380: eee0 37bd 44a4 613c f0e9 3abb 7e6f d9bc
00000390: 184a dd3b 68db 873b 9c6a 64bc f10a 363d
000003a0: 9e37 a03c 3b44 13bd 5dc3 8c3c 92df c43c
000003b0: d213 cbb7 7f63 483d e70d 453d 643a adbc
000003c0: 0ce9 3e3b fdd0 4abd 7b59 34bd e4d1 09bc
000003d0: a4e2 29bd 7d25 2fbd 1343 32bd 1bf3 203d
000003e0: 13d2 453c 55a8 b73b 0751 963c b3a1 2cbd
000003f0: ec6f 2fbd a088 0b3d c398 853d 943a 11bd

encoder.encoder.2.bias f4 [64]
0.0501153 0.043415472 -0.024761146 0.06140542 0.040133707 -0.00029385253 0.011032051 -0.009853642
-0.044823207 0.02823968 -0.036326446 0.024567733 -0.028994443 0.06933842 -0.006554307 0.010390255
-0.05077451 -0.008745756 0.07002328 0.075638846 -0.011208061 -0.051790934 -0.035662424 0.06453478
-0.03144744 0.05539513 0.0126786735 -0.044155408 -0.0062878965 0.06630017 0.075796485 -0.05258418
0.04509118 -0.01154416 0.003475135 0.00040008084 -0.05161228 0.060498055 -0.041551784 -0.008419562
0.032831825 -0.03186373 -0.055241052 0.0045759263 0.007610616 0.003961256 -0.047164887 0.0069014807
0.03512538 0.03943297 -0.0150166135 0.02785426 -0.04529544 0.07652634 0.042567115 0.04728485
0.055424005 -0.008687757 0.057416715 0.004129159 -0.01646694 0.0007312094 -0.023654189 0.014013107
00000000: b345 4d3d 6cd4 313d e3d7 cabc 4084 7b3d
00000010: 3e63 243d 3810 9ab9 c7bf 343c 2c71 21bc
00000020: 8a98 37bd e756 e73c 0acb 14bd 4542 c93c
00000030: c185 edbc 4d01 8e3d 83c5 d6bb e33b 2a3c
00000040: eff8 4fbd 5c4a 0fbc 5e68 8f3d 8ae8 9a3d
00000050: 04a2 37bc bb22 54bd c312 12bd d02a 843d
00000060: 08cf 00bd 01e6 623d 36ba 4f3c 4ddc 34bd
00000070: b30a cebb 62c8 873d 303b 9b3d 8262 57bd
00000080: 87b1 383d b723 3dbc 17bf 633b f1c1 d139
00000090: 6667 53bd cfcc 773d 3432 2abd 34f2 09bc
000000a0: aa7a 063d 8b83 02bd 7144 62bd a7f1 953b
000000b0: 7962 f93b 6ccd 813b f82f 41bd d125 e23b
000000c0: a1df 0f3d 7784 213d 3e08 76bc 9e2e e43c
000000d0: b687 39bd d7b9 9c3d db5a 2e3d c2ad 413d
000000e0: 4804 633d 1857 0ebc ca2d 6b3d e54d 873b
000000f0: ade5 86bc a2ae 3f3a 6ec6 c1bc 3b97 653c

encoder.encoder.4.weight f4 [128, 64, 3, 3]
0.018122185 -0.0059933974 -0.017073585 -0.015765466 0.044725135 0.03706562 0.03583206 -0.033854827
-0.0297402 0.02049147 0.05450162 0.02097284 0.06350028 -0.011361777 0.06260555 0.053468864
-0.012101381 0.031386092 -0.0009316758 -0.025034 -0.01596696 0.015570263 0.010442165 -0.018192803
0.0043994524 0.025958434 -0.012831304 0.011962929 0.017372862 0.038206358 -0.0056170374 0.007884734
-0.015022309 0.03572285 0.00784697 0.044366393 0.054011244 -0.0029649427 -0.0164657 0.053395815
-0.013936837 0.019242354 -0.0033780793 0.004142346 0.028855855 -0.0049597993 -0.0024010567 -0.004709814
0.03862972 0.022831013 -0.013649508 0.052909452 0.013979079 0.0049995575 0.023701323 -0.016124047
0.010535695 0.031797294 0.056792907 0.055569768 0.008036917 0.0044144164 0.040065646 0.049202323
0.01585578 -0.0017315478 0.040913362 0.023973748 0.047468796 0.03357582 0.036715783 0.0020985482
-0.018934736 0.018105375 0.03664353 -0.029462678 0.010866522 -0.028390283 0.011154354 -0.03147514
-0.034317505 -0.008113907 0.013330409 0.044321127 0.00027813562 -0.008807656 0.03892238 0.03837308
0.02165338 0.004513098 0.011556655 -0.055172604 -0.011405968 0.00977107 0.011870388 0.007866677
0.0067890063 -0.02432659 -0.014726407 -0.05572904 -0.021746222 -0.030222427 -0.062699154 -0.0045064143
0.0029372785 -0.0038534887 -0.0674635 -0.0060470244 -0.07029087 -0.0030109433 -0.020106077 -0.051767968
-0.0046713203 -0.0075450363 -0.05669019 -0.06001768 -0.0667226 0.033514395 0.051404476 -0.0023139322
0.015631681 0.018055167 -0.009608778 0.0430626 0.057100344 0.058431916 -0.088094965 -0.0291764
-0.021373162 -0.0052029155 0.0343462 -0.023002435 -0.095970996 -0.04017575 -0.050510973 0.05745619
-0.017282689 0.00023469498 0.020321215 0.04481959 0.02188516 -0.001619514 -0.009155737 -0.0029746979
-0.043875832 -0.01748924 -0.02367535 0.0032270306 -0.025264254 -0.02978775 -0.043689813 -0.06734096
-0.06812664 0.010357233 0.007186299 0.055423215 -0.014198284 0.035851035 0.027915083 0.058495004
-0.0067928038 0.00073506543 0.046144992 0.014949968 0.040714458 0.06362569 -0.011946407 0.028933974
0.019780576 -0.010645003 0.026150256 0.016193628 0.005999171 0.0430349 0.056688864 0.063180804
0.04033323 0.058958817 0.047412537 0.0418878 0.008598506 0.0015342496 0.01145399 -0.03133815
-0.038997095 0.031037133 -0.019185614 -0.015400663 0.021149468 0.024031464 0.005785946 -0.034994252
-0.011160772 -0.018680792 0.039993916 -0.03489212 -0.0150440335 0.015136745 0.03839874 -0.00010252737
0.030269818 0.031282198 0.029938094 0.060292024 -0.00016277004 0.034618862 -0.010549655 0.025154324
0.016712446 0.034631968 0.01655738 0.015194842 0.05947244 0.0093009 0.04334413 -0.0057073794
0.021289606 0.0029213019 0.013170626 -0.028243195 -0.01772739 0.01936293 0.009635016 0.009234756
-0.04024641 0.0014256984 -0.035855502 0.014246542 -0.022238016 0.040633533 0.010327417 -0.032831103
-0.021465745 0.024324033 0.036461513 -0.011090383 -0.0165821 0.029861774 -0.016920168 -0.024469018
-0.032450426 -0.02726728 -0.011588861 -0.043613486 -0.059762888 -0.0064687007 -0.060051024 -0.033777427
-0.040208988 -6.3053936e-05 -0.008688578 -0.006212984 0.024700807 0.018998796 0.004923629 -0.020565394
00000000: fa74 943c 4364 c4bb e7dd 8bbc 9426 81bc
00000010: b431 373d 1fd2 173d a3c4 123d 5cab 0abd
00000020: b8a1 f3bc badd a73c 173d 5f3d 3ccf ab3c
00000030: 6f0c 823d bf26 3abc 5737 803d 2b02 5b3d
00000040: df44 46bc b48e 003d b43b 74ba 1a14 cdbc
00000050: 24cd 82bc 6b1a 7f3c 9d15 2b3c 1309 95bc
00000060: 4829 903b c8a6 d43c 643a 52bc 2900 443c
00000070: 8851 8e3c 457e 1c3d 200f b8bb f92e 013c
00000080: 2120 76bc 2052 123d 9490 003c 89b9 353d
00000090: e53a 5d3d 7c4f 42bb 13e3 86bc 92b5 5a3d
000000a0: 5557 64bc 24a2 9d3c c462 5dbb 84bc 873b
000000b0: 1d63 ec3c d085 a2bb 0c5b 1dbb c954 9abb
000000c0: 333a 1e3d 1b08 bb3c 30a2 5fbc 95b7 583d
000000d0: 8208 653c 54d3 a33b 4729 c23c 9416 84bc
000000e0: e89d 2c3c e13d 023d ae9f 683d 209d 633d
000000f0: 46ad 033c cfa6 903b e01b 243d 6088 493d
00000100: fbe3 813c 1af5 e2ba c594 273d 9864 c43c
00000110: a46e 423d cd86 093d 4a63 163d cc87 093b
00000120: 051d 9bbc b951 943c 8717 163d b75b f1bc
00000130: 7f09 323c bd92 e8bc c0c0 363c 14ec 00bd
00000140: 8390 0cbd 31f0 04bc ca67 5a3c 128a 353d
00000150: bbd2 9139 fd4d 10bc 136d 1f3d 172d 1d3d
00000160: 6e62 b13c 9ce2 933b 2058 3d3c abfc 61bd
00000170: 19e0 3abc d716 203c 047c 423c 3ce3 003c
00000180: 5076 de3b 8f48 c7bc 0747 71bc 2244 64bd
00000190: 2225 b2bc 0695 f7bc 6a68 80bd 8baa 93bb
000001a0: 5b7f 403b d08a 7cbb 4e2a 8abd 1e26 c6bb
000001b0: a9f4 8fbd 3f53 45bb 80b5 a4bc a60a 54bd
000001c0: e011 99bb 5a3c f7bb f933 68bd 19d5 75bd
000001d0: dca5 88bd 6446 093d 808d 523d 57a5 17bb
000001e0: 030e 803c 6ee8 933c 236e 1dbc 6962 303d
000001f0: 0de2 693d 4e56 6f3d 226b b4bd 5803 efbc
00000200: c516 afbc 387d aabb 9aae 0c3d 9a6f bcbc
00000210: 718c c4bd 548f 24bd 98e4 4ebd 2f57 6b3d
00000220: 6d94 8dbc 7418 7639 ad78 a63c bf94 373d
00000230: 8248 b33c df45 d4ba f201 16bc 26f3 42bb
00000240: 25b7 33bd 9845 8fbc cff2 c1bc 977c 533b
00000250: fbf6 cebc 7105 f4bc 17f4 32bd 0fea 89bd
00000260: fb85 8bbd 62b1 293c 0c7b eb3b 7403 633d
00000270: eb9f 68bc 89d8 123d 2cae e43c 7598 6f3d
00000280: 2b96 debb 68b1 403a 8802 3d3d b6f0 743c
00000290: 34c4 263d 304e 823d ddba 43bc f106 ed3c
000002a0: e00a a23c 6168 2ebc 1039 d63c 80a8 843c
000002b0: b294 c43b 5d45 303d 9532 683d f064 813d
000002c0: 7534 253d cd7e 713d a633 423d 8b92 2b3d
000002d0: c0e0 0c3c e018 c93a 84a9 3b3c 6f5c 00bd
000002e0: 6bbb 1fbd 9641 fe3c 262b 9dbc 1053 7cbc
000002f0: a641 ad3c a2dd c43c 0898 bd3b 2256 0fbd
00000300: acdb 36bc 7608 99bc a9d0 233d 0aeb 0ebd
00000310: 407b 76bc 1c00 783c ff47 1d3d f603 d7b8
00000320: 69f8 f73c c321 003d bc40 f53c c5f4 763d
00000330: 40ad 2ab9 82cc 0d3d 76d8 2cbc 7110 ce3c
00000340: 8ae8 883c 40da 0d3d 58a3 873c c9f3 783c
00000350: 6099 733d cd62 183c 9d89 313d f804 bbbb
00000360: 8a67 ae3c 5073 3f3b 9cc9 573c 465e e7bc
00000370: 0839 91bc 029f 9e3c 30dc 1d3c 604d 173c
00000380: 6bd9 24bd 80de ba3a 38dd 12bd 546a 693c
00000390: 802c b6bc 596f 263d 5434 293c e879 06bd
000003a0: eed8 afbc 3243 c73c ab58 153d 70b4 35bc
000003b0: 2fd7 87bc aea0 f43c 2a9c 8abc 4073 c8bc
000003c0: bdea 04bd a15f dfbc 35df 3dbc 0ea4 32bd
000003d0: eec9 74bd 65f7 d3bb 10f8 75bd 335a 0abd
000003e0: 2eb2 24bd d33b 84b8 8a5a 0ebc 4a96 cbbb
000003f0: 5959 ca3c 5da3 9b3c 6556 a13b c278 a8bc

encoder.encoder.4.bias f4 [128]
0.0061951224 0.0012120081 -0.010175369 -0.012237087 0.052150425 0.039630063 0.058906812 -0.012506488
-0.040522 0.050276045 -0.039413825 0.020812945 0.024878275 0.055767104 -0.02364382 0.047298033
0.06277317 0.024624374 -0.04158745 -0.058473654 -0.007515354 -0.041518446 -0.0041094637 -0.031392995
-0.032284115 -0.0095278025 -0.0056374893 0.04189358 0.043623917 -0.056073003 0.050030984 0.041834585
-0.011662125 -0.00047233823 0.021223228 -0.008510517 0.0409951 0.04210834 -0.031664684 -0.0027781979
0.030380163 0.010510882 -0.004670392 -0.021978691 -0.011398907 0.037847973 0.029442908 0.049456768
0.04974513 0.034194525 0.016243568 -0.035849683 -0.03898188 0.061887886 -0.008028685 0.040181898
0.0062577436 -0.01263079 0.023717511 0.033005185 -0.015875151 -0.012278539 0.06079712 0.022771986
0.049720984 0.044059064 0.00097301166 0.021448221 -0.021433398 0.047210462 -0.043937948 0.021762474
0.05385828 -0.02665898 0.03752808 0.020304453 -0.023813097 0.06293074 0.036523003 0.027648052
0.06344667 -0.008316107 0.054422993 0.03280275 0.03230361 0.025891649 0.025975807 -0.008086507
0.012168576 0.048455037 -0.01834211 0.0651684 -0.022374159 -0.01308981 -0.018256005 0.048965592
-0.014192773 0.051039524 0.025679993 0.050453 -0.017209008 0.03564417 0.023237398 -0.05495548
-0.01203827 -0.008692863 0.014710541 0.0147996945 -0.05126504 0.045513283 0.06372879 0.040890325
-0.030619776 0.0005764233 -0.04003316 -0.010517855 -0.002538633 -0.0101575265 0.051268402 0.035727028
-0.018181099 0.06436399 -0.039082203 -0.018053776 0.04959893 0.024693089 -0.002772203 -0.037105143
00000000: 7400 cb3b 3edc 9e3a 97b6 26bc 107e 48bc
00000010: af9b 553d 2253 223d 4548 713d 03e8 4cbc
00000020: 66fa 25bd 41ee 4d3d 6470 21bd e97f aa3c
00000030: 86cd cb3c 0c6c 643d afb0 c1bc 95bb 413d
00000040: 388f 803d 0eb9 c93c 9a57 2abd 1282 6fbd
00000050: 5c43 f6bb 3f0f 2abd aea8 86bb f195 00bd
00000060: 593c 04bd 801a 1cbc b0ba b8bb 9a98 2b3d
00000070: feae 323d ceac 65bd 4aed 4c3d be5a 2b3d
00000080: 7f12 3fbc 2aa4 f7b9 56dc ad3c b26f 0bbc
00000090: 7aea 273d cb79 2c3d d4b2 01bd 6d12 36bb
000000a0: d2df f83c d635 2c3c 160a 99bb a80c b4bc
000000b0: 7bc2 3abc 7a06 1b3d 4132 f13c 2e93 4a3d
000000c0: 8dc1 4b3d 8f0f 0c3d 3b11 853c 1ed7 12bd
000000d0: 77ab 1fbd 277e 7d3d bf8a 03bc c695 243d
000000e0: c20d cd3b 5ff1 4ebc 3a4b c23c 7230 073d
000000f0: 9b0c 82bc ed2b 49bc 6706 793d 518c ba3c
00000100: 3ba8 4b3d 4777 343d b511 7f3a 2eb4 af3c
00000110: 1895 afbc c25f 413d 47f8 33bd 3747 b23c
00000120: 809a 5c3d ef63 dabc 0bb7 193d 8655 a63c
00000130: af13 c3bc d5e1 803d 2599 153d 2b7e e23c
00000140: 54f0 813d 4840 08bc a5ea 5e3d 2d5c 063d
00000150: ca50 043d b91a d43c 37cb d43c 457d 04bc
00000160: b55e 473c ca78 463d 3142 96bc 0377 853d
00000170: 034a b7bc a476 56bc 9e8d 95bc 2590 483d
00000180: ce88 68bc d20e 513d d95e d23c cea7 4e3d
00000190: e8f9 8cbc 9fff 113d 5b5c be3c ff18 61bd
000001a0: 2a3c 45bc 836c 0ebc 7b04 713c 6b7a 723c
000001b0: 4afb 51bd 236c 3a3d 3d84 823d 9d7c 273d
000001c0: 53d6 fabc 1d1b 173a d0f9 23bd 1553 2cbc
000001d0: 325f 26bb c16b 26bc d1fe 513d 8156 123d
000001e0: 87f0 94bc 45d1 833d a914 20bd 83e5 93bc
000001f0: 3f28 4b3d 2949 ca3c d9ad 35bb 90fb 17bd

decoder.decoder.0.weight f4 [128, 64, 3, 3]
0.017522823 0.010077591 0.0152128255 -0.010865393 0.0155859 0.00717473 0.0119558405 -0.0151633425
0.00220665 -0.007919218 -0.037268 -0.019388823 -0.004255804 0.018282413 0.02276917 0.009726295
-0.038867105 0.030421698 -0.02392484 -0.0015205443 -0.010661831 0.019121008 0.037057694 -0.03644597
0.05628425 0.009849338 0.0033189335 -0.020676022 0.008536579 -0.008942287 0.047323413 0.038628947
0.02374523 -0.036855854 0.02221552 0.004066184 0.04676387 0.05251009 -0.014799449 0.009966938
0.0019531202 0.023351269 0.05443512 0.04406356 0.03574429 -0.014710961 0.002983313 0.033153165
-0.028855504 0.020381797 -0.03323885 -0.025267677 0.017438337 -0.036257353 -0.038204357 0.036732834
-0.044324137 0.05468473 -0.031694725 0.0034132765 -0.026757888 -0.003963791 0.019251604 -0.00082267827
0.017404009 -0.0014889595 0.039747473 -0.013957874 0.01132641 0.01831662 0.033102237 -0.005825622
0.053715188 0.018601576 0.032143738 0.044212148 0.057177402 0.044672526 0.0021029594 0.000354907
0.037834942 0.05754886 0.029821146 -0.017601194 0.012425446 -0.009206083 -0.02018641 0.017723892
-0.045581 0.03993868 0.020867642 0.020125223 0.06148091 0.055877727 0.007382652 0.051916257
0.032341883 0.014696774 0.047663033 0.0009082854 0.04366064 0.024077628 0.03250717 -0.002147401
-0.02496716 -0.03453354 0.0056421724 0.018625155 -0.012924899 -0.001610027 0.019994821 0.0159996
0.023321297 0.035915837 0.01790564 0.034099754 -0.008859501 0.039246876 0.0090347035 0.041432936
0.051233403 0.042383835 -0.005557084 0.038167443 0.014442854 -0.00030099548 0.0035629761 0.024679251
0.014305074 -0.018525561 0.055691052 0.006680602 -0.041963346 -0.018486138 0.019246178 -0.030386278
0.013106674 -0.010327169 -0.019311901 -0.030427601 0.0027765124 0.009466895 -0.007371445 -0.0094215125
-0.00218107 0.022245394 0.0094668055 0.031683095 0.032944378 0.016540326 0.01493357 -0.01199006
0.0038431296 -0.033740796 0.018912967 -0.022446457 0.032523066 0.01540955 -0.0075120768 -0.01702097
0.0038652539 0.020868368 -0.044948347 -0.0149958115 -0.04120228 0.025600798 -0.0066692843 -0.042641867
0.02331083 -0.042864636 -0.038252354 0.01549683 0.0059174458 0.03115665 -0.027423417 0.008333389
0.010989767 -0.010787132 0.036101725 0.018985158 0.02456372 -0.00056093314 -0.02691231 -0.048025344
-0.023542413 0.018150557 -0.045768213 0.025363252 0.029470528 -0.009706923 0.002516542 0.012980072
0.049619846 0.013650497 0.008167062 0.021870775 0.012289346 0.038635362 0.018946158 0.029417701
-0.036782995 -0.009491842 -0.011811045 -0.014628221 -0.0064069526 -0.011242772 -0.019712491 -0.017422179
-0.03707211 0.021022908 -0.018538365 0.008025081 -0.025117015 -0.0072285538 0.033679295 -0.026126983
0.020931428 0.018343348 0.027378675 -0.024699695 0.014040613 -0.0069856714 -0.047188528 0.037477802
-0.047590367 0.026776418 -0.019080952 -0.03738857 0.006734144 0.0043347836 -0.04445898 -0.0071622473
-0.010620776 0.0031078956 -0.047125187 0.010188498 -0.048802808 0.017129002 0.030902822 -0.017729195
0.00045088178 -0.0057717254 0.028739052 -0.021998825 0.036680903 -0.010027751 0.024563361 0.04558888
-0.03621082 0.0093099885 0.027376836 -0.016532943 0.024859907 -0.02990105 0.0228316 0.014904012
00000000: 068c 8f3c 7b1c 253c 373f 793c c304 32bc
00000010: 015c 7f3c ff19 eb3b 6ee2 433c ab6f 78bc
00000020: 729d 103b 9cbf 01bc 55a6 18bd 4fd5 9ebc
00000030: 4574 8bbb 00c5 953c 6986 ba3c 0a5b 1f3c
00000040: 1d33 1fbd ed36 f93c 07fe c3bc 004d c7ba
00000050: f6ae 2ebc a9a3 9c3c cfc9 173d 5f48 15bd
00000060: 508a 663d 1e5f 213c 7782 593b c360 a9bc
00000070: 02dd 0b3c ac82 12bc 32d6 413d 6339 1e3d
00000080: 5b85 c23c 2af6 16bd 52fd b53c a03d 853b
00000090: 798b 3f3d d214 573d 6379 72bc 5e4c 233c
000000a0: d7ff ff3a 294b bf3c 5cf7 5e3d fe7b 343d
000000b0: 9b68 123d 3e06 71bc b083 433b 9dcb 073d
000000c0: 6162 ecbc baf7 a63c 7625 08bd 29fe cebc
000000d0: d8da 8e3c 9782 14bd 2c7c 1cbd 2b75 163d
000000e0: 3a8d 35bd 18fd 5f3d 54d2 01bd 47b1 5f3b
000000f0: 5c33 dbbc b0e2 81bb 8ab5 9d3c 01a9 57ba
00000100: da92 8e3c 3129 c3ba 3fce 223d 91af 64bc
00000110: 6892 393c bc0c 963c 3696 073d dce4 bebb
00000120: 7504 5c3d 5562 983c 27a9 033d cc17 353d
00000130: da32 6a3d 8afa 363d ced1 093b d012 ba39
00000140: d0f8 1a3d 5ab8 6b3d 7a4b f43c 6130 90bc
00000150: 1994 4b3c 1cd5 16bc f85d a5bc b231 913c
00000160: 25b3 3abd be96 233d 9ef2 aa3c a7dd a43c
00000170: 68d3 7b3d 0be0 643d 2cea f13b 24a6 543d
00000180: ec78 043d bdca 703c 503a 433d 001a 6e3a
00000190: 80d5 323d 723e c53c 3d26 053d 69bb 0cbb
000001a0: ee87 ccbc 0b73 0dbd f9e1 b83b c893 983c
000001b0: f5c2 53bc 8b07 d3ba 2ecc a33c 9811 833c
000001c0: 4e0c bf3c 7c1c 133d d9ae 923c 2fac 0b3d
000001d0: 7127 11bc 55c1 203d 4b06 143c 95b5 293d
000001e0: 1eda 513d ac9a 2d3d 3318 b6bb 7755 1c3d
000001f0: b8a1 6c3c eece 9db9 d280 693b 242c ca3c
00000200: d45f 6a3c ebc2 97bc 4d1c 643d f4e8 da3b
00000210: c2e1 2bbd 3e70 97bc 29aa 9d3c a5ec f8bc
00000220: 60bd 563c 4933 29bc fe33 9ebc 4e43 f9bc
00000230: 26f6 353b 091b 1b3c 2a8c f1bb b05c 1abc
00000240: 48f0 0ebb f93b b63c a91a 1b3c 22c6 013d
00000250: aff0 063d 947f 873c efab 743c f571 44bc
00000260: 04dd 7b3b ca33 0abd 5eef 9a3c a2e1 b7bc
00000270: e836 053d 5678 7c3c de27 f6bb 906f 8bbc
00000280: 3350 7d3b 24f4 aa3c c21b 38bd feb0 75bc
00000290: b9c3 28bd c4b8 d13c 038a dabb 3da9 2ebd
000002a0: 5bf6 be3c d492 2fbd 80ae 1cbd 6be6 7d3c
000002b0: 22e7 c13b 3b3c ff3c 13a7 e0bc c488 083c
000002c0: 6c0e 343c 83bc 30bc 67df 133d c386 9b3c
000002d0: db39 c93c 960b 13ba 3477 dcbc 39b6 44bd
000002e0: 05dc c0bc 7ab0 943c 7377 3bbd 98c6 cf3c
000002f0: 2d6c f13c c909 1fbc 92ec 243b 5eaa 543c
00000300: 2e3e 4b3d 56a6 5f3c 24cf 053c 572a b33c
00000310: 4159 493c 1d40 1e3d f934 9b3c 64fd f03c
00000320: c4a9 16bd ac83 1bbc 1d83 41bc 35ab 6fbc
00000330: 6af1 d1bb 9b33 38bc 177c a1bc f5b8 8ebc
00000340: edd8 17bd 3c38 ac3c c5dd 97bc a17b 033c
00000350: 33c2 cdbc 81dd ecbb 4df3 093d 4108 d6bc
00000360: 6378 ab3c ca44 963c 3e49 e03c 0457 cabc
00000370: 990a 663c 0fe8 e4bb c248 41bd 5382 193d
00000380: 1eee 42bd 385a db3c a84f 9cbc c224 19bd
00000390: 18aa dc3b cd0a 8e3b 9f1a 36bd 49b1 eabb
000003a0: c302 2ebc d6ad 4b3b 5706 41bd a8ed 263c
000003b0: 74e5 47bd 1f52 8c3c ea27 fd3c d13c 91bc
000003c0: 5464 ec39 be20 bdbb 296e eb3c e136 b4bc
000003d0: b73e 163d 704b 24bc 1a39 c93c 68bb 3a3d
000003e0: cc51 14bd ec88 183c 6345 e03c 1870 87bc
000003f0: 01a7 cb3c 0cf3 f4bc 5609 bb3c f52f 743c

decoder.decoder.0.bias f4 [64]
-0.0019810477 0.013773375 0.0027623235 0.04941622 0.06297976 -0.030624678 -0.0062676817 0.058457658
0.02039431 0.015737219 0.030320052 -0.028660187 0.04830909 0.03610067 0.048970077 -0.020507114
0.037178848 -0.008567834 0.013055487 -0.00055505906 -0.050013676 0.041487038 -0.021016477 0.0025811396
0.017331254 -0.044935394 0.027500879 -0.010051075 0.021155048 0.048381515 0.042640913 -0.0233061
0.027532335 0.036486946 0.026459623 0.036943104 -0.0067100045 0.013761485 -0.05497146 -0.01753151
0.057602674 -0.02264263 -0.034718633 -0.043492492 0.04251489 0.018778183 0.03722548 0.031383194
-0.04668634 0.0068832347 0.02679157 0.054273028 0.017260721 -0.0028753716 0.05858012 -0.037696
0.045373306 0.019688321 0.006324932 -0.007068013 0.04344737 -0.0011397944 0.025420425 0.060037423
00000000: 77d4 01bb b9a9 613c 1908 353b aa68 4a3d
00000010: 88fb 803d 9be0 fabc 2061 cdbb 4c71 6f3d
00000020: f811 a73c 57eb 803c c261 f83c c5c8 eabc
00000030: c1df 453d 4cde 133d d994 483d 89fe a7bc
00000040: d948 183d 1a60 0cbc aee6 553c 6281 11ba
00000050: 24db 4cbd 50ee 293d bf2a acbc 5628 293b
00000060: 46fa 8d3c 2d0e 38bd 8649 e13c 44ad 24bc
00000070: 5a4d ad3c b22b 463d 3da8 2e3d 6fec bebc
00000080: 7e8b e13c 5673 153d dac1 d83c a751 173d
00000090: 99df dbbb da77 613c c129 61bd 3e9e 8fbc
000000a0: c8f0 6b3d 097d b9bc 2035 0ebd 2f25 32bd
000000b0: 1824 2e3d b4d4 993c bf79 183d aa8b 003d
000000c0: 2d3a 3fbd c28c e13b ff79 db3c 654d 5e3d
000000d0: 5b66 8d3c bb70 3cbb b5f1 6f3d 1f67 1abd
000000e0: 5cd9 393d 6749 a13c 6041 cf3b ca9a e7bb
000000f0: dff5 313d 2765 95ba 7f3e d03c cde9 753d

decoder.decoder.2.weight f4 [64, 32, 3, 3]
-0.043529134 0.0030566014 0.0332944 0.04065549 -0.027193876 0.029969335 -0.062079087 0.06455474
-0.001445441 -0.011395069 0.028620033 0.06421956 0.034272112 0.023998922 0.045014143 -0.03816243
0.03482115 -0.03318003 -0.019244367 -0.03041613 -0.028239671 -0.036029965 0.04016428 0.018047674
0.044545915 0.035456266 0.04043167 0.050817113 0.056275133 0.019419957 -0.044342563 -0.015243167
-0.016646236 -0.02378368 0.0632287 -0.03868218 0.03593954 0.03669168 -0.009572516 -0.01876989
0.031222327 -0.012475085 -0.054436028 0.04758177 0.018758228 0.009009963 0.04034563 -0.0039126975
-0.029948622 0.027447637 -0.041897204 -0.062196333 -0.04518239 -0.06736927 -0.054081134 -0.013452198
0.0039527984 0.013837156 0.020149263 0.044250906 -0.055543296 -0.06385226 -0.040860176 0.0415005
0.032954082 0.017258475 0.016018271 -0.029002437 0.072436176 0.054680362 0.07607728 -0.013517291
0.011213753 -0.0035568324 -0.039582457 0.032071743 0.04231064 0.016152324 0.026597176 0.038551085
-0.045788527 0.04539066 -0.013331914 -0.014486685 0.05553896 0.076785706 0.035849445 1.32846235e-05
-0.016196175 0.07491715 -0.05390365 -0.040700186 -0.010591567 0.047351092 -0.05876369 -0.0574166
0.01958149 0.029819028 0.07979575 0.1313457 -0.05308084 0.1225176 0.0023663142 -0.00692954
-0.03134796 0.06614955 -0.0060239807 -0.07959241 -0.06872084 0.0740332 0.027372057 0.0013007559
0.05222939 0.025429133 -0.039562862 -0.031532872 0.0023652124 0.020538742 0.023692382 -0.008337892
0.07250845 0.07411208 -0.0050141774 -0.01161239 0.060468808 0.051890608 -0.041054495 -0.010622907
-0.034997165 0.011221552 0.03806922 -0.027078703 -0.06834902 -0.044647276 0.023258405 0.004135864
0.0478174 -0.064041965 -0.013322149 -0.0483151 -0.039133452 0.0046056197 0.045627713 0.0030065342
0.029518148 -0.05212647 -0.04425081 0.04833953 0.023084583 0.0017293006 -0.049568567 0.013905923
0.007945655 0.031681493 -0.06990634 0.004271467 0.0577616 -0.007471584 -0.082219414 0.03130024
-0.037464067 -0.042971373 -0.04154702 -0.004884262 0.049933974 0.06239863 0.056904662 0.004496597
-0.024623957 0.03291164 -0.06519913 0.010948594 0.04755871 -0.038384292 0.058449928 0.017605325
0.009473089 0.021769919 -0.032224257 0.0062001636 0.04340605 0.018702649 -0.008287184 -0.00037165266
-0.047798555 -0.018077265 0.017160151 -0.06357506 -0.050959416 -0.001369657 -0.016758952 -0.042595074
0.025079664 0.0057416856 -0.06459389 -0.030310323 -0.03565907 -0.015122485 0.038655218 0.032960195
0.0118218055 0.011937683 0.05057958 0.0043653273 0.036741126 -0.026453905 -0.020194227 -0.008670119
0.009626603 -0.04626588 -0.020013103 0.07933838 -0.035905987 -0.0045379414 0.002558948 0.052983824
0.031143064 0.039525952 -0.025888829 0.056938116 0.023430526 0.030395152 -0.018177142 0.011110859
-0.07126964 0.025712624 -0.04504216 -0.0687331 -0.02719534 -0.014910974 0.010203077 0.02391706
0.04810963 -0.05517511 -0.046362136 -0.05733622 -0.043667085 -0.011088241 -0.047871746 0.025616232
-0.026170336 1.2938361e-05 -0.003657801 -0.00447876 -0.010434131 0.062089022 0.034966566 -0.025861885
0.011628711 0.030199468 0.02129488 -0.0547521 -0.0068035554 0.014730945 -0.046205115 0.013849599
00000000: 9b4b 32bd 4351 483b b55f 083d 5f86 263d
00000010: b1c5 debc 4082 f53c a446 7ebd 4735 843d
00000020: f474 bdba 62b2 3abc 8f74 ea3c 8b85 833d
00000030: ea60 0c3d 6399 c43c c060 383d 3550 1cbd
00000040: 9fa0 0e3d c8e7 07bd 5da6 9dbc 3f2b f9bc
00000050: e256 e7bc 2894 13bd 4d83 243d b7d8 933c
00000060: c775 363d 973a 113d ae9b 253d 9b25 503d
00000070: c180 663d 9a16 9f3c 8ca0 35bd 7abe 79bc
00000080: b05d 88bc fed5 c2bc 0c7e 813d 3571 1ebd
00000090: 5735 133d 044a 163d 0bd6 1cbc 50c3 99bc
000000a0: f7c5 ff3c 4d64 4cbc 50f8 5ebd 1ae5 423d
000000b0: dbaa 993c 869e 133c 7641 253d 1636 80bb
000000c0: d056 f5bc ded9 e03c 679c 2bbd 95c1 7ebd
000000d0: 2b11 39bd e6f8 89bd 2e84 5dbd 9c66 5cbc
000000e0: 7a86 813b 3db5 623c 1110 a53c 7040 353d
000000f0: 5e81 63bd f9c4 82bd 005d 27bd 6efc 293d
00000100: dcfa 063d a561 8d3c c038 833c 8596 edbc
00000110: 6b59 943d 84f8 5f3d 68ce 9b3d a177 5dbc
00000120: e4b9 373c bf19 69bb 3721 22bd a95d 033d
00000130: ec4d 2d3d e151 843c 52e2 d93c bee7 1d3d
00000140: c08c 3bbd 8feb 393d 1a6e 5abc 9059 6dbc
00000150: d27c 633d d341 9d3d ded6 123d 06e1 5e37
00000160: d7ad 84bc 2a6e 993d 13ca 5cbd 3db5 26bd
00000170: 4088 2dbc 38f3 413d 32b2 70bd ab2d 6bbd
00000180: 5c69 a03c 0947 f43c f46b a33d 7d7f 063e
00000190: 4b6b 59bd 82ea fa3d 2a14 1b3b 3211 e3bb
000001a0: b866 00bd 6a79 873d d064 c5bb 5801 a3bd
000001b0: 83bd 8cbd b89e 973d 5d3b e03c 207e aa3a
000001c0: 7cee 553d c250 d03c ab0c 22bd 9d28 01bd
000001d0: ae01 1b3b dd40 a83c 8716 c23c a79b 08bc
000001e0: 4f7f 943d 13c8 973d f84d a4bb e541 3ebc
000001f0: 24ae 773d 3f8b 543d c228 28bd b40b 2ebc
00000200: 3059 0fbd 9ada 373c 78ee 1b3d 28d4 ddbc
00000210: 92fa 8bbd 10e0 36bd 6988 be3c 2486 873b
00000220: 2edc 433d 6f28 83bd 2545 5abc 0ee6 45bd
00000230: 664a 20bd bdea 963b 20e4 3a3d 4609 453b
00000240: 0bd0 f13c 9182 55bd 5640 35bd acff 453d
00000250: e11b bd3c b3a9 e23a 6908 4bbd abd5 633c
00000260: 7e2e 023c 74c4 013d 0e2b 8fbd aaf7 8b3b
00000270: 6d97 6c3d 30d4 f4bb a762 a8bd ae34 003d
00000280: ec73 19bd c002 30bd 352d 2abd 290c a0bb
00000290: 9187 4c3d b595 7f3d dd14 693d 3158 933b
000002a0: 2eb8 c9bc 5bce 063d 1f87 85bd bb61 333c
000002b0: eccc 423d d938 1dbd 3169 6f3d 0b39 903c
000002c0: 0435 1b3c d456 b23c 95fd 03bd be2a cb3b
000002d0: 8bca 313d 4c36 993c f8c6 07bc 60da c2b9
000002e0: 6bc8 43bd c616 94bc 7293 8c3c a433 82bd
000002f0: d2ba 50bd 1086 b3ba 124a 89bc 2c78 2ebd
00000300: de73 cd3c c024 bc3b cd49 84bd 5b4d f8bc
00000310: 3f0f 12bd 4dc4 77bc ef54 1e3d 4501 073d
00000320: 3fb0 413c 4696 433c 892c 4f3d 050b 8f3b
00000330: dd7d 163d dcb5 d8bc 5d6e a5bc 1d0d 0ebc
00000340: e6b8 1d3c 4b81 3dbd 85f2 a3bc 297c a23d
00000350: 2812 13bd 03b3 94bb 06b4 273b 9105 593d
00000360: bd1f ff3c f7e5 213d cf14 d4bc f137 693d
00000370: 60f1 bf3c 41ff f83c 3be8 94bc 520a 363c
00000380: d1f5 91bd 48a3 d23c 217e 38bd f1c3 8cbd
00000390: c3c8 debc 284d 74bc cf2a 273c b6ed c33c
000003a0: 9a0e 453d 4cff 61bd 39e6 3dbd 62d9 6abd
000003b0: 42dc 32bd 74ab 35bc 2a15 44bd 22d9 d13c
000003c0: 2c63 d6bc d611 5937 b8b7 6fbb 90c2 92bb
000003d0: ebf3 2abc 0f51 7e3d 1a39 0f3d 4edc d3bc
000003e0: 5986 3e3c e064 f73c 9a72 ae3c bd43 60bd
000003f0: 5cf0 debb 105a 713c 9341 3dbd 6ee9 623c

decoder.decoder.2.bias f4 [32]
0.02947131 0.057934668 0.040113777 -0.0062043867 0.025102505 -0.002395899 -0.045380186 0.06079412
-0.04324289 0.037877746 0.0062764236 0.009231123 -0.007778161 0.043563742 -0.058078915 0.026828477
-0.06908899 -0.0327639 -0.043384157 0.06705473 -0.06540926 -0.07839126 0.03337713 0.043808162
0.027834272 -0.06591575 0.036210757 0.012414396 0.0772432 0.06958004 -0.008861675 0.029184189
00000000: d16d f13c e74c 6d3d 584e 243d 2b4e cbbb
00000010: c5a3 cd3c 8404 1dbb 93e0 39bd 4103 793d
00000020: 751f 31bd b225 1b3d 75aa cd3b 233e 173c
00000030: f2df febb e56f 323d 28e4 6dbd 65c7 db3c
00000040: 877e 8dbd 7033 06bd 96b3 31bd fe53 893d
00000050: 4af5 85bd 998b a0bd 75b6 083d 3070 333d
00000060: b304 e43c d6fe 86bd bb51 143d c065 4b3c
00000070: af31 9e3d fb7f 8e3d 8f30 11bc ae13 ef3c

decoder.decoder.4.weight f4 [32, 1, 3, 3]
0.17609486 0.05040671 0.28257525 -0.24692509 0.24398829 0.0671386 -0.34136924 -0.34326828
-0.19943066 -0.15621454 0.23587184 -0.29120252 -0.26784912 -0.0485218 0.08673932 0.025712175
-0.3100532 0.038538698 -0.33777577 0.17592348 0.30353108 -0.2961149 -0.19485888 -0.042189915
-0.31415924 0.24429709 -0.1850223 -0.15843195 0.019235281 -0.24001797 -0.0035005505 -0.26639116
-0.19107537 -0.12464371 0.01876084 0.08635528 0.21233594 0.12419514 -0.13882849 0.051079646
-0.31530422 0.20978859 -0.15930554 0.23551682 0.30391026 0.03209273 0.17695767 -0.22329098
0.19288853 0.16545376 0.057465296 -0.007225499 0.2896912 0.030920522 -0.015591092 0.30451176
0.30497935 0.14094947 -0.2537165 -0.0949003 0.16161649 -0.2241883 -0.24206565 0.05424543
-0.0037252367 -0.34328875 -0.24082568 -0.23926632 -0.09105072 0.016978152 -0.22255185 0.0973775
0.21604222 0.033224028 -0.16091065 0.09112007 0.08004592 0.26130298 -0.17880043 -0.23708746
0.31694078 -0.03191408 -0.1566683 -0.27442583 0.13009518 -0.3147374 -0.33914012 -0.20363322
0.30177975 -0.26783833 0.05549928 0.032533433 -0.14126226 0.19192804 -0.13270505 -0.03958694
-0.33164197 -0.24921194 0.091209605 -0.3205797 -0.023039475 -0.02101698 -0.053749144 0.31322005
0.071775794 0.10473833 0.059743162 0.095013306 -0.30864656 -0.23022701 -0.182258 -0.3166272
-0.057853952 0.18311337 0.120113805 -0.2935537 0.22455163 -0.110736065 0.027366834 -0.0050508818
-0.26039845 -0.1959844 -0.32185063 -0.1589958 0.28118193 -0.020633958 0.1577847 -0.12504014
-0.13255642 0.08035816 -0.11464627 0.24318658 -0.04483212 -0.03674382 0.2810788 0.29731393
0.24431954 -0.09936266 0.028222477 0.3085146 0.31000695 0.2470896 0.26863545 0.16245674
-0.18388072 0.21677884 0.2298052 0.005064858 -0.30336335 0.2804231 0.18086581 -0.024048194
-0.08411629 -0.012405565 0.24806578 0.021825697 0.19402002 -0.119780466 0.2527281 -0.33252835
0.115654625 -0.05359038 0.13012072 0.24579842 0.2334624 -0.009926279 -0.2516839 0.1667401
-0.18845 -0.25130028 0.3089906 -0.037776157 -0.34163368 -0.11201241 0.2689273 -0.31501147
0.08306776 0.07681522 -0.14903945 0.043565247 0.04393301 -0.13192931 -0.12662409 0.35673127
0.08617423 -0.10838218 0.073660456 -0.081139304 -0.16835244 0.060898654 -0.04493784 -0.09558319
-0.25484607 0.00017624751 0.0930472 0.35619065 0.05712279 -0.21826744 -0.035224244 0.03518559
0.05842289 -0.062665075 0.239357 -0.117306285 0.21523055 0.2655366 0.2018907 -0.16898921
-0.14441468 -0.12837885 0.05162577 -0.23270164 0.06147585 0.0803754 0.026924694 -0.17517193
-0.019511554 -0.18885772 0.32086524 0.07143696 0.27635434 0.31101713 -0.21076529 0.12584703
-0.24979138 0.2561803 0.3152527 0.038534675 -0.1913042 0.1340532 -0.00026520234 -0.067509644
0.0046686293 -0.058740936 -0.01832815 -0.19906741 0.23921832 0.18139292 -0.12608361 0.01931485
0.14528646 -0.18299851 -0.0024758934 0.22944999 -0.31325006 0.28724474 0.3024795 0.043658443
0.065631784 0.17714857 0.3117206 0.02577106 0.17706734 -0.21991295 0.15648249 -0.23533283
00000000: 3652 343e 4477 4e3d b4ad 903e eed9 7cbe
00000010: 11d8 793e f67f 893d f3c7 aebe dcc0 afbe
00000020: 8d37 4cbe b4f6 1fbe 6388 713e 7f18 95be
00000030: 8523 89be ccbe 46bd 62a4 b13d 57a2 d23c
00000040: 4bbf 9ebe c1da 1d3d f2f0 acbe 4925 343e
00000050: 6d68 9b3e 5f9c 97be 1689 47be 55cf 2cbd
00000060: 7bd9 a0be 0429 7a3e 7c76 3dbe fc3b 22be
00000070: 4f93 9d3c 45c7 75be 7e69 65bb 6c64 88be
00000080: 43a9 43be 3445 ffbd 55b0 993c 09db b03d
00000090: 986e 593e 065a fe3d 0e29 0ebe e438 513d
000000a0: 8e6f a1be d2d2 563e fe20 23be 522b 713e
000000b0: 209a 9b3e ab73 033d 6434 353e 64a6 64be
000000c0: 9284 453e b66c 293e bb60 6b3d e1c3 ecbb
000000d0: 6852 943e 094d fd3c c871 7fbc f7e8 9b3e
000000e0: 4126 9c3e 0f55 103e 21e7 81be 175b c2bd
000000f0: cb7e 253e 9e91 65be 0fe0 77be 7530 5e3d
00000100: 1a23 74bb 8bc3 afbe 029b 76be 3b02 75be
00000110: cd78 babd c415 8b3c a2e4 63be db6d c73d
00000120: 2c3a 5d3e eb15 083d c3c5 24be 299d ba3d
00000130: 1eef a33d 81c9 853e 7617 37be 0ec7 72be
00000140: 1046 a23e 57b8 02bd a86d 20be 8b81 8cbe
00000150: ac37 053e 4325 a1be c6a3 adbe 3a85 50be
00000160: e082 9a3e 1b22 89be 3753 633d c741 053d
00000170: 0ea7 10be c988 443e d5e3 07be ea25 22bd
00000180: facc a9be 6a31 7fbe 1acc ba3d 0623 a4be
00000190: 48bd bcbc cd2b acbc 1028 5cbd 615e a03e
000001a0: 30ff 923d 0d81 d63d 3fb5 743d 5696 c23d
000001b0: ec06 9ebe a1c0 6bbe d7a1 3abe f61c a2be
000001c0: 44f8 6cbd 1282 3b3e 3afe f53d ac4c 96be
000001d0: ddf0 653e 97c9 e2bd 6930 e03c de81 a5bb
000001e0: f252 85be 22b0 48be 9bc9 a4be cccf 22be
000001f0: 14f7 8f3e 8c08 a9bc 5092 213e 860a 00be
00000200: dfbc 07be d292 a43d aacb eabd e705 793e
00000210: e3a1 37bd b080 16bd 8fe9 8f3e 8839 983e
00000220: e72e 7a3e a67e cbbd d332 e73c a0f5 9d3e
00000230: 3bb9 9e3e 0e05 7d3e 968a 893e 0f5b 263e
00000240: 3a4b 3cbe 46fb 5d3e 0e52 6b3e 1cf7 a53b
00000250: 7152 9bbe 9e93 8f3e e334 393e b800 c5bc
00000260: 2945 acbd b640 4bbc f504 7e3e cecb b23c
00000270: 2fad 463e 764f f5bd 9465 813e 2841 aabe
00000280: 55dc ec3d 9681 5bbd 5e3e 053e 95b2 7b3e
00000290: c410 6f3e d5a1 22bc b6dc 80be ebbd 2a3e
000002a0: 09f9 40be 6eaa 80be 0434 9e3e 2cbb 1abd
000002b0: 9cea aebe c366 e5bd d7b0 893e 2f49 a1be
000002c0: 6e1f aa3d 4c51 9d3d cc9d 18be 7971 323d
000002d0: 1af3 333d 7a18 07be bfa9 01be 7ba5 b63e
000002e0: 1d7c b03d 7af7 ddbd 4bdb 963d 5d2c a6bd
000002f0: 9564 2cbe de70 793d be10 38bd 1fc1 c3bd
00000300: 2f7b 82be 15cf 3839 888f be3d 9f5e b63e
00000310: 96f9 693d 8081 5fbe 4c47 10bd c41e 103d
00000320: d74c 6f3d 8c56 80bd 001a 753e 473e f0bd
00000330: 6665 5c3e 6af4 873e 70bc 4e3e 820b 2dbe
00000340: 71e1 13be bf75 03be 8b75 533d 5749 6ebe
00000350: 1ace 7b3d dc9b a43d 2d91 dc3c 4560 33be
00000360: b2d6 9fbc eb63 41be 7348 a43e 8a4d 923d
00000370: 517e 8d3e a33d 9f3e dbd2 57be 0bde 003e
00000380: 50c9 7fbe 102a 833e cd68 a13e 89d6 1d3d
00000390: 40e5 43be 3e45 093e db0a 8bb9 7f42 8abd
000003a0: 4dfb 983b 569a 70bd eb24 96bc 54d8 4bbe
000003b0: a6f5 743e 11bf 393e 101c 01be 2d3a 9e3c
000003c0: f9c5 143e f663 3bbe 9942 22bb f0f4 6a3e
000003d0: 5062 a0be be11 933e 98de 9a3e 32d3 323d
000003e0: f569 863d 6f66 353e d899 9f3e d41d d33c
000003f0: 2451 353e dc30 61be f23c 203e 17fb 70be
