500_ML/models/weights_799_10-04_04:16.pt (torch_old, 39980 bytes, 7 tensors)

encoder.encoder.0.weight f4 [16, 1, 3, 3]
00000000: 826c d1bd cc42 9b3d 82e5 33be eee5 ae3e
00000010: 4c15 a23e 2a65 c53e fa88 cc3e 88a7 fb3d
00000020: da94 b23e 6ebe 443e 6126 c4bd 54b1 40be
00000030: 5965 d93e b66a d83e 1824 96bd cf90 513e
00000040: 94ac 843e 40dc 783c b296 413e 670c 1d3e
00000050: a361 51bd 6a01 ce3e 9eb2 0a3e 5709 803e
00000060: 6e41 6e3e 0421 cd3c 83b9 5e3e 5a81 8abe
00000070: a99f 853e 5e69 43be e0a8 70bc 50c5 8abc
00000080: 702b 84be b292 5a3e 3839 04be 2be5 5cbe
00000090: d967 6b3e d0a6 6fbd e3bc acbc 9002 9d3e
000000a0: 8613 41bc 1bbc f93c 3b96 fc3d 7044 46bd
000000b0: a787 91bd 6c13 4bbe 7cd9 633d 19de 603e
000000c0: dbf5 c4bd 9cd9 c83e eef2 ac3e 405b 7e3e
000000d0: e5b6 973e f15e 9c3e 6ee6 f33d 6b79 afbd
000000e0: 90ee 8e3e 5d14 7bbd e28d c4bc ef92 7abe
000000f0: a2cd 9e3e c3fd 09be 5a34 4cbe 7054 b1bd
00000100: 0059 81bb ba46 333e 8ca6 86bd 3e34 47be
00000110: 903b 1cbe 081e 5cbd 7e53 a6be 3264 683e
00000120: b7f7 61be a721 1fbe 24a4 273e 7255 e83c
00000130: 4bd3 043c b6d5 b83d add1 433e 957e 773e
00000140: 690f 683e 0c18 df3d a282 8fbe 8039 1cbc
00000150: e3f5 2fbe 80b1 7c3d 8c0a c2bd d68c d9bd
00000160: cc6d 9fbe 91e9 9d3e a45c b93e ee96 3a3e
00000170: 8d28 43be c9a9 a9bb 3380 963e 2f84 58bc
00000180: e2e4 bfbd 6b08 8e3e 7271 60be d916 793c
00000190: d79d ffbd 9b46 983e e958 4abe 4d94 21bb
000001a0: 9fb2 0ebb 73fd 8d3d e0cb 943e b104 8c3d
000001b0: 1d34 53be 4997 03be aba5 3d3e 5019 5bbe
000001c0: f4b1 333c b85f b53e 59dd bc3e 31bd 3f3e
000001d0: 01cc 953e c071 323d 1099 923d 582e 8abe
000001e0: f89d 22bd 20c4 d53d 6cfe 86be ead0 283e
000001f0: 88b7 2e3d d0bd 23be 1096 c2bd f4ae a0bd
00000200: 36a9 453e fbf1 81be 74cb bb3d 584d 6bbe
00000210: 7043 e23d 8848 1b3d 0fa1 91be e87d 993e
00000220: d94c a33e deb3 653c dc15 23be 41d0 993e
00000230: d011 a5bc 6f45 493e 7830 b1bb 2a90 7f3e
-0.10225774 0.075811 -0.17568019 0.34159797 0.31656873 0.38553745 0.39948255 0.122878134
0.3487919 0.19213268 -0.09577633 -0.18817645 0.42460135 0.42268914 -0.07331103 0.20465396
0.25912917 0.01518923 0.18905142 0.15336762 -0.051118504 0.40235454 0.135447 0.25007126
0.23267147 0.025040157 0.21750455 -0.27051812 0.26098374 -0.19083163 -0.0146887 -0.016939789
-0.2581439 0.21345022 -0.12912452 -0.21571796 0.22988833 -0.058508694 -0.021086162 0.30666018
-0.01178444 0.030485203 0.12333342 -0.04840511 -0.07105952 -0.19831628 0.05562733 0.21959724
-0.09617206 0.39228523 0.3377909 0.24839497 0.29631725 0.30541185 0.11909185 -0.085680805
0.27916384 -0.061298717 -0.023993436 -0.24470113 0.3101626 -0.13475709 -0.19941846 -0.08658683
-0.003947377 0.17507449 -0.06574735 -0.19453523 -0.15257096 -0.053739578 -0.32485574 0.22694471
-0.22067152 -0.15540181 0.16371208 0.028361056 0.008107017 0.09025137 0.19122954 0.24169381
0.22662129 0.108932585 -0.28029352 -0.009535193 -0.17183642 0.061692715 -0.09474668 -0.106225654
-0.31138456 0.3084226 0.36203492 0.18221638 -0.19058438 -0.0051777107 0.29394683 -0.013215109
-0.09369828 0.27740797 -0.21918276 0.015203201 -0.124812774 0.29741368 -0.19760479 -0.0024655045
-0.0021773947 0.06933107 0.29061794 0.06836832 -0.20625348 -0.1285068 0.18520229 -0.21396375
0.01096772 0.3542459 0.36887625 0.18724515 0.29257205 0.04356551 0.071581006 -0.26988482
-0.039701432 0.104377985 -0.26365983 0.16485944 0.042655498 -0.15990376 -0.095012784 -0.0784587
0.1930283 -0.2537993 0.09169665 -0.22978723 0.11048019 0.037910968 -0.2844319 0.2997887
0.31894568 0.014019934 -0.15926307 0.30041698 -0.020150095 0.19655393 -0.0054073893 0.24957338

encoder.encoder.0.bias f4 [16]
00000000: dc73 ac3e 7abb 8ebc 353d b0bc ca5e 82be
00000010: 0d88 743e e5bc cabc 6caa 3dbe 8e02 7fbe
00000020: f3a9 6d3e 6ba1 3cbe 0c20 e33d a041 313e
00000030: 7640 483e 5bda 42be 7098 7bbe a101 cabd
0.33682144 -0.01742338 -0.02151356 -0.25462943 0.23880024 -0.024748275 -0.18522042 -0.24903318
0.23209362 -0.18420951 0.11090097 0.1731019 0.1955584 -0.19028609 -0.24569869 -0.09863592

encoder.encoder.2.weight f4 [32, 16, 3, 3]
00000000: d688 0f3e 2ad9 1c3e 254d 133e b2e7 6c3d
00000010: 7735 163d 7842 133e 4007 bc3d af46 343d
00000020: 1bae 1f3e bde9 d7bd 5e0e 8abd 9492 d3bd
00000030: 89f4 76bd 3f02 c5bd 0a0b fbbd 0170 53bd
00000040: 13cc b0bd 6694 18be 8cfb f0bc 319d 3dbd
00000050: 511b 02be 23a4 37bc 0767 2fbb 9049 b2bc
00000060: 6e9f adbd a2b3 32bd afc4 05be fc90 e3bc
00000070: 1055 be3c 8ca3 b7bc 0a26 a9bd 7c5c 943c
00000080: 9915 943d 500f babc 006d 023d 1313 74bd
00000090: 0372 d53d 55b3 db3d f0f2 323d 79b6 7c3d
000000a0: af3d 863d f17b 0c3e 7bb9 c53d d466 6c3d
000000b0: d4b2 893d f104 fbbd 96a7 2dbd 2766 abbc
000000c0: 06b3 b23b 0bb4 f9bc 70a8 debd b294 1cbd
000000d0: a405 0cbe a9ae 18be 05ed b5bd c90f 9cbd
000000e0: e69c a3bd 198a 883d 8190 c5bc f5c2 8dbc
000000f0: c070 9a3b 5d21 e6bc fb7a 0abc bc11 f53c
00000100: 646a bd3c a412 8ebd 9048 b33b 4800 1c3d
00000110: aae2 563d 5695 85bd 8b5b 99bd 00f3 adbc
00000120: 0e62 063e 23fa df3d 463d cf3d 09d1 d13d
00000130: a281 2e3e a2c8 9b3d ba87 9b3c 9648 773c
00000140: 9b13 cf3d 7b1f 0cbd b601 123d 9fed 99bd
00000150: e6ec f9bc 2b9d 56bd 3a27 80bd 46df 30bd
00000160: e08a f03c 800b c13b 868c 373e 6129 633d
00000170: b7e0 013e 9526 5d3d 3549 d53d 4971 dc3d
00000180: 17b1 f53d c14c 283e 1176 b03d daa5 f43c
00000190: 9a21 1a3e 15cc 553d 7acc 9d3c a802 1a3d
000001a0: e541 2b3e c0d0 763d 196b f83c 4792 753c
000001b0: 7f32 053e b64b 233e b595 123e f4c8 153e
000001c0: 3ab4 953d cfa5 293e f747 0b3e a958 893d
000001d0: 4f9e 9b3d 24c6 933c 6860 0bbd e230 283d
000001e0: ace5 95bc b046 263d 0018 1f3b a4db e83c
000001f0: 006f deb9 401b 85ba 5316 8a3d 03b4 a9bd
00000200: 44d8 e43c 7807 57bd 3697 80bd d8eb 4c3c
00000210: 8e52 353d 0060 12bc 4155 a13d 9589 46bd
00000220: 9a9d 78bd 5e71 1dbe ca1d 4d3c 1b79 11be
00000230: d164 1bbd 0128 d0bd 505a 87bd 41be 0cbe
00000240: a539 363b 9dcd 6fbb a5ee db3d 3009 b7bb
00000250: 36e1 0bbd 1473 cfbc a89b 993d 6561 653d
00000260: 93c2 c03d e563 9e3c b980 a63d fd0b 5cbc
00000270: 9cd8 4e3d 77c9 9d3d e1ab 3a3d 0435 113e
00000280: fac4 ff3d b551 193e 9643 923c 2528 0c3e
00000290: 5eb8 e03d d022 523d a794 0a3d 18a1 113e
000002a0: de93 463a 9716 be3c 2316 453d 9438 853c
000002b0: 0e60 1b3d 10e5 d43b da74 a5bd 1c23 9bbd
000002c0: 7a76 7e3d ca6b 5c3d 3622 3b3d d834 053d
000002d0: 0ef4 afbb 2b13 93bd be9c a03c 0499 813d
000002e0: 3b2e 733d 583c 82bd 2215 0b3d adde ffbc
000002f0: ac0a 07bd 06f1 193d 3401 023e fa0c e73d
00000300: 8bf4 a63d 102e 133e 9164 2c3d 7a9f 823c
00000310: 1e01 933d 5ecb c83d f3ad 5ebd 600d 5d3c
00000320: 50ca 0fbd 2027 0d3c 70d1 94bc 98c4 4bbb
00000330: 1fd6 a1bd 82de 88bd 49ea 173d c8de 113d
00000340: 8057 7f3c c774 9fbd 1657 04bd 20c3 f63c
00000350: c0e7 a03b cc4a f93c f2d4 503d 7c12 85bc
00000360: 8c45 7f3b 1852 523d 07d3 0b3d bf60 8cbd
00000370: 2e33 7c3c 96e4 18bd b965 e93c 5021 c4bc
00000380: cff5 a83c 68c9 0ebd 3a25 2b3d 03f4 2ebd
00000390: 00fd f7ba 20e7 2cbd a03c 663b 80e1 34ba
000003a0: 538c 2abd e4f6 8fbd a5fc 9a3c bfe9 163d
000003b0: bcca 803d 8848 f23c 1d85 203d 7f79 38bd
000003c0: 85dd e53d fe41 8abd 3c7b 60bd 51ad 553d
000003d0: 5e8c 993d 1a70 e7bc be90 01bd 0534 58bd
000003e0: 637c 66bd 113b 8b3d ac9a 2cbd f3a6 e13c
000003f0: adf0 a23b bd5a ed3c 3636 113d d089 c03b
0.14017043 0.15317217 0.14384897 0.05783815 0.03667208 0.14380825 0.0918107 0.04401272
0.1559376 -0.10542629 -0.067410216 -0.10330692 -0.0602918 -0.09619569 -0.12257965 -0.051620487
-0.08632674 -0.1490036 -0.029416822 -0.046292488 -0.12705733 -0.011208567 -0.002676429 -0.021763593
-0.084776744 -0.043628342 -0.1306331 -0.027779095 0.02323392 -0.022416852 -0.082592085 0.018110506
0.07230682 -0.02271238 0.03184223 -0.059588503 0.10422137 0.10727564 0.043688715 0.061697457
0.06554734 0.13719155 0.09654518 0.057715252 0.06723562 -0.12256802 -0.04239615 -0.020922733
0.00545347 -0.030481359 -0.10871971 -0.038227744 -0.13674027 -0.14910378 -0.088830985 -0.07620198
-0.079889104 0.06666965 -0.024116756 -0.017304877 0.004713148 -0.02809208 -0.008452172 0.029915683
0.02312202 -0.06937149 0.0054712966 0.038086206 0.052462257 -0.06522624 -0.074881636 -0.021234035
0.13123342 0.10936382 0.10119109 0.102449484 0.17041638 0.07606627 0.018985618 0.015092989
0.10111161 -0.03420971 0.035646163 -0.07516026 -0.03050847 -0.05239598 -0.06257482 -0.04318168
0.029363096 0.0058912635 0.17924699 0.055459384 0.12683378 0.053991873 0.10414354 0.10763795
0.11996668 0.1643553 0.086162694 0.02986424 0.1505188 0.05219658 0.019262541 0.03760019
0.16724356 0.060257673 0.030324506 0.0149884885 0.13007544 0.1594685 0.14314921 0.14627439
0.07309766 0.16567157 0.13601671 0.06706364 0.07598554 0.018038817 -0.034027487 0.041062243
-0.018297993 0.040594757 0.002427578 0.028425045 -0.0004242584 -0.0010155216 0.06742539 -0.08286288
0.027935155 -0.052497357 -0.06278841 0.012507401 0.044268183 -0.008934021 0.07877589 -0.048471052
-0.060697176 -0.15375277 0.012519309 -0.14206354 -0.037937943 -0.1016388 -0.066090226 -0.13744451
0.0027805355 -0.003659106 0.10738877 -0.005585812 -0.034150325 -0.025323428 0.07500392 0.056001086
0.09412112 0.019334743 0.08130021 -0.013430593 0.050499544 0.07704442 0.045574073 0.1418038
0.12488742 0.14972575 0.017854493 0.13687189 0.10972665 0.05130273 0.033833172 0.14221609
0.00075751345 0.023204131 0.048116814 0.01626233 0.0379334 0.006497033 -0.08078928 -0.07575056
0.062124707 0.053813733 0.045686923 0.0325211 -0.0053696698 -0.071813904 0.01960599 0.063280135
0.05937026 -0.06359166 0.0339557 -0.03123411 -0.032969162 0.037583373 0.12695771 0.11281772
0.081521116 0.1437304 0.042088095 0.015945185 0.071779475 0.09804414 -0.05436511 0.013491958
-0.03510505 0.008615285 -0.018166274 -0.003109252 -0.079021685 -0.06683065 0.037088666 0.03561285
0.0155848265 -0.077859454 -0.032309614 0.03012234 0.0049104393 0.030431174 0.05098433 -0.016244166
0.0038951365 0.051347822 0.0341368 -0.0685439 0.015393062 -0.03732737 0.028490888 -0.023941666
0.020625023 -0.034860045 0.04178355 -0.042713176 -0.0018920004 -0.042212605 0.003513135 -0.0006900057
-0.04163773 -0.070295125 0.018919298 0.03684401 0.062886685 0.029575601 0.039189447 -0.045037743
0.11223892 -0.06750868 -0.054805025 0.05216724 0.07497476 -0.028251696 -0.031632178 -0.052783985
-0.05627097 0.067983754 -0.042139694 0.027545428 0.0049725384 0.028973931 0.03545209 0.0058758035

encoder.encoder.2.bias f4 [32]
00000000: 26be 0e3d a90b fdbc 28ad 0b3e 6289 f63d
00000010: 1fa0 0b3e 1bf8 42bd 4232 0c3e e44e 1d3e
00000020: a0ad 16bc e29b b03d 202b f5bc a06c 223e
00000030: 0a19 2d3e 8296 e3be 0da2 b03d 103a c3bd
00000040: cf1a 8cbd 5ec3 d93c 3191 b5bd 93b8 d93d
00000050: 1819 323c 6d50 76bd 4f45 24bd f5ae 27bd
00000060: d07c 9f3d aa52 a43d 3086 02bd a6ff b23e
00000070: 27ca c53d 9ba2 d63c 4615 0a3e 4d2d 1c3e
0.03484931 -0.030889349 0.13640273 0.120379224 0.136353 -0.047599893 0.13691047 0.15362126
-0.009196669 0.08623482 -0.02992779 0.1586175 0.16904083 -0.44450766 0.08624659 -0.09532559
-0.06841051 0.026582416 -0.08865584 0.10630908 0.010870241 -0.060135294 -0.04010516 -0.040938336
0.07787478 0.080235794 -0.031866252 0.3496067 0.09657698 0.026200583 0.13484678 0.15251656

decoder.decoder.0.weight f4 [32, 16, 3, 3]
00000000: 7dc4 ab3d aef8 bb3c 5a02 b33b 3922 dc3b
00000010: 8419 0e3d 3937 833d 3408 51bc 08b9 d33c
00000020: 4239 b03c ae27 a23d 94a5 6b3d 054c 083e
00000030: 4a89 083d 802d 283e f748 213e bb6d 723d
00000040: 831d 353e abd8 0b3e 6ab6 003e 34b9 123e
00000050: aec1 103e e38c f43d adb3 8e3d 0448 273e
00000060: 0f7c a33d 4520 6f3d 095a b33d 2d58 603c
00000070: 5527 82bd a8bc b83c 3d52 a0bd 1ee2 79bd
00000080: e558 c4bc 2a98 aebd acbb 8dbd 1c04 d6bd
00000090: 8eaf 063e e853 4f3d 44dd 083e 5731 1d3e
000000a0: 385d 413e 31b9 e43c c965 7f3d 4599 8e3d
000000b0: 907f 8d3d bfdc ba3c 2349 403c 0765 7e3c
000000c0: 0423 cf3d 118a fe3d 0f2a 173e 5190 6f3d
000000d0: ea5f 023e 68a9 e63c 2af8 933d 8a70 e63c
000000e0: 0b88 a5bd 4204 f1bc f2ad 193b b6c5 36bd
000000f0: 5851 77bc 0541 8bbd 6126 583c ef56 c53d
00000100: 1c81 c63c 3bec 963d 8b78 6a3c aebf 6c3d
00000110: d408 b03c c65e 6e3d a447 32bc 2bf8 06bc
00000120: c291 4fbd e98f 103c ac25 803d 2696 b23b
00000130: 3602 3a3d 85b1 663c a9b6 d2bc a921 863d
00000140: c146 9cbd ed65 063e 9cf1 8dbb bcfe 9dbc
00000150: bf27 c2bb 62f6 943c 4234 2f3d 2905 0f3e
00000160: ebb3 d33d 3f54 cc3d 9351 fd3d 99e3 5f3d
00000170: b07e c83d f03a 7cbd e4ff 163d 4333 6e3d
00000180: 092f 6e3e 3584 9fbd 8585 a33d 012b 953c
00000190: 8001 ffbb a908 383d 0ba0 4ebd c5d0 24bd
000001a0: 1910 833d 78ff 263d f069 813c b25b e2bc
000001b0: 4fb5 a5bd 43ae 173c 13aa 5dbd 8723 553d
000001c0: 28b6 95bd 5c85 79bb 7383 6bbb d38d debc
000001d0: 3031 65bd db80 cf3d e2fb e13d af15 09bd
000001e0: f093 f73c a418 253d 1267 5ebd a54a 883d
000001f0: 735c e63d 93c5 893c 6163 693d c3fe 8fbd
00000200: 174f 263d 1891 99bc b2fa 83bd ac07 ae3b
00000210: cbda 64bc 5664 e73c 62f1 aebd 3b6f f63c
00000220: 5a84 f2bc 4045 20bb 423a 223e 2392 5d3d
00000230: 3c14 833c 8e78 093e ea7a b43d 0633 f53b
00000240: 7704 a53d adf9 9b3d 0f4b 073c 5699 dc3d
00000250: fe0c afbc 3a70 733d 6c12 b03d e7d5 5b3c
00000260: 5d57 19bc 2714 06be 6dbd f9bc 5e83 11be
00000270: 406b a5be 28da dbbd c8b2 95be 6017 e4bd
00000280: 8b4c 72bd ee0c 1fbd 16e6 a6ba 7471 1abe
00000290: 71ad bebd d009 bdbd 4795 02bd 7a46 19bd
000002a0: e327 b8bd da84 b7bc 7cd4 03be b84d 073d
000002b0: f744 583c 37a7 80bd 5881 463d e08a 1dbc
000002c0: 98eb 4bbd 1016 2abd df4c 69bd 5374 75bd
000002d0: b0da 11be 4d60 39be b888 c3bd 29f9 c9bd
000002e0: a5b9 31be 3915 18be 9eae 38be 3e3c 45bd
000002f0: acf0 5abe 3e9d b8bb 4486 f4bd 0515 f2bc
00000300: 8a51 20be e056 7ebd 70b4 21be d972 74bd
00000310: e6f3 59bd 5a3f 40bd 113c 5abd 8215 b03d
00000320: f210 ba3c 89a0 933d 6c59 b13b bbce 243e
00000330: 7811 41bc 9549 e03d 55b6 953d 2af3 773d
00000340: a4f9 0f3d e0d5 2cbc c0e4 0a3e b105 e43d
00000350: 8c94 ef3d 1137 ec3c 4651 fa3d e291 2a3e
00000360: ada9 773d ce0d f5bc 5d7c ba3d 708e 923d
00000370: 201d e13d ae8d 0cbc db1a 59bc 57f2 85bd
00000380: e9b6 023e c1a4 9e3c ea24 a1bd 3c62 28bb
00000390: 5d1e eebd aa6a 8bbd 533e 1cbe d4ea 86bd
000003a0: 0202 98bd 4561 bbbd 4e43 a0bd 8e29 863d
000003b0: cccd 833d 48e3 853d 8032 b43d 3ab8 e83d
000003c0: 6309 c93c 8d72 833d 7301 06bd ce54 5e3d
000003d0: 43ed a53d 0c9d d5bc d4dc bb3c 0e40 893d
000003e0: b071 7ebd 6eeb 4fbd a5a0 84bd a8ef 7bbd
000003f0: a038 3a3c 635c 78bd 00d6 d93c 65dd 8f3d
0.083870865 0.022945728 0.005462927 0.006717947 0.034692302 0.06407017 -0.012758303 0.025845066
0.021511678 0.079177245 0.057530954 0.13310249 0.033334054 0.16423607 0.1575049 0.05918668
0.17687039 0.13656871 0.12569585 0.14328462 0.14136383 0.119409345 0.06967864 0.16336066
0.07982647 0.058380384 0.08757407 0.013692898 -0.06355158 0.022550896 -0.07828186 -0.061006658
-0.02396817 -0.08525117 -0.06920561 -0.104500026 0.13152906 0.05061713 0.13365656 0.15350853
0.18883216 0.027920337 0.06235293 0.069628276 0.06909096 0.022810338 0.011736187 0.0155270165
0.101141006 0.12428678 0.14762138 0.05848724 0.12731901 0.028156951 0.07225068 0.028129835
-0.08082589 -0.029420976 0.0023449627 -0.044622146 -0.015095077 -0.06799511 0.013192744 0.09635722
0.024231486 0.07369276 0.014310966 0.057799987 0.021488585 0.05819585 -0.010881338 -0.008237879
-0.050676115 0.008823373 0.06257185 0.005450028 0.045412265 0.01408041 -0.025721865 0.06549389
-0.07630683 0.13124819 -0.0043317806 -0.019286506 -0.0059251483 0.01818389 0.042774446 0.13966812
0.10337051 0.09977006 0.12369075 0.054660413 0.09789789 -0.061579645 0.03686513 0.058154356
0.2326013 -0.07788888 0.07984451 0.018208982 -0.0077821612 0.044930134 -0.050445598 -0.04023816
0.06399555 0.040770978 0.015797585 -0.027631614 -0.080912225 0.009257856 -0.054117274 0.052035835
-0.07310134 -0.0038073873 -0.0035936504 -0.027167236 -0.055955112 0.10131999 0.11034371 -0.033467945
0.03022191 0.040306702 -0.054297514 0.06654862 0.11248102 0.016817844 0.05697954 -0.07031014
0.04060277 -0.018745944 -0.06444301 0.005310973 -0.01396818 0.028246086 -0.08542134 0.030082336
-0.029604126 -0.0024455339 0.15842536 0.054094445 0.01600086 0.13424894 0.088125065 0.007482889
0.08057492 0.07615981 0.008257641 0.10771434 -0.0213685 0.0594332 0.08597264 0.0134176975
-0.009359208 -0.13093625 -0.030485833 -0.14210269 -0.32308388 -0.107349694 -0.29237962 -0.11137271
-0.05915503 -0.03883069 -0.0012733366 -0.15082341 -0.09310425 -0.09230387 -0.031880643 -0.037420727
-0.08991983 -0.022402216 -0.12874025 0.033033103 0.013200036 -0.06281894 0.048463196 -0.00961563
-0.049785227 -0.041524947 -0.056958076 -0.05992539 -0.14243579 -0.18103142 -0.095475614 -0.09861977
-0.17355974 -0.14851846 -0.18035361 -0.048153155 -0.21380872 -0.005633979 -0.11939672 -0.029551039
-0.15656105 -0.06209457 -0.15791488 -0.05967984 -0.053211115 -0.046935417 -0.05327994 0.08597852
0.022713158 0.07208354 0.0054122712 0.16094486 -0.01178395 0.10951535 0.07310168 0.060534634
0.035150185 -0.010549039 0.13563824 0.11133898 0.11698255 0.028834851 0.12222533 0.16657212
0.06046455 -0.02991381 0.09105752 0.07156074 0.10991883 -0.008578701 -0.013251032 -0.06540363
0.12765087 0.01936567 -0.07868369 -0.0025693318 -0.11626885 -0.06807454 -0.1525815 -0.06587759
-0.07422258 -0.09149412 -0.07825337 0.06550895 0.06435737 0.06537491 0.087986946 0.113632634
0.024540609 0.06418333 -0.032716226 0.054280095 0.08101895 -0.026075862 0.022932447 0.067016706
-0.06212014 -0.050761633 -0.06475953 -0.06150785 0.0113660395 -0.06063498 0.026591301 0.070246495

decoder.decoder.0.bias f4 [16]
00000000: 61bb 97bd b73c b03d 106b d73d 8e25 233d
00000010: f931 853d bacd c13d 1639 44bd bf0a a0bc
00000020: d6f0 b0bc ed6b ca3d 9243 97bd 32c5 9dbd
00000030: 8c8e 4f3d 1616 8a3d e35f 193d d921 ea3d
-0.074087866 0.086053304 0.105184674 0.039830737 0.06503672 0.09463067 -0.047906004 -0.019536374
-0.021599215 0.098838665 -0.07385935 -0.07703628 0.050673053 0.06742494 0.03744496 0.11432237

decoder.decoder.2.weight f4 [16, 1, 3, 3]
00000000: c762 ba3e 0efa 35be e7f7 983e c9f3 413e
00000010: 5e34 36be 5566 983c eb9d 00be f446 863e
00000020: f341 3e3e e39b 71bd 162b 813d d5e5 473e
00000030: fc7d ec3d 2c0e bbbe 4560 c9be ea99 f73c
00000040: 03a9 68be e8e1 4fbe 1bb0 92be aa0f b3bb
00000050: eea5 43be 2e9c 9bbe 7355 bebe abfd 0cbe
00000060: c1ac c73c a4c7 be3d 6261 bcbe 5441 d8bc
00000070: 6a75 343d 35b3 993e fb45 73bd cfc2 8cbe
00000080: 3bc6 293e f0b8 e5bb ddd3 63be 5ba0 4d3e
00000090: 700d 7cbe fa5d 84be e67c bebe abed 9e3d
000000a0: 615d e5be 0004 a43d 9a26 49be 8dc6 9dbe
000000b0: 5a8d bbbd 0ef1 27bd d97f 8fbd 373b 54bc
000000c0: 01bc 14be 153d 2fbe a3f9 a1bd 1257 a4be
000000d0: 12e8 073e 0881 8ebe fb39 a5bd fe82 b33e
000000e0: b049 da3e fdcd 9e3b 2fcc 1fbd 2760 883e
000000f0: 0c8f 9e3e f35a b63e 6ea5 cc3e b11d 96be
00000100: 2ae3 8e3d 5338 2d3d bc7f 703e 1278 a63e
00000110: 2352 b93e b8c1 5c3e 2b24 873e 72c4 07be
00000120: 46e9 873c 23a5 013e 8825 78be c709 d03c
00000130: b1c5 1f3e 61c8 943e 0089 3bbe 8f5f 873d
00000140: b6cb 443e bbeb aebe 2077 de3b 74bb 9fbe
00000150: 6617 00bc 3ad9 833c f662 b7be 806e babd
00000160: fd25 dbbe 1085 a1be b8ae 563e 534d b1bd
00000170: 679d b53e 67c1 fabd e9f7 883e aaac 9b3c
00000180: 779c b23e cdc2 ec3d aa61 dc3e 5e08 83be
00000190: 0e83 273e e68c 50be 9a48 793e 0b15 c83e
000001a0: 65cc ad3e 14aa 08be 300b 5bbe a20e b73d
000001b0: 9bdf 493e 22e1 133e 2335 9f3e e5a2 a2be
000001c0: 9838 95be db54 9b3e 4b5f 8a3d c34b 843e
000001d0: cb70 d4bd d268 4b3e 6d1c c2be e61e 8d3e
000001e0: 9c56 c73d 54bd e33d c4b8 08be 6fb7 9bbe
000001f0: 8004 99be 3bec abbe 928d 0abe 6c29 913e
00000200: 3715 83be f1d5 45be 137d 853e 9726 82be
00000210: 8f5b 2e3c 4e5b ec3d 7a3b 903d abc4 043e
00000220: 889d b0be 3458 54be 2c63 74be 37dc 413e
00000230: 39fd 2cbe 4943 dfbc 8715 0f3c e704 75be
0.36403486 -0.1777117 0.29876634 0.18940653 -0.17793414 0.018603483 -0.12560241 0.26226008
0.18579845 -0.058986556 0.06307046 0.19521268 0.11547467 -0.3653425 -0.3933126 0.03022476
-0.22720723 -0.2030102 -0.28649983 -0.005464514 -0.19106266 -0.30392593 -0.37174568 -0.13768642
0.024374368 0.09315422 -0.36793047 -0.026398338 0.044057287 0.30019537 -0.05939291 -0.27492377
0.16579525 -0.0070105717 -0.22248788 0.20080702 -0.24614501 -0.25852948 -0.37204665 0.07760175
-0.44797805 0.080085754 -0.19643632 -0.30815545 -0.0915782 -0.041001372 -0.07006807 -0.012953571
-0.14524843 -0.17113145 -0.079089426 -0.3209768 0.13272122 -0.27832818 -0.080676995 0.35060877
0.42634344 0.004846333 -0.039013084 0.26635858 0.3096851 0.35616264 0.39969963 -0.29319528
0.06976922 0.042290043 0.23486227 0.3251348 0.36195478 0.21558273 0.2639478 -0.13258532
0.016590726 0.12660651 -0.24233067 0.025395287 0.15602757 0.29059127 -0.1831398 0.06610023
0.19218335 -0.34164223 0.006789103 -0.31197703 -0.007818079 0.016094793 -0.3581769 -0.091031075
-0.4280242 -0.3154683 0.20965087 -0.086573265 0.3547165 -0.1224392 0.2675164 0.019003231
0.34884998 0.11560593 0.43043262 -0.2559232 0.16358587 -0.20366248 0.24344102 0.39078555
0.33945003 -0.1334613 -0.21390986 0.08938338 0.19714205 0.1444135 0.31095228 -0.31764904
-0.2914474 0.30338177 0.06756457 0.25839052 -0.10373076 0.19864205 -0.37912312 0.27562636
0.09733316 0.11120096 -0.13351732 -0.30413386 -0.29886246 -0.33578667 -0.13530567 0.28351915
-0.25602123 -0.19319893 0.26071987 -0.25420067 0.010641946 0.115408525 0.07042594 0.12965648
-0.34495187 -0.20736772 -0.23865956 0.18931662 -0.16893472 -0.027253764 0.00873316 -0.23927651
