500_ML/models/weights_899_10-04_04:16.pt (torch_old, 39980 bytes, 7 tensors)

encoder.encoder.0.weight f4 [16, 1, 3, 3]
0	0xbdd1c781	-0.102431305
1	0x3d9afbb9	0.075675435
2	0xbe340a42	-0.17582038
3	0x3eaed1f2	0.3414455
4	0x3ea20b51	0.3164926
5	0x3ec55aac	0.3854574
6	0x3ecc71f9	0.39930704
7	0x3dfb72ba	0.12277742
8	0x3eb286dc	0.34868515
9	0x3e46402c	0.19360417
10	0xbdc121b8	-0.094302595
11	0xbe3f24b2	-0.18666342
12	0x3eda3de1	0.42625335
13	0x3ed941fb	0.42433152
14	0xbd92b29e	-0.07162975
15	0x3e536105	0.20642479
16	0x3e8592ec	0.26088655
17	0x3c8b3299	0.0169919
18	0x3e442e7d	0.19158359
19	0x3e201870	0.15634322
20	0xbd44e5ae	-0.048070602
21	0x3ecf84ce	0.4053101
22	0x3e0e224e	0.13880274
23	0x3e81cace	0.2535004
24	0x3e718102	0.23584369
25	0x3cea45a1	0.028597655
26	0x3e627451	0.22114684
27	0xbe8a815a	-0.27051812
28	0x3e859fa9	0.26098374
29	0xbe43695e	-0.19083163
30	0xbc70a8e0	-0.0146887
31	0xbc8ac550	-0.016939789
32	0xbe842b70	-0.2581439
33	0x3e5a92b2	0.21345022
34	0xbe043938	-0.12912452
35	0xbe5ce52b	-0.21571796
36	0x3e6ae3b7	0.22938429
37	0xbd71d7eb	-0.059043806
38	0xbcb13207	-0.0216303
39	0x3e9cb373	0.3060566
40	0xbc4a8350	-0.012360409
41	0x3cf4f231	0.029900642
42	0x3dfb4a41	0.12270022
43	0xbd48befe	-0.04901027
44	0xbd92ca9d	-0.07167552
45	0xbe496a04	-0.19669348
46	0x3d6ae34a	0.057345666
47	0x3e62ac3d	0.22136016
48	0xbdc11b94	-0.09429088
49	0x3ec9d2ff	0.3941879
50	0x3eadf1f5	0.3397366
51	0x3e8032fe	0.25038904
52	0x3e98bee1	0.2983313
53	0x3e9d6dc4	0.30747807
54	0x3df3e66e	0.11909185
55	0xbdaf796b	-0.085680805
56	0x3e8eee90	0.27916384
57	0xbd7b145d	-0.061298717
58	0xbcc48de2	-0.023993436
59	0xbe7a92ef	-0.24470113
60	0x3e9ecda2	0.3101626
61	0xbe09fdc3	-0.13475709
62	0xbe4c345a	-0.19941846
63	0xbdb15470	-0.08658683
64	0xbb815900	-0.003947377
65	0x3e3346ba	0.17507449
66	0xbd86a68c	-0.06574735
67	0xbe47343e	-0.19453523
68	0xbe1c3b90	-0.15257096
69	0xbd5c1e08	-0.053739578
70	0xbea6537e	-0.32485574
71	0x3e686432	0.22694471
72	0xbe62734a	-0.22114292
73	0xbe1f9dc9	-0.15587534
74	0x3e27267a	0.16323271
75	0x3ce4310c	0.027855419
76	0x3bfad45d	0.00765471
77	0x3db7e5b2	0.08979358
78	0x3e434767	0.19070207
79	0x3e770255	0.24121983
80	0x3e679159	0.2261404
81	0x3ddf180c	0.108932585
82	0xbe8f82a2	-0.28029352
83	0xbc1c3980	-0.009535193
84	0xbe2ff5e3	-0.17183642
85	0x3d7cb180	0.061692715
86	0xbdc20a8c	-0.09474668
87	0xbdd98cd6	-0.106225654
88	0xbe9f6dcc	-0.31138456
89	0x3e9de991	0.3084226
90	0x3eb95eae	0.36205047
91	0x3e3ab2d0	0.18232274
92	0xbe430bf5	-0.1904753
93	0xbba61cec	-0.0050693657
94	0x3e96a3c7	0.29421827
95	0xbc540909	-0.012941607
96	0xbdbfafd8	-0.093597114
97	0x3e8e2a4e	0.2776665
98	0xbe602e07	-0.21892558
99	0x3c731a05	0.0148377465
100	0xbe002d14	-0.12517196
101	0x3e9816df	0.2970495
102	0xbe4ac79b	-0.19802706
103	0xbb39995b	-0.0028320167
104	0xbb2701e5	-0.0025483307
105	0x3d8d17aa	0.06889279
106	0x3e9499b5	0.2902352
107	0x3d8b394c	0.06798038
108	0xbe534b4b	-0.2063419
109	0xbe039c72	-0.12852648
110	0x3e3da074	0.1851824
111	0xbe5b23bc	-0.2140035
112	0x3c34da7b	0.011038418
113	0x3eb568fb	0.35431656
114	0x3ebcd690	0.36882448
115	0x3e3fcbe0	0.18730116
116	0x3e95d322	0.29262644
117	0x3d3271c0	0.04356551
118	0x3d929910	0.071581006
119	0xbe8a2e58	-0.26988482
120	0xbd229df8	-0.039701432
121	0x3dd5c420	0.104377985
122	0xbe86fe6c	-0.26365983
123	0x3e28d0ea	0.16485944
124	0x3d2eb788	0.042655498
125	0xbe23bdd0	-0.15990376
126	0xbdc29610	-0.095012784
127	0xbda0aef4	-0.0784587
128	0x3e45a936	0.1930283
129	0xbe81f1fb	-0.2537993
130	0x3dbbcb74	0.09169665
131	0xbe6b4d58	-0.22978723
132	0x3de24370	0.11048019
133	0x3d1b4888	0.037910968
134	0xbe91a10f	-0.2844319
135	0x3e997de8	0.2997887
136	0x3ea34cd9	0.31894568
137	0x3c65b451	0.014020042
138	0xbe2315dc	-0.15926307
139	0x3e99d041	0.30041698
140	0xbca51173	-0.020149922
141	0x3e49456f	0.19655393
142	0xbbb12f39	-0.0054072407
143	0x3e7f902a	0.24957338

encoder.encoder.0.bias f4 [16]
0	0x3eac936e	0.3370623
1	0xbc8e352a	-0.017359335
2	0xbca13600	-0.01967907
3	0xbe825eca	-0.25462943
4	0x3e74c742	0.23904136
5	0xbcca3f4c	-0.024688385
6	0xbe3daa6c	-0.18522042
7	0xbe7f028e	-0.24903318
8	0x3e6df073	0.23236255
9	0xbe3ca16b	-0.18420951
10	0x3de3e007	0.11126714
11	0x3e3183d9	0.17335452
12	0x3e4880aa	0.19580331
13	0xbe42da5b	-0.19028609
14	0xbe7b9870	-0.24569869
15	0xbdca01a1	-0.09863592

encoder.encoder.2.weight f4 [32, 16, 3, 3]
0	0x3e0f8fb5	0.14019664
1	0x3e1ce135	0.15320285
2	0x3e1354c8	0.1438781
3	0x3d6cf3c0	0.057849646
4	0x3d1692de	0.036761157
5	0x3e135a32	0.14389876
6	0x3dbc0e01	0.091823585
7	0x3d34a573	0.044103097
8	0x3e1fc619	0.15602912
9	0xbdd8311b	-0.10556241
10	0xbd8a6f13	-0.06759467
11	0xbdd45f10	-0.10369694
12	0xbd78df6c	-0.060759947
13	0xbdc615d6	-0.096721336
14	0xbdfc3a61	-0.123158224
15	0xbd55671a	-0.05210028
16	0xbdb1e981	-0.086871155
17	0xbe1934c6	-0.14961538
18	0xbcf1eef0	-0.02953288
19	0xbd3e4b82	-0.04645873
20	0xbe0274f9	-0.12739934
21	0xbc3e7702	-0.011625053
22	0xbb4e6cbd	-0.0031497919
23	0xbcb70316	-0.022340339
24	0xbdae9b6b	-0.085257374
25	0xbd34e77f	-0.044166084
26	0xbe065cdd	-0.13121362
27	0xbce390fc	-0.027779095
28	0x3cbe5510	0.02323392
29	0xbcb7a38c	-0.022416852
30	0xbda9260a	-0.082592085
31	0x3c945c7c	0.018110506
32	0x3d941599	0.07230682
33	0xbcba0f50	-0.02271238
34	0x3d026d00	0.03184223
35	0xbd741313	-0.059588503
36	0x3dd5840c	0.104255766
37	0x3ddbca47	0.10731941
38	0x3d331ded	0.04372971
39	0x3d7cd125	0.061722893
40	0x3d867ae9	0.06566412
41	0x3e0c9a8a	0.13730827
42	0x3dc5c630	0.09656942
43	0x3d6cdf57	0.05783018
44	0x3d89efe9	0.06735212
45	0xbdfb444e	-0.122688875
46	0xbd2ed03b	-0.042679053
47	0xbcadb881	-0.021206142
48	0x3ba7169a	0.00509913
49	0xbcfd8a7a	-0.03094982
50	0xbddf92dd	-0.10916684
51	0xbd1e2052	-0.03860504
52	0xbe0c7b7b	-0.13718979
53	0xbe1922c5	-0.1495467
54	0xbdb5ed05	-0.088830985
55	0xbd9c0fc9	-0.07620198
56	0xbda39ce6	-0.079889104
57	0x3d888a19	0.06666965
58	0xbcc59081	-0.024116756
59	0xbc8dc2f5	-0.017304877
60	0x3b9a70c0	0.004713148
61	0xbce6215d	-0.02809208
62	0xbc0a7afb	-0.008452172
63	0x3cf511bc	0.029915683
64	0x3cbd6a64	0.02312202
65	0xbd8e12a4	-0.06937149
66	0x3bb34890	0.0054712966
67	0x3d1c0048	0.038086206
68	0x3d56e2aa	0.052462257
69	0xbd859556	-0.06522624
70	0xbd995b8b	-0.074881636
71	0xbcadf300	-0.021234035
72	0x3e066ab3	0.1312664
73	0x3de00eed	0.10940347
74	0x3dcf520b	0.1012307
75	0x3dd1dbc0	0.10246992
76	0x3e2ea025	0.17053278
77	0x3d9c06ba	0.076184705
78	0x3c9bb701	0.019008162
79	0x3c793cef	0.015212282
80	0x3dcf5274	0.101231486
81	0xbd0c1f7b	-0.03420971
82	0x3d1201b6	0.035646163
83	0xbd99ed9f	-0.07516026
84	0xbcf9ece6	-0.03050847
85	0xbd569d2b	-0.05239598
86	0xbd80273a	-0.06257482
87	0xbd30df46	-0.04318168
88	0x3cf08ae0	0.029363096
89	0x3bc10b80	0.0058912635
90	0x3e37a6f5	0.17934783
91	0x3d63a00a	0.055572547
92	0x3e01fc9b	0.12694018
93	0x3d5d6a30	0.054056346
94	0x3dd5f195	0.10446469
95	0x3ddd1342	0.10794689
96	0x3df5c8e7	0.1200121
97	0x3e289b7c	0.16465563
98	0x3db11479	0.08646483
99	0x3cf4fb8e	0.029905107
100	0x3e1a2e2a	0.15056673
101	0x3d55ff2f	0.052245315
102	0x3c9e0b78	0.019292578
103	0x3d1a9904	0.037743583
104	0x3e2b6772	0.1673868
105	0x3d76ece5	0.060284514
106	0x3cf99730	0.0304676
107	0x3c77ebee	0.015131934
108	0x3e053b2b	0.13010852
109	0x3e235588	0.15950596
110	0x3e129f8e	0.14318678
111	0x3e15cd08	0.14628994
112	0x3d95f124	0.073213845
113	0x3e29c4d6	0.16578993
114	0x3e0b4c86	0.1360341
115	0x3d89974b	0.0671831
116	0x3d9bdd61	0.07610584
117	0x3c93c624	0.018038817
118	0xbd0b6068	-0.034027487
119	0x3d2830e2	0.041062243
120	0xbc95e5ac	-0.018297993
121	0x3d2646b0	0.040594757
122	0x3b1f1800	0.002427578
123	0x3ce8dba4	0.028425045
124	0xb9de6f00	-0.0004242584
125	0xba851b40	-0.0010155216
126	0x3d8a1653	0.06742539
127	0xbda9b403	-0.08286288
128	0x3ce4d844	0.027935155
129	0xbd570778	-0.052497357
130	0xbd809736	-0.06278841
131	0x3c4cebd8	0.012507401
132	0x3d35528e	0.044268183
133	0xbc126000	-0.008934021
134	0x3da15541	0.07877589
135	0xbd468995	-0.048471052
136	0xbd789d9a	-0.060697176
137	0xbe1d715e	-0.15375277
138	0x3c4d1dca	0.012519309
139	0xbe11791b	-0.14206354
140	0xbd1b64d1	-0.037937943
141	0xbdd02801	-0.1016388
142	0xbd875a50	-0.066090226
143	0xbe0cbe41	-0.13744451
144	0x3afbd18c	0.001921223
145	0xbb7dfcfa	-0.0038755522
146	0x3ddba646	0.107250735
147	0xbbafe07a	-0.005367336
148	0xbd08948b	-0.033344787
149	0xbcc86d0d	-0.024466062
150	0x3d99f11b	0.0751669
151	0x3d68746f	0.056751665
152	0x3dc266cb	0.094922625
153	0x3c9f17bc	0.019420497
154	0x3da6c254	0.08142534
155	0xbc564bc4	-0.013079587
156	0x3d511c66	0.051052473
157	0x3d9f07e9	0.077651806
158	0x3d3dc60c	0.04633145
159	0x3e11b9de	0.14231059
160	0x3e007499	0.12544478
161	0x3e1a0a60	0.1504302
162	0x3c92e394	0.017930783
163	0x3e0c4b77	0.13700663
164	0x3de17f53	0.11010613
165	0x3d544a18	0.051828474
166	0x3d0cfb87	0.034419563
167	0x3e126ca3	0.14299254
168	0x3ab4092d	0.0013735645
169	0x3cc38f80	0.023872137
170	0x3d48847f	0.048954483
171	0x3c853894	0.01626233
172	0x3d1b600e	0.0379334
173	0x3bd4e510	0.006497033
174	0xbda574da	-0.08078928
175	0xbd9b231c	-0.07575056
176	0x3d7e767a	0.062124707
177	0x3d5c6bca	0.053813733
178	0x3d3b2236	0.045686923
179	0x3d0534d8	0.0325211
180	0xbbd67278	-0.0065444075
181	0xbd941a3e	-0.07231568
182	0x3c9d9122	0.019234244
183	0x3d816458	0.06317967
184	0x3d75736e	0.059924535
185	0xbd80d1ea	-0.06290038
186	0x3d0aded3	0.033903908
187	0xbcfaecef	-0.030630557
188	0xbd04096b	-0.032235544
189	0x3d1a5304	0.037676826
190	0x3e024ba6	0.1272417
191	0x3de7ab73	0.11311998
192	0x3da7e1a5	0.08197335
193	0x3e13c7c0	0.14431667
194	0x3d2ee013	0.042694163
195	0x3c866ee3	0.016410297
196	0x3d942fe9	0.07235701
197	0x3dca0504	0.09864238
198	0xbd5eadf3	-0.05436511
199	0x3c5d0d60	0.013491958
200	0xbd0fca50	-0.03510505
201	0x3c0d2720	0.008615285
202	0xbc94d170	-0.018166274
203	0xbb4bc498	-0.003109252
204	0xbda1d61f	-0.079021685
205	0xbd88de82	-0.06683065
206	0x3d17ea49	0.037088666
207	0x3d11dec8	0.03561285
208	0x3c7f5780	0.0155848265
209	0xbd9f74c7	-0.077859454
210	0xbd045716	-0.032309614
211	0x3cf6c320	0.03012234
212	0x3ba0e7c0	0.0049104393
213	0x3cf94acc	0.030431174
214	0x3d50d4f2	0.05098433
215	0xbc85127c	-0.016244166
216	0x3b328149	0.0027237704
217	0x3d51050d	0.051030207
218	0x3d0a915e	0.03383004
219	0xbd8c23d5	-0.06842772
220	0x3c85f027	0.016349865
221	0xbd14fa03	-0.036371242
222	0x3ce98e5b	0.028510263
223	0xbcbd54c2	-0.023111705
224	0x3cafc081	0.021454098
225	0xbd0ec968	-0.034860045
226	0x3d2b253a	0.04178355
227	0xbd2ef403	-0.042713176
228	0xbaf7fd00	-0.0018920004
229	0xbd2ce720	-0.042212605
230	0x3b663ca0	0.003513135
231	0xba34e180	-0.0006900057
232	0xbd2a8c53	-0.04163773
233	0xbd8ff6e4	-0.070295125
234	0x3c82835c	0.015931778
235	0x3d12e99d	0.035867322
236	0x3d7ee7d9	0.062232826
237	0x3cf18c0e	0.029485729
238	0x3d2920da	0.041291095
239	0xbd2e77a9	-0.042594586
240	0x3de709cd	0.11281166
241	0xbd848ad6	-0.06471793
242	0xbd53ded3	-0.051726174
243	0x3d5031da	0.050828792
244	0x3d98d1fd	0.07461927
245	0xbcea815d	-0.028626138
246	0xbd01eb51	-0.031718556
247	0xbd549252	-0.051897354
248	0xbd630a8c	-0.05542998
249	0x3d8b4e9b	0.06802102
250	0xbd288798	-0.041144937
251	0x3ce97355	0.028497377
252	0x3b75f225	0.0037528363
253	0x3ceb9eb3	0.028762197
254	0x3d105ca8	0.035244614
255	0x3bca76a5	0.0061786943

encoder.encoder.2.bias f4 [32]
0	0x3d0f1569	0.034932528
1	0xbcfa56f7	-0.030559046
2	0x3e0bddf0	0.13658881
3	0x3df6ce0d	0.1205102
4	0x3e0bbb7e	0.13645741
5	0xbd4368be	-0.04770731
6	0x3e0c4296	0.13697276
7	0x3e1d645d	0.15370317
8	0xbc16ada0	-0.009196669
9	0x3db0b803	0.086288475
10	0xbcf52b20	-0.02992779
11	0x3e227f96	0.15868983
12	0x3e2d3044	0.16912943
13	0xbee195a9	-0.44059494
14	0x3db0f798	0.08640975
15	0xbdc46a91	-0.095906384
16	0xbd8bd698	-0.0682804
17	0x3cd82522	0.026384894
18	0xbdb59131	-0.08865584
19	0x3dd9e7a9	0.10639889
20	0x3c321918	0.010870241
21	0xbd76506d	-0.060135294
22	0xbd247a1f	-0.040155526
23	0xbd281f47	-0.041045453
24	0x3d9f9f77	0.077940874
25	0x3da475c0	0.080302715
26	0xbd028680	-0.03186655
27	0x3ebad965	0.36493984
28	0x3dc605ea	0.09669097
29	0x3cd75604	0.026286133
30	0x3e0a368b	0.13497369
31	0x3e1c432b	0.15259998

decoder.decoder.0.weight f4 [32, 16, 3, 3]
0	0x3da89793	0.082320355
1	0x3cbbf8ae	0.022945728
2	0x3b9c9263	0.004778193
3	0x3bd21104	0.00641072
4	0x3d104bb3	0.035228442
5	0x3d85714d	0.06515751
6	0xbc490f31	-0.012271688
7	0x3cd3b908	0.025845066
8	0x3cb7c857	0.022434397
9	0x3da17cea	0.078851536
10	0x3d6bbdf4	0.0575542
11	0x3e081efc	0.1329307
12	0x3d08b72a	0.033377804
13	0x3e284f2f	0.16436456
14	0x3e21a757	0.15786491
15	0x3d724a0e	0.059152655
16	0x3e355fce	0.17712328
17	0x3e0c2690	0.13686585
18	0x3e00c36e	0.1257455
19	0x3e12d16d	0.14337702
20	0x3e10cb44	0.1414004
21	0x3df48f53	0.119413994
22	0x3d8eb582	0.069682136
23	0x3e276caf	0.16350053
24	0x3da37d30	0.07982862
25	0x3d6f2131	0.058381263
26	0x3db37540	0.08762598
27	0x3c60582d	0.013692898
28	0xbd822755	-0.06355158
29	0x3cb8bca8	0.022550896
30	0xbda0523d	-0.07828186
31	0xbd79e21e	-0.061006658
32	0xbcc458e5	-0.02396817
33	0xbdae982a	-0.08525117
34	0xbd8dbbac	-0.06920561
35	0xbdd6041c	-0.104500026
36	0x3e06cb49	0.13163485
37	0x3d4f90fb	0.050675374
38	0x3e08fd87	0.13377963
39	0x3e1d300d	0.15350361
40	0x3e417fc7	0.188964
41	0x3ce4b46a	0.02791806
42	0x3d7f6a67	0.062357333
43	0x3d8ed14d	0.06973515
44	0x3d8d7efa	0.069089845
45	0x3cbb46c3	0.02286089
46	0x3c4146e0	0.011796683
47	0x3c7f2693	0.015573162
48	0x3dcf1360	0.10111117
49	0x3dfe33f4	0.12412253
50	0x3e17262e	0.14760658
51	0x3d6fdc33	0.058559608
52	0x3e029062	0.1275039
53	0x3ce757d5	0.028240124
54	0x3d93f228	0.07223922
55	0x3ce759fb	0.028241148
56	0xbda59259	-0.08084554
57	0xbcee79ef	-0.029110877
58	0x3b19adf2	0.0023449627
59	0xbd358d3d	-0.04432415
60	0xbc7eb8a4	-0.015546951
61	0xbd8b4e7f	-0.06802081
62	0x3c4666fd	0.012109515
63	0x3dcebc4d	0.10094509
64	0x3cc68773	0.02423451
65	0x3d9a0d57	0.075220756
66	0x3c67f900	0.014158487
67	0x3d6bf669	0.057608042
68	0x3cad30a3	0.021141356
69	0x3d7342b0	0.05938977
70	0xbc364795	-0.011125465
71	0xbc0666e0	-0.008203238
72	0xbd55ae4d	-0.05216818
73	0x3c1093bd	0.008824286
74	0x3d8edb6d	0.06975446
75	0x3b48abea	0.0030620047
76	0x3d3a4fae	0.045486145
77	0x3c50f5e7	0.01275394
78	0xbcd51e04	-0.02601529
79	0x3d8621a9	0.06549389
80	0xbd9eb680	-0.07749653
81	0x3e0695a9	0.13143028
82	0xbb8d3031	-0.0043087234
83	0xbc9cebd0	-0.019155413
84	0xbbc20cd6	-0.0059219403
85	0x3c951444	0.01819814
86	0x3d2f5fdc	0.042816028
87	0x3e0efa24	0.13962609
88	0x3dd39478	0.103310525
89	0x3dcc4d79	0.09975714
90	0x3dec5e70	0.1154145
91	0x3d6012ec	0.054705545
92	0x3db3a4f3	0.08771696
93	0xbd7bc7ac	-0.06146972
94	0x3d1816e5	0.03713121
95	0x3d70a78e	0.058753543
96	0x3e65674f	0.2240269
97	0xbd9f0d74	-0.07766238
98	0x3da8734a	0.08225115
99	0x3c952b01	0.018208982
100	0xbbff0180	-0.0077821612
101	0x3d3808a9	0.044930134
102	0xbd4ea00b	-0.050445598
103	0xbd2b9f02	-0.04189969
104	0x3d831019	0.06399555
105	0x3d26ff78	0.040770978
106	0x3c8169f0	0.015797585
107	0xbce25bb2	-0.027631614
108	0xbda5b54f	-0.080912225
109	0x3c17ae43	0.009257856
110	0xbd5daa13	-0.054117274
111	0x3d552387	0.052035835
112	0xbd95b628	-0.07310134
113	0xbb79855c	-0.0038073873
114	0xbb6b8373	-0.0035936504
115	0xbcde8dd3	-0.027167236
116	0xbd653130	-0.055955112
117	0x3dcfec8b	0.10152539
118	0x3de1d4e6	0.11026935
119	0xbd09ab54	-0.033610657
120	0x3cf625ba	0.030047286
121	0x3d2519d2	0.040307827
122	0xbd5fe708	-0.054663688
123	0x3d8915b1	0.066935904
124	0x3de755a8	0.112956345
125	0x3c8e1fa1	0.017349066
126	0x3d696361	0.05697954
127	0xbd8a0f47	-0.06741195
128	0x3d258d76	0.04041811
129	0xbc85f5fd	-0.016352648
130	0xbd83fab2	-0.06444301
131	0x3bf65dd3	0.007518509
132	0xbc64dacb	-0.01396818
133	0x3ce496c2	0.027903918
134	0xbdafbe27	-0.085811906
135	0x3cf7388f	0.030178336
136	0xbcf208d7	-0.02954523
137	0xbb168cc6	-0.002297209
138	0x3e220e2e	0.15825722
139	0x3d5d9223	0.054094445
140	0x3c829941	0.015942218
141	0x3e098315	0.1342891
142	0x3db49157	0.08816784
143	0x3bf91ae2	0.0076020816
144	0x3da0b1ba	0.07846399
145	0x3d9bf9ad	0.07615981
146	0x3bcc1f39	0.006229308
147	0x3ddb987e	0.10722445
148	0xbcb22994	-0.021748342
149	0x3d73be7e	0.05950784
150	0x3daf87e3	0.0857084
151	0x3c5bd504	0.013417486
152	0xbc2060ea	-0.009788731
153	0xbe072937	-0.13199316
154	0xbd00f672	-0.03148503
155	0xbe12143d	-0.14265533
156	0xbea78bc1	-0.3272381
157	0xbdde3b69	-0.10851175
158	0xbe974a10	-0.29548693
159	0xbde58f7f	-0.1120901
160	0xbd770745	-0.060309667
161	0xbd1f6f59	-0.03892455
162	0xbab34b0f	-0.0013678985
163	0xbe19678b	-0.14980905
164	0xbdbf17dc	-0.09330723
165	0xbdbd286c	-0.092362255
166	0xbd0371ae	-0.032090835
167	0xbd1a0f41	-0.037612204
168	0xbdb878c3	-0.090074085
169	0xbcd8f86c	-0.026485644
170	0xbe03f6ba	-0.12887087
171	0x3d074db8	0.033033103
172	0x3c5844f9	0.013200038
173	0xbd80a737	-0.06281894
174	0x3d468158	0.048463196
175	0xbc1d8ae0	-0.00961563
176	0xbd4beb98	-0.049785227
177	0xbd2a1610	-0.041524947
178	0xbd694d27	-0.056958344
179	0xbd757453	-0.05992539
180	0xbe04f1bb	-0.12982838
181	0xbe37cfdc	-0.17950386
182	0xbdbd7883	-0.092515014
183	0xbdc8f1a1	-0.09811712
184	0xbe328071	-0.17431809
185	0xbe181aff	-0.14854048
186	0xbe41a355	-0.18909962
187	0xbd4b6aa8	-0.049662262
188	0xbe670558	-0.22560632
189	0xbbb992e7	-0.005663264
190	0xbdefa18a	-0.11700733
191	0xbcf37473	-0.029718613
192	0xbe20ac42	-0.15690711
193	0xbd80385e	-0.06260751
194	0xbe24a679	-0.1607913
195	0xbd752f69	-0.059859667
196	0xbd42aecf	-0.04752999
197	0xbd41a900	-0.04728031
198	0xbd5af203	-0.053453457
199	0x3dafc01a	0.08581562
200	0x3cb8bb69	0.022550302
201	0x3d938123	0.07202365
202	0x3bb1596c	0.0054122712
203	0x3e24dff7	0.16101061
204	0xbc43fb17	-0.01196172
205	0x3de09af9	0.10967059
206	0x3d9979e2	0.074939504
207	0x3d7b544c	0.06135969
208	0x3d1244da	0.035710193
209	0xbc223954	-0.009901363
210	0x3e0b3f66	0.13598403
211	0x3de4a7ce	0.11164819
212	0x3df072e8	0.11740667
213	0x3cf27acf	0.029599575
214	0x3dfbdb07	0.122976355
215	0x3e2b7428	0.16743529
216	0x3d7c0611	0.061529223
217	0xbcf4ff44	-0.029906876
218	0x3dbd3977	0.09239476
219	0x3d937f81	0.07202054
220	0x3de291bd	0.110629536
221	0xbc004d34	-0.007830907
222	0xbc4692da	-0.012119973
223	0xbd85f071	-0.06540001
224	0x3e03d68d	0.12874813
225	0x3ce6fb47	0.02819599
226	0xbd9c64d5	-0.0763642
227	0x3c04d11c	0.008106496
228	0xbde42e07	-0.111415915
229	0xbd8f7473	-0.07004633
230	0xbe1c1a8e	-0.15244505
231	0xbd869836	-0.06572001
232	0xbd9e602e	-0.077331886
233	0xbdbb72e5	-0.09152774
234	0xbe082701	-0.13296129
235	0x3d84c75e	0.06483339
236	0x3cedb3c2	0.02901638
237	0x3d84b965	0.06480674
238	0x3db4560e	0.08805476
239	0x3de8c69b	0.11366006
240	0xbd0317e5	-0.03200521
241	0x3d83257e	0.064036354
242	0xbd45b57a	-0.048268773
243	0x3d5e54ce	0.054280095
244	0x3da5ed43	0.08101895
245	0xbcd59d0c	-0.026075862
246	0x3cbbdcd4	0.022932447
247	0x3d8a3ea7	0.06750231
248	0xbd7e71b0	-0.06212014
249	0xbd4feb6e	-0.050761633
250	0xbd84a0a5	-0.06475953
251	0xbd7befa8	-0.06150785
252	0x3c3a38a0	0.0113660395
253	0xbd785c63	-0.06063498
254	0x3cd9d600	0.026591301
255	0x3d8fdd65	0.070246495

decoder.decoder.0.bias f4 [16]
0	0xbd972271	-0.07379616
1	0x3db080ad	0.08618293
2	0x3dd77674	0.1052064
3	0x3d23258e	0.039830737
4	0x3d854141	0.06506587
5	0x3dc1cf9e	0.09463428
6	0xbd442f73	-0.047896814
7	0xbca0cfc3	-0.019630319
8	0xbcb1eb2a	-0.02171858
9	0x3dca6f0f	0.09884464
10	0xbd972393	-0.07379832
11	0xbd9f61b2	-0.07782306
12	0x3d4f8e8c	0.050673053
13	0x3d8a299d	0.06746218
14	0x3d193e75	0.03741308
15	0x3dea286b	0.1143349

decoder.decoder.2.weight f4 [16, 1, 3, 3]
0	0x3ebb832b	0.3662351
1	0xbe378d0f	-0.17924903
2	0x3e9698c5	0.2941343
3	0x3e414d74	0.18877202
4	0xbe383e2e	-0.1799247
5	0x3c57911e	0.013157157
6	0xbdf6f267	-0.12057953
7	0x3e8554dc	0.26041305
8	0x3e42ef9c	0.19036716
9	0xbd6cd766	-0.057822607
10	0x3d80a1c2	0.06280853
11	0x3e48f611	0.19625117
12	0x3dec33f2	0.11533345
13	0xbebb5189	-0.36585644
14	0xbec9901f	-0.39367768
15	0x3d00f4c0	0.03148341
16	0xbe6925d8	-0.22768342
17	0xbe4e991d	-0.20175596
18	0xbe9257f7	-0.28582737
19	0xbbb91f5f	-0.0056494917
20	0xbe42f725	-0.1903959
21	0xbe9ba87b	-0.30401978
22	0xbebe8f55	-0.3721873
23	0xbe0d5495	-0.13801797
24	0x3cceae3b	0.025229564
25	0x3dbe1201	0.09280778
26	0xbebc05d8	-0.36723208
27	0xbcd84154	-0.026398338
28	0x3d34756a	0.044057287
29	0x3e99b335	0.30019537
30	0xbd7345fb	-0.05939291
31	0xbe8cc2cf	-0.27492377
32	0x3e29c63b	0.16579525
33	0xbbe5b8f0	-0.0070105717
34	0xbe63d3dd	-0.22248788
35	0x3e4da05b	0.20080702
36	0xbe7b26aa	-0.24526468
37	0xbe847579	-0.25870875
38	0xbebe006b	-0.37109694
39	0x3d9eba32	0.07750358
40	0xbee59dad	-0.4484686
41	0x3da353ba	0.07974954
42	0xbe48303e	-0.19549653
43	0xbe9dfd9d	-0.30857554
44	0xbdb9cee9	-0.09072668
45	0xbd27571e	-0.040854566
46	0xbd8f93b6	-0.070105955
47	0xbc4cdbf4	-0.012503613
48	0xbe14cfe8	-0.14532435
49	0xbe2f8f3e	-0.17144486
50	0xbda27d61	-0.079340704
51	0xbea3fdeb	-0.32029662
52	0x3e07b1a4	0.13251358
53	0xbe8e35c5	-0.27775398
54	0xbdaca74b	-0.08430346
55	0x3eb338ef	0.35004374
56	0x3edaeffe	0.42761225
57	0x3b941ff7	0.004520412
58	0xbd21e84d	-0.03952818
59	0x3e87f393	0.2655302
60	0x3e9eb81f	0.30999848
61	0x3eb6f13b	0.3573092
62	0x3ecdf660	0.40227032
63	0xbe9d9d04	-0.30783856
64	0x3d88c4f2	0.06678189
65	0x3d11a91b	0.035561662
66	0x3e733b5b	0.23753111
67	0x3ea84688	0.3286631
68	0x3eba1646	0.36345118
69	0x3e545154	0.20734149
70	0x3e8967ca	0.26836997
71	0xbe0c1709	-0.13680662
72	0x3c67667d	0.014123556
73	0x3e000b05	0.12504204
74	0xbe7ba43e	-0.24574372
75	0x3cea0612	0.028567348
76	0x3e21b4d9	0.15791644
77	0x3e961a7b	0.29317078
78	0xbe40a6a0	-0.18813562
79	0x3d86868a	0.0656863
80	0x3e437865	0.19088896
81	0xbeae77e5	-0.34075847
82	0x3bdab025	0.00667383
83	0xbe9f5087	-0.31116125
84	0xbc016ace	-0.007898999
85	0x3c7ff995	0.01562347
86	0xbeb78eef	-0.35851237
87	0xbdb8948f	-0.0901271
88	0xbedb5a66	-0.42842406
89	0xbea13ffe	-0.31494135
90	0x3e557840	0.20846653
91	0xbdc08e66	-0.0940216
92	0x3eb3df9e	0.35131544
93	0xbe02ab65	-0.12760694
94	0x3e883538	0.26603103
95	0x3c7e993b	0.015539463
96	0x3eb2e43a	0.34939748
97	0x3de74569	0.11292536
98	0x3ede9b9b	0.43478093
99	0xbe8fb8ea	-0.28070766
100	0x3e2b98cb	0.16757505
101	0xbe5f906e	-0.2183244
102	0x3e7ab598	0.24483335
103	0x3ec8e5fb	0.3923796
104	0x3eb071fe	0.3446197
105	0xbe0e0bd7	-0.13871704
106	0xbe59006b	-0.21191566
107	0x3da6bff2	0.081420794
108	0x3e49df9b	0.19714205
109	0x3e13e122	0.1444135
110	0x3e9f3523	0.31095228
111	0xbea2a2e5	-0.31764904
112	0xbe953898	-0.2914474
113	0x3e9b54db	0.30338177
114	0x3d8a5f4b	0.06756457
115	0x3e844bc3	0.25839052
116	0xbdd470cb	-0.10373076
117	0x3e4c544d	0.19954033
118	0xbec2310d	-0.37928048
119	0x3e8dc820	0.27691746
120	0x3dc73572	0.09726991
121	0x3de301fe	0.11084364
122	0xbe08e284	-0.13367659
123	0xbe9b70c4	-0.3035947
124	0xbe992a28	-0.29914975
125	0xbeabb533	-0.33536682
126	0xbe0a515c	-0.13507599
127	0x3e913bfd	0.2836608
128	0xbe8353b3	-0.25649795
129	0xbe45f42f	-0.1933143
130	0x3e850f9a	0.25988466
131	0xbe82be15	-0.25535646
132	0x3c39d8eb	0.011343221
133	0x3ded52fe	0.11588095
134	0x3d9057e7	0.07048016
135	0x3e04e5f8	0.12978351
136	0xbeb098f2	-0.34491688
137	0xbe544df8	-0.20732868
138	0xbe747064	-0.23870999
139	0x3e41bfb5	0.18920787
140	0xbe2d1f98	-0.16906583
141	0xbcdcd630	-0.026957601
142	0x3c0e8d71	0.008700714
143	0xbe74f4a7	-0.23921452
