500_ML/models/weights_899_10-04_05:17.pt (torch_old, 743228 bytes, 11 tensors)

encoder.encoder.0.weight f4 [32, 1, 3, 3]
000000 3b 25 59 3e 1b 90 77 be a2 b6 83 be af a5 8a be
       0.21205609 -0.24176066 -0.25725275 -0.27079532
000010 fc b7 8d be c8 3f da 3c f6 43 3b 3e 87 fa aa 3d
       -0.2767943 0.026641741 0.18287644 0.083485655
000020 39 54 94 be a4 fa 0a 3e c4 94 1a be 21 4f 81 3e
       -0.28970507 0.13572174 -0.15095812 0.25255683
000030 9a 73 79 be 00 44 8c 3e 9a 2c 34 be 4b 41 44 be
       -0.24360505 0.2739563 -0.17595139 -0.19165532
000040 65 15 06 3d 69 0b 1f be a5 4a 62 3e d6 2b d2 3d
       0.032735247 -0.15531696 0.22098787 0.10262267
000050 01 3c 4e 3e 0a b4 94 bd dc 38 91 3e 95 4f 0a be
       0.20140077 -0.07260902 0.28363693 -0.1350692
000060 25 68 03 3e 0e d2 15 3e 1d 52 f1 3d 00 ae 0b bd
       0.12832697 0.14630911 0.1178324 -0.034101486
000070 36 e4 00 be 5e 11 90 be ed 7e ae 3e 5a e4 8c 3e
       -0.12587056 -0.2813825 0.34081212 0.27517968
000080 79 bd ea bd f0 67 25 be b4 98 06 be c3 c7 0f 3e
       -0.1146192 -0.1615293 -0.13144189 0.14041047
000090 76 44 52 be 57 31 6b be d1 cc 94 3e b0 52 6b be
       -0.20533928 -0.2296804 0.29062513 -0.22980762
0000a0 f2 75 39 3e cb c0 32 be cc 37 30 be 2d 14 fe 3d
       0.18111399 -0.17456357 -0.17208785 0.12406192
0000b0 74 8c 80 3e a4 0d 6b be dd 9c 1a 3e 1c 74 f0 bb
       0.25107157 -0.22954422 0.15098901 -0.00733806
0000c0 13 e8 6d bb 37 67 2e 3d ca f7 73 bd bb bb ee 3d
       -0.0036301657 0.042578902 -0.059562482 0.116569005
0000d0 91 de 7f be da a2 aa 3d 87 c2 46 bd c5 ad 8d 3e
       -0.24987246 0.08331843 -0.04852536 0.27671638
0000e0 81 d7 9f 3e d7 3b df bb f2 18 0d 3e 62 ba 29 bc
       0.31219104 -0.0068125534 0.13779047 -0.0103593785
0000f0 23 9f 90 bd 25 4b f1 bc fb 22 9e 3d ed 4e 72 3e
       -0.07061603 -0.029454777 0.07721516 0.2366292
000100 50 77 90 3e 06 2a 0d 3e d9 47 7d be 97 37 88 be
       0.28216028 0.13785562 -0.24734439 -0.26604912
000110 ae 2f 9f be 8d c6 4c be 9c 90 27 3e 94 0f a6 3d
       -0.31091064 -0.19997616 0.16363758 0.0810844
000120 df 76 f1 3d cb c7 2f be 22 4a 2d be 42 6e e9 3c
       0.11790251 -0.17166059 -0.1692281 0.028494958
000130 87 0d 63 be fe fa bc 3d fc 59 7b 3e c2 6f 23 bc
       -0.22173129 0.092275605 0.24546045 -0.009975376
000140 d0 6e b9 bd 6f fa 76 be e0 9d 0b 3d 0b d1 c9 bd
       -0.09054339 -0.2411897 0.03408611 -0.09854325
000150 8b de 25 3e f8 58 4a bd b0 74 8a 3e 4c 9f a3 3e
       0.16198175 -0.049401253 0.2704215 0.3195747
000160 28 e7 45 be 24 8b b4 3d 57 f3 96 be e1 85 8d be
       -0.1932646 0.088156015 -0.2948253 -0.27641204
000170 26 2e 77 3d 99 75 72 3e 2e 8b 32 3c 9b 6a d0 3d
       0.060346745 0.23677672 0.010897441 0.101765834
000180 7c 27 31 be 85 90 51 be 51 4d 83 be ab 2d 3a be
       -0.17300218 -0.20465286 -0.25644925 -0.18181483
000190 1a bb 24 3e 43 2c a3 3e f3 7b 17 be 44 53 88 bd
       0.16086999 0.31869707 -0.14793377 -0.06656507
0001a0 18 6c 96 be ae 5f 09 be db 64 98 be 98 fc 26 3d
       -0.29379344 -0.13415405 -0.29764447 0.040768236
0001b0 dd 54 77 3e 0e 29 fa bc ee ee 57 3e 4c 0c 9f be
       0.24153467 -0.030537155 0.21087238 -0.3106407
0001c0 30 97 eb 3d 4d 6f a7 3d 2d 97 13 3d 07 df 84 be
       0.11503446 0.08175526 0.036032844 -0.25951406
0001d0 f1 62 93 3e f3 8e 89 3e cb ed 81 be 61 bc 8f 3d
       0.28786424 0.26866874 -0.25376734 0.07018352
0001e0 c3 1d 0f 3e 02 63 52 be bd 45 99 bd 47 01 15 be
       0.13976197 -0.20545581 -0.07484005 -0.14551269
0001f0 04 0e 94 be 44 be 9a be 53 47 12 be 20 5b 54 be
       -0.28916943 -0.30223286 -0.1428502 -0.20737886
000200 e9 03 91 3e a3 31 8b 3e c9 58 35 be 01 e6 89 bd
       0.28323296 0.27186307 -0.1770965 -0.06733323
000210 91 d8 64 3e c6 ea 46 be f0 f4 dc 3d fd 29 4b be
       0.22348239 -0.19425496 0.107889056 -0.19840236
000220 d1 fc 5a be 34 68 67 3e a9 15 05 3e 2f 90 00 be
       -0.21385504 0.22598344 0.12996544 -0.12555002
000230 72 e7 51 be 85 20 67 3e f7 cc 6c be 24 e1 59 3e
       -0.20498446 0.22570999 -0.23125063 0.2127729
000240 84 f8 a0 3e d7 48 95 be 4d 51 88 3e 97 4e ad be
       0.31439602 -0.29157135 0.26624528 -0.33849022
000250 81 1a c0 bd a0 b1 99 3e 3d 10 66 3e 0b 20 98 be
       -0.09380055 0.3001833 0.22467132 -0.29711947
000260 5e 32 8b 3d c0 fb 5a 3e c5 33 4b 3d b5 ad e2 bd
       0.06796716 0.21385098 0.04960992 -0.11068288
000270 da 3e 08 bd 65 77 97 3e c3 a1 ac be 71 97 d4 bd
       -0.033263065 0.29583278 -0.33717164 -0.10380448
000280 b3 a3 a9 be 9b c8 3e 3e e0 e2 9d be ff e4 92 be
       -0.33132705 0.18631212 -0.30837154 -0.28690335
000290 7e b1 74 be 80 28 1e bc 02 58 55 3e 7c da a3 bd
       -0.23895833 -0.009653211 0.20834354 -0.08000657
0002a0 f8 9a 32 bd 2b 09 12 be 80 0e cc bc 7d 88 8c be
       -0.04360482 -0.1426131 -0.024909258 -0.27447882
0002b0 af 3e 2c 3d 68 3c c1 3d cc 43 ee 3d 75 f2 99 3d
       0.042051967 0.0943535 0.11634025 0.07516948
0002c0 96 1e 55 3e a3 9a 91 bd 46 0d 57 3e 9f e3 a3 bd
       0.20812449 -0.07109573 0.21001157 -0.080024
0002d0 7e 31 0b be 91 31 a9 3e 8b f6 61 be 29 9b 74 be
       -0.13593099 0.3304563 -0.22066705 -0.23887314
0002e0 7a 02 32 be 15 09 70 bd 5e 60 2c 3e 69 e3 63 be
       -0.17383757 -0.05860241 0.16833636 -0.22254719
0002f0 fd 38 66 be 08 31 2b bd 64 10 9a 3d d0 23 8e bc
       -0.22482677 -0.041794807 0.075226575 -0.017351061
000300 96 54 0f 3e 48 b5 a6 be 00 84 e7 3c e4 ff 8b be
       0.1399711 -0.32560182 0.028261185 -0.27343667
000310 00 2a 2a 3c f3 dc a2 be b6 66 e1 bd ef 51 29 3e
       0.01038599 -0.31809196 -0.11005919 0.16535161
000320 23 4f a3 3e d7 8c 5b 3e e1 1f 70 3d fc bd dc 3c
       0.31896314 0.21440445 0.058624152 0.02694606
000330 22 b1 dd bd 8a a3 1a bd ef 09 05 be 49 a7 a4 3e
       -0.10824801 -0.03775362 -0.1299207 0.32158878
000340 ae 22 0d be 5a 5f 9a be a0 84 81 be 40 75 d3 3c
       -0.1378276 -0.30150872 -0.25296497 0.025812745
000350 38 04 67 bd d6 7e 3f 3e a6 99 75 be 8c e4 9c bd
       -0.056400508 0.18700728 -0.23984393 -0.07660779
000360 29 2b d9 bc f7 d3 67 be 65 10 86 3e 93 d3 2c be
       -0.026509838 -0.22639452 0.26184383 -0.16877584
000370 c9 46 15 be 3c a5 68 be 70 c6 a1 be 71 95 fd bd
       -0.14577784 -0.22719282 -0.31596708 -0.12382019
000380 c9 90 c1 3c 90 6f 95 be b8 97 7e be 90 84 da bd
       0.02362861 -0.29186678 -0.24862564 -0.106698155
000390 e8 6b 1c 3e bb 94 8d 3e ae 58 2c be b6 f0 41 be
       0.15275538 0.27652535 -0.16830704 -0.1893948
0003a0 7c 9c fb bd 80 c3 8b 3c 19 36 8a be 0c ac 1b 3e
       -0.122857064 0.017060995 -0.26994398 0.1520235
0003b0 06 44 b1 be 44 a4 bf 3c 0e 19 de bd 26 6b 4f 3e
       -0.3462221 0.023393758 -0.108446226 0.20255718
0003c0 66 f2 26 3e 8a 1c 5d 3e cb cf b5 bd 47 34 88 3d
       0.16303405 0.21592918 -0.08877524 0.06650596
0003d0 ef 07 1e be 84 f6 33 3e 9c 8e ac 3d 7d 12 9f 3e
       -0.15432714 0.17574507 0.08425638 0.31068793
0003e0 41 21 35 3e 41 86 a8 3b 49 aa 2e 3d 27 22 83 be
       0.17688467 0.0051429574 0.042642865 -0.25611994
0003f0 b1 b1 e8 3d e7 a4 38 3e 12 75 4f 3d 2d 53 8c 3e
       0.11362017 0.18031655 0.050648756 0.27407208

encoder.encoder.0.bias f4 [32]
000000 be 90 c9 3d 49 f2 e9 3d ca 14 b3 3e ad bb 82 be
       0.098420605 0.11423165 0.34976798 -0.2553381
000010 b6 6f d0 3d e6 4d ca 3d 94 5a 89 be 72 76 80 3e
       0.10177557 0.09878139 -0.26826918 0.25090367
000020 b3 b7 a2 3e 78 50 24 3e 07 f3 40 3e 76 a8 a2 be
       0.31780776 0.16046321 0.18842708 -0.3176915
000030 fd 8e b8 3d 23 67 bb 3d 1f ba 94 3e 8b ac 87 3e
       0.09011648 0.09150531 0.2904825 0.26498827
000040 da 5c a1 3e b0 85 65 3e b0 54 98 bd 53 7e 01 be
       0.31516153 0.22414279 -0.07438028 -0.12645845
000050 f7 c3 9f 3e c6 eb 2d be cd 4b 39 be 94 11 8b be
       0.31204197 -0.16984472 -0.18095322 -0.2716185
000060 e9 a6 82 3e 10 a0 95 be 8d 1e 9d 3e db da 89 be
       0.25517967 -0.2922368 0.3068737 -0.26924786
000070 6f 4c 31 bd 99 19 b5 3e 1e 79 07 3e 0d 7a 98 3e
       -0.043285783 0.35371092 0.13229796 0.29780617

encoder.encoder.2.weight f4 [64, 32, 3, 3]
000000 cc a5 15 3d 5c 7e e7 bc aa bb 98 bc b2 55 44 3d
       0.03653507 -0.028258495 -0.018644173 0.047933288
000010 3a ca c6 bc 9b 72 21 3d f3 15 0c 3d f9 13 a8 3c
       -0.024266351 0.039415937 0.03420062 0.020517336
000020 5f 16 37 3c 1d a0 a1 3b cd 78 f5 3c c1 c4 70 3c
       0.011174767 0.004932417 0.029964829 0.014695347
000030 17 17 a7 3c d4 b3 ea ba 3f 0a 06 3c 1c 72 65 bd
       0.020396752 -0.0017906376 0.008181154 -0.056017026
000040 af 62 1b 3d c2 fe dc bb 41 b8 7b bd 7f 7d 5f bd
       0.03793591 -0.0067442367 -0.061455015 -0.05456304
000050 77 e5 dc ba 03 80 fc 3c 97 7e 29 bd 2a a2 b6 bc
       -0.0016853054 0.03082276 -0.04138049 -0.022294123
000060 38 85 37 bc be 4f 46 3d 90 ac 2d bd 5b 28 44 3d
       -0.011201195 0.04841589 -0.042400897 0.04789005
000070 81 db 3c 3d fd 44 4d 3d 0c ed 26 3c 8f 30 da bc
       0.046107773 0.05011462 0.010188352 -0.026634483
000080 6b ad 57 bd 74 bb 15 bd aa 49 cf 3c 7d 06 1c 3d
       -0.05265562 -0.036555722 0.02530368 0.038092125
000090 cd 61 3c 3d 8f dd c6 bb a7 3c 93 bb 61 65 60 3c
       0.045991708 -0.0060688923 -0.0044933143 0.013696046
0000a0 a0 1f 0f bd 1f 4e 02 bd d7 c7 69 bd 32 81 3e 3d
       -0.03494227 -0.031812783 -0.057075348 0.04650993
0000b0 c6 21 30 3c 67 29 1b bc f6 e2 00 3d 67 db fa 3c
       0.01075024 -0.00947032 0.031466447 0.030622197
0000c0 81 8d 13 bd b4 40 cd 3a df 28 86 bc f3 61 3f 3d
       -0.03602362 0.0015659542 -0.01637691 0.04672427
0000d0 0b a2 f4 bc 47 70 9f 3c 8d fb 17 3d 08 a8 eb bc
       -0.029862424 0.019462718 0.037105132 -0.028766647
0000e0 3a bc ac 3c 5c e6 61 3c 3a a8 1b bb 2b b6 39 bd
       0.021085847 0.013787832 -0.0023751394 -0.045339745
0000f0 6c 98 27 3c 34 a2 46 bc 2e ea 23 bd 5f 69 42 3d
       0.010229211 -0.012123633 -0.040018253 0.04746377
000100 31 5b 72 3a 96 95 cc bc a0 c0 53 bd f6 97 d3 bc
       0.0009245156 -0.024973672 -0.051697373 -0.025829297
000110 8d cf 80 bd 23 1a 3d 3d 06 c6 e5 3c 46 dd bb bc
       -0.06289587 0.046167504 0.028048526 -0.02293266
000120 dc 53 ee 3c 6d eb 7d bd 84 f1 57 bd 15 93 0f bd
       0.029092722 -0.061992098 -0.05272056 -0.035052378
000130 b1 14 a2 bc 08 e9 9c 3c 74 d8 11 3c 95 32 71 bc
       -0.019785257 0.019154087 0.008901704 -0.014721532
000140 65 15 98 bb 48 6e 03 bd d3 bc 54 3d 16 41 2e bd
       -0.0046412223 -0.032087594 0.05193789 -0.04254254
000150 b4 5d 12 bd de cc dc 3a 04 fd 81 bd 92 c9 95 3b
       -0.035733894 0.0016845723 -0.06347087 0.004571148
000160 4a ab 77 bd 86 27 f7 3c de 77 37 bc 27 d8 8f bb
       -0.06046609 0.030170213 -0.011198012 -0.004389781
000170 df c9 3a 3d db 7f 6e bd b4 f8 10 3d c6 3a 5f 3c
       0.045602676 -0.0582274 0.03539343 0.0136248525
000180 d6 dd 28 3d 92 a6 10 bc 3e 65 f9 3c 28 1c d9 bc
       0.041227184 -0.008828776 0.030443784 -0.026502684
000190 1c 8a f4 bc 0d 89 1f bd f5 33 1f 3d b2 8a 97 bc
       -0.029851012 -0.03894906 0.03886791 -0.018498752
0001a0 a2 a5 c1 bc 09 b4 2e 3d d6 6e ee 3c 18 aa d0 3b
       -0.02363855 0.042652164 0.029105585 0.006367933
0001b0 3b c1 9b bc 0f 62 54 3d c8 8f 2c bc 79 8c 60 bd
       -0.019013038 0.05185133 -0.010532327 -0.054821465
0001c0 bb 5b 05 3d 25 89 23 bc c6 fc 72 3c 86 be 04 bd
       0.032558184 -0.009981428 0.014830774 -0.03240826
0001d0 fb 3c 2a 3c 02 0b fb 3c 2d 04 28 bd 99 6a 65 3b
       0.010390515 0.030644897 -0.041019607 0.0035006164
0001e0 13 2d 2f bd 58 3f 34 bc 68 3f 4e bd 4e 21 07 3d
       -0.042767595 -0.01100143 -0.050353438 0.032990746
0001f0 7b 13 22 bd 01 28 75 bc 92 41 ce bc b2 aa 09 3c
       -0.03956936 -0.014963151 -0.02517775 0.008402513
000200 4d 43 de bc e5 dd 7c bc e6 cb ed 3a e7 80 e0 3c
       -0.0271317 -0.015433763 0.0018142432 0.027405215
000210 14 83 8c bc 02 31 0a 3d 19 ab 0f 3c 26 35 11 bd
       -0.017152347 0.033738144 0.00876882 -0.035451077
000220 1f 4b 70 bd 12 47 0d 3c 85 60 62 bd ce e2 65 bd
       -0.05866539 0.0086229015 -0.05526783 -0.0561245
000230 d9 86 2a 3d 34 64 2e 3d 26 78 af 3c d3 2b 32 bd
       0.041632507 0.04257603 0.021419596 -0.043498825
000240 36 58 05 3c 2d 33 74 bd ac d3 60 bc c0 db c2 ba
       0.008138707 -0.059619118 -0.0137223415 -0.0014866516
000250 54 70 f9 bc fb 12 c2 3a f9 ca 19 3d 29 41 81 bd
       -0.03044907 0.0014806682 0.037547085 -0.063112564
000260 e0 06 2f 3c 2c 9e 27 bd 75 79 83 bd 97 e4 d1 bb
       0.0106827915 -0.04092233 -0.064196505 -0.006405424
000270 68 02 81 bd 7f 38 77 bd 36 82 61 bd a7 14 91 3c
       -0.06299287 -0.060356613 -0.05505582 0.017710043
000280 e3 f2 e3 3c 12 86 0e bd 56 79 be 3c 6e d8 d7 bc
       0.027825778 -0.03479583 0.023251217 -0.026348319
000290 1e 23 e0 3c 54 b5 5a bd 6e 30 9c 3c f0 15 23 3b
       0.027360495 -0.053395584 0.019066062 0.0024884902
0002a0 7e 37 d1 3c f9 e2 5a 3d 3f d2 03 3d 8d c8 4a 3d
       0.025539156 0.053439114 0.03218293 0.049507666
0002b0 14 56 11 3d 47 48 4f 3d e4 cc 32 3d 5b 62 00 3d
       0.03548248 0.05060604 0.04365243 0.0313438
0002c0 9b 8f 90 bc 61 bc 69 bd f2 2f 2c 3d f0 24 b7 bb
       -0.017646601 -0.057064418 0.04203791 -0.00558912
0002d0 92 22 4c 3d 6a 28 c5 3c 32 02 1c 3d 6f c2 57 bd
       0.049837656 0.024067122 0.03808803 -0.05267566
0002e0 0a 61 46 bd 70 1a 31 3d 05 00 ef bc 18 35 40 bd
       -0.048432387 0.043238103 -0.029174814 -0.046925634
0002f0 73 9b 1f 3d 61 1e 2e 3d dd 46 24 3d 1c fc 0c bd
       0.038966607 0.04250944 0.040106643 -0.034420118
000300 68 bb dc 3b b2 db b8 3c 62 b7 01 bd f8 6e d7 3b
       0.0067362078 0.022565696 -0.031669028 0.006574508
000310 fd 2a 15 3d 30 af 8c bb a4 6d dc bc 1a a3 a6 3c
       0.03641795 -0.004293345 -0.02690775 0.020341445
000320 e3 3a 05 bd c7 2a 41 bd 63 af e2 bc 2e 50 1a 3d
       -0.032526862 -0.047159936 -0.027671522 0.03767412
000330 1c 60 d3 bc db 72 30 3d 60 d3 42 bc 60 81 3e 3b
       -0.025802664 0.043078285 -0.011891216 0.0029068813
000340 2c fb 6a 3c 52 e5 ff 3c 0b 70 6c 3d bb 69 6f 3d
       0.014342111 0.031237278 0.05772404 0.05845044
000350 8c e8 54 3c 8c d7 33 3c 28 d2 3b bd be 5c 95 bc
       0.012994897 0.010976683 -0.045854717 -0.0182327
000360 b5 70 5d bd 1d b0 a2 3c a5 69 1f 3d 97 33 f2 3c
       -0.054062564 0.019859368 0.03891911 0.029565616
000370 74 44 5f bd 6a 29 21 bd ea 1d 36 3d 41 98 3b bd
       -0.05450864 -0.039346136 0.044462122 -0.045799498
000380 ee e0 37 bd 44 a4 61 3c f0 e9 3a bb 7e 6f d9 bc
       -0.044892244 0.013772074 -0.0028520785 -0.026542421
000390 18 4a dd 3b 68 db 87 3b 9c 6a 64 bc f1 0a 36 3d
       0.0067532174 0.0041460283 -0.013941433 0.04444403
0003a0 9e 37 a0 3c 3b 44 13 bd 5d c3 8c 3c 92 df c4 3c
       0.01955777 -0.03595374 0.017183 0.024032388
0003b0 d2 13 cb b7 7f 63 48 3d e7 0d 45 3d 64 3a ad bc
       -2.4208715e-05 0.048923012 0.04810896 -0.021146007
0003c0 0c e9 3e 3b fd d0 4a bd 7b 59 34 bd e4 d1 09 bc
       0.0029130606 -0.049515713 -0.044030648 -0.008411858
0003d0 a4 e2 29 bd 7d 25 2f bd 13 43 32 bd 1b f3 20 3d
       -0.041475907 -0.04276036 -0.043521 0.039294343
0003e0 13 d2 45 3c 55 a8 b7 3b 07 51 96 3c b3 a1 2c bd
       0.012074011 0.0056047835 0.018349184 -0.042146396
0003f0 ec 6f 2f bd a0 88 0b 3d c3 98 85 3d 94 3a 11 bd
       -0.042831346 0.034065843 0.065232776 -0.035456255

encoder.encoder.2.bias f4 [64]
000000 b3 45 4d 3d b8 a3 32 3d e3 d7 ca bc be e9 7b 3d
       0.0501153 0.043613166 -0.024761146 0.06150221
000010 68 b3 24 3d 35 f7 13 ba 06 6d 31 3c 52 9d 21 bc
       0.040210158 -0.00056444417 0.010829216 -0.009864168
000020 8a 98 37 bd 7a c0 e5 3c 87 61 3c bd f5 85 c9 3c
       -0.044823207 0.028045882 -0.045991447 0.024600009
000030 14 9d 1a bd 8d 32 8e 3d a8 06 16 bc 30 3d 1f 3c
       -0.037747458 0.069432355 -0.00915686 0.009719178
000040 70 72 6b bd aa d5 0b bc 0e 10 8f 3d 3b e1 9a 3d
       -0.057482183 -0.008534828 0.06985484 0.075624906
000050 04 a2 37 bc bb 22 54 bd 34 96 11 bd 1c cb 83 3d
       -0.011208061 -0.051790934 -0.035543635 0.064352244
000060 08 cf 00 bd 01 e6 62 3d 36 ba 4f 3c ce d0 34 bd
       -0.03144744 0.05539513 0.0126786735 -0.044144444
000070 68 bd da bb 17 5e 86 3d 16 bd 9a 3d 82 62 57 bd
       -0.006675411 0.06560915 0.075555965 -0.05258418
000080 be 74 38 3d dd 9d 43 bc 17 bf 63 3b dd b9 35 bb
       0.04503321 -0.011939493 0.003475135 -0.0027729191
000090 66 67 53 bd 93 eb 76 3d 34 32 2a bd 34 f2 09 bc
       -0.05161228 0.060283255 -0.041551784 -0.008419562
0000a0 8d 53 11 3d 0c ae 02 bd 71 44 62 bd da 83 98 3b
       0.03548007 -0.031904265 -0.055241052 0.00465439
0000b0 4a ac f9 3b f6 52 84 3b 8a 90 65 bd 0d a7 d9 3b
       0.0076194154 0.00403821 -0.056046046 0.0066422285
0000c0 a8 41 10 3d d6 a9 21 3d cf 57 75 bc 9e 2e e4 3c
       0.035218865 0.03946861 -0.0149745485 0.02785426
0000d0 b6 87 39 bd 47 91 9c 3d c8 b4 2c 3d 49 c6 41 3d
       -0.04529544 0.07644897 0.042164594 0.04730824
0000e0 22 ae 60 3d 18 57 0e bc 66 45 6b 3d 74 e0 87 3b
       0.054853566 -0.008687757 0.05743923 0.00414663
0000f0 9e c1 85 bc c6 15 32 3a db ea db bc bf a2 62 3c
       -0.016327675 0.00067934056 -0.026845386 0.013832747

encoder.encoder.4.weight f4 [128, 64, 3, 3]
000000 fa 74 94 3c 43 64 c4 bb e7 dd 8b bc 94 26 81 bc
       0.018122185 -0.0059933974 -0.017073585 -0.015765466
000010 b4 31 37 3d 1f d2 17 3d a3 c4 12 3d 5c ab 0a bd
       0.044725135 0.03706562 0.03583206 -0.033854827
000020 b8 a1 f3 bc e9 94 a7 3c eb c3 5d 3d 56 2b ad 3c
       -0.0297402 0.020456748 0.05414192 0.021138828
000030 c4 b5 81 3d e5 93 34 bc ed 5a 80 3d 63 1e 5a 3d
       0.06333497 -0.011021589 0.06267343 0.053251635
000040 2e 73 3d bc 41 f9 02 3d b4 3b 74 ba 1a 14 cd bc
       -0.0115631055 0.03197599 -0.0009316758 -0.025034
000050 24 cd 82 bc 6b 1a 7f 3c 9d 15 2b 3c 13 09 95 bc
       -0.01596696 0.015570263 0.010442165 -0.018192803
000060 48 29 90 3b c8 a6 d4 3c 64 3a 52 bc 66 6e 44 3c
       0.0043994524 0.025958434 -0.012831304 0.011989212
000070 02 09 8c 3c 9a 50 1d 3d 1c e1 ba bb f9 d4 05 3c
       0.017094139 0.038406946 -0.0057031047 0.008168452
000080 9c 2a 74 bc a0 ba 11 3d aa d5 09 3c 6a 38 38 3d
       -0.014902737 0.03557837 0.008412758 0.044975676
000090 c6 15 5d 3d 32 69 5b bb b0 87 85 bc b3 fd 59 3d
       0.053975843 -0.003347945 -0.016300052 0.053220462
0000a0 b8 9d 5c bc ca 16 9e 3c d6 41 6b bb 12 5c 9b 3b
       -0.013465337 0.019297976 -0.0035897396 0.0047412002
0000b0 10 3e f1 3c 13 5a a3 bb 4a 26 35 bb de 42 94 bb
       0.029448539 -0.004985103 -0.002764123 -0.0045245728
0000c0 91 92 1d 3d 6e 69 bd 3c b4 34 5e bc 56 d9 57 3d
       0.038469855 0.023121562 -0.01356237 0.052697502
0000d0 a9 57 6e 3c 8f 0a b8 3b c8 e0 c1 3c 07 53 86 bc
       0.014547267 0.005616493 0.023666754 -0.016397012
0000e0 f0 b5 2e 3c aa a6 01 3d f6 a1 69 3d 3e cc 63 3d
       0.0106634945 0.031653084 0.057039224 0.055614702
0000f0 8b d8 00 3c 60 ce 9c 3b 73 f4 25 3d 63 c7 49 3d
       0.007864128 0.004785344 0.040516328 0.049262416
000100 d7 f1 7e 3c c4 2e c0 ba da 52 27 3d ca a2 c7 3c
       0.015560589 -0.0014662375 0.040850498 0.024369616
000110 75 31 43 3d 40 e7 08 3d 30 3f 19 3d 87 91 3b 3b
       0.047654588 0.033423662 0.037413776 0.0028620677
000120 05 1d 9b bc b9 51 94 3c 87 17 16 3d b7 5b f1 bc
       -0.018934736 0.018105375 0.03664353 -0.029462678
000130 7f 09 32 3c bd 92 e8 bc c0 c0 36 3c 14 ec 00 bd
       0.010866522 -0.028390283 0.011154354 -0.03147514
000140 83 90 0c bd 78 86 05 bc fe ea 52 3c 92 8b 36 3d
       -0.034317505 -0.008149736 0.012873409 0.0445667
000150 64 e1 7c 38 f5 a1 08 bc 01 d8 1f 3d c6 fe 1b 3d
       6.0291393e-05 -0.008339395 0.039024357 0.038084768
000160 bd 20 b7 3c 8a 64 af 3b 1d 10 43 3c 5c da 60 bd
       0.022354478 0.0053525614 0.011905697 -0.054895744
000170 8b 75 34 bc a8 98 24 3c 3a 92 46 3c f4 4c 06 3c
       -0.011014353 0.010046162 0.012119824 0.008197058
000180 ff fd e6 3b 89 68 c5 bc 54 b6 6b bc 22 44 64 bd
       0.0070493217 -0.024097698 -0.014386732 -0.05572904
000190 22 25 b2 bc 06 95 f7 bc 6a 68 80 bd 8b aa 93 bb
       -0.021746222 -0.030222427 -0.062699154 -0.0045064143
0001a0 5b 7f 40 3b d0 8a 7c bb 4e 2a 8a bd 1e 26 c6 bb
       0.0029372785 -0.0038534887 -0.0674635 -0.0060470244
0001b0 74 07 8f bd fd 88 29 bb b1 c7 a0 bc 11 a6 52 bd
       -0.069838434 -0.0025869005 -0.01962647 -0.051427905
0001c0 c0 d8 8e bb 61 73 ea bb 2c c7 66 bd 68 7f 74 bd
       -0.0043593347 -0.0071548675 -0.05634229 -0.059691817
0001d0 3f c8 87 bd 3c 61 09 3d aa 6d 51 3d ee 30 0a bb
       -0.06629991 0.033539996 0.051129974 -0.0021086293
0001e0 b4 b9 7e 3c b9 73 96 3c 66 4f 1b bc 22 c4 2f 3d
       0.015547205 0.018365728 -0.009479379 0.042911656
0001f0 4a 2d 6c 3d 0d e4 71 3d 1d f4 b3 bd 72 17 06 bd
       0.05766038 0.059055377 -0.08786795 -0.032737203
000200 55 08 9b bc 13 94 dc bb 19 7b 0f 3d 31 76 b1 bc
       -0.018924871 -0.006731519 0.035029504 -0.021662803
000210 13 d6 cb bd 92 05 10 bd 3d d2 34 bd f3 4a 6b 3d
       -0.09952941 -0.035161562 -0.04414581 0.057444524
000220 67 a5 91 bc 8a ab 0a 3a 4b 9a a4 3c 26 35 3a 3d
       -0.017779065 0.00052898435 0.020093104 0.045460843
000230 c3 25 b4 3c f1 a9 fb ba ee d0 08 bc e5 4f 07 bb
       0.021990662 -0.0019200427 -0.008350594 -0.0020646986
000240 03 22 31 bd 9b c5 8a bc a4 7e bc bc ae 66 73 3b
       -0.043245327 -0.016939929 -0.023009606 0.003714006
000250 6b 83 cb bc 8e 65 ef bc f1 00 31 bd f5 0f 89 bd
       -0.024842938 -0.02922323 -0.04321379 -0.06692497
000260 7b 52 8a bd 9b a3 28 3c 87 5b d0 3b af ac 64 3d
       -0.06754013 0.010292913 0.006358567 0.055828746
000270 73 21 6e bc 1b 0f 16 3d 25 4b e6 3c cd b1 6d 3d
       -0.014534342 0.0366355 0.028112004 0.058030892
000280 dd f5 b1 bb 44 2f 10 3b e4 f3 3c 3d 9b eb 70 3c
       -0.0054309205 0.0022000829 0.04613103 0.01470461
000290 4c 51 27 3d d6 14 82 3d 8d 41 3f bc e0 90 ed 3c
       0.040849015 0.063516304 -0.011673343 0.028999746
0002a0 96 c9 a0 3c 0d 2c 28 bc 61 cd d9 3c 7c 70 84 3c
       0.019627374 -0.010264409 0.02658719 0.016166918
0002b0 b5 23 bb 3b 9f cd 30 3d 88 b0 67 3d 6f f2 81 3d
       0.0057110437 0.043164846 0.056564838 0.06345069
0002c0 f3 71 25 3d 4b d4 70 3d 6e fd 43 3d ac 68 2d 3d
       0.040391874 0.05879621 0.04784911 0.04233615
0002d0 c0 e0 0c 3c e0 18 c9 3a 84 a9 3b 3c 6f 5c 00 bd
       0.008598506 0.0015342496 0.01145399 -0.03133815
0002e0 6b bb 1f bd 96 41 fe 3c 26 2b 9d bc 10 53 7c bc
       -0.038997095 0.031037133 -0.019185614 -0.015400663
0002f0 a6 41 ad 3c a2 dd c4 3c 08 98 bd 3b 22 56 0f bd
       0.021149468 0.024031464 0.005785946 -0.034994252
000300 ac db 36 bc 76 08 99 bc a9 d0 23 3d 0a eb 0e bd
       -0.011160772 -0.018680792 0.039993916 -0.03489212
000310 40 7b 76 bc 1c 00 78 3c 6f 8b 1d 3d 98 e6 db b9
       -0.0150440335 0.015136745 0.038463052 -0.0004194274
000320 e8 68 fa 3c a5 6e ff 3c fe 29 fa 3c f9 aa 77 3d
       0.030567601 0.03118069 0.030537602 0.060465787
000330 07 f0 b4 b9 75 d0 10 3d dc 9a 1e bc c4 a7 cd 3c
       -0.0003451111 0.03535505 -0.009680476 0.025104411
000340 54 07 86 3c ab 7a 0e 3d 71 28 86 3c ee 23 7d 3c
       0.016360916 0.034784954 0.016376706 0.015450461
000350 d8 d0 73 3d fe b3 14 3c e5 72 33 3d 3c d4 a8 bb
       0.05952534 0.009076117 0.043810744 -0.0051522534
000360 8a 67 ae 3c 50 73 3f 3b 9c c9 57 3c 46 5e e7 bc
       0.021289606 0.0029213019 0.013170626 -0.028243195
000370 08 39 91 bc 02 9f 9e 3c 30 dc 1d 3c 60 4d 17 3c
       -0.01772739 0.01936293 0.009635016 0.009234756
000380 6b d9 24 bd 80 de ba 3a 38 dd 12 bd 54 6a 69 3c
       -0.04024641 0.0014256984 -0.035855502 0.014246542
000390 80 2c b6 bc 59 6f 26 3d 54 34 29 3c e8 79 06 bd
       -0.022238016 0.040633533 0.010327417 -0.032831103
0003a0 ee d8 af bc 32 43 c7 3c ab 58 15 3d 70 b4 35 bc
       -0.021465745 0.024324033 0.036461513 -0.011090383
0003b0 2f d7 87 bc ae a0 f4 3c 2a 9c 8a bc 40 73 c8 bc
       -0.0165821 0.029861774 -0.016920168 -0.024469018
0003c0 bd ea 04 bd a1 5f df bc 35 df 3d bc 0e a4 32 bd
       -0.032450426 -0.02726728 -0.011588861 -0.043613486
0003d0 ee c9 74 bd 65 f7 d3 bb 10 f8 75 bd 33 5a 0a bd
       -0.059762888 -0.0064687007 -0.060051024 -0.033777427
0003e0 2e b2 24 bd d3 3b 84 b8 8a 5a 0e bc 4a 96 cb bb
       -0.040208988 -6.3053936e-05 -0.008688578 -0.006212984
0003f0 32 47 ca 3c 3b be 98 3c 7c 77 a8 3b d3 97 a9 bc
       0.024692152 0.018645396 0.005141197 -0.020702278

encoder.encoder.4.bias f4 [128]
000000 3c be d3 3b 3e dc 9e 3a f0 9c 58 bc 8b 86 42 bc
       0.0064618867 0.0012120081 -0.013221011 -0.011872898
000010 68 37 56 3d 77 9a 23 3d 40 2a 72 3d 03 e8 4c bc
       0.052298933 0.03994223 0.059122324 -0.012506488
000020 56 47 45 bd 7e 84 4f 3d 72 0d 3b bd 07 88 ac 3c
       -0.048163734 0.050663464 -0.04566712 0.021060957
000030 df 16 ce 3c c1 13 66 3d d1 4e 5c bd 4f fa 42 3d
       0.02515739 0.056171183 -0.053786103 0.047601994
000040 81 1a 81 3d f6 31 cc 3c 97 8f 39 bd d7 ec 95 bd
       0.06303883 0.024926167 -0.045302954 -0.07320564
000050 e0 69 ed bb 15 70 3c bd e6 dc 7c bb cf 60 20 bd
       -0.0072452873 -0.046005327 -0.0038583814 -0.039154824
000060 b9 c5 3d bd 40 22 7a bc 47 2c ac bb 01 cb 2c 3d
       -0.04633114 -0.015266955 -0.0052543017 0.042185787
000070 f1 7c 33 3d 63 06 93 bd cb 18 4f 3d 8b 6b 2c 3d
       0.043820325 -0.071789525 0.050560754 0.04209475
000080 31 1d 3f bc 94 e6 8a bb 56 dc ad 3c 82 8d 07 bc
       -0.011664675 -0.004238913 0.021223228 -0.008273484
000090 ee a0 40 3d 85 7e 2d 3d c7 da 0c bd 54 85 2b bb
       0.047028475 0.042356987 -0.03438833 -0.0026172
0000a0 c9 0f fb 3c 6e 88 33 3c 32 cc 8d bb a8 0c b4 bc
       0.030647175 0.01095782 -0.0043273205 -0.021978691
0000b0 a7 10 37 bc 23 4e 1c 3d 83 e4 f3 3c ad a4 4b 3d
       -0.011173404 0.038160454 0.029772049 0.049717594
0000c0 ac c8 4c 3d 95 87 0d 3d 21 4a 87 3c fb f7 30 bd
       0.049996063 0.03455313 0.01651484 -0.043205243
0000d0 77 ab 1f bd 91 7b 7e 3d fd ff fb bb 4c 13 26 3d
       -0.03898188 0.06212956 -0.0076904283 0.040545747
0000e0 54 75 d6 3b 1b e7 4a bc 64 e8 c5 3c 90 68 08 3d
       0.0065447483 -0.012384201 0.024158664 0.033302844
0000f0 8e 2a d3 bc 40 45 45 bc 40 7d 7a 3d 76 56 bc 3c
       -0.025777128 -0.012040436 0.061154604 0.022990447
000100 1f bf 4c 3d 1f cb 35 3d c3 ad a6 3a 45 e7 b3 3c
       0.049986955 0.044383164 0.001271658 0.021960864
000110 78 45 f6 bc ff 39 43 3d fe 32 61 bd a6 8f b3 3c
       -0.030062422 0.04766273 -0.05498027 0.021919083
000120 79 b5 5d 3d ea b3 10 bd de 71 1a 3d 86 55 a6 3c
       0.054128144 -0.03532783 0.03770625 0.020304453
000130 15 49 f1 bc 74 ad 81 3d 5a 47 17 3d ad b8 e4 3c
       -0.029453794 0.06331912 0.03693328 0.027920092
000140 6a 8c 82 3d 48 40 08 bc ed f2 5f 3d 8b f9 07 3d
       0.06374438 -0.008316107 0.05467503 0.033196967
000150 37 9c 05 3d ae 1a d4 3c 24 4d d7 3c 45 7d 04 bc
       0.03261968 0.025891628 0.0262819 -0.008086507
000160 81 d3 0c 3c 92 f4 46 3d 84 5a 93 bc ee dd 85 3d
       0.008595348 0.048573084 -0.017987497 0.0653647
000170 5e 4a b7 bc 83 3f 51 bc 9e 8d 95 bc 14 e8 49 3d
       -0.022374328 -0.01277149 -0.018256005 0.049293593
000180 3e cd 62 bc 39 2c 52 3d 9e 5e d2 3c 57 04 50 3d
       -0.013842879 0.051311705 0.025679883 0.05078539
000190 4c dc 8e bc 9c b7 13 3d cb 22 c1 3c 06 49 7a bd
       -0.01743903 0.036063775 0.02357616 -0.061104797
0001a0 bc 74 3c bc fb 24 fe bb 25 40 a6 3c aa 07 78 3c
       -0.011502441 -0.0077558733 0.020294258 0.015138546
0001b0 84 23 85 bd 03 91 3b 3d 7b dc 82 3d b9 55 2b 3d
       -0.06500915 0.04579259 0.063897096 0.0418298
0001c0 e2 10 c0 bc 86 f9 6e 3a 5c 18 22 bd e8 4e 2a bc
       -0.02344555 0.00091161614 -0.039574012 -0.010394789
0001d0 44 7d 0a bb 5a 4c 62 bc b6 ac 52 3d 20 5a 14 3d
       -0.0021131793 -0.013812149 0.05143424 0.036218762
0001e0 0e 8e 93 bc 67 3d 84 3d 3c b1 42 bd 74 da f7 bc
       -0.018012073 0.06457024 -0.047532305 -0.030255534
0001f0 83 ea 4b 3d a2 52 ce 3c 5c b2 fb ba 0c ea 2c bd
       0.049784195 0.025185887 -0.0019202936 -0.042215392

decoder.decoder.0.weight f4 [128, 64, 3, 3]
000000 06 8c 8f 3c 7b 1c 25 3c 37 3f 79 3c f0 cf 35 bc
       0.017522823 0.010077591 0.0152128255 -0.011096939
000010 e3 cf 6f 3c 50 35 e3 3b 6e e2 43 3c ab 6f 78 bc
       0.014636966 0.0069338456 0.0119558405 -0.0151633425
000020 72 9d 10 3b 9c bf 01 bc 55 a6 18 bd 4f d5 9e bc
       0.00220665 -0.007919218 -0.037268 -0.019388823
000030 45 74 8b bb 00 c5 95 3c 69 86 ba 3c 0a 5b 1f 3c
       -0.004255804 0.018282413 0.02276917 0.009726295
000040 1d 33 1f bd ed 36 f9 3c aa 11 c4 bc 8d cd 26 bb
       -0.038867105 0.030421698 -0.023934204 -0.0025452108
000050 44 2d 2b bc a9 a3 9c 3c d0 7a 13 3d 5f 48 15 bd
       -0.010447804 0.019121008 0.036005795 -0.03644597
000060 e4 7c 67 3d 52 a7 13 3c 6b 18 7a 3b c3 60 a9 bc
       0.05651559 0.00901206 0.0038161527 -0.020676022
000070 5f 3a 31 3c ac 82 12 bc de 53 43 3d 6a af 1e 3d
       0.010817139 -0.008942287 0.047687404 0.038741507
000080 b8 a5 c6 3c 2a f6 16 bd ef 00 ca 3c a0 3d 85 3b
       0.024248943 -0.036855854 0.024658648 0.004066184
000090 cf 82 41 3d f2 d6 56 3d ed b0 69 bc b3 86 1c 3c
       0.04724389 0.05245108 -0.014263374 0.009553599
0000a0 58 73 fb 3a 21 cd ba 3c f2 07 62 3d 12 5c 34 3d
       0.0019184155 0.022802891 0.05518336 0.044033118
0000b0 94 03 16 3d a0 06 71 bc b0 83 43 3b 86 cb 07 3d
       0.036624506 -0.014711052 0.002983313 0.03315308
0000c0 61 62 ec bc ae 8c 9e 3c 76 25 08 bd 59 fe ce bc
       -0.028855504 0.01935419 -0.03323885 -0.025267767
0000d0 d8 da 8e 3c ae 82 14 bd 2c 7c 1c bd 62 04 15 3d
       0.017438337 -0.03625744 -0.038204357 0.036381133
0000e0 3a 8d 35 bd 42 f4 60 3d 54 d2 01 bd 58 96 35 3b
       -0.044324137 0.054920442 -0.031694725 0.002770802
0000f0 5c 33 db bc de 86 90 bb 8a b5 9d 3c 65 71 46 ba
       -0.026757888 -0.0044106087 0.019251604 -0.00075699977
000100 79 f5 91 3c e9 8a 94 ba c9 dc 20 3d b2 5e 64 bc
       0.017817246 -0.0011332902 0.039273057 -0.013938593
000110 6a 1b 37 3c f2 41 97 3c 10 a7 09 3d a6 88 b1 bb
       0.01117597 0.018464062 0.03360659 -0.005417901
000120 37 60 59 3d 78 a4 93 3c 3c 91 00 3d 4e cd 33 3d
       0.053070273 0.01802276 0.031388506 0.043896966
000130 96 a4 66 3d 59 3f 34 3d 2d 2c b5 3a de 2c a2 b9
       0.056309305 0.044005726 0.001382237 -0.00030932477
000140 db 96 17 3d ed e3 68 3d 7a 4b f4 3c 86 89 96 bc
       0.0370091 0.056857992 0.029821146 -0.018376123
000150 27 6c 4f 3c 1c d5 16 bc 3f d9 a0 bc 9e 10 8b 3c
       0.012660063 -0.009206083 -0.019634841 0.016975697
000160 25 b3 3a bd 59 13 20 3d 31 7e b3 3c 4b e1 a6 3c
       -0.045581 0.03908095 0.021910759 0.0203711
000170 78 8c 80 3d 96 31 63 3d 2c ea f1 3b 36 00 53 3d
       0.06276792 0.05546721 0.007382652 0.051513873
000180 d5 57 09 3d 6d 5f 72 3c 2a 26 49 3d 00 1a 6e 3a
       0.03353103 0.014793259 0.04910866 0.0009082854
000190 8e 5b 2a 3d 72 3e c5 3c d5 1b e3 3c c6 ca 98 ba
       0.04159122 0.024077628 0.027723232 -0.0011657111
0001a0 fa fc f7 bc 0b 73 0d bd cb 54 28 3c c8 93 98 3c
       -0.030271996 -0.03453354 0.0102741225 0.018625155
0001b0 2c 99 55 bc 55 43 af b9 62 50 a4 3c 69 e3 70 3c
       -0.013037007 -0.00033428767 0.02005786 0.014702656
0001c0 b0 7a b9 3c 1c 64 0e 3d f2 a8 92 3c e7 de 11 3d
       0.02264151 0.03476344 0.017902825 0.035612967
0001d0 92 0a 0e bc ac c6 2a 3d 5c 5d 15 3c e1 aa 34 3d
       -0.008669512 0.041693375 0.009116497 0.044108275
0001e0 6f 99 53 3d 38 d0 2a 3d f5 b2 a4 bb 4c aa 27 3d
       0.051659998 0.04170248 -0.005026216 0.040933892
0001f0 2f 67 66 3c 24 63 34 3b d2 80 69 3b fe 66 d4 3c
       0.014062687 0.0027524913 0.0035629761 0.025928017
000200 d4 5f 6a 3c 1f c5 99 bc 7a 3f 65 3d 02 4f d1 3b
       0.014305074 -0.018770752 0.05596874 0.0063875923
000210 c2 e1 2b bd 4f 6d 8d bc 29 aa 9d 3c 05 9b f0 bc
       -0.041963346 -0.017264036 0.019246178 -0.029370794
000220 60 bd 56 3c c5 17 1f bc fe 33 9e bc 91 3c fa bc
       0.013106674 -0.009710257 -0.019311901 -0.030546458
000230 26 f6 35 3b a6 ae 24 3c 2a 8c f1 bb 5e bd 17 bc
       0.0027765124 0.010051405 -0.007371445 -0.009261457
000240 ed 94 0e bb e2 67 b8 3c f5 df 1b 3c d9 69 ff 3c
       -0.0021756247 0.022510473 0.009513845 0.031178402
000250 05 f5 05 3d eb a6 80 3c 39 78 76 3c 79 9d 40 bc
       0.032704372 0.015704593 0.015043312 -0.011756294
000260 50 53 83 3b ca 33 0a bd 5e ef 9a 3c a2 e1 b7 bc
       0.0040077344 -0.033740796 0.018912967 -0.022446457
000270 e8 36 05 3d 56 78 7c 3c de 27 f6 bb 90 6f 8b bc
       0.032523066 0.01540955 -0.0075120768 -0.01702097
000280 33 50 7d 3b 24 f4 aa 3c c2 1b 38 bd fe b0 75 bc
       0.0038652539 0.020868368 -0.044948347 -0.0149958115
000290 b9 c3 28 bd c4 b8 d1 3c 03 8a da bb 3d a9 2e bd
       -0.04120228 0.025600798 -0.0066692843 -0.042641867
0002a0 5b f6 be 3c d4 92 2f bd 80 ae 1c bd 6b e6 7d 3c
       0.02331083 -0.042864636 -0.038252354 0.01549683
0002b0 b0 00 d8 3b 3b 3c ff 3c 13 a7 e0 bc c4 88 08 3c
       0.006591879 0.03115665 -0.027423417 0.008333389
0002c0 6c 0e 34 3c 83 bc 30 bc 21 cb 12 3d c3 86 9b 3c
       0.010989767 -0.010787132 0.03583825 0.018985158
0002d0 aa b9 c8 3c 96 0b 13 ba 53 04 dd bc 37 b4 44 bd
       0.024502594 -0.00056093314 -0.026979601 -0.04802343
0002e0 05 dc c0 bc db b5 94 3c c9 df 3b bd 98 c6 cf 3c
       -0.023542413 0.018153122 -0.045867715 0.025363252
0002f0 37 88 f0 3c 62 32 1f bc b0 99 cf 3b 8f 92 54 3c
       0.029361827 -0.009716602 0.0063354596 0.012974395
000300 1c a0 43 3d 15 f2 53 3c 14 2f c6 3b 7a 1b b3 3c
       0.047760114 0.012936135 0.0060480926 0.021863688
000310 7f 82 81 3c d5 3b 1e 3d f9 34 9b 3c 64 fd f0 3c
       0.015809296 0.03863128 0.018946158 0.029417701
000320 c4 a9 16 bd 83 36 6c bc e9 af 51 bc ae 4e 71 bc
       -0.036782995 -0.0144172935 -0.012798288 -0.014728231
000330 6a f1 d1 bb 9b 33 38 bc 17 7c a1 bc fd 53 9e bc
       -0.0064069526 -0.011242772 -0.019712491 -0.019327158
000340 ed d8 17 bd ab dd 97 3c bf 3b b1 bc a1 7b 03 3c
       -0.03707211 0.018538317 -0.021634934 0.008025081
000350 81 65 ed bc d6 4a 1a bc 4d f3 09 3d ee 4c ed bc
       -0.028979065 -0.009417256 0.033679295 -0.028967347
000360 63 78 ab 3c 3a 46 88 3c 3e 49 e0 3c 9f 2f b7 bc
       0.020931428 0.01663505 0.027378675 -0.022361575
000370 cb 68 5d 3c f7 80 81 bb c2 48 41 bd d5 2b 12 3d
       0.013513754 -0.0039521414 -0.047188528 0.035686333
000380 1e ee 42 bd 38 5a db 3c a8 4f 9c bc c2 24 19 bd
       -0.047590367 0.026776418 -0.019080952 -0.03738857
000390 18 aa dc 3b cd 0a 8e 3b 9f 1a 36 bd 49 b1 ea bb
       0.006734144 0.0043347836 -0.04445898 -0.0071622473
0003a0 c3 02 2e bc d6 ad 4b 3b 57 06 41 bd f3 eb 22 3c
       -0.010620776 0.0031078956 -0.047125187 0.00994395
0003b0 74 e5 47 bd 11 b6 88 3c ea 27 fd 3c dc 0f 95 bc
       -0.048802808 0.016688379 0.030902822 -0.018196039
0003c0 54 64 ec 39 0d 1e c4 bb 29 6e eb 3c e1 36 b4 bc
       0.00045088178 -0.0059850276 0.028739052 -0.021998825
0003d0 56 bf 0a 3d 70 4b 24 bc 1a 39 c9 3c c3 9b 39 3d
       0.03387388 -0.010027751 0.024563361 0.04531456
0003e0 cc 51 14 bd ec 88 18 3c c6 b4 c4 3c 18 70 87 bc
       -0.03621082 0.0093099885 0.02401198 -0.016532943
0003f0 5a d6 cc 3c 0c f3 f4 bc 85 b5 bb 3c 3f 63 7c 3c
       0.025004555 -0.02990105 0.022913704 0.0154045215

decoder.decoder.0.bias f4 [64]
000000 e8 e3 e4 ba b9 a9 61 3c 16 de 3b 3b 2c d1 4b 3d
       -0.0017462941 0.013773375 0.002866631 0.04976003
000010 e4 59 81 3d aa 82 fe bc 8c 0f c8 bb 43 e9 6f 3d
       0.063159734 -0.031068165 -0.006105369 0.058572065
000020 90 47 a7 3c 04 bd 81 3c 84 57 f8 3c 10 28 f0 bc
       0.020419866 0.0158372 0.030315168 -0.029315978
000030 de 30 46 3d 32 91 14 3d 8d 5f 49 3d 5a 75 a7 bc
       0.048386447 0.03627128 0.04916339 -0.0204417
000040 2d ad 18 3d 1a 60 0c bc ae e6 55 3c ce bc 01 ba
       0.03727453 -0.008567834 0.013055487 -0.00049490936
000050 20 db 4c bd f7 a6 2a 3d 3d 55 45 bc f8 03 21 3b
       -0.05001366 0.041663136 -0.012044248 0.0024569016
000060 e3 6b 90 3c 2d 0e 38 bd 4a e9 e0 3c c1 0f 20 bc
       0.01762957 -0.044935394 0.02745499 -0.009769381
000070 b6 d4 af 3c fc 3c 46 3d c6 07 2f 3d a2 80 c4 bc
       0.021463733 0.048398003 0.042732023 -0.023987118
000080 f4 e8 e2 3c 88 33 16 3d c6 75 d9 3c c3 c2 17 3d
       0.027698971 0.036670238 0.026545417 0.037050974
000090 f5 4c dd bb 14 78 61 3c 6b 91 57 bd 03 4a 91 bc
       -0.0067535588 0.013761539 -0.052628916 -0.017735487
0000a0 5d b4 6c 3d 9e b2 bc bc cc 7b 0e bd de 70 34 bd
       0.057789195 -0.02303439 -0.03478603 -0.04405295
0000b0 01 81 2e 3d 15 4a 9a 3c 3d ba 19 3d 3c ca 00 3d
       0.042603496 0.018834153 0.037531126 0.031442866
0000c0 de d4 45 bd 0f d6 8b ba 53 17 de 3c 89 ac 5e 3d
       -0.04829871 -0.0010668653 0.027110731 0.05436376
0000d0 70 d3 8c 3c 39 8f 39 bb e7 76 70 3d d5 ff 1a bd
       0.017190665 -0.0028314127 0.058707144 -0.037841637
0000e0 df 13 3a 3d d3 6a a0 3c a6 0d ce 3b e0 06 ec bb
       0.045429107 0.019582188 0.006288248 -0.007202968
0000f0 23 c0 31 3d 12 28 92 ba 25 41 d2 3c 47 76 76 3d
       0.043396126 -0.0011150858 0.025665829 0.06017139

decoder.decoder.2.weight f4 [64, 32, 3, 3]
000000 ce 83 32 bd 2f 6b 8f 3b 63 43 df 3c 7e ec 23 3d
       -0.04358273 0.004376791 0.027253812 0.04002046
000010 0d a9 ed bc 7a 22 e5 3c fe b0 84 bd 02 4d 81 3d
       -0.029011274 0.027970541 -0.06479071 0.06313516
000020 28 ed a0 39 53 e7 36 bc f3 b0 f5 3c 82 b5 77 3d
       0.00030694273 -0.01116355 0.029991603 0.060475834
000030 77 c1 15 3d 90 d3 ae 3c e4 3d 39 3d ca db 34 bd
       0.036561456 0.021341115 0.04522504 -0.04415492
000040 bc f9 1a 3d 64 32 15 bd 66 4e 9e bc 44 a6 fe bc
       0.03783582 -0.03642501 -0.019324493 -0.031085141
000050 f5 7f df bc 36 a6 11 bd bc 16 14 3d 4a c6 97 3c
       -0.027282694 -0.0355589 0.036154494 0.018527169
000060 54 50 47 3d d9 e0 06 3d 34 cf 2c 3d 9b 25 50 3d
       0.04866059 0.032929275 0.04218979 0.050817113
000070 b7 99 65 3d 9a 16 9f 3c 8c a0 35 bd 7a be 79 bc
       0.056054797 0.019419957 -0.044342563 -0.015243167
000080 b0 5d 88 bc fe d5 c2 bc b9 9a 83 3d 35 71 1e bd
       -0.016646236 -0.02378368 0.064259954 -0.03868218
000090 57 35 13 3d 04 4a 16 3d 0b d6 1c bc 50 c3 99 bc
       0.03593954 0.03669168 -0.009572516 -0.01876989
0000a0 f7 c5 ff 3c 67 1e 52 bc f9 87 64 bd 1a e5 42 3d
       0.031222327 -0.012824631 -0.055793736 0.04758177
0000b0 db aa 99 3c 86 9e 13 3c 76 41 25 3d 16 36 80 bb
       0.018758228 0.009009963 0.04034563 -0.0039126975
0000c0 d0 56 f5 bc de d9 e0 3c 72 35 2f bd 95 c1 7e bd
       -0.029948622 0.027447637 -0.04277558 -0.062196333
0000d0 2b 11 39 bd e6 f8 89 bd 2e 84 5d bd 9c 66 5c bc
       -0.04518239 -0.06736927 -0.054081134 -0.013452198
0000e0 7a 86 81 3b 28 1d 0c 3c e7 42 ad 3c c2 c7 6e 3d
       0.0039527984 0.008551873 0.021150066 0.058295973
0000f0 5e 81 63 bd f9 c4 82 bd 00 5d 27 bd 21 31 2a 3d
       -0.055543296 -0.06385226 -0.040860176 0.04155076
000100 6f ef 05 3d 77 d1 84 3c 0b b8 84 3c 81 73 f7 bc
       0.032699045 0.016213162 0.01620104 -0.030206444
000110 33 bb 97 3d ab e4 58 3d c8 28 a0 3d cf 08 42 bc
       0.07408752 0.05295245 0.078202784 -0.01184292
000120 e4 b9 37 3c ab e1 7d 3b 37 21 22 bd 7d 4c ab 3d
       0.011213753 0.0038739245 -0.039582457 0.08364198
000130 e3 62 38 3d d5 8b eb 3b 52 e2 d9 3c 1b b2 18 3d
       0.04501618 0.0071883 0.026597176 0.03727923
000140 cb 9f 6e bd 54 80 39 3d 17 c6 76 bc 85 41 84 bc
       -0.05825786 0.0452884 -0.015061877 -0.016144523
000150 20 49 51 3d 7f 3a 9c 3d 60 a3 15 3d 33 a2 71 ba
       0.051095128 0.07628345 0.03653276 -0.000921759
000160 e8 ea 81 bc 38 6d 9d 3d 99 87 5b bd 3d b5 26 bd
       -0.015859082 0.076868474 -0.053596113 -0.040700186
000170 7e 1e b7 bc 38 f3 41 3d 32 b2 70 bd ab 2d 6b bd
       -0.022353407 0.047351092 -0.05876369 -0.0574166
000180 1c 01 cd 3b 09 47 f4 3c 2b 49 c0 3d 77 07 f4 3d
       0.0062562358 0.029819028 0.09388956 0.11915486
000190 4b 6b 59 bd 88 8c e2 3d 2a 14 1b 3b 32 11 e3 bb
       -0.05308084 0.110619605 0.0023663142 -0.00692954
0001a0 b8 66 00 bd 7f 2c 95 3d d0 64 c5 bb 18 75 c2 bd
       -0.03134796 0.072838776 -0.0060239807 -0.0949499
0001b0 83 bd 8c bd 61 01 96 3d 5d 3b e0 3c 20 7e aa 3a
       -0.06872084 0.07324482 0.027372057 0.0013007559
0001c0 a1 05 4c 3d c2 50 d0 3c ab 0c 22 bd bb e1 f7 bc
       0.049810056 0.025429133 -0.039562862 -0.030259004
0001d0 ae 01 1b 3b e5 a0 a7 3c a1 c1 c1 3c 03 7e fb bb
       0.0023652124 0.020462463 0.0236519 -0.007674934
0001e0 56 94 92 3d a2 0e 94 3d a2 8b 36 bb 62 5e 16 bc
       0.07157199 0.072293535 -0.0027854224 -0.009177776
0001f0 7a 30 74 3d 22 c9 5e 3d c2 28 28 bd 48 a2 3b bc
       0.059616543 0.054391034 -0.041054495 -0.011452265
000200 30 59 0f bd 9a da 37 3c 84 ac 0a 3d 09 78 75 bd
       -0.034997165 0.011221552 0.03385593 -0.059928928
000210 74 71 91 bd 10 e0 36 bd 45 7d a4 3c 24 86 87 3b
       -0.071017176 -0.044647276 0.020079264 0.004135864
000220 2e dc 43 3d 6f eb 71 bd 53 93 5a bc 0e e6 45 bd
       0.0478174 -0.059062418 -0.013340789 -0.0483151
000230 66 4a 20 bd bd ea 96 3b 20 e4 3a 3d 46 09 45 3b
       -0.039133452 0.0046056197 0.045627713 0.0030065342
000240 0b d0 f1 3c 91 82 55 bd 56 40 35 bd ac ff 45 3d
       0.029518148 -0.05212647 -0.04425081 0.04833953
000250 7a 8d b5 3c b4 d8 00 bd d6 ca 4c bd ab d5 63 3c
       0.022162188 -0.031456664 -0.049998127 0.013905923
000260 7e 2e 02 3c 74 c4 01 3d 0e 2b 8f bd aa f7 8b 3b
       0.007945655 0.031681493 -0.06990634 0.004271467
000270 6d 97 6c 3d 30 d4 f4 bb b9 d3 c7 bd ae 34 00 3d
       0.0577616 -0.007471584 -0.0975718 0.03130024
000280 07 69 11 bd c0 02 30 bd 35 2d 2a bd a6 64 9f bb
       -0.035500553 -0.042971373 -0.04154702 -0.004864293
000290 f5 39 32 3d ea 1d 72 3d a3 0c 69 3d 1a ec 9e 3b
       0.043512303 0.05911056 0.056896817 0.004849923
0002a0 cd d8 cb bc dd 29 04 3d 1f 87 85 bd c4 6b 34 3c
       -0.024883652 0.032266486 -0.06519913 0.011012021
0002b0 5a fd 38 3d f7 07 28 bd 14 72 5d 3d 28 c2 92 3c
       0.04516349 -0.04102322 0.05406387 0.017914847
0002c0 11 66 20 3c f6 6d 88 3c 78 74 f4 bc a4 74 19 3c
       0.0097899595 0.016653996 -0.029840693 0.009366188
0002d0 8b ca 31 3d 4c 36 99 3c f8 c6 07 bc 60 da c2 b9
       0.04340605 0.018702649 -0.008287184 -0.00037165266
0002e0 6b c8 43 bd c6 16 94 bc 72 93 8c 3c a4 33 82 bd
       -0.047798555 -0.018077265 0.017160151 -0.06357506
0002f0 d2 ba 50 bd 10 86 b3 ba 12 4a 89 bc 2c 78 2e bd
       -0.050959416 -0.001369657 -0.016758952 -0.042595074
000300 de 73 cd 3c ce dd 5b 3b cd 49 84 bd 5b 4d f8 bc
       0.025079664 0.0033548954 -0.06459389 -0.030310323
000310 3f 0f 12 bd 4d c4 77 bc ef 54 1e 3d 45 01 07 3d
       -0.03565907 -0.015122485 0.038655218 0.032960195
000320 3f b0 41 3c 46 96 43 3c 89 2c 4f 3d 05 0b 8f 3b
       0.0118218055 0.011937683 0.05057958 0.0043653273
000330 dd 7d 16 3d dc b5 d8 bc 61 77 0c bd 97 dc 0e bc
       0.036741126 -0.026453905 -0.034293536 -0.008719585
000340 cb 63 d4 3b 82 cf 48 bd 2d 8b ab bc 83 dc a0 3d
       0.006481623 -0.04902602 -0.020940388 0.07854559
000350 d3 08 22 bd 81 59 05 bc 64 53 aa 3b 66 f0 53 3d
       -0.039559197 -0.008139015 0.005197929 0.051742934
000360 bd 1f ff 3c f7 e5 21 3d cf 14 d4 bc f1 37 69 3d
       0.031143064 0.039525952 -0.025888829 0.056938116
000370 60 f1 bf 3c 41 ff f8 3c 3b e8 94 bc 52 0a 36 3c
       0.023430526 0.030395152 -0.018177142 0.011110859
000380 62 81 87 bd 0c ac d2 3c f8 6e 25 bd f1 c3 8c bd
       -0.06616475 0.025716804 -0.04038903 -0.0687331
000390 c3 c8 de bc a8 48 eb bc 43 35 38 39 b6 ed c3 3c
       -0.02719534 -0.028721169 0.00017567449 0.02391706
0003a0 ab 63 45 3d bb ac 72 bd 39 e6 3d bd 62 d9 6a bd
       0.048190754 -0.05924676 -0.046362136 -0.05733622
0003b0 42 dc 32 bd b3 1e 37 bc 2a 15 44 bd 22 d9 d1 3c
       -0.043667085 -0.011176753 -0.047871746 0.025616232
0003c0 2c 63 d6 bc d6 11 59 37 b8 b7 6f bb 90 c2 92 bb
       -0.026170336 1.2938361e-05 -0.003657801 -0.00447876
0003d0 eb f3 2a bc 0f 51 7e 3d 39 2e 0f 3d 9b 23 c7 bc
       -0.010434131 0.062089022 0.03495619 -0.02430897
0003e0 59 86 3e 3c 81 b5 f3 3c 7e f1 aa 3c bd 43 60 bd
       0.011628711 0.029749634 0.020867106 -0.0547521
0003f0 a7 14 d2 bb ec ce 2b 3c bd f0 45 bd a1 e6 4c 3c
       -0.0064111534 0.010486346 -0.04832529 0.012506158

decoder.decoder.2.bias f4 [32]
000000 97 75 ef 3c bb 26 6d 3d 54 64 24 3d 4b 94 c6 bb
       0.029230876 0.057898264 0.040134743 -0.0060601584
000010 86 a3 cd 3c 87 40 1e bb a1 4c 36 bd bc 59 79 3d
       0.025102388 -0.0024147348 -0.044506673 0.060876593
000020 58 7c 31 bd 68 6e 1b 3d bb 45 ce 3b 83 e6 16 3c
       -0.043331474 0.03794709 0.0062949336 0.009210232
000030 20 82 00 bc 26 f0 32 3d 93 9b 6e bd 01 c8 db 3c
       -0.007843524 0.043686055 -0.058253836 0.026828768
000040 8d a3 8d bd 2d ad 06 bd 8f 9d 31 bd ea c7 89 3d
       -0.069159605 -0.032879997 -0.04336315 0.06727584
000050 4a f5 85 bd 4b 35 aa bd 18 b6 08 3d 77 92 33 3d
       -0.06540926 -0.08310946 0.033376783 0.04384085
000060 7a 09 e4 3c 20 67 87 bd b3 51 14 3d 12 84 4b 3c
       0.02783655 -0.066114664 0.036210727 0.012421625
000070 73 93 9d 3d fe c8 8e 3d d3 a7 14 bc 7e 11 ef 3c
       0.07694139 0.0697193 -0.009073216 0.029183146
