500_ML/models/weights_5699_10-04_04:16.pt (torch_old, 39980 bytes, 7 tensors)

encoder.encoder.0.weight f4 [16, 1, 3, 3]
000000 06 01 c9 bd 91 8a 9f 3d e4 f6 31 be b6 4c b0 3e
       -0.09814648 0.07790101 -0.17379338 0.34433526
000010 f9 81 a2 3e e7 99 c5 3e 04 4b cd 3e 69 57 fa 3d
       0.31739786 0.3859398 0.40096295 0.122237034
000020 f4 f3 b1 3e ac 02 49 3e 08 c9 9b bd 8d 4a 2b be
       0.34756434 0.19629925 -0.07606703 -0.16727658
000030 2b 0b e3 3e df 2e ea 3e 37 60 14 bd dd e0 6a 3e
       0.44344458 0.45738885 -0.03622457 0.22937341
000040 45 62 99 3e c7 ce 6f 3d 85 f7 2c 3e 6c 3c 33 3e
       0.29957786 0.058546808 0.16891296 0.17503518
000050 7e 7c df bc 95 82 d0 3e ff 9e 3a 3e cf 0d 9a 3e
       -0.027281042 0.40724626 0.18224715 0.3008866
000060 40 75 80 3e 35 12 b0 3d 6b 68 91 3e 5a 81 8a be
       0.25089455 0.08597223 0.28399977 -0.27051812
000070 a9 9f 85 3e 5e 69 43 be e0 a8 70 bc 50 c5 8a bc
       0.26098374 -0.19083163 -0.0146887 -0.016939789
000080 70 2b 84 be b2 92 5a 3e 38 39 04 be 2b e5 5c be
       -0.2581439 0.21345022 -0.12912452 -0.21571796
000090 0c a6 70 3e 91 34 81 bd db 0c d4 bc a0 0c 9d 3e
       0.23500842 -0.06308854 -0.025885036 0.30673695
0000a0 b6 22 b4 bc b0 4e 9f 3c 80 b3 f8 3d 3f 31 7a bd
       -0.021989208 0.0194467 0.12143612 -0.06108212
0000b0 ab fa ad bd 7f 43 5b be 7c b0 87 3d 98 de 6c 3e
       -0.08495077 -0.21412466 0.066254586 0.23131788
0000c0 3c 9d c1 bd 68 7a d7 3e 30 03 bd 3e ce de 83 3e
       -0.09453818 0.42085576 0.36916494 0.25755924
0000d0 13 c9 aa 3e 6a 88 b1 3e 6e e6 f3 3d 6b 79 af bd
       0.33356532 0.34674388 0.11909185 -0.085680805
0000e0 90 ee 8e 3e 5d 14 7b bd e2 8d c4 bc ef 92 7a be
       0.27916384 -0.061298717 -0.023993436 -0.24470113
0000f0 a2 cd 9e 3e c3 fd 09 be 5a 34 4c be 70 54 b1 bd
       0.3101626 -0.13475709 -0.19941846 -0.08658683
000100 00 59 81 bb ba 46 33 3e 8c a6 86 bd 3e 34 47 be
       -0.003947377 0.17507449 -0.06574735 -0.19453523
000110 90 3b 1c be 08 1e 5c bd 7e 53 a6 be 32 64 68 3e
       -0.15257096 -0.053739578 -0.32485574 0.22694471
000120 ff 96 62 be f1 96 25 be e9 02 21 3e 0a 4b d1 3c
       -0.22127913 -0.16170861 0.15723766 0.025548477
000130 3b d2 fe b9 51 0d a6 3d d9 86 40 3e 42 08 6e 3e
       -0.0004860329 0.08108009 0.1880144 0.23245338
000140 07 e4 5d 3e 0c 18 df 3d a2 82 8f be 80 39 1c bc
       0.21669017 0.108932585 -0.28029352 -0.009535193
000150 e3 f5 2f be 80 b1 7c 3d 8c 0a c2 bd d6 8c d9 bd
       -0.17183642 0.061692715 -0.09474668 -0.106225654
000160 cc 6d 9f be 91 e9 9d 3e f2 13 bc 3e 10 7f 3e 3e
       -0.31138456 0.3084226 0.36733967 0.18603158
000170 14 4e 3f be e6 14 e4 ba 46 96 97 3e 7e e2 3f bc
       -0.18682128 -0.0017401248 0.29606837 -0.011711715
000180 23 da ba bd 3b 7c 8e 3e 02 58 60 be 82 5e 76 3c
       -0.091236375 0.27829155 -0.21908572 0.015037181
000190 14 f0 03 be 03 26 96 3e a5 ac 4e be ce 12 30 bc
       -0.12884551 0.29325876 -0.20183046 -0.010746671
0001a0 b9 8e 34 bc 9f 61 83 3d 91 f9 8f 3e 70 98 6e 3d
       -0.011020356 0.06415104 0.28120092 0.058250844
0001b0 8e cc 52 be 1c 13 02 be f8 f3 3e 3e 02 a4 5a be
       -0.20585844 -0.12702602 0.18647754 -0.21351627
0001c0 4d e8 50 3c ac 1e b6 3e fa e7 bc 3e 4a 1b 41 3e
       0.012750697 0.35570276 0.36895734 0.18858066
0001d0 84 4b 96 3e c0 71 32 3d 10 99 92 3d 58 2e 8a be
       0.2935449 0.04356551 0.071581006 -0.26988482
0001e0 f8 9d 22 bd 20 c4 d5 3d 6c fe 86 be ea d0 28 3e
       -0.039701432 0.104377985 -0.26365983 0.16485944
0001f0 88 b7 2e 3d d0 bd 23 be 10 96 c2 bd f4 ae a0 bd
       0.042655498 -0.15990376 -0.095012784 -0.0784587
000200 36 a9 45 3e fb f1 81 be 74 cb bb 3d 58 4d 6b be
       0.1930283 -0.2537993 0.09169665 -0.22978723
000210 70 43 e2 3d 88 48 1b 3d 0f a1 91 be 65 83 99 3e
       0.11048019 0.037910968 -0.2844319 0.2998306
000220 d2 59 a3 3e e2 4f 67 3c 3c 06 23 be e9 de 99 3e
       0.31904465 0.014118167 -0.15920347 0.3005288
000230 2c 29 a4 bc 10 55 49 3e d2 8d ad bb a1 ad 7f 3e
       -0.020039164 0.19661355 -0.0052964473 0.24968578

encoder.encoder.0.bias f4 [16]
000000 90 e2 ad 3e 30 ea d8 bb 25 f9 3d bc ca 5e 82 be
       0.33961916 -0.006619714 -0.011595045 -0.25462943
000010 11 ad 77 3e a2 66 9c bc 6c aa 3d be 8e 02 7f be
       0.24187113 -0.019091908 -0.18522042 -0.24903318
000020 9e 01 71 3e 6b a1 3c be 09 89 eb 3d d5 7e 34 3e
       0.23535773 -0.18420951 0.11500747 0.17626508
000030 19 26 4b 3e 5b da 42 be 70 98 7b be 77 c5 c9 bd
       0.19838752 -0.19028609 -0.24569869 -0.098521166

encoder.encoder.2.weight f4 [32, 16, 3, 3]
000000 9b d5 0f 3e 26 6a 1d 3e e6 d6 13 3e 2f 9e 6c 3d
       0.14046328 0.15372524 0.14437446 0.057768043
000010 5e 0c 19 3d 78 e3 13 3e 9e 17 bc 3d 95 7f 37 3d
       0.03736531 0.14442241 0.09184192 0.044799406
000020 fc 62 20 3e 31 62 a5 bd 7e e9 55 bd 60 9a c0 bd
       0.1566276 -0.08075369 -0.05222463 -0.09404445
000030 5e 84 5f bd 3f b6 d3 bd 5c 7a 0c be 6c 4a 27 bd
       -0.054569595 -0.10337495 -0.13718551 -0.04084246
000040 fe 4c b7 bd 12 90 26 be 18 33 9e bb dd 7c f9 bc
       -0.08950232 -0.16265896 -0.004827868 -0.030455047
000050 a1 95 e9 bd e2 91 af bb 3f fe 1a bc dc bf 07 bd
       -0.114054926 -0.0053579668 -0.009460031 -0.033141956
000060 b4 6b a0 bd 05 fd 50 bd f9 61 13 be fc 90 e3 bc
       -0.07833043 -0.05102255 -0.14392842 -0.027779095
000070 10 55 be 3c 8c a3 b7 bc 0a 26 a9 bd 7c 5c 94 3c
       0.02323392 -0.022416852 -0.082592085 0.018110506
000080 99 15 94 3d 50 0f ba bc 00 6d 02 3d 13 13 74 bd
       0.07230682 -0.02271238 0.03184223 -0.059588503
000090 da c5 d5 3d 1f 30 dd 3d 66 5e 35 3d 62 b7 7c 3d
       0.10438128 0.10800194 0.04427948 0.061698325
0000a0 a6 bf 88 3d ca 8e 0d 3e 8e b8 c5 3d fa 5f 71 3d
       0.06677179 0.13824001 0.09654342 0.05892942
0000b0 12 c7 8b 3d 09 8c de bd bd 13 1c bd 79 b9 6a bc
       0.06825079 -0.10866553 -0.03810476 -0.014326447
0000c0 27 cb d2 3b cd 34 29 bd 05 0a f2 bd 37 c8 14 bd
       0.006432909 -0.04131012 -0.11818317 -0.036323752
0000d0 e8 31 17 be a5 a6 22 be 05 ed b5 bd c9 0f 9c bd
       -0.14765131 -0.15883882 -0.088830985 -0.07620198
0000e0 e6 9c a3 bd 19 8a 88 3d 81 90 c5 bc f5 c2 8d bc
       -0.079889104 0.06666965 -0.024116756 -0.017304877
0000f0 c0 70 9a 3b 5d 21 e6 bc fb 7a 0a bc bc 11 f5 3c
       0.004713148 -0.02809208 -0.008452172 0.029915683
000100 64 6a bd 3c a4 12 8e bd 90 48 b3 3b 48 00 1c 3d
       0.02312202 -0.06937149 0.0054712966 0.038086206
000110 aa e2 56 3d 56 95 85 bd 8b 5b 99 bd 00 f3 ad bc
       0.052462257 -0.06522624 -0.074881636 -0.021234035
000120 6e 4e 06 3e 3d c2 e0 3d 8b 17 d0 3d f6 5c d1 3d
       0.13115856 0.10974548 0.101607405 0.10222809
000130 dc 73 2f 3e e6 b3 9d 3d 90 5b 9a 3c 35 ed 83 3c
       0.1713404 0.077003285 0.018842489 0.01610432
000140 f2 30 d1 3d 7b 1f 0c bd b6 01 12 3d 9f ed 99 bd
       0.10214414 -0.03420971 0.035646163 -0.07516026
000150 e6 ec f9 bc 2b 9d 56 bd 3a 27 80 bd 46 df 30 bd
       -0.03050847 -0.05239598 -0.06257482 -0.04318168
000160 e0 8a f0 3c 80 0b c1 3b 92 e9 39 3e b0 17 6f 3d
       0.029363096 0.0058912635 0.18155506 0.0583722
000170 fd c4 04 3e 71 72 60 3d af 84 db 3d 68 3c e2 3d
       0.1296577 0.05479664 0.10718667 0.11046678
000180 6a 98 f6 3d ff f2 2a 3e 64 d1 b4 3d 6b cc f4 3c
       0.120407894 0.16694258 0.088290006 0.02988263
000190 6d b1 1a 3e 7c 6a 58 3d 23 87 9c 3c da 07 1f 3d
       0.15106745 0.052835926 0.019107407 0.038825847
0001a0 47 9f 2c 3e db b2 75 3d 88 b9 00 3d ab a7 84 3c
       0.16857634 0.059985023 0.031426936 0.016193232
0001b0 71 4f 05 3e eb c0 23 3e 97 1f 13 3e e9 87 15 3e
       0.13018586 0.15991561 0.1436752 0.14602627
0001c0 42 51 97 3d 74 82 2a 3e c2 1b 0b 3e d2 1e 8b 3d
       0.073885456 0.16651326 0.13584808 0.06792988
0001d0 1a 86 9d 3d 24 c6 93 3c 68 60 0b bd e2 30 28 3d
       0.076915935 0.018038817 -0.034027487 0.041062243
0001e0 ac e5 95 bc b0 46 26 3d 00 18 1f 3b a4 db e8 3c
       -0.018297993 0.040594757 0.002427578 0.028425045
0001f0 00 6f de b9 40 1b 85 ba 53 16 8a 3d 03 b4 a9 bd
       -0.0004242584 -0.0010155216 0.06742539 -0.08286288
000200 44 d8 e4 3c 78 07 57 bd 36 97 80 bd d8 eb 4c 3c
       0.027935155 -0.052497357 -0.06278841 0.012507401
000210 8e 52 35 3d 00 60 12 bc 41 55 a1 3d 68 e4 46 bd
       0.044268183 -0.008934021 0.07877589 -0.04855767
000220 a9 f3 78 bd fb 87 1d be a4 6f 4b 3c 5c 94 11 be
       -0.060779247 -0.15383904 0.012416754 -0.14216751
000230 e7 c6 1b bd 00 61 d0 bd a8 91 87 bd ac d7 0c be
       -0.038031485 -0.10174751 -0.066195786 -0.13754147
000240 7b 71 12 bc ad 62 ec 39 01 ac ea 3d 98 b6 3d bc
       -0.008938189 0.00045086947 0.114585884 -0.011579178
000250 1f 18 c5 bc 11 28 36 bc 1d eb 76 3d ef 53 67 3d
       -0.024059353 -0.011117951 0.060282815 0.05647653
000260 35 b4 ca 3d c6 f7 14 bb d9 9a 8d 3d 81 ce 65 bc
       0.09897653 -0.0022730692 0.069143005 -0.014026285
000270 e9 3e 38 3d 6f 49 ae 3d 8d 50 86 3d cb 19 fa 3d
       0.04498187 0.085101 0.065583326 0.12211951
000280 7d 94 ed 3d 1c a9 1f 3e 52 e1 2b bc 7b ac f7 3d
       0.116005875 0.15591854 -0.010490732 0.12093445
000290 f3 69 d3 3d 36 9f 36 3d b2 cb 34 3d 88 3f 26 3e
       0.103229426 0.04458543 0.04413957 0.16235173
0002a0 bb 8a 79 bc 3a 0d c0 3c 0a 8d 75 3d 94 38 85 3c
       -0.01523083 0.023443807 0.05994896 0.01626233
0002b0 0e 60 1b 3d 10 e5 d4 3b da 74 a5 bd 1c 23 9b bd
       0.0379334 0.006497033 -0.08078928 -0.07575056
0002c0 7a 76 7e 3d ca 6b 5c 3d 36 22 3b 3d d8 34 05 3d
       0.062124707 0.053813733 0.045686923 0.0325211
0002d0 59 56 87 bc 19 4a 94 bd 4d 86 cc 3c ae 26 55 3d
       -0.016520666 -0.072406955 0.024966383 0.05203884
0002e0 ee 95 6b 3d df a4 6a bd 9d 74 bc 3c 63 42 07 bd
       0.05751603 -0.05728614 0.023004824 -0.033022296
0002f0 48 97 d6 bc ae 30 b3 3c 01 42 01 3e 31 a5 e4 3d
       -0.026195183 0.021873798 0.12622835 0.1116432
000300 75 10 a6 3d 4a 26 23 3e 04 d1 6d 3d 29 3e ab 3b
       0.08108608 0.15932575 0.05806066 0.005225916
000310 63 78 9e 3d 41 82 d4 3d f3 ad 5e bd 60 0d 5d 3c
       0.07737806 0.103764065 -0.05436511 0.013491958
000320 50 ca 0f bd 20 27 0d 3c 70 d1 94 bc 98 c4 4b bb
       -0.03510505 0.008615285 -0.018166274 -0.003109252
000330 1f d6 a1 bd 82 de 88 bd 49 ea 17 3d c8 de 11 3d
       -0.079021685 -0.06683065 0.037088666 0.03561285
000340 80 57 7f 3c c7 74 9f bd 16 57 04 bd 20 c3 f6 3c
       0.0155848265 -0.077859454 -0.032309614 0.03012234
000350 c0 e7 a0 3b cc 4a f9 3c f2 d4 50 3d 7c 12 85 bc
       0.0049104393 0.030431174 0.05098433 -0.016244166
000360 5f ca e5 ba 80 93 84 3d d5 cf 43 3d 99 0f 96 bd
       -0.0017531625 0.06473446 0.047805626 -0.07327194
000370 b2 5c ee 3c 0e 43 bd bc 37 60 60 3c e1 5c b6 bc
       0.029096935 -0.023103263 0.013694814 -0.022261085
000380 2d 34 b5 3c 68 c9 0e bd 3a 25 2b 3d 03 f4 2e bd
       0.022119606 -0.034860045 0.04178355 -0.042713176
000390 00 fd f7 ba 20 e7 2c bd a0 3c 66 3b 80 e1 34 ba
       -0.0018920004 -0.042212605 0.003513135 -0.0006900057
0003a0 53 8c 2a bd e4 f6 8f bd 7d 80 3f bd a9 2a a4 3c
       -0.04163773 -0.070295125 -0.046753395 0.020039873
0003b0 ec 12 66 3d dd 35 86 bc 54 c9 4d 3d d4 16 99 bc
       0.05617039 -0.016383106 0.05024083 -0.018687643
0003c0 1e 00 a2 3d 03 35 2f bd 72 5d 1a bc 56 0b 29 3d
       0.079101786 -0.042775165 -0.009421693 0.041270576
0003d0 d2 c8 b0 3d cb 19 9a bc 97 86 23 bd 3c 95 23 bd
       0.086320534 -0.018811127 -0.039923277 -0.039937243
0003e0 16 b9 3c bd 05 08 6a 3d 23 4c 04 bd 58 71 0e 3d
       -0.04607495 0.057136554 -0.032299172 0.03477606
0003f0 7a 55 d1 bb 91 1b 32 3d 1a 5f 4d 3d c9 92 f5 3a
       -0.0063883634 0.04348332 0.050139524 0.0018735762

encoder.encoder.2.bias f4 [32]
000000 9a f5 11 3d f6 41 f1 bc 98 7a 0d 3e 9f cb f8 3d
       0.035634615 -0.029450398 0.13816297 0.12148213
000010 50 b3 0c 3e cd 8b 4c bd 6e e9 0c 3e 90 e6 1d 3e
       0.13740277 -0.049938012 0.13760921 0.15419984
000020 a0 ad 16 bc 71 98 b1 3d 20 2b f5 bc c6 0f 23 3e
       -0.009196669 0.08671654 -0.02992779 0.15923986
000030 8e fe 2d 3e 40 aa f9 be e0 0b b4 3d 63 7d bf bd
       0.16991636 -0.48762703 0.087913275 -0.093500875
000040 e0 22 87 bd 91 3c ce 3c 31 91 b5 bd 3b 55 db 3d
       -0.06598449 0.025175365 -0.08865584 0.10709616
000050 18 19 32 3c 6d 50 76 bd 37 ce 39 bd ea 0a 22 bd
       0.010870241 -0.060135294 -0.045362677 -0.03956119
000060 04 8e a0 3d 3a 8d a5 3d 80 86 02 bd ff 84 0a 3f
       0.07839587 0.080835775 -0.03186655 0.54109186
000070 b7 97 c7 3d a9 d1 dd 3c 6a 38 0b 3e 32 65 1d 3e
       0.09745734 0.027077513 0.13595739 0.15370634

decoder.decoder.0.weight f4 [32, 16, 3, 3]
000000 55 b8 a5 3d db cc bb 3c 17 82 f3 ba 4d a3 17 3c
       0.08091799 0.022924831 -0.0018578199 0.0092552425
000010 14 d3 21 3d 9b f5 94 3d e2 8a 1e bc c8 7b d3 3c
       0.03950794 0.07273408 -0.009676667 0.02581586
000020 c8 02 e7 3c 9f e0 9e 3d b5 a1 69 3d 46 51 08 3e
       0.028199568 0.07757687 0.05703898 0.13312253
000030 91 cc 07 3d 05 d4 29 3e f3 6f 23 3e f0 7f 74 3d
       0.033154074 0.16584785 0.15960674 0.059692323
000040 63 ab 37 3e e7 43 0d 3e ff cc 00 3e d5 6d 12 3e
       0.17936473 0.13795434 0.125782 0.1429971
000050 13 66 11 3e 2b 1f f5 3d a6 6f 8f 3d 5b 4f 28 3e
       0.14199094 0.119688354 0.07003717 0.16436522
000060 d9 5b a4 3d 1f f1 6e 3d bb 80 b4 3d 2d 58 60 3c
       0.08025331 0.05833542 0.08813616 0.013692898
000070 bc 50 87 bd a8 bc b8 3c 3d 52 a0 bd 1e e2 79 bd
       -0.06607196 0.022550896 -0.07828186 -0.061006658
000080 e5 58 c4 bc 2a 98 ae bd a8 7b 8e bd 1c 04 d6 bd
       -0.02396817 -0.08525117 -0.06957179 -0.104500026
000090 29 81 06 3e 03 90 51 3d bf 80 09 3e 8d 52 1d 3e
       0.13135208 0.05116273 0.13428019 0.15363522
0000a0 12 d1 42 3e 81 8c e0 3c c4 cc 7a 3d 03 30 93 3d
       0.19025066 0.027410747 0.061230436 0.07186892
0000b0 8c 09 8d 3d 4c dc b4 3c b4 76 2e 3c 3a 0e 86 3c
       0.068865865 0.022077702 0.010648418 0.016364206
0000c0 f0 74 cf 3d 22 9f fb 3d 43 07 17 3e a1 48 83 3d
       0.10129726 0.122862116 0.14748864 0.06410337
0000d0 6f ac 01 3e 55 8d 00 3d c5 92 93 3d 2a 83 d6 3c
       0.12663434 0.031384785 0.072057284 0.02618559
0000e0 ae 81 a6 bd e3 ee d2 bc 4c c6 b0 3a 6f fb 2d bd
       -0.08130203 -0.025748676 0.0013486831 -0.042476114
0000f0 b8 25 9f bc 94 2d 87 bd 91 e1 66 3b a8 de 81 3d
       -0.019427165 -0.0660049 0.0035229663 0.063412964
000100 b7 92 e7 3c 51 21 ab 3d fb cb 88 3c a9 22 62 3d
       0.028268201 0.08355964 0.016698828 0.055208836
000110 ef 0a c2 3c 02 9b 5f 3c c5 44 e6 bb 08 58 ce 3c
       0.023686854 0.013647797 -0.007027241 0.025188461
000120 f8 5a 0f bd 8c 4f 10 3c b4 63 0c 3d 7d 07 e1 3c
       -0.034998864 0.008808028 0.03427477 0.027469391
000130 f5 d1 11 3d 31 d9 ea 3c eb 73 59 bd d8 3b 81 3d
       0.03560062 0.028668018 -0.053089064 0.063102424
000140 d0 7e b1 bd f1 62 06 3e e6 23 94 bb e2 ea 95 bc
       -0.08666766 0.1312368 -0.004520881 -0.018300477
000150 8a 52 c7 bb 58 e8 98 3c 07 e0 2e 3d 79 0c 0f 3e
       -0.0060828375 0.018665478 0.042694118 0.13969602
000160 b4 f0 d5 3d f6 6e ca 3d 8f eb 91 3d 8f 9d 5e 3d
       0.10446301 0.09884445 0.07125007 0.05434948
000170 02 24 03 3e ae 9e 76 bd 24 3c 28 3d 7b c3 83 3d
       0.12806705 -0.060209922 0.04107298 0.06433769
000180 8d a9 a2 3d 3b b9 90 bd d0 a2 cf 3d 01 2b 95 3c
       0.079424955 -0.0706658 0.10138476 0.018208982
000190 80 01 ff bb a9 08 38 3d 0b a0 4e bd 39 d3 3a bd
       -0.0077821612 0.044930134 -0.050445598 -0.045611594
0001a0 19 10 83 3d 78 ff 26 3d f0 69 81 3c b2 5b e2 bc
       0.06399555 0.040770978 0.015797585 -0.027631614
0001b0 96 b2 a5 bd 43 ae 17 3c c5 a6 5d bd 87 23 55 3d
       -0.08090703 0.009257856 -0.054114122 0.052035835
0001c0 28 b6 95 bd 5c 85 79 bb 17 5f 69 bb d3 8d de bc
       -0.07310134 -0.0038073873 -0.0035609656 -0.027167236
0001d0 30 31 65 bd 38 4e d9 3d c6 a3 e0 3d 45 78 19 bd
       -0.055955112 0.10610622 0.10968737 -0.037468214
0001e0 33 d3 f1 3c 5d 07 2c 3d 7c 44 6e bd 9a e7 8e 3d
       0.029519653 0.04199921 -0.05817078 0.06977768
0001f0 91 f6 ec 3d 98 e1 6a 3c 61 63 69 3d f1 f5 41 bd
       0.11570466 0.014336012 0.05697954 -0.04735369
000200 4a 29 26 3d cc 7d fb 3c b2 fa 83 bd de de 36 3c
       0.04056672 0.030699633 -0.06444301 0.011161534
000210 cb da 64 bc f0 a7 41 3d 3b 22 97 bd 74 72 00 3d
       -0.01396818 0.0472793 -0.07379576 0.03135915
000220 bb 63 f0 bc fb 19 08 bb 07 5c 21 3e 23 92 5d 3d
       -0.02934443 -0.0020767439 0.15757762 0.054094445
000230 89 e5 85 3c c2 fa 0a 3e bb 3a b5 3d c6 47 05 3c
       0.016344802 0.13572219 0.088490926 0.008134788
000240 c3 b1 a8 3d 90 da 9c 3d 14 fa f0 3b ef 0c e3 3d
       0.0823703 0.07658875 0.0073540304 0.11086451
000250 91 de f0 bc fe 43 69 3d 05 d6 83 3d 4f 3f 70 3c
       -0.029403003 0.056949608 0.06437305 0.014663531
000260 d6 77 b3 bc 42 75 0b be 3f 27 4b bc e1 ee 16 be
       -0.021907728 -0.13618949 -0.012399494 -0.14739563
000270 50 a1 87 bd 79 52 f0 bd 99 32 08 be 75 0b e8 bd
       -0.06622565 -0.117344804 -0.13300551 -0.1133031
000280 b1 e4 58 bd 77 c4 4f bd 7f 15 a6 3b 51 0d d8 bd
       -0.052952472 -0.050724473 0.0050684805 -0.10549415
000290 a0 e6 b2 bd 84 8a b9 bd f4 75 06 bd f7 22 2b bd
       -0.087353945 -0.09059623 -0.032827333 -0.041781392
0002a0 ca a1 a4 bd 25 33 90 bc ac 0d 02 be b8 4d 07 3d
       -0.08038671 -0.017602513 -0.12700528 0.033033103
0002b0 62 be a0 3c 37 a7 80 bd 58 81 46 3d e0 8a 1d bc
       0.019622032 -0.06281894 0.048463196 -0.00961563
0002c0 98 eb 4b bd 10 16 2a bd 9a 80 3f bd e8 72 75 bd
       -0.049785227 -0.041524947 -0.046753503 -0.059924036
0002d0 05 1a 52 be fd ce ec bd 91 9d ef bc e3 c9 a0 bd
       -0.20517738 -0.115629174 -0.029249938 -0.07851007
0002e0 45 8b 92 be 87 81 0f be 19 97 66 be 03 1f 95 bc
       -0.2862188 -0.14014255 -0.22518577 -0.018203264
0002f0 dd f7 2f be f6 fb e5 bc e2 1c 2c bd bf 8d 3e bd
       -0.17184396 -0.028074246 -0.042019732 -0.0465219
000300 fc 56 18 be 5d 9f 81 bd cc 35 49 be 47 c2 96 bd
       -0.14876932 -0.06329224 -0.19649428 -0.07361274
000310 5b 21 1c bc d0 62 7d bd 71 a0 8b bd 5c 2b ac 3d
       -0.009529437 -0.061861813 -0.06817711 0.08406708
000320 0f fb 05 3d 44 69 89 3d 6c 59 b1 3b 13 c1 20 3e
       0.03271013 0.06709531 0.0054122712 0.15698652
000330 2d ae 0a bd 85 f2 e5 3d a3 8a 95 3d 59 8a 6e 3d
       -0.033857513 0.112278976 0.073018335 0.058237407
000340 b5 70 fd 3c 25 2c 00 bc c0 30 08 3e d7 be ea 3d
       0.030937532 -0.007823025 0.13299847 0.11462181
000350 27 e8 f5 3d 2e 44 d4 3c cd e3 05 3e 14 8a 33 3e
       0.1200717 0.025911417 0.1307518 0.17533141
000360 66 73 55 3d b7 49 69 bc 03 da ba 3d e0 cb 7f 3d
       0.052112006 -0.014238766 0.09123614 0.06245029
000370 92 2d f2 3d 25 20 71 bb 3e 87 c6 bc 2b 87 8d bd
       0.11825098 -0.0036792841 -0.02423441 -0.06910547
000380 1f 1c 1b 3e 8f 0a 59 bd 46 2e 45 be 4e a9 3b 3c
       0.15147446 -0.052988585 -0.19255933 0.01145394
000390 2b 35 88 bd c1 dd d2 bd 30 03 0f be 58 05 18 bd
       -0.06650766 -0.102962025 -0.1396606 -0.03711447
0003a0 9d 4d 0c be c0 a6 c1 bd 34 21 ee bd a0 a8 5e 3d
       -0.13701482 -0.09455633 -0.11627427 0.054360032
0003b0 46 18 21 3e 91 b2 6c 3d f2 4b b5 3d 8d 61 e0 3d
       0.15731916 0.05778748 0.08852376 0.10956106
0003c0 1a 38 a0 be b9 cf 78 3d f4 a3 a6 bd ce 54 5e 3d
       -0.31292802 0.060744975 -0.0813674 0.054280095
0003d0 43 ed a5 3d 0c 9d d5 bc d4 dc bb 3c e6 60 85 3d
       0.08101895 -0.026075862 0.022932447 0.065126225
0003e0 b0 71 7e bd 6e eb 4f bd a5 a0 84 bd a8 ef 7b bd
       -0.06212014 -0.050761633 -0.06475953 -0.06150785
0003f0 06 5d b7 3d 63 5c 78 bd ab cf a7 3d 65 dd 8f 3d
       0.0895329 -0.06063498 0.081939064 0.070246495

decoder.decoder.0.bias f4 [16]
000000 69 23 97 bd cc e7 b2 3d 06 e9 d7 3d e6 40 23 3d
       -0.07379801 0.08735618 0.105424926 0.039856814
000010 ff 17 86 3d 97 9e c1 3d 1d 53 43 bd 71 aa a1 bc
       0.06547546 0.09454077 -0.047686685 -0.019734593
000020 26 ce b6 bc b1 86 ca 3d c0 3f 97 bd eb 9c a0 bd
       -0.022315096 0.098889716 -0.07385206 -0.0784243
000030 8c 8e 4f 3d de 3e 8a 3d e5 ce 16 3d e9 49 ea 3d
       0.050673053 0.06750272 0.036818404 0.114398785

decoder.decoder.2.weight f4 [16, 1, 3, 3]
000000 f1 2c b1 3e 7c 3a 3f be 0b 27 9a 3e 3a d7 35 3e
       0.346046 -0.18674654 0.30107912 0.17757884
000010 89 1e 56 be 16 64 f0 bc bc 18 fc bc b4 b5 79 3e
       -0.20910086 -0.0293446 -0.030773513 0.2438572
000020 df 5a 59 3e f4 c4 46 bd d6 05 79 3d 19 64 50 3e
       0.21226071 -0.048527673 0.06079658 0.20350684
000030 58 f9 e9 3d 8f 41 be be 69 27 ca be 9c 29 45 3d
       0.11424512 -0.37159392 -0.39483193 0.048135385
000040 71 61 70 be 4c 8d 44 be 96 c8 8e be f9 96 da bb
       -0.23474671 -0.19194525 -0.2788741 -0.0066708294
000050 a7 2a 3f be 4a 2b 9c be e4 e3 c0 be ac 66 0e be
       -0.18668614 -0.30501777 -0.37673867 -0.13906354
000060 5b 2b 17 3d 8d e7 b3 3d e4 3c ba be 56 2a da bc
       0.03690658 0.08784399 -0.3637458 -0.026631515
000070 5a a9 2a 3d e0 21 99 3e f3 51 75 bd 51 20 8f be
       0.041665412 0.29908657 -0.059892606 -0.27954343
000080 df 07 28 3e d4 d5 2b bc d2 22 64 be a8 0d 4c 3e
       0.16409253 -0.010487992 -0.22278908 0.19927084
000090 25 29 74 be 9a 66 85 be 6d d7 ba be 99 c9 9c 3d
       -0.2384382 -0.2605484 -0.36492482 0.07655639
0000a0 79 55 e8 be dc 12 a0 3d d1 f1 3c be 67 29 a1 be
       -0.4537771 0.07816097 -0.1845162 -0.314769
0000b0 2e 36 a9 bd 90 d3 26 bd 70 52 91 bd 36 38 38 bc
       -0.08262287 -0.040729105 -0.07095802 -0.0112438705
0000c0 0b d0 15 be 96 61 32 be d5 f2 a7 bd 31 d5 a1 be
       -0.14630143 -0.17420039 -0.082006134 -0.31607965
0000d0 e7 b4 03 3e eb 56 8e be cb 94 cd bd f1 74 ac 3e
       0.12861978 -0.27800688 -0.10038146 0.3368297
0000e0 05 aa c3 3e 62 35 28 3c 5d 4f 3f bd b1 f6 87 3e
       0.38215652 0.010266634 -0.046706546 0.26555398
0000f0 84 dc 8d 3e c4 43 ba 3e 3a 2e ea 3e 77 1b c2 be
       0.27707303 0.36379826 0.45738393 -0.3791158
000100 e5 7c 51 3d b7 84 92 3c 53 b8 6f 3e 08 c5 b6 3e
       0.0511445 0.017885549 0.23410158 0.35697198
000110 5e 1a b5 3e 33 5a fa 3d b2 b9 a1 3e c8 2b 04 be
       0.3537168 0.122242354 0.31586987 -0.12907326
000120 36 8c f3 bd 31 1f 9e 3d eb 1c 6b be 2b 84 32 3d
       -0.118919775 0.07720793 -0.2296025 0.043583076
000130 29 fe 47 3e 74 32 90 3e d2 c2 76 be a9 83 02 3e
       0.19530548 0.28163493 -0.24097756 0.12745537
000140 36 29 60 3e f1 a3 aa be 4a 9e 90 3b 20 c1 9d be
       0.2189072 -0.33328202 0.004413401 -0.30811405
000150 c7 00 1a bc 81 16 1e 3c 14 66 b8 be 02 fe a4 bd
       -0.009399599 0.00964892 -0.3601538 -0.08056261
000160 df 0e de be 07 30 a1 be 33 9a 34 3e 99 fa 04 be
       -0.4337072 -0.31481954 0.17636947 -0.1298622
000170 50 f6 c2 3e 25 37 1a be a4 4b 70 3e d4 1c 15 bc
       0.38078547 -0.15060098 0.23466355 -0.009101111
000180 bc ef b6 3e 40 64 a8 3d 47 c0 00 3f 1f 98 10 bf
       0.35729778 0.08222246 0.5029339 -0.5648212
000190 98 b5 82 3e 5a cf 9f be 47 7c 10 bd 76 51 ac 3e
       0.2552917 -0.31212884 -0.03527477 0.336559
0001a0 05 12 51 3e 50 31 80 be f5 06 73 be 6f ef b6 be
       0.2041703 -0.25037622 -0.23733123 -0.35729548
0001b0 9f 28 4a 3e 22 e1 13 3e 78 35 9f 3e e5 a2 a2 be
       0.19742058 0.1444135 0.3109548 -0.31764904
0001c0 42 28 95 be db 54 9b 3e 08 76 8a 3d c3 4b 84 3e
       -0.29132277 0.30338177 0.06760794 0.25839052
0001d0 7c 70 d4 bd 0b da 56 3e 78 5e c3 be 29 fe 8f 3e
       -0.10373017 0.20981614 -0.3815801 0.28123596
0001e0 46 6e c4 3d 65 d8 d9 3d 46 ad 08 be 90 02 98 be
       0.095913455 0.10636977 -0.13347349 -0.29689455
0001f0 e2 0a 9c be 55 c5 a8 be 11 81 0c be 8f d7 90 3e
       -0.30477053 -0.32963052 -0.1372111 0.28289458
000200 26 28 85 be 5d 50 43 be 50 be 85 3e 6a 7e 87 be
       -0.26007193 -0.19073625 0.2612176 -0.26463634
000210 d4 ad b7 3c 6c 91 f9 3d 97 88 89 3d f3 c7 05 3e
       0.022421755 0.1218594 0.067155056 0.13064556
000220 3d 81 b0 be 84 f5 55 be ed c5 74 be cf 34 40 3e
       -0.344736 -0.20894438 -0.23903628 0.18770145
000230 50 65 2e be da 46 be bc dd 78 e3 3b 7e da 77 be
       -0.17030835 -0.023227144 0.0069418983 -0.24204442
