500_ML/models/weights_1899_10-04_04:16.pt (torch_old, 39980 bytes, 7 tensors)

encoder.encoder.0.weight f4 [16, 1, 3, 3]
00000000: dfaa d1bd 5216 9b3d 640f 34be b2c7 ae3e
00000010: d316 a23e b05b c53e 413f cc3e a8f9 fa3d
00000020: 805b b23e 21db 483e 9981 b9bd 14ae 3abe
00000030: 869e dd3e c736 dd3e 9b76 81bd fe03 5c3e
00000040: 6372 8a3e 7656 df3c c366 443e bac6 293e
00000050: f664 19bd 9484 d33e a382 1e3e 9f9b 8a3e
00000060: 0719 7d3e e191 443d 9abf 773e 5a81 8abe
00000070: a99f 853e 5e69 43be e0a8 70bc 50c5 8abc
00000080: 702b 84be b292 5a3e 3839 04be 2be5 5cbe
00000090: be31 6a3e 6228 7abd 8b84 c3bc 138d 9b3e
000000a0: 846c 7fbc c4af d83c c980 f53d ca4f 58bd
000000b0: 2513 9bbd 4178 48be f08f 7d3d ee09 683e
000000c0: bc9c b5bd ab38 ce3e 43b8 b23e e00b 843e
000000d0: 4d1b 9e3e 4639 a33e 6ee6 f33d 6b79 afbd
000000e0: 90ee 8e3e 5d14 7bbd e28d c4bc ef92 7abe
000000f0: a2cd 9e3e c3fd 09be 5a34 4cbe 7054 b1bd
00000100: 0059 81bb ba46 333e 8ca6 86bd 3e34 47be
00000110: 903b 1cbe 081e 5cbd 7e53 a6be 3264 683e
00000120: 08d8 63be 73c3 21be 3ddb 243e 3bd0 d13c
00000130: e8ed a23b 7015 b23d 418e 403e 6dd8 733e
00000140: 3b3c 643e 0c18 df3d a282 8fbe 8039 1cbc
00000150: e3f5 2fbe 80b1 7c3d 8c0a c2bd d68c d9bd
00000160: cc6d 9fbe 91e9 9d3e b963 b93e 992d 3b3e
00000170: ec8b 42be dd8c 96bb f43d 973e 5fed 40bc
00000180: 9feb bebd 4fb2 8e3e 5b26 5fbe 0147 623c
00000190: dcb7 01be 6441 973e b1fa 4cbe 691e aabb
000001a0: 750a a5bb f0fc 873d b237 933e df6b 853d
000001b0: 5b94 53be e153 03be 84e7 3d3e 6024 5bbe
000001c0: 5ca2 403c 57c5 b53e bbc3 bc3e 2c5e 403e
000001d0: ab18 963e c071 323d 1099 923d 582e 8abe
000001e0: f89d 22bd 20c4 d53d 6cfe 86be ead0 283e
000001f0: 88b7 2e3d d0bd 23be 1096 c2bd f4ae a0bd
00000200: 36a9 453e fbf1 81be 74cb bb3d 584d 6bbe
00000210: 7043 e23d 8848 1b3d 0fa1 91be b37f 993e
00000220: df4f a33e 5723 663c 2011 23be 41d4 993e
00000230: 94c9 a4bc 2c4a 493e c80f b0bb 5199 7f3e
-0.10237669 0.07572617 -0.17583996 0.3413673 0.31658038 0.38546515 0.3989201 0.122546494
0.34835434 0.19614841 -0.09057922 -0.18230468 0.43285006 0.43205854 -0.0632145 0.21485898
0.27040395 0.027262907 0.19179825 0.16579714 -0.0374498 0.41312087 0.15479521 0.27071854
0.24716578 0.047990683 0.24194184 -0.27051812 0.26098374 -0.19083163 -0.0146887 -0.016939789
-0.2581439 0.21345022 -0.12912452 -0.21571796 0.22870538 -0.06107367 -0.023866912 0.3038107
-0.015589837 0.026451 0.119874544 -0.052810468 -0.07572011 -0.19577123 0.061904848 0.22660038
-0.08867785 0.4027761 0.34906206 0.2579031 0.30880204 0.31879634 0.11909185 -0.085680805
0.27916384 -0.061298717 -0.023993436 -0.24470113 0.3101626 -0.13475709 -0.19941846 -0.08658683
-0.003947377 0.17507449 -0.06574735 -0.19453523 -0.15257096 -0.053739578 -0.32485574 0.22694471
-0.22250378 -0.15797214 0.16099258 0.025611987 0.0049722083 0.08695495 0.18804266 0.23813029
0.22288601 0.108932585 -0.28029352 -0.009535193 -0.17183642 0.061692715 -0.09474668 -0.106225654
-0.31138456 0.3084226 0.36208895 0.18279113 -0.18998688 -0.004594429 0.29539454 -0.011775344
-0.09322285 0.27870414 -0.21791975 0.013810874 -0.12667793 0.29542077 -0.20017506 -0.0051916135
-0.005036647 0.06640041 0.2875343 0.065147154 -0.20662062 -0.12824966 0.18545347 -0.21400595
0.0117574595 0.3550212 0.3686808 0.18785924 0.29315695 0.04356551 0.071581006 -0.26988482
-0.039701432 0.104377985 -0.26365983 0.16485944 0.042655498 -0.15990376 -0.095012784 -0.0784587
0.1930283 -0.2537993 0.09169665 -0.22978723 0.11048019 0.037910968 -0.2844319 0.2998024
0.31896874 0.014046512 -0.15924501 0.3004475 -0.020115651 0.196572 -0.005372975 0.2496083

encoder.encoder.0.bias f4 [16]
00000000: 4b52 ad3e 4dbf 20bc f439 56bc ca5e 82be
00000010: 2f47 763e eca2 b9bc 6caa 3dbe 8e02 7fbe
00000020: ff86 6f3e 6ba1 3cbe 6e1e e83d e109 333e
00000030: ddfd 493e 5bda 42be 7098 7bbe 2bf0 c9bd
0.33851847 -0.009811235 -0.013075341 -0.25462943 0.24050592 -0.022660695 -0.18522042 -0.24903318
0.2339134 -0.18420951 0.11333929 0.17484237 0.19725747 -0.19028609 -0.24569869 -0.098602615

encoder.encoder.2.weight f4 [32, 16, 3, 3]
00000000: ebe7 0f3e 2c20 1d3e e98b 133e 0d0b 6d3d
00000010: a2df 173d 55a9 133e c51c bc3d 37f9 353d
00000020: 8816 203e 8286 d1bd a621 85bd d8fd d5bd
00000030: 3eca 81bd 5648 cdbd d1e9 03be 864a 61bd
00000040: 1cc3 b9bd 0baf 1fbe bffc d5bc b797 37bd
00000050: eaba 02be fb81 5abc 54fa dabb f187 debc
00000060: b1bd b4bd d377 48bd 8862 0cbe fc90 e3bc
00000070: 1055 be3c 8ca3 b7bc 0a26 a9bd 7c5c 943c
00000080: 9915 943d 500f babc 006d 023d 1313 74bd
00000090: 5645 d63d 9473 dc3d 9740 343d a14e 7d3d
000000a0: a388 873d 4b18 0d3e 80fa c53d 08e3 6e3d
000000b0: 33e3 8a3d 828b f7bd e66f 31bd ef24 b4bc
000000c0: 4f84 4b3b b7c7 0fbd d911 e8bd e9a2 28bd
000000d0: 8f25 11be ebd8 1dbe 05ed b5bd c90f 9cbd
000000e0: e69c a3bd 198a 883d 8190 c5bc f5c2 8dbc
000000f0: c070 9a3b 5d21 e6bc fb7a 0abc bc11 f53c
00000100: 646a bd3c a412 8ebd 9048 b33b 4800 1c3d
00000110: aae2 563d 5695 85bd 8b5b 99bd 00f3 adbc
00000120: 9fc8 063e 9d95 e03d 25d7 cf3d 40f7 d13d
00000130: 2812 2f3e 7eee 9c3d 5a4d 9c3c df61 803c
00000140: 2d44 d03d 7b1f 0cbd b601 123d 9fed 99bd
00000150: e6ec f9bc 2b9d 56bd 3a27 80bd 46df 30bd
00000160: e08a f03c 800b c13b 7005 393e 0e95 673d
00000170: 89da 023e 0534 5f3d 4acc d83d a0a1 df3d
00000180: b61a f63d b9c0 293e 192e b33d 6c99 f83c
00000190: bd7e 1a3e 494c 573d 2c28 9f3c 4ef7 1c3d
000001a0: 0201 2c3e f046 773d 540f fe3c c583 803c
000001b0: d2a4 053e 8798 233e dee1 123e 37d2 153e
000001c0: 3ebf 963d 4d2e 2a3e d653 0b3e d16e 8a3d
000001d0: 6db7 9c3d 24c6 933c 6860 0bbd e230 283d
000001e0: ace5 95bc b046 263d 0018 1f3b a4db e83c
000001f0: 006f deb9 401b 85ba 5316 8a3d 03b4 a9bd
00000200: 44d8 e43c 7807 57bd 3697 80bd d8eb 4c3c
00000210: 8e52 353d 0060 12bc 4155 a13d 52a0 46bd
00000220: 8cad 78bd 8974 1dbe f380 4c3c e080 11be
00000230: cb81 1bbd 9b41 d0bd c370 87bd 95c8 0cbe
00000240: c45a eebb 506a a8bb 5252 db3d 98b4 c2bb
00000250: 732f dbbc 0e15 8bbc 36b9 973d d7a8 803d
00000260: 68a9 d03d f1bb 7c3c ded1 9f3d e3b0 4cbc
00000270: 8636 5a3d c37f a53d d5c3 563d 5e9c 133e
00000280: a426 033e 98e0 1f3e 922d 523c 3481 093e
00000290: 1247 e23d e264 593d 49fc 1b3d ebb1 183e
000002a0: 2ddc 7d3b 59a4 ea3c 318e 653d 9438 853c
000002b0: 0e60 1b3d 10e5 d43b da74 a5bd 1c23 9bbd
000002c0: 7a76 7e3d ca6b 5c3d 3622 3b3d d834 053d
000002d0: e10a 8dbc 7ba9 99bd 3d79 953c cf2c 753d
000002e0: 7f47 833d c4d5 68bd 8c65 ff3c 56c9 d3bc
000002f0: 99dd d1bc 3665 0e3d 44b0 023e 2420 e93d
00000300: cbc7 ab3d ef71 183e 4ff8 423d 362e 983c
00000310: 779a 9d3d 8b1d d43d f3ad 5ebd 600d 5d3c
00000320: 50ca 0fbd 2027 0d3c 70d1 94bc 98c4 4bbb
00000330: 1fd6 a1bd 82de 88bd 49ea 173d c8de 113d
00000340: 8057 7f3c c774 9fbd 1657 04bd 20c3 f63c
00000350: c0e7 a03b cc4a f93c f2d4 503d 7c12 85bc
00000360: e305 03bc 55c7 4f3d 3b1e 0a3d 0bbb 8ebd
00000370: afdf cd3c 794e e1bc 3647 d73c 0471 80bc
00000380: 45f2 ec3c 68c9 0ebd 3a25 2b3d 03f4 2ebd
00000390: 00fd f7ba 20e7 2cbd a03c 663b 80e1 34ba
000003a0: 538c 2abd e4f6 8fbd 3324 8dbc 242e e33c
000003b0: b9c1 6f3d 584b 903c ca75 633d 131a c0bc
000003c0: fb34 de3d 343e 2ebd 1665 cbbc 7fc5 1d3d
000003d0: 4d50 983d a6a2 eebc a55d 10bd c787 33bd
000003e0: 4505 44bd 8bab 863d 61ef 02bd 2b3d 183d
000003f0: dc06 0fbc cefc eb3c 2176 113d f172 bb3b
0.14053313 0.15344304 0.1440884 0.057871867 0.037078507 0.14420064 0.09185175 0.044427123
0.15633595 -0.102307335 -0.065005586 -0.104488075 -0.06337403 -0.100235626 -0.12882163 -0.05500271
-0.09070417 -0.15594117 -0.026121495 -0.04482242 -0.12766615 -0.013336654 -0.0066826735 -0.027164431
-0.08825243 -0.0489424 -0.13709462 -0.027779095 0.02323392 -0.022416852 -0.082592085 0.018110506
0.07230682 -0.02271238 0.03184223 -0.059588503 0.104624435 0.10764232 0.04400691 0.061842564
0.06617858 0.13778798 0.0966692 0.058321983 0.06781616 -0.12087156 -0.043319605 -0.021990268
0.0031054204 -0.035102572 -0.11331529 -0.04117099 -0.14174484 -0.15414779 -0.088830985 -0.07620198
-0.079889104 0.06666965 -0.024116756 -0.017304877 0.004713148 -0.02809208 -0.008452172 0.029915683
0.02312202 -0.06937149 0.0054712966 0.038086206 0.052462257 -0.06522624 -0.074881636 -0.021234035
0.13162468 0.109660365 0.101484574 0.10252237 0.1709677 0.07662676 0.019079853 0.015671669
0.101692535 -0.03420971 0.035646163 -0.07516026 -0.03050847 -0.05239598 -0.06257482 -0.04318168
0.029363096 0.0058912635 0.1806848 0.056538634 0.12778677 0.05449297 0.1058584 0.109194994
0.120168135 0.16577424 0.08749027 0.030346595 0.1508741 0.052562986 0.019428335 0.038321786
0.1679726 0.060370386 0.031013168 0.015687833 0.13051155 0.15976153 0.14343974 0.14630972
0.07360695 0.16619225 0.136062 0.06759418 0.07652173 0.018038817 -0.034027487 0.041062243
-0.018297993 0.040594757 0.002427578 0.028425045 -0.0004242584 -0.0010155216 0.06742539 -0.08286288
0.027935155 -0.052497357 -0.06278841 0.012507401 0.044268183 -0.008934021 0.07877589 -0.048492737
-0.060712382 -0.15376486 0.012481916 -0.14209318 -0.037965577 -0.10168763 -0.066133045 -0.13748391
-0.0072740037 -0.0051396266 0.10709061 -0.0059419386 -0.026756024 -0.016977813 0.07408373 0.06282204
0.10188562 0.015425668 0.07803701 -0.012493345 0.053274654 0.08081009 0.052432854 0.14415118
0.12807709 0.1561302 0.012828248 0.13428193 0.11048712 0.053074725 0.038082395 0.1491162
0.0038735971 0.02864282 0.056043807 0.01626233 0.0379334 0.006497033 -0.08078928 -0.07575056
0.062124707 0.053813733 0.045686923 0.0325211 -0.017217102 -0.07503029 0.018246287 0.059857186
0.06410121 -0.056844488 0.031176351 -0.02585284 -0.025618361 0.03476449 0.12762552 0.113830835
0.08387717 0.14887212 0.047600087 0.018576723 0.076954775 0.103571974 -0.05436511 0.013491958
-0.03510505 0.008615285 -0.018166274 -0.003109252 -0.079021685 -0.06683065 0.037088666 0.03561285
0.0155848265 -0.077859454 -0.032309614 0.03012234 0.0049104393 0.030431174 0.05098433 -0.016244166
-0.007997009 0.050727207 0.033720236 -0.06969269 0.025131075 -0.027503239 0.026279073 -0.01567889
0.028924117 -0.034860045 0.04178355 -0.042713176 -0.0018920004 -0.042212605 0.003513135 -0.0006900057
-0.04163773 -0.070295125 -0.017229175 0.027731963 0.058534358 0.017614052 0.055532254 -0.023449933
0.10849949 -0.04253979 -0.024828475 0.038518425 0.07437191 -0.029130291 -0.035245556 -0.04383066
-0.047856588 0.06575688 -0.03196657 0.03716771 -0.008729663 0.02880707 0.035513047 0.005720489

encoder.encoder.2.bias f4 [32]
00000000: d98a 103d 1a97 dfbc cdaa 0c3e f8cb f73d
00000010: e81f 0c3e 414c 41bd 4485 0c3e bbba 1d3e
00000020: a0ad 16bc db21 b13d 202b f5bc 20c2 223e
00000030: b684 2d3e 516e e3be 6590 b23d 66df bfbd
00000040: 798e 86bd 9653 d33c 3191 b5bd 87a3 da3d
00000050: 1819 323c 6d50 76bd dff5 2abd b4b0 27bd
00000060: 372d a03d bf07 a53d 8086 02bd 5cc9 ed3e
00000070: 48e1 c63d 0580 da3c 92d0 0a3e 46b8 1c3e
0.035288665 -0.02729373 0.1373703 0.12099451 0.13684046 -0.047191862 0.13722712 0.15403263
-0.009196669 0.086490355 -0.02992779 0.15894365 0.16945156 -0.44420102 0.08718947 -0.09368782
-0.06570143 0.025796693 -0.08865584 0.106757216 0.010870241 -0.060135294 -0.041738387 -0.04094
0.07821124 0.08058118 -0.03186655 0.46442688 0.09710938 0.026672373 0.13556126 0.1530467

decoder.decoder.0.weight f4 [32, 16, 3, 3]
00000000: 84d2 9d3d 4307 bc3c 2c1d ae3a 8e44 2d3b
00000010: c564 1e3d 9cda 8b3d 8301 35bc 31ba d33c
00000020: 3cb9 a93c dba0 9f3d 85ef 6a3d 269a 073e
00000030: 91a1 093d f336 293e e1f6 223e aca8 713d
00000040: 84ac 363e 2517 0d3e 46f0 003e e9ea 123e
00000050: 8945 113e 9e0d f53d 6156 8f3d 9b04 283e
00000060: c7ff a33d c199 6f3d ebc8 b43d 2d58 603c
00000070: 0f0f 82bd a8bc b83c 3d52 a0bd 1ee2 79bd
00000080: e558 c4bc 2a98 aebd 8be2 8dbd 1c04 d6bd
00000090: 0fe5 063e 1152 513d 2376 093e 97a9 1d3e
000000a0: 17f6 413e c690 e53c 0002 7e3d 200e 913d
000000b0: 86b0 8d3d f8d9 ba3c 83e7 3a3c 2b98 833c
000000c0: b1ad cf3d e0bd fd3d 807a 173e c8e4 723d
000000d0: d339 023e 943a e63c f6d2 933d f426 e73c
000000e0: 7aee a5bd 57e2 e4bc 0d98 e93a 0e0e 37bd
000000f0: 5264 94bc c129 8abd f5b9 ae3b e3cc b93d
00000100: 57d1 c73c 3264 b63d 3e4e 793c eaf2 673d
00000110: 9b69 ad3c 3fe0 493d d51d 2fbc 565f b83c
00000120: 444a 1ebd 36c1 f43b df46 803d 2a93 b8bb
00000130: 5904 1e3d d553 303c cb52 e6bb f874 813d
00000140: 6eb4 9abd 3d39 073e f299 9abb 42d4 99bc
00000150: 20e4 b5bb 2fe6 953c 0c59 303d 7b0c 0f3e
00000160: d2a4 d23d 0072 cc3d 9f49 943d 7e9a 633d
00000170: 18c6 ce3d 1303 80bd 87f8 1e3d badf 703d
00000180: c019 ce3d f3f6 9abd 3f75 be3d 012b 953c
00000190: 8001 ffbb a908 383d 0ba0 4ebd 094e 31bd
000001a0: 1910 833d 78ff 263d f069 813c b25b e2bc
000001b0: d4af a5bd 43ae 173c c5a6 5dbd 8723 553d
000001c0: 28b6 95bd 5c85 79bb ed3a 6bbb d38d debc
000001d0: 3031 65bd 3db4 d83d 8336 e03d 2f5a 13bd
000001e0: 235f ee3c 91ff 253d ec7f 62bd 8fdd 8e3d
000001f0: 9af0 e83d ceb3 8d3c 6163 693d 5a2e 80bd
00000200: c3d5 223d 1e88 8e3b b2fa 83bd 51d5 3f3c
00000210: cbda 64bc 5986 283d 9900 aabd b046 fd3c
00000220: 28ea f0bc 1a51 fdba 234b 213e 2392 5d3d
00000230: 2d36 843c eed6 093e bc19 b53d f184 073c
00000240: da8f a93d 6085 9c3d 0e7b 533c 938f d93d
00000250: f5bc b4bc 0c91 713d 85e1 bd3d e82c 5e3c
00000260: a935 afbb 5a8c 08be 8a46 03bd e729 11be
00000270: 704b 8dbe ac05 edbd bee4 9cbe 6aa3 e7bd
00000280: f19d 78bd b62c 1bbd 9f2d 61bb 0f0c 1ebe
00000290: f5c8 c0bd b208 bdbd 8671 08bd 090b 21bd
000002a0: bd1b b8bd fd78 28bd 4db5 02be b84d 073d
000002b0: 1384 5c3c 37a7 80bd 5881 463d e08a 1dbc
000002c0: 98eb 4bbd 1016 2abd 1e11 69bd e872 75bd
000002d0: 0098 5cbe 8641 33be 0a57 99bd 0dd6 c2bd
000002e0: 167b 71be 3dea 18be ff64 aabe ef7b 5cbd
000002f0: 9f6f 74be 17fa f3bb 62fb f8bd 7fec f5bc
00000300: c768 24be 279c 86bd 6a0b 3cbe 1364 7bbd
00000310: 294a 7ebd 7c25 4fbd 8309 4fbd 260c ae3d
00000320: 499e d63c 6ec6 953d 6c59 b13b e02a 253e
00000330: 488c 23bc 4b20 e43d 21a0 9a3d 963d 733d
00000340: 3b85 103d 53c7 29bc c086 0d3e f16b e73d
00000350: eb51 f73d b29c ef3c 5dbe fe3d ad30 2d3e
00000360: 7521 713d 3f41 6ebc 515e b83d 6389 8e3d
00000370: 260b e93d 05d3 f8bb e81e 4ebc d7cf 69bd
00000380: e378 053e ed3b ba3c a2a1 b3bd 5715 443c
00000390: ccf3 aebd 77e1 c1bd 82f0 1abe 6dbb 8bbd
000003a0: 4de3 cbbd a964 c4bd db7f d1bd 9816 853d
000003b0: cd1b e23d 2e5a 833d ebe7 b83d 9a67 eb3d
000003c0: 9062 51be 0990 883d a104 82bc ce54 5e3d
000003d0: 43ed a53d 0c9d d5bc d4dc bb3c b314 8b3d
000003e0: b071 7ebd 6eeb 4fbd a5a0 84bd a8ef 7bbd
000003f0: 1fca 063e 635c 78bd 37c3 da3d 65dd 8f3d
0.07706168 0.022952681 0.001328384 0.0026438567 0.03867032 0.06828806 -0.011047724 0.025845619
0.02071821 0.077943526 0.05735733 0.13242397 0.033601347 0.16524868 0.1591449 0.05899875
0.17839247 0.1377836 0.12591657 0.14347424 0.14186682 0.11965488 0.06998897 0.16408007
0.0800777 0.05849624 0.088273846 0.013692898 -0.063505284 0.022550896 -0.07828186 -0.061006658
-0.02396817 -0.08525117 -0.06927975 -0.104500026 0.13173316 0.051103655 0.13423972 0.15396725
0.18941532 0.028023135 0.062013626 0.07082772 0.06918435 0.022809014 0.011407736 0.01606377
0.10140551 0.123897314 0.14792824 0.059300214 0.1271737 0.028104104 0.07217972 0.028216816
-0.081021264 -0.027939958 0.0017821804 -0.044691138 -0.018114243 -0.06746245 0.0053322264 0.09072282
0.024391813 0.089058295 0.015216408 0.056628145 0.02116852 0.049286123 -0.010688265 0.022506397
-0.038645044 0.0074693216 0.062635176 -0.0056327777 0.038578365 0.010762175 -0.0070289127 0.06321138
-0.075539455 0.13205428 -0.0047180587 -0.01877797 -0.0055508763 0.018298237 0.04305367 0.13969605
0.10285343 0.09982681 0.072406046 0.055567257 0.10096377 -0.06250586 0.038811233 0.058807112
0.10063505 -0.07566633 0.09299707 0.018208982 -0.0077821612 0.044930134 -0.050445598 -0.04328731
0.06399555 0.040770978 0.015797585 -0.027631614 -0.08090177 0.009257856 -0.054114122 0.052035835
-0.07310134 -0.0038073873 -0.0035893277 -0.027167236 -0.055955112 0.10581253 0.10947897 -0.035974678
0.0290981 0.04052693 -0.055297777 0.06975853 0.11374016 0.017297652 0.05697954 -0.06258841
0.03975464 0.0043497225 -0.06444301 0.011708573 -0.01396818 0.04114375 -0.08300895 0.030917495
-0.02940853 -0.0019326538 0.15751319 0.054094445 0.016139114 0.13460895 0.08842799 0.008271442
0.08279391 0.07642627 0.0129077565 0.10623088 -0.022062758 0.058976218 0.0927153 0.013560511
-0.005346973 -0.1333479 -0.032049693 -0.1417614 -0.27596617 -0.115733474 -0.30643266 -0.11310466
-0.0606975 -0.037884437 -0.0034359468 -0.15434287 -0.094133295 -0.09230174 -0.03331139 -0.039317165
-0.08989666 -0.04113101 -0.12764473 0.033033103 0.013459223 -0.06281894 0.048463196 -0.00961563
-0.049785227 -0.041524947 -0.05690109 -0.059924036 -0.21542358 -0.17505464 -0.074873045 -0.09513483
-0.2358211 -0.14933105 -0.3328018 -0.05382913 -0.23870705 -0.0074455845 -0.121573225 -0.030019997
-0.16055594 -0.065727524 -0.18363729 -0.061374735 -0.062082443 -0.050572857 -0.05054618 0.08498411
0.026198523 0.07313238 0.0054122712 0.16129637 -0.009982176 0.11138972 0.075500734 0.059384905
0.03528331 -0.010362464 0.13820934 0.11299885 0.120761715 0.029249523 0.12438653 0.169131
0.058869798 -0.014541923 0.090023644 0.06959798 0.113790795 -0.007593515 -0.012580611 -0.057082977
0.13034396 0.022733653 -0.087710634 0.011967978 -0.08542594 -0.09466832 -0.15130809 -0.06822858
-0.099554636 -0.09589512 -0.102294646 0.0649845 0.11040459 0.06413685 0.0902861 0.1149437
-0.20447755 0.066680975 -0.015871348 0.054280095 0.08101895 -0.026075862 0.022932447 0.067910574
-0.06212014 -0.050761633 -0.06475953 -0.06150785 0.1316304 -0.06063498 0.106817655 0.070246495

decoder.decoder.0.bias f4 [16]
00000000: 26ca 94bd fae1 b13d 50ad d73d 3c26 233d
00000010: 389e 853d 17c1 c13d 0fa8 44bd 056b a2bc
00000020: 7b87 b7bc 0374 ca3d 486f 96bd 31b4 a0bd
00000030: 8c8e 4f3d 9b64 8a3d e8fb 173d 6857 ea3d
-0.07265119 0.0868568 0.105311036 0.039831385 0.065243185 0.09460657 -0.048011836 -0.019826422
-0.02240347 0.09885409 -0.07345444 -0.07846869 0.050673053 0.0675747 0.03710547 0.11442453

decoder.decoder.2.weight f4 [16, 1, 3, 3]
00000000: fa3e b83e 50f1 3bbe d542 983e 4926 3c3e
00000010: 5d76 47be 38a0 3ebc 8a12 98bd dbf3 813e
00000020: 3b9a 4c3e 5827 54bd 5c68 7d3d 55e4 4c3e
00000030: ca29 eb3d d7de bcbe 9d04 cabe c751 243d
00000040: 056c 6cbe d251 49be 2869 90be 205c cdbb
00000050: 90ab 40be 0fe5 9bbe bed1 bfbe 8b42 0ebe
00000060: 7618 f93c 5475 b93d 4acd babe 2a18 d8bc
00000070: 8d70 343d 3fb0 993e 1d2b 73bd 48cb 8cbe
00000080: 06c1 293e 6f2f e8bb 89d0 63be a99e 4d3e
00000090: c38d 76be 9cd6 84be 9a1a bcbe 2880 9d3d
000000a0: 9f0d e7be 2d46 a13d 7f07 43be 9275 9fbe
000000b0: cd66 b2bd 02ed 1ebd 685b 8fbd 2777 36bc
000000c0: 7240 15be 1630 31be 8b99 a4bd 89a9 a2be
000000d0: 3773 063e 422d 8dbe ece8 d3bd 1a10 b03e
000000e0: 9c07 d63e cb52 173a 24f9 33bd 10da 853e
000000f0: 5557 9d3e 185f b73e 047c e23e 2e0d c4be
00000100: 7e85 563d 80eb da3c 55ac 633e e51c b03e
00000110: c750 b33e 690c 0c3e 7154 943e 9ff1 09be
00000120: d2ca 45bd 4e2f ca3d 5814 7abe a619 ce3c
00000130: 3059 2b3e 3cd5 903e 6950 68be 3022 993d
00000140: 2147 4a3e ce75 acbe 065b c93b 07d1 9dbe
00000150: 1537 07bc 0a03 563c b91b b8be a397 adbd
00000160: 268e dcbe 07ad a0be 3b3d 403e a46e 00be
00000170: d900 c13e dac2 2ebe 4a62 803e 0fbd b23b
00000180: a512 b03e 7c6e be3d b8d0 ef3e 4436 98be
00000190: 5876 e63d a06d 9dbe c93e 313e 3531 cd3e
000001a0: 1cf6 b13e 16e3 24be 6297 45be a2f1 5d3d
000001b0: 22e9 493e 22e1 133e 7835 9f3e e5a2 a2be
000001c0: 9838 95be db54 9b3e 9371 8a3d c34b 843e
000001d0: 7c70 d4bd 15fd 513e 89a5 c2be fc84 8f3e
000001e0: 556e c63d 36ab de3d 50fe 08be 6deb 99be
000001f0: c656 9abe c9c7 a9be 0106 07be fe26 923e
00000200: b14a 85be 40dc 48be 59b9 833e f5de 84be
00000210: b8b9 8b3c 6551 ef3d 49bd 8b3d 85a7 053e
00000220: c68b b0be 0d13 55be c58e 74be 1b32 413e
00000230: 4fa9 2dbe 1b78 cdbc 8609 093c 366a 75be
0.35985547 -0.18353772 0.2973849 0.1837398 -0.19478746 -0.011634879 -0.07425411 0.2538136
0.19980709 -0.051795334 0.061867103 0.20008977 0.1148258 -0.36888763 -0.39456645 0.04011705
-0.23088081 -0.19660118 -0.28205228 -0.0062670857 -0.18815446 -0.30448195 -0.37464708 -0.13892572
0.030407172 0.09055582 -0.36484748 -0.02637871 0.04405265 0.30017278 -0.059367288 -0.2749884
0.16577539 -0.0070857327 -0.22247519 0.20080055 -0.24077515 -0.25944984 -0.36739045 0.076904595
-0.4512758 0.07874713 -0.19045828 -0.31144387 -0.08711014 -0.038800247 -0.06999856 -0.011136807
-0.14575365 -0.173035 -0.080370985 -0.3176997 0.13129888 -0.2757359 -0.10347161 0.34387285
0.4180268 0.000577253 -0.04393877 0.2614293 0.30730692 0.35814738 0.4423524 -0.38291305
0.0523734 0.026723623 0.22233708 0.34397045 0.35022566 0.13676609 0.28970674 -0.13471077
-0.048289128 0.09872304 -0.24421823 0.025158715 0.16733241 0.28287685 -0.22686924 0.07477224
0.19753696 -0.33683628 0.006144884 -0.30823538 -0.008252879 0.013062248 -0.3595865 -0.08476188
-0.430772 -0.3138201 0.18773358 -0.12542206 0.3769596 -0.17066517 0.2507499 0.0054546664
0.34389225 0.09298417 0.46838927 -0.297289 0.11253041 -0.307477 0.17309107 0.40076604
0.3475808 -0.16102251 -0.19296029 0.054185517 0.1971784 0.1444135 0.3109548 -0.31764904
-0.2914474 0.30338177 0.06759944 0.25839052 -0.10373017 0.205067 -0.38016918 0.28031147
0.09689013 0.108725 -0.13378263 -0.30062428 -0.30144328 -0.33160236 -0.13185884 0.28545374
-0.26033548 -0.19615269 0.25727347 -0.25951353 0.017056331 0.11685447 0.06823213 0.13052185
-0.3448164 -0.20808049 -0.23882587 0.1886677 -0.16959117 -0.025081685 0.008364087 -0.23966298
