500_ML/models/weights_7099_10-04_04:16.pt (torch_old, 39980 bytes, 7 tensors)

encoder.encoder.0.weight f4 [16, 1, 3, 3]
-0.09578371 0.07951293 -0.17189866 0.34646466 0.3187739 0.38746366 0.40291727 0.12317952
0.3485737 0.1965664 -0.07384446 -0.16805077 0.44879845 0.46531945 -0.029677553 0.2336213
0.30696 0.0646927 0.16836622 0.17915513 -0.028072981 0.4089614 0.19048193 0.30577543
0.25368962 0.09714076 0.2926575 -0.27051812 0.26098374 -0.19083163 -0.0146887 -0.016939789
-0.2581439 0.21345022 -0.12912452 -0.21571796 0.23701288 -0.063119315 -0.024347544 0.30838582
-0.02328678 0.019076476 0.1228792 -0.0633202 -0.08661153 -0.22116283 0.06550473 0.22676678
-0.096403435 0.4266657 0.3729618 0.2579729 0.3434416 0.35561123 0.11909185 -0.085680805
0.27916384 -0.061298717 -0.023993436 -0.24470113 0.3101626 -0.13475709 -0.19941846 -0.08658683
-0.003947377 0.17507449 -0.06574735 -0.19453523 -0.15257096 -0.053739578 -0.32485574 0.22694471
-0.22159177 -0.16324838 0.15667206 0.02656196 -0.0010720245 0.0810809 0.19110881 0.23345828
0.21825217 0.108932585 -0.28029352 -0.009535193 -0.17183642 0.061692715 -0.09474668 -0.106225654
-0.31138456 0.3084226 0.37283546 0.19036388 -0.18248615 0.0003378261 0.29704317 -0.0112874
-0.09052583 0.27771357 -0.2203887 0.0154928835 -0.12914231 0.29377776 -0.20165455 -0.011723303
-0.011652193 0.06506011 0.28061494 0.05789396 -0.2045927 -0.12608911 0.18709518 -0.21189879
0.014241785 0.3568692 0.37132096 0.19073631 0.29541114 0.04356551 0.071581006 -0.26988482
-0.039701432 0.104377985 -0.26365983 0.16485944 0.042655498 -0.15990376 -0.095012784 -0.0784587
0.1930283 -0.2537993 0.09169665 -0.22978723 0.11048019 0.037910968 -0.2844319 0.29987752
0.3191069 0.0141843 -0.15916185 0.30059075 -0.019974064 0.19665512 -0.0052313292 0.2497509
00000000: 402a c4bd add7 a23d 3406 30be d163 b13e
00000010: 5536 a33e a361 c63e 2c4b ce3e 8b45 fc3d
00000020: 4178 b23e b448 493e c43b 97bd 8015 2cbe
00000030: e9c8 e53e 5a3e ee3e 571e f3bc 6c3a 6f3e
00000040: dc29 9d3e 9b7d 843d 3268 2c3e 7174 373e
00000050: 4ff9 e5bc 6363 d13e b20d 433e 998e 9c3e
00000060: 9be3 813e bcf1 c63d 34d7 953e 5a81 8abe
00000070: a99f 853e 5e69 43be e0a8 70bc 50c5 8abc
00000080: 702b 84be b292 5a3e 3839 04be 2be5 5cbe
00000090: 81b3 723e b344 81bd 8074 c7bc bfe4 9d3e
000000a0: ebc3 bebc 4546 9c3c 17a8 fb3d 05ae 81bd
000000b0: 6361 b1bd 8278 62be 5827 863d 8d35 683e
000000c0: 2a6f c5bd ed73 da3e d9f4 be3e 0615 843e
000000d0: 94d7 af3e ad12 b63e 6ee6 f33d 6b79 afbd
000000e0: 90ee 8e3e 5d14 7bbd e28d c4bc ef92 7abe
000000f0: a2cd 9e3e c3fd 09be 5a34 4cbe 7054 b1bd
00000100: 0059 81bb ba46 333e 8ca6 86bd 3e34 47be
00000110: 903b 1cbe 081e 5cbd 7e53 a6be 3264 683e
00000120: f4e8 62be 952a 27be a46e 203e 7898 d93c
00000130: 2c83 8cba be0d a63d 07b2 433e b00f 6f3e
00000140: 7f7d 5f3e 0c18 df3d a282 8fbe 8039 1cbc
00000150: e3f5 2fbe 80b1 7c3d 8c0a c2bd d68c d9bd
00000160: cc6d 9fbe 91e9 9d3e 4ae4 be3e c0ee 423e
00000170: a6dd 3abe 401e b139 0b16 983e c9ee 38bc
00000180: 9b65 b9bd 7930 8e3e 93ad 61be ddd5 7d3c
00000190: e23d 04be 0a6a 963e 887e 4ebe 1913 40bc
000001a0: d7e8 3ebc 3c3e 853d c3ac 8f3e 3822 6d3d
000001b0: c080 51be 811d 01be e195 3f3e fffb 58be
000001c0: 6056 693c 8fb7 b63e c81d be3e 6150 433e
000001d0: 2140 973e c071 323d 1099 923d 582e 8abe
000001e0: f89d 22bd 20c4 d53d 6cfe 86be ead0 283e
000001f0: 88b7 2e3d d0bd 23be 1096 c2bd f4ae a0bd
00000200: 36a9 453e fbf1 81be 74cb bb3d 584d 6bbe
00000210: 7043 e23d 8848 1b3d 0fa1 91be 8c89 993e
00000220: fb61 a33e 4465 683c 53fb 22be 08e7 993e
00000230: a6a0 a3bc f65f 493e 926b abbb b3be 7f3e

encoder.encoder.0.bias f4 [16]
0.33957484 -0.0067975665 -0.011496142 -0.25462943 0.24197823 -0.018831741 -0.18522042 -0.24903318
0.23545814 -0.18420951 0.114996575 0.17634878 0.19835094 -0.19028609 -0.24569869 -0.0984519
00000000: c1dc ad3e 1fbe debb 505a 3cbc ca5e 82be
00000010: 24c9 773e 0645 9abc 6caa 3dbe 8e02 7fbe
00000020: f01b 713e 6ba1 3cbe 5383 eb3d c694 343e
00000030: 821c 4b3e 5bda 42be 7098 7bbe 26a1 c9bd

encoder.encoder.2.weight f4 [32, 16, 3, 3]
0.14017443 0.15376762 0.14455232 0.057637278 0.0374616 0.14457315 0.09171785 0.04487268
0.15673003 -0.074125335 -0.048673935 -0.08276565 -0.049772292 -0.10528507 -0.13666011 -0.034315728
-0.09155396 -0.16423257 0.0032211973 -0.021941943 -0.0989728 -0.002779549 -0.01055369 -0.030912507
-0.07459995 -0.052859552 -0.1442522 -0.027779095 0.02323392 -0.022416852 -0.082592085 0.018110506
0.07230682 -0.02271238 0.03184223 -0.059588503 0.104098335 0.10805346 0.04438941 0.06151838
0.06690308 0.13837601 0.09639413 0.059083045 0.06837223 -0.10572343 -0.033315424 -0.0050698896
0.007200884 -0.04188359 -0.11592549 -0.03550457 -0.1498538 -0.15854627 -0.088830985 -0.07620198
-0.079889104 0.06666965 -0.024116756 -0.017304877 0.004713148 -0.02809208 -0.008452172 0.029915683
0.02312202 -0.06937149 0.0054712966 0.038086206 0.052462257 -0.06522624 -0.074881636 -0.021234035
0.13060941 0.10964379 0.101577386 0.10198603 0.17148846 0.077176414 0.018576352 0.016209776
0.10228061 -0.03420971 0.035646163 -0.07516026 -0.03050847 -0.05239598 -0.06257482 -0.04318168
0.029363096 0.0058912635 0.18168966 0.059287675 0.13117714 0.054407213 0.10719667 0.11095717
0.12027304 0.16706894 0.08860093 0.029357683 0.15109949 0.052945666 0.018742038 0.038979836
0.16881849 0.059613224 0.031528756 0.016370563 0.1296352 0.1598894 0.14378813 0.14575857
0.07403271 0.16673853 0.13554695 0.06800028 0.07706542 0.018038817 -0.034027487 0.041062243
-0.018297993 0.040594757 0.002427578 0.028425045 -0.0004242584 -0.0010155216 0.06742539 -0.08286288
0.027935155 -0.052497357 -0.06278841 0.012507401 0.044268183 -0.008934021 0.07877589 -0.0486067
-0.060826804 -0.15388784 0.012369315 -0.14221546 -0.038077064 -0.10178834 -0.066235535 -0.1375806
-0.007439777 0.003776654 0.11686662 -0.012446027 -0.021814432 -0.008863095 0.053783957 0.052811973
0.09577045 -0.0025177887 0.07145144 -0.015275984 0.04451033 0.09070886 0.07144664 0.109524466
0.107685186 0.15060672 -0.015292562 0.11613884 0.09532475 0.046741094 0.05125557 0.16865113
-0.024947487 0.018626409 0.0568908 0.01626233 0.0379334 0.006497033 -0.08078928 -0.07575056
0.062124707 0.053813733 0.045686923 0.0325211 -0.018118873 -0.07211849 0.024794608 0.050171033
0.057633128 -0.056316096 0.020644289 -0.033589307 -0.025491362 0.022183193 0.12649842 0.109740525
0.08375897 0.16488776 0.062268283 -0.0030018373 0.0732316 0.09850098 -0.05436511 0.013491958
-0.03510505 0.008615285 -0.018166274 -0.003109252 -0.079021685 -0.06683065 0.037088666 0.03561285
0.0155848265 -0.077859454 -0.032309614 0.03012234 0.0049104393 0.030431174 0.05098433 -0.016244166
0.0022869292 0.07105277 0.053844072 -0.07390857 0.030869763 -0.021358654 0.007185308 -0.026759973
0.017380396 -0.034860045 0.04178355 -0.042713176 -0.0018920004 -0.042212605 0.003513135 -0.0006900057
-0.04163773 -0.070295125 -0.05634748 0.013634238 0.046049654 -0.01789651 0.055538535 -0.014804075
0.07622396 -0.038914554 -0.0047201267 0.041635968 0.0887554 -0.017022343 -0.039178368 -0.036940016
-0.043880336 0.053208135 -0.033810336 0.032526065 -0.002060316 0.049891647 0.05595466 0.0024650062
00000000: e389 0f3e 4275 1d3e 8605 143e 1115 6c3d
00000010: 5671 193d fc0a 143e 91d6 bb3d 6acc 373d
00000020: d67d 203e 06cf 97bd 525e 47bd 0981 a9bd
00000030: 08de 4bbd b39f d7bd a1f0 0bbe a68e 0cbd
00000040: a580 bbbd 952c 28be b91a 533b 97bf b3bc
00000050: 40b2 cabd 1829 36bb 62e9 2cbc 3a3c fdbc
00000060: dcc7 98bd 4283 58bd d9b6 13be fc90 e3bc
00000070: 1055 be3c 8ca3 b7bc 0a26 a9bd 7c5c 943c
00000080: 9915 943d 500f babc 006d 023d 1313 74bd
00000090: 8231 d53d 224b dd3d acd1 353d b2fa 7b3d
000000a0: 7b04 893d 71b2 0d3e 496a c53d 1001 723d
000000b0: bd06 8c3d 8785 d8bd c175 08bd 5121 a6bb
000000c0: 65f5 eb3b 218e 2bbd 586a edbd 3d6d 11bd
000000d0: 4673 19be f459 22be 05ed b5bd c90f 9cbd
000000e0: e69c a3bd 198a 883d 8190 c5bc f5c2 8dbc
000000f0: c070 9a3b 5d21 e6bc fb7a 0abc bc11 f53c
00000100: 646a bd3c a412 8ebd 9048 b33b 4800 1c3d
00000110: aae2 563d 5695 85bd 8b5b 99bd 00f3 adbc
00000120: 79be 053e ec8c e03d ce07 d03d 0dde d03d
00000130: ac9a 2f3e ab0e 9e3d 6f2d 983c 5dca 843c
00000140: 7f78 d13d 7b1f 0cbd b601 123d 9fed 99bd
00000150: e6ec f9bc 2b9d 56bd 3a27 80bd 46df 30bd
00000160: e08a f03c 800b c13b db0c 3a3e a2d7 723d
00000170: 4d53 063e 19da 5e3d ed89 db3d 833d e33d
00000180: b651 f63d 1f14 2b3e 6874 b53d 867f f03c
00000190: d3b9 1a3e 8edd 583d e788 993c 52a9 1f3d
000001a0: c1de 2c3e ff2c 743d 4c24 013d 8f1b 863c
000001b0: 17bf 043e 0cba 233e 323d 133e bc41 153e
000001c0: 769e 973d 81bd 2a3e d2cc 0a3e bb43 8b3d
000001d0: 7ad4 9d3d 24c6 933c 6860 0bbd e230 283d
000001e0: ace5 95bc b046 263d 0018 1f3b a4db e83c
000001f0: 006f deb9 401b 85ba 5316 8a3d 03b4 a9bd
00000200: 44d8 e43c 7807 57bd 3697 80bd d8eb 4c3c
00000210: 8e52 353d 0060 12bc 4155 a13d d217 47bd
00000220: 8725 79bd c694 1dbe aba8 4a3c eea0 11be
00000230: b2f6 1bbd 6876 d0bd 7fa6 87bd eee1 0cbe
00000240: 5fc9 f3bb bd81 773b c457 ef3d 6cea 4bbc
00000250: 2eb4 b2bc 8436 11bc 914c 5c3d 5e51 583d
00000260: 4c23 c43d 7c01 25bb 2255 923d 1f48 7abc
00000270: 7750 363d 91c5 b93d 9e52 923d 5d4e e03d
00000280: 0d8a dc3d a638 1a3e a78d 7abc 33da ed3d
00000290: 9f39 c33d 9773 3f3d 5cf1 513d e2b2 2c3e
000002a0: ac5e ccbc 6996 983c 5406 693d 9438 853c
000002b0: 0e60 1b3d 10e5 d43b da74 a5bd 1c23 9bbd
000002c0: 7a76 7e3d ca6b 5c3d 3622 3b3d d834 053d
000002d0: 086e 94bc dcb2 93bd 101e cb3c 2480 4d3d
000002e0: b710 6c3d b5ab 66bd 361e a93c f194 09bd
000002f0: 43d3 d0bc 87b9 b53c cd88 013e a4bf e03d
00000300: d389 ab3d 56d8 283e 070d 7f3d 79ba 44bb
00000310: 73fa 953d e2ba c93d f3ad 5ebd 600d 5d3c
00000320: 50ca 0fbd 2027 0d3c 70d1 94bc 98c4 4bbb
00000330: 1fd6 a1bd 82de 88bd 49ea 173d c8de 113d
00000340: 8057 7f3c c774 9fbd 1657 04bd 20c3 f63c
00000350: c0e7 a03b cc4a f93c f2d4 503d 7c12 85bc
00000360: 4ee0 153b 1d84 913d 9a8b 5c3d 605d 97bd
00000370: 96e2 fc3c 58f8 aebc bb72 eb3b bb37 dbbc
00000380: 5561 8e3c 68c9 0ebd 3a25 2b3d 03f4 2ebd
00000390: 00fd f7ba 20e7 2cbd a03c 663b 80e1 34ba
000003a0: 538c 2abd e4f6 8fbd 9dcc 66bd 2462 5f3c
000003b0: 909e 3c3d b49b 92bc 607c 633d ca8c 72bc
000003c0: 4f1b 9c3d de64 1fbd 4bab 9abb 7a8a 2a3d
000003d0: 64c5 b53d 7172 8bbc 7f79 20bd 6a4e 17bd
000003e0: debb 33bd c6f0 593d b57c 0abd 0d3a 053d
000003f0: 5e06 07bb 2f5b 4c3d b730 653d f18b 213b

encoder.encoder.2.bias f4 [32]
0.03573292 -0.029603831 0.13842379 0.1216325 0.13756663 -0.050383557 0.13772501 0.15421139
-0.009196669 0.086802736 -0.02992779 0.15934967 0.17006329 -0.48980322 0.08808703 -0.09295392
-0.06599687 0.02751036 -0.08865584 0.10716509 0.010870241 -0.060135294 -0.045106716 -0.039571736
0.0784701 0.080925494 -0.03186655 0.5485799 0.097603984 0.027181072 0.13608281 0.15393505
00000000: af5c 123d bc83 f2bc f7be 0d3e 761a f93d
00000010: 44de 0c3e fd5e 4ebd c907 0d3e 97e9 1d3e
00000020: a0ad 16bc a2c5 b13d 202b f5bc 8f2c 233e
00000030: 1225 2e3e 7dc7 fabe f966 b43d a05e bebd
00000040: 5e29 87bd 685d e13c 3191 b5bd 5f79 db3d
00000050: 1819 323c 6d50 76bd d2c1 38bd f915 22bd
00000060: efb4 a03d 44bc a53d 8086 02bd bb6f 0c3f
00000070: 99e4 c73d d7aa de3c 4b59 0b3e 26a1 1d3e

decoder.decoder.0.weight f4 [32, 16, 3, 3]
0.08133328 0.022873404 -0.002442907 0.009847223 0.037472058 0.07705896 -0.008884671 0.025764642
0.03184608 0.0771722 0.057141528 0.13335083 0.033075422 0.16555461 0.15980645 0.059320305
0.17942789 0.1384229 0.12594186 0.1427941 0.14169563 0.11940359 0.06985386 0.16421293
0.0802811 0.058213323 0.088065155 0.013692898 -0.06396966 0.022550896 -0.07828186 -0.061006658
-0.02396817 -0.08525117 -0.07554384 -0.104500026 0.13147677 0.05097218 0.1339392 0.1529252
0.19039705 0.027256787 0.060862858 0.0721841 0.068831906 0.02175864 0.010108132 0.016177129
0.10054643 0.12244576 0.14722157 0.06689681 0.12652633 0.034571737 0.07199306 0.02636761
-0.08130203 -0.024544356 0.0013129273 -0.042086717 -0.019427165 -0.06632284 0.0035229663 0.06334978
0.029016284 0.0783538 0.019062473 0.055817172 0.024362817 0.001068123 -0.006641354 0.020996392
-0.03300071 0.008808028 0.033689372 0.022773042 0.047205053 0.032514215 -0.053828932 0.063102424
-0.100484684 0.13116874 -0.00454782 -0.018441245 -0.00619611 0.018663596 0.042643525 0.13935305
0.10547842 0.098426215 0.07197889 0.054395363 0.12777005 -0.05835248 0.041906543 0.06561989
0.079342045 -0.07013839 0.10258606 0.018208982 -0.0077821612 0.044930134 -0.050445598 -0.049131904
0.06399555 0.040770978 0.015797585 -0.027631614 -0.08091837 0.009257856 -0.054114122 0.052035835
-0.07310134 -0.0038073873 -0.0035850774 -0.027167236 -0.056009255 0.10655328 0.10997428 -0.03803415
0.029487517 0.043212906 -0.05931895 0.069424085 0.1163014 0.012616562 0.05697954 -0.043722615
0.04030225 0.0464112 -0.06444301 0.013927103 -0.01396818 0.039944995 -0.068871744 0.03142416
-0.029360067 -0.0022352654 0.157381 0.054094445 0.016206013 0.13649084 0.0884874 0.008355619
0.083470985 0.07655039 0.008845622 0.107125 -0.034877367 0.057070225 0.046909582 0.015748339
-0.0325721 -0.13488314 -0.012552161 -0.15079112 -0.021198042 -0.111090034 -0.09385081 -0.11516174
-0.052110974 -0.058710944 0.01610199 -0.084332384 -0.08031352 -0.08836817 -0.03272068 -0.043700878
-0.07038458 -0.004806565 -0.12601599 0.033033103 0.027871307 -0.06281894 0.048463196 -0.00961563
-0.049785227 -0.041524947 -0.03451256 -0.059924036 -0.19426924 -0.09324272 -0.024769114 -0.072222084
-0.27499974 -0.13463157 -0.19981582 0.0031727043 -0.16198468 -0.03912355 -0.0253091 -0.060634885
-0.1395955 -0.06002369 -0.1924176 -0.08358978 0.0010870018 -0.07214042 -0.07066597 0.08038712
0.030939551 0.066696785 0.0054122712 0.15688628 -0.035371196 0.107863694 0.07214851 0.059560016
0.025290234 -0.004933191 0.13128594 0.1145329 0.119004995 0.021411685 0.1324372 0.17774874
0.047088187 -0.014546056 0.09403386 0.058969375 0.118056335 -0.0017965173 -0.031246826 -0.069277294
0.16932869 -0.056247912 -0.23363191 0.006592608 -0.060538355 -0.09200928 -0.13930295 -0.023687007
-0.14343587 -0.09086743 -0.11368075 0.053555157 0.16958678 0.05225935 0.08388109 0.10384589
-0.31768125 0.056506813 -0.073031105 0.054280095 0.08101895 -0.026075862 0.022932447 0.06509208
-0.06212014 -0.050761633 -0.06475953 -0.06150785 0.07611315 -0.06063498 0.07231926 0.070246495
00000000: 1092 a63d 0161 bb3c 2e19 20bb 3f56 213c
00000010: 4d7c 193d 17d1 9d3d 0391 11bc 5f10 d33c
00000020: 0971 023d 750c 9e3d 3c0d 6a3d 1f8d 083e
00000030: 187a 073d 2687 293e 4da4 233e d9f9 723d
00000040: f2bb 373e bcbe 0d3e e7f6 003e 9e38 123e
00000050: a918 113e df89 f43d 8a0f 8f3d 6f27 283e
00000060: 6b6a a43d 1871 6e3d 815b b43d 2d58 603c
00000070: 8602 83bd a8bc b83c 3d52 a0bd 1ee2 79bd
00000080: e558 c4bc 2a98 aebd bbb6 9abd 1c04 d6bd
00000090: d9a1 063e 34c8 503d 5c27 093e 6c98 1c3e
000000a0: 72f7 423e a049 df3c 554b 793d 42d5 933d
000000b0: bef7 8c3d 2d3f b23c 949c 253c e685 843c
000000c0: 49eb cd3d d8c4 fa3d 40c1 163e 3201 893d
000000d0: 1e90 013e 189b 0d3d 1971 933d e300 d83c
000000e0: ae81 a6bd 3f11 c9bc 8816 ac3a 1f63 2cbd
000000f0: b825 9fbc 45d4 87bd 91e1 663b 88bd 813d
00000100: 8fb3 ed3c f577 a03d e728 9c3c 8ca0 643d
00000110: 8894 c73c 4300 8c3a b79f d9bb a000 ac3c
00000120: c12b 07bd 8c4f 103c defd 093d 888e ba3c
00000130: 165a 413d a02d 053d ba7b 5cbd d83b 813d
00000140: eaca cdbd 1951 063e e105 95bb 1812 97bc
00000150: bd08 cbbb 66e4 983c faaa 2e3d 91b2 0e3e
00000160: 1205 d83d af93 c93d ab69 933d accd 5e3d
00000170: 27d6 023e 0303 6fbd 32a6 2b3d b963 863d
00000180: 157e a23d b7a4 8fbd a418 d23d 012b 953c
00000190: 8001 ffbb a908 383d 0ba0 4ebd 893e 49bd
000001a0: 1910 833d 78ff 263d f069 813c b25b e2bc
000001b0: 88b8 a5bd 43ae 173c c5a6 5dbd 8723 553d
000001c0: 28b6 95bd 5c85 79bb 9ef3 6abb d38d debc
000001d0: f669 65bd 9b38 da3d 323a e13d b2c9 1bbd
000001e0: ce8f f13c 0400 313d 6df8 72bd 372e 8e3d
000001f0: 6e2f ee3d b2b5 4e3c 6163 693d 7c16 33bd
00000200: f913 253d ac19 3e3d b2fa 83bd 812e 643c
00000210: cbda 64bc 5d9d 233d a10c 8dbd 9fb6 003d
00000220: 8684 f0bc 887d 12bb 7c28 213e 2392 5d3d
00000230: 79c2 843c 41c4 0b3e e238 b53d 02e6 083c
00000240: d6f2 aa3d 73c6 9c3d 3aed 103c 5a64 db3d
00000250: 92db 0ebd 78c2 693d 4324 403d a902 813c
00000260: 536a 05bd ce1e 0abe 94a7 4dbc fd68 1abe
00000270: 84a7 adbc 2c83 e3bd da34 c0bd ebd9 ebbd
00000280: 5172 55bd e37a 70bd 52e8 833c 75b6 acbd
00000290: 6a7b a4bd 5ffa b4bd 1f06 06bd b1ff 32bd
000002a0: ca25 90bd 6480 9dbb 560a 01be b84d 073d
000002b0: 5e52 e43c 37a7 80bd 5881 463d e08a 1dbc
000002c0: 98eb 4bbd 1016 2abd 0b5d 0dbd e872 75bd
000002d0: 84ee 46be 0af6 bebd 99e8 cabc 2ce9 93bd
000002e0: c4cc 8cbe dcdc 09be 859c 4cbe 25ed 4f3b
000002f0: 50df 25be 0440 20bd 0855 cfbc 495c 78bd
00000300: 1ff2 0ebe 67db 75bd 1f09 45be 1e31 abbd
00000310: ba79 8e3a 5bbe 93bd 52b9 90bd 01a2 a43d
00000320: f174 fd3c 5398 883d 6c59 b13b cca6 203e
00000330: 63e1 10bd a4e7 dc3d 99c2 933d 34f5 733d
00000340: 772d cf3c 9ba6 a1bb d26f 063e 3a90 ea3d
00000350: e4b8 f33d 8f67 af3c 9e9d 073e c403 363e
00000360: 8bdf 403d 9552 6ebc d394 c03d df89 713d
00000370: 85c7 f13d 1e79 ebba 58f9 ffbc 41e1 8dbd
00000380: 8064 2d3e 3664 66bd 343d 6fbe ce06 d83b
00000390: 11f7 77bd 5d6f bcbd 6fa5 0ebe 410b c2bc
000003a0: dae0 12be b418 babd 74d1 e8bd a75c 5b3d
000003b0: 28a8 2d3e e60d 563d d9c9 ab3d 27ad d43d
000003c0: 1ea7 a2be b073 673d 5591 95bd ce54 5e3d
000003d0: 43ed a53d 0c9d d5bc d4dc bb3c ff4e 853d
000003e0: b071 7ebd 6eeb 4fbd a5a0 84bd a8ef 7bbd
000003f0: 36e1 9b3d 635c 78bd 1f1c 943d 65dd 8f3d

decoder.decoder.0.bias f4 [16]
-0.0743356 0.08745439 0.105446585 0.03987052 0.06552618 0.094467394 -0.047483437 -0.019934723
-0.023204371 0.09888513 -0.074005544 -0.07919096 0.050673053 0.06738313 0.036734167 0.114335194
00000000: 433d 98bd 4a1b b33d 61f4 d73d 454f 233d
00000010: 9732 863d 1f78 c13d fe7d 42bd 254e a3bc
00000020: 1817 bebc 4984 ca3d 3890 97bd df2e a2bd
00000030: 8c8e 4f3d 2b00 8a3d 9176 163d 9228 ea3d

decoder.decoder.2.weight f4 [16, 1, 3, 3]
0.34327954 -0.18792877 0.30224395 0.17276858 -0.21153416 -0.029178962 -0.026245473 0.24252465
0.21401298 -0.04716939 0.060602643 0.20470966 0.1140499 -0.37194917 -0.3948653 0.04918265
-0.23554085 -0.19130355 -0.27810413 -0.006613265 -0.18604025 -0.30511546 -0.3769916 -0.13891593
0.03789689 0.08729929 -0.36334014 -0.024932655 0.034799732 0.29772207 -0.06406798 -0.28625026
0.16239965 -0.014337647 -0.22401762 0.19731508 -0.23723595 -0.26061818 -0.36414453 0.07654696
-0.4540596 0.07815058 -0.18357249 -0.3153706 -0.08178936 -0.041392837 -0.072272874 -0.0110526895
-0.14641702 -0.17466585 -0.08323781 -0.3163291 0.12621701 -0.2808184 -0.10274692 0.33418977
0.3756129 0.012837009 -0.04938183 0.27046216 0.27551576 0.36514705 0.46091434 -0.38208503
0.050415818 0.016109401 0.23145962 0.35896236 0.35474902 0.123261094 0.31929117 -0.12521015
-0.13136242 0.07409293 -0.22938469 0.050285984 0.20253944 0.27986643 -0.23958781 0.13687964
0.2227551 -0.33106613 0.0028783975 -0.30787566 -0.010370485 0.0082384 -0.3603209 -0.082147226
-0.43462667 -0.31580365 0.17632245 -0.12758568 0.3797804 -0.14267664 0.23644364 -0.0066738063
0.35780305 0.084932774 0.505074 -0.6407904 0.29449075 -0.30205333 -0.16333263 0.2423694
0.0090654325 -0.26414502 -0.33401188 -0.45361307 0.19784358 0.1444135 0.3109548 -0.31764904
-0.29121476 0.30338177 0.06760794 0.25839052 -0.10373017 0.21049565 -0.38214642 0.280543
0.094833925 0.105330095 -0.13382281 -0.29701063 -0.30621377 -0.32913068 -0.13956925 0.28081414
-0.26075143 -0.18796244 0.26300278 -0.2669816 0.024846336 0.12396994 0.067923576 0.13085045
-0.3447453 -0.20947161 -0.23911265 0.18728752 -0.17070292 -0.02301846 0.0062268204 -0.24341981
00000000: 56c2 af3e 6670 40be b8bf 9a3e 3fea 303e
00000010: 699c 58be b808 efbc bf00 d7bc 6258 783e
00000020: 3826 5b3e b134 41bd 7a3a 783d 699f 513e
00000030: fe92 e93d 1f70 bebe c92b cabe bf73 493d
00000040: 9f31 71be 14e5 43be aa63 8ebe 16b4 d8bb
00000050: 5681 3ebe 1838 9cbe 0b05 c1be fa3f 0ebe
00000060: c539 1b3d f8c9 b23d b807 babe 913f ccbc
00000070: 2a8a 0e3d 076f 983e 1336 83bd 658f 92be
00000080: 184c 263e 73e8 6abc e064 65be f70c 4a3e
00000090: fbed 72be bf6f 85be 2771 babe a7c4 9c3d
000000a0: 807a e8be 690d a03d 6dfa 3bbe 4178 a1be
000000b0: 2e81 a7bd 898b 29bd cd03 94bd 5716 35bc
000000c0: 58ee 15be 9bdb 32be 9678 aabd e3f5 a1be
000000d0: 083f 013e 6ec7 8fbe fa6c d2bd ec1a ab3e
000000e0: 5650 c03e 5152 523c 9a44 4abd 047a 8a3e
000000f0: 6710 8d3e 8ef4 ba3e f7fc eb3e a6a0 c3be
00000100: d180 4e3d ddf7 833c c003 6d3e eac9 b73e
00000110: aaa1 b53e 5070 fc3d 227a a33e 1737 00be
00000120: df83 06be 09be 973d d2e3 6abe adf8 4d3d
00000130: 8066 4f3e a74a 8f3e 8256 75be 2d2a 0c3e
00000140: ea19 643e 8081 a9be 7fa3 3c3b e1a1 9dbe
00000150: f7e8 29bc 5bfa 063c fb7b b8be ce3c a8bd
00000160: 6387 debe 04b1 a1be df8d 343e d2a5 02be
00000170: 9472 c23e d319 12be 481e 723e f2af dabb
00000180: f631 b73e 3cf1 ad3d 884c 013f d70a 24bf
00000190: 7ec7 963e bca6 9abe ab40 27be af2f 783e
000001a0: 2e87 143c 043e 87be 9b03 abbe f93f e8be
000001b0: 8297 4a3e 22e1 133e 7835 9f3e e5a2 a2be
000001c0: 1a1a 95be db54 9b3e 0876 8a3d c34b 843e
000001d0: 7c70 d4bd 2c8c 573e b2a8 c3be 55a3 8f3e
000001e0: 4a38 c23d 4eb7 d73d d908 09be c711 98be
000001f0: 0dc8 9cbe d183 a8be 3eeb 0ebe dfc6 8f3e
00000200: 3681 85be 3a79 40be 4da8 863e d0b1 88be
00000210: 8b8a cb3c f4e3 fd3d 841b 8b3d a9fd 053e
00000220: 7582 b0be ba7f 56be f2d9 74be 4dc8 3f3e
00000230: bfcc 2ebe 3691 bcbc 5b0a cc3b 0b43 79be
