500_ML/models/weights_7399_10-04_04:16.pt (torch_old, 39980 bytes, 7 tensors)

encoder.encoder.0.weight f4 [16, 1, 3, 3]
-0.09519957 0.07993212 -0.17139234 0.3471059 0.31925625 0.38800684 0.40356672 0.12358794
0.34902716 0.19660987 -0.073558636 -0.16873981 0.45065245 0.46756482 -0.027893426 0.23509215
0.30898225 0.066240005 0.16895637 0.18031855 -0.028195756 0.40998322 0.19252948 0.30690852
0.25493157 0.09987109 0.29463357 -0.27051812 0.26098374 -0.19083163 -0.0146887 -0.016939789
-0.2581439 0.21345022 -0.12912452 -0.21571796 0.23750009 -0.06302724 -0.023765577 0.30881876
-0.02349268 0.019174533 0.12318419 -0.06386879 -0.08695506 -0.22293384 0.06496093 0.22516486
-0.09661632 0.42800602 0.3737276 0.25860727 0.3461009 0.35794708 0.11909185 -0.085680805
0.27916384 -0.061298717 -0.023993436 -0.24470113 0.3101626 -0.13475709 -0.19941846 -0.08658683
-0.003947377 0.17507449 -0.06574735 -0.19453523 -0.15257096 -0.053739578 -0.32485574 0.22694471
-0.2218843 -0.1637693 0.15646245 0.026835276 -0.0011255125 0.081233226 0.19217347 0.23403627
0.21904592 0.108932585 -0.28029352 -0.009535193 -0.17183642 0.061692715 -0.09474668 -0.106225654
-0.31138456 0.3084226 0.3747277 0.19194435 -0.1809082 0.0010046219 0.29744372 -0.011064496
-0.09039767 0.27752835 -0.22081059 0.015552666 -0.12921518 0.29396388 -0.20159788 -0.011901599
-0.011710964 0.065408945 0.2806215 0.05799739 -0.2043309 -0.12592885 0.18715306 -0.21135157
0.014754713 0.35729215 0.37225917 0.19160698 0.29621437 0.04356551 0.071581006 -0.26988482
-0.039701432 0.104377985 -0.26365983 0.16485944 0.042655498 -0.15990376 -0.095012784 -0.0784587
0.1930283 -0.2537993 0.09169665 -0.22978723 0.11048019 0.037910968 -0.2844319 0.2998954
0.31912997 0.014206799 -0.15914844 0.30061 -0.019952092 0.19666854 -0.005209395 0.24977325
00000000: fef7 c2bd 74b3 a33d 7981 2fbe ddb7 b13e
00000010: 8e75 a33e d5a8 c63e 4ca0 ce3e ad1b fd3d
00000020: b0b3 b23e 1954 493e e9a5 96bd 21ca 2cbe
00000030: ebbb e63e a864 ef3e c180 e4bc ffbb 703e
00000040: ec32 9e3e d7a8 873d e602 2d3e 6da5 383e
00000050: c9fa e6bc 52e9 d13e 7326 453e 1d23 9d3e
00000060: 6486 823e 3789 cc3d 36da 963e 5a81 8abe
00000070: a99f 853e 5e69 43be e0a8 70bc 50c5 8abc
00000080: 702b 84be b292 5a3e 3839 04be 2be5 5cbe
00000090: 3933 733e 6d14 81bd 07b0 c2bc 7e1d 9e3e
000000a0: b973 c0bc e913 9d3c fe47 fc3d a4cd 82bd
000000b0: 7f15 b2bd c548 64be 3c0a 853d 9e91 663e
000000c0: c7de c5bd 9b23 db3e 3959 bf3e 2c68 843e
000000d0: 2334 b13e d744 b73e 6ee6 f33d 6b79 afbd
000000e0: 90ee 8e3e 5d14 7bbd e28d c4bc ef92 7abe
000000f0: a2cd 9e3e c3fd 09be 5a34 4cbe 7054 b1bd
00000100: 0059 81bb ba46 333e 8ca6 86bd 3e34 47be
00000110: 903b 1cbe 081e 5cbd 7e53 a6be 3264 683e
00000120: a335 63be 24b3 27be b137 203e a7d5 db3c
00000130: ef85 93ba 9b5d a63d 1fc9 443e 34a7 6f3e
00000140: 934d 603e 0c18 df3d a282 8fbe 8039 1cbc
00000150: e3f5 2fbe 80b1 7c3d 8c0a c2bd d68c d9bd
00000160: cc6d 9fbe 91e9 9d3e 4fdc bf3e 0f8d 443e
00000170: 0040 39be 84ad 833a 8b4a 983e dc47 35bc
00000180: 6a22 b9bd 3218 8e3e 2c1c 62be 9cd0 7e3c
00000190: fc50 04be 6f82 963e ad6f 4ebe edfe 42bc
000001a0: 58df 3fbc 20f5 853d 9fad 8f3e ac8e 6d3d
000001b0: 1f3c 51be 7ef3 00be 0da5 3f3e 8c6c 58be
000001c0: c0bd 713c ffee b63e c198 be3e 9f34 443e
000001d0: 69a9 973e c071 323d 1099 923d 582e 8abe
000001e0: f89d 22bd 20c4 d53d 6cfe 86be ead0 283e
000001f0: 88b7 2e3d d0bd 23be 1096 c2bd f4ae a0bd
00000200: 36a9 453e fbf1 81be 74cb bb3d 584d 6bbe
00000210: 7043 e23d 8848 1b3d 0fa1 91be e48b 993e
00000220: 0165 a33e a2c3 683c cff7 22be 8ee9 993e
00000230: 9272 a3bc 7a63 493e 93b3 aabb 8fc4 7f3e

encoder.encoder.0.bias f4 [16]
0.3395414 -0.006876808 -0.011528669 -0.25462943 0.24198996 -0.018854667 -0.18522042 -0.24903318
0.23545851 -0.18420951 0.11495197 0.17635001 0.19831377 -0.19028609 -0.24569869 -0.09842926
00000000: 5fd8 ad3e d956 e1bb bee2 3cbc ca5e 82be
00000010: 37cc 773e 1a75 9abc 6caa 3dbe 8e02 7fbe
00000020: 091c 713e 6ba1 3cbe f06b eb3d 1995 343e
00000030: c412 4b3e 5bda 42be 7098 7bbe 4895 c9bd

encoder.encoder.2.weight f4 [32, 16, 3, 3]
0.14008254 0.1537644 0.14459343 0.0576117 0.037493672 0.14462529 0.09167737 0.04487974
0.15674914 -0.072440796 -0.047788665 -0.07937452 -0.04831736 -0.10564888 -0.13607208 -0.033050396
-0.09275255 -0.16501568 0.0053760693 -0.0194797 -0.09441053 -0.0020641424 -0.010718115 -0.029909655
-0.074022956 -0.05377141 -0.14453408 -0.027779095 0.02323392 -0.022416852 -0.082592085 0.018110506
0.07230682 -0.02271238 0.03184223 -0.059588503 0.104014754 0.10804974 0.044407755 0.061478447
0.06693582 0.13841505 0.096360214 0.059118975 0.068403274 -0.10508375 -0.03187457 -0.0022716525
0.0074000577 -0.041809186 -0.11498195 -0.035693027 -0.15070434 -0.158637 -0.088830985 -0.07620198
-0.079889104 0.06666965 -0.024116756 -0.017304877 0.004713148 -0.02809208 -0.008452172 0.029915683
0.02312202 -0.06937149 0.0054712966 0.038086206 0.052462257 -0.06522624 -0.074881636 -0.021234035
0.13043796 0.109591894 0.10154776 0.1019293 0.1715346 0.07723067 0.018501006 0.016230425
0.10231039 -0.03420971 0.035646163 -0.07516026 -0.03050847 -0.05239598 -0.06257482 -0.04318168
0.029363096 0.0058912635 0.18174283 0.05952555 0.13161324 0.054319937 0.10718108 0.111101806
0.12025369 0.16707964 0.08868697 0.029194927 0.15108687 0.052955665 0.018644761 0.03902166
0.16888604 0.05951511 0.03155546 0.016419137 0.12945952 0.15986018 0.14380191 0.14569399
0.07408236 0.16681248 0.13545403 0.06800765 0.07709621 0.018038817 -0.034027487 0.041062243
-0.018297993 0.040594757 0.002427578 0.028425045 -0.0004242584 -0.0010155216 0.06742539 -0.08286288
0.027935155 -0.052497357 -0.06278841 0.012507401 0.044268183 -0.008934021 0.07877589 -0.048613783
-0.060833324 -0.15389399 0.012362385 -0.14222123 -0.038082894 -0.10179505 -0.066240855 -0.13758507
-0.007024596 0.004528701 0.11732844 -0.012663508 -0.021404918 -0.008513202 0.052481238 0.05210558
0.09513007 -0.002299959 0.072221674 -0.01584038 0.04444715 0.092152804 0.07270605 0.106508344
0.105748706 0.1492606 -0.01647079 0.11465286 0.09271665 0.047566343 0.053190958 0.17013203
-0.02719226 0.017519442 0.056099564 0.01626233 0.0379334 0.006497033 -0.08078928 -0.07575056
0.062124707 0.053813733 0.045686923 0.0325211 -0.018553616 -0.072102204 0.024611996 0.04979078
0.057737317 -0.05612481 0.02019978 -0.033592302 -0.025313033 0.022589266 0.12654124 0.10917482
0.08461084 0.16622472 0.0631988 -0.0050492743 0.072040156 0.09703295 -0.05436511 0.013491958
-0.03510505 0.008615285 -0.018166274 -0.003109252 -0.079021685 -0.06683065 0.037088666 0.03561285
0.0155848265 -0.077859454 -0.032309614 0.03012234 0.0049104393 0.030431174 0.05098433 -0.016244166
0.0032825172 0.07248325 0.05522818 -0.07409692 0.031127894 -0.021109603 0.005848994 -0.027691392
0.016415821 -0.034860045 0.04178355 -0.042713176 -0.0018920004 -0.042212605 0.003513135 -0.0006900057
-0.04163773 -0.070295125 -0.05832383 0.012142678 0.04373988 -0.017979106 0.05662402 -0.014072126
0.075883254 -0.0381135 -0.003876224 0.04176773 0.08924622 -0.016635405 -0.0389719 -0.03633832
-0.043409485 0.052344717 -0.034223944 0.031988315 -0.00096068386 0.0512987 0.057260063 0.0025576765
00000000: cc71 0f3e 6a74 1d3e 4d10 143e 3ffa 6b3d
00000010: f792 193d a718 143e 58c1 bb3d d1d3 373d
00000020: d982 203e d75b 94bd 0cbe 43bd 1c8f a2bd
00000030: 6de8 45bd 715e d8bd 7b56 0bbe da5f 07bd
00000040: 0df5 bdbd dff9 28be bd29 b03b e493 9fbc
00000050: 4f5a c1bd 9046 07bb 089b 2fbc 1805 f5bc
00000060: 5999 97bd 693f 5cbd be00 14be fc90 e3bc
00000070: 1055 be3c 8ca3 b7bc 0a26 a9bd 7c5c 943c
00000080: 9915 943d 500f babc 006d 023d 1313 74bd
00000090: b005 d53d 2f49 dd3d e8e4 353d d3d0 7b3d
000000a0: a615 893d adbc 0d3e 8158 c53d bd26 723d
000000b0: 0417 8c3d 2636 d7bd e98e 02bd 01e0 14bb
000000c0: 2f7c f23b 1c40 2bbd a87b ebbd da32 12bd
000000d0: 3d52 1abe bd71 22be 05ed b5bd c90f 9cbd
000000e0: e69c a3bd 198a 883d 8190 c5bc f5c2 8dbc
000000f0: c070 9a3b 5d21 e6bc fb7a 0abc bc11 f53c
00000100: 646a bd3c a412 8ebd 9048 b33b 4800 1c3d
00000110: aae2 563d 5695 85bd 8b5b 99bd 00f3 adbc
00000120: 8791 053e b771 e03d 46f8 cf3d 4fc0 d03d
00000130: c4a6 2f3e 1d2b 9e3d 6c8f 973c abf5 843c
00000140: 1c88 d13d 7b1f 0cbd b601 123d 9fed 99bd
00000150: e6ec f9bc 2b9d 56bd 3a27 80bd 46df 30bd
00000160: e08a f03c 800b c13b cb1a 3a3e 10d1 733d
00000170: 9fc5 063e 957e 5e3d c181 db3d 5889 e33d
00000180: 9147 f63d ed16 2b3e 84a1 b53d 332a ef3c
00000190: 84b6 1a3e 0ae8 583d e6bc 983c 2dd5 1f3d
000001a0: 76f0 2c3e 1ec6 733d 4c40 013d 6d81 863c
000001b0: 0991 043e 63b2 233e cf40 133e ce30 153e
000001c0: 7eb8 973d e4d0 2a3e 76b4 0a3e 9847 8b3d
000001d0: 9ee4 9d3d 24c6 933c 6860 0bbd e230 283d
000001e0: ace5 95bc b046 263d 0018 1f3b a4db e83c
000001f0: 006f deb9 401b 85ba 5316 8a3d 03b4 a9bd
00000200: 44d8 e43c 7807 57bd 3697 80bd d8eb 4c3c
00000210: 8e52 353d 0060 12bc 4155 a13d 3f1f 47bd
00000220: 5d2c 79bd 6396 1dbe 9a8b 4a3c 71a2 11be
00000230: cffc 1bbd ec79 d0bd 49a9 87bd 1ae3 0cbe
00000240: 952e e6bb 7f65 943b e549 f03d 9a7a 4fbc
00000250: 5e59 afbc f57a 0bbc 91f6 563d a96c 553d
00000260: 8ed3 c23d e9ba 16bb f5e8 933d afc3 81bc
00000270: 370e 363d 9cba bc3d e9e6 943d 0c21 da3d
00000280: c792 d83d c5d7 183e c0ed 86bc 1ecf ea3d
00000290: 3ae2 bd3d edd4 423d c3de 593d 1737 2e3e
000002a0: 4dc2 debc ef84 8f3c a8c8 653d 9438 853c
000002b0: 0e60 1b3d 10e5 d43b da74 a5bd 1c23 9bbd
000002c0: 7a76 7e3d ca6b 5c3d 3622 3b3d d834 053d
000002d0: c1fd 97bc 52aa 93bd 199f c93c 6bf1 4b3d
000002e0: f77d 6c3d 21e3 65bd 027a a53c 1598 09bd
000002f0: 475d cfbc 200d b93c 0794 013e 0c97 df3d
00000300: 7348 ad3d d036 2a3e 5f6e 813d 6274 a5bb
00000310: ca89 933d 36b9 c63d f3ad 5ebd 600d 5d3c
00000320: 50ca 0fbd 2027 0d3c 70d1 94bc 98c4 4bbb
00000330: 1fd6 a1bd 82de 88bd 49ea 173d c8de 113d
00000340: 8057 7f3c c774 9fbd 1657 04bd 20c3 f63c
00000350: c0e7 a03b cc4a f93c f2d4 503d 7c12 85bc
00000360: 801f 573b 1972 943d f236 623d 20c0 97bd
00000370: edff fe3c 0cee acbc eba8 bf3b 0fd9 e2bc
00000380: 797a 863c 68c9 0ebd 3a25 2b3d 03f4 2ebd
00000390: 00fd f7ba 20e7 2cbd a03c 663b 80e1 34ba
000003a0: 538c 2abd e4f6 8fbd f8e4 6ebd 15f2 463c
000003b0: 9728 333d eb48 93bc 97ee 673d c68e 66bc
000003c0: ae68 9b3d e71c 1cbd 3f08 7ebb a414 2b3d
000003d0: b9c6 b63d f946 88bc 00a1 1fbd 7dd7 14bd
000003e0: 25ce 31bd 6a67 563d 682e 0cbd 2e06 033d
000003f0: 67d6 7bba 961e 523d 8789 6a3d b19e 273b

encoder.encoder.2.bias f4 [32]
0.03575973 -0.02963603 0.13847983 0.12166294 0.13760543 -0.05048166 0.13775432 0.15422074
-0.009196669 0.08682496 -0.02992779 0.15938266 0.17010379 -0.49020252 0.08812532 -0.09278612
-0.06597402 0.028285945 -0.08865584 0.107185714 0.010870241 -0.060135294 -0.044939566 -0.03956982
0.07849044 0.08094886 -0.03186655 0.54982644 0.09764326 0.027206205 0.13610466 0.153988
00000000: cb78 123d 42c7 f2bc a8cd 0d3e 6b2a f93d
00000010: 70e8 0c3e dbc5 4ebd 780f 0d3e 0bec 1d3e
00000020: a0ad 16bc 49d1 b13d 202b f5bc 3535 233e
00000030: b02f 2e3e d3fb fabe 0c7b b43d a606 bebd
00000040: 631d 87bd edb7 e73c 3191 b5bd 2f84 db3d
00000050: 1819 323c 6d50 76bd 8d12 38bd f713 22bd
00000060: 99bf a03d 84c8 a53d 8086 02bd 6dc1 0c3f
00000070: 31f9 c73d 8cdf de3c 055f 0b3e 08af 1d3e

decoder.decoder.0.weight f4 [32, 16, 3, 3]
0.081360385 0.022854313 -0.002516964 0.009695743 0.037069503 0.077916235 -0.008557739 0.025745764
0.03268665 0.07704818 0.057200465 0.13337727 0.033064995 0.1654771 0.15988629 0.059224553
0.17941569 0.1385917 0.12599777 0.14275987 0.1416031 0.11932774 0.06984036 0.16418207
0.0802352 0.058154024 0.08800053 0.013692898 -0.06311306 0.022550896 -0.07828186 -0.061006658
-0.02396817 -0.08525117 -0.077725604 -0.104500026 0.13151015 0.050920192 0.13383132 0.15271355
0.19042355 0.027207145 0.06074995 0.072248645 0.068804406 0.021598956 0.010025156 0.015994541
0.10032928 0.12239088 0.14716154 0.06768178 0.12641338 0.035490636 0.0719714 0.026419798
-0.08130203 -0.02431496 0.0013079665 -0.042026512 -0.019427165 -0.06627346 0.0035229663 0.063354135
0.029051868 0.07726875 0.019582435 0.05583595 0.024358407 -0.00065022754 -0.006613955 0.020180024
-0.032741923 0.008808028 0.033879094 0.020793458 0.049589604 0.032697458 -0.054490812 0.063102424
-0.103878535 0.13114847 -0.004555405 -0.01851578 -0.0061955927 0.018643348 0.042656437 0.13925838
0.10568783 0.09833349 0.07212984 0.05437038 0.12780127 -0.05780554 0.04208889 0.065996446
0.07942707 -0.070033975 0.102917336 0.018208982 -0.0077821612 0.044930134 -0.050445598 -0.04987766
0.06399555 0.040770978 0.015797585 -0.027631614 -0.08092284 0.009257856 -0.054114122 0.052035835
-0.07310134 -0.0038073873 -0.0036021918 -0.027167236 -0.056035474 0.106668025 0.110052824 -0.038191695
0.029478325 0.04352011 -0.059668984 0.069511645 0.11639318 0.0123058325 0.05697954 -0.04332991
0.04022461 0.05063683 -0.06444301 0.015777174 -0.01396818 0.03823287 -0.06784674 0.031431317
-0.02936494 -0.0022854495 0.15737802 0.054094445 0.01620039 0.13671686 0.08848437 0.008445007
0.084295705 0.07653818 0.009348481 0.10549046 -0.036783207 0.0571449 0.043341774 0.016064733
-0.035530053 -0.13431513 -0.014915985 -0.15125912 -0.014758451 -0.10938655 -0.08294759 -0.116167866
-0.052674998 -0.06059762 0.019229088 -0.08069783 -0.077751376 -0.08758991 -0.03292169 -0.0440884
-0.068001606 -0.0021443637 -0.1253802 0.033033103 0.03092639 -0.06281894 0.048463196 -0.00961563
-0.049785227 -0.041524947 -0.03051241 -0.059924036 -0.19270532 -0.08951781 -0.02338034 -0.07045535
-0.2733595 -0.13284345 -0.19532585 0.008136194 -0.1593679 -0.040997997 -0.022200998 -0.06397268
-0.1372024 -0.05919423 -0.19021618 -0.085445136 0.0021426475 -0.074407354 -0.071201004 0.07916948
0.03055495 0.066754445 0.0054122712 0.15662158 -0.035695173 0.10632508 0.07195019 0.06004723
0.023972629 -0.004013702 0.13121504 0.11473465 0.11865457 0.02033216 0.133118 0.178366
0.04599285 -0.014661467 0.09403702 0.058505528 0.118379734 -0.0013979839 -0.030763658 -0.06934168
0.17484623 -0.056999553 -0.24098341 0.0061570215 -0.059371274 -0.08984403 -0.13882942 -0.02120643
-0.14446653 -0.0890976 -0.11334034 0.053632997 0.171308 0.050137825 0.08214345 0.10152868
-0.31875792 0.055278014 -0.072371095 0.054280095 0.08101895 -0.026075862 0.022932447 0.06670147
-0.06212014 -0.050761633 -0.06475953 -0.06150785 0.07356769 -0.06063498 0.07047958 0.070246495
00000000: 46a0 a63d f838 bb3c a6f3 24bb e5da 1e3c
00000010: 31d6 173d 8c92 9f3d c235 0cbc c8e8 d23c
00000020: 70e2 053d 70cb 9d3d 094b 6a3d 0d94 083e
00000030: 296f 073d d472 293e 3bb9 233e 7295 723d
00000040: bfb8 373e fcea 0d3e 8f05 013e a52f 123e
00000050: 6700 113e 1a62 f43d 7608 8f3d 581f 283e
00000060: 5a52 a43d ea32 6e3d 9f39 b43d 2d58 603c
00000070: 6c41 81bd a8bc b83c 3d52 a0bd 1ee2 79bd
00000080: e558 c4bc 2a98 aebd 9a2e 9fbd 1c04 d6bd
00000090: 99aa 063e b191 503d 140b 093e f160 1c3e
000000a0: 64fe 423e 85e1 de3c f1d4 783d 19f7 933d
000000b0: 53e9 8c3d 4bf0 b03c 8d40 243c fc06 833c
000000c0: 7079 cd3d 12a8 fa3d 84b1 163e bf9c 8a3d
000000d0: 8272 013e a15e 113d be65 933d 556e d83c
000000e0: ae81 a6bd 2b30 c7bc 1370 ab3a fe23 2cbd
000000f0: b825 9fbc 61ba 87bd 91e1 663b d0bf 813d
00000100: 2ffe ed3c 143f 9e3d 586b a03c 3db4 643d
00000110: 488b c73c 0874 2aba e0b9 d8bb 9450 a53c
00000120: 651c 06bd 8c4f 103c cec4 0a3d 0b57 aa3c
00000130: 781e 4b3d c5ed 053d c231 5fbd d83b 813d
00000140: 45be d4bd c94b 063e 8245 95bb 68ae 97bc
00000150: 6604 cbbb efb9 983c 84b8 2e3d c099 0e3e
00000160: dc72 d83d 1263 c93d cfb8 933d 7ab3 5e3d
00000170: 56de 023e 80c5 6cbd 6665 2c3d 2529 873d
00000180: a9aa a23d f96d 8fbd 53c6 d23d 012b 953c
00000190: 8001 ffbb a908 383d 0ba0 4ebd 844c 4cbd
000001a0: 1910 833d 78ff 263d f069 813c b25b e2bc
000001b0: e0ba a5bd 43ae 173c c5a6 5dbd 8723 553d
000001c0: 28b6 95bd 5c85 79bb c012 6cbb d38d debc
000001d0: 7485 65bd c474 da3d 6063 e13d e56e 1cbd
000001e0: 877c f13c 2542 323d 7767 74bd 1f5c 8e3d
000001f0: 8c5f ee3d 679e 493c 6163 693d b47a 31bd
00000200: 90c2 243d 9168 4f3d b2fa 83bd 223f 813c
00000210: cbda 64bc 129a 1c3d 3bf3 8abd 20be 003d
00000220: be8e f0bc 7bc7 15bb b427 213e 2392 5d3d
00000230: aeb6 843c 81ff 0b3e 4b37 b53d ed5c 0a3c
00000240: 3aa3 ac3d 0dc0 9c3d 5f2a 193c 620b d83d
00000250: fda9 16bd c510 6a3d 2587 313d 309a 833c
00000260: f687 11bd e889 09be 2d62 74bc ace3 1abe
00000270: 6ecd 71bc 0e06 e0bd 6de0 a9bd 6be9 edbd
00000280: bdc1 57bd 3635 78bd 5286 9d3c e744 a5bd
00000290: 1d3c 9fbd 5762 b3bd e5d8 06bd 0a96 34bd
000002a0: 6d44 8bbd 7488 0cbb ab63 00be b84d 073d
000002b0: 5759 fd3c 37a7 80bd 5881 463d e08a 1dbc
000002c0: 98eb 4bbd 1016 2abd 29f5 f9bc e872 75bd
000002d0: 8b54 45be 1d55 b7bd 2088 bfbc e54a 90bd
000002e0: c7f5 8bbe 1d08 08be 8003 48be ac4d 053c
000002f0: 5731 23be 84ed 27bd dede b5bc 1c04 83bd
00000300: c97e 0cbe a675 72bd 08c8 42be dcfd aebd
00000310: a96b 0c3b e262 98bd d5d1 91bd 9c23 a23d
00000320: 604e fa3c 8eb6 883d 6c59 b13b 6861 203e
00000330: 1a35 12bd f7c0 d93d 9f5a 933d 16f4 753d
00000340: 3f62 c43c 5f85 83bb 3c5d 063e 00fa ea3d
00000350: 2b01 f33d a18f a63c 1650 083e 94a5 363e
00000360: 0063 3c3d a636 70bc 7b96 c03d 7ea3 6f3d
00000370: 1371 f23d 8e3c b7ba 1104 fcbc 0303 8ebd
00000380: e40a 333e 5d78 69bd 5bc4 76be d7c0 c93b
00000390: 4b2f 73bd 2600 b8bd 4d29 0ebe 1bb9 adbc
000003a0: 09ef 13be cd78 b6bd fb1e e8bd 46ae 5b3d
000003b0: 5d6b 2f3e 525d 4d3d d33a a83d 45ee cf3d
000003c0: 3d34 a3be 336b 623d 4c37 94bd ce54 5e3d
000003d0: 43ed a53d 0c9d d5bc d4dc bb3c c89a 883d
000003e0: b071 7ebd 6eeb 4fbd a5a0 84bd a8ef 7bbd
000003f0: a8aa 963d 635c 78bd 9957 903d 65dd 8f3d

decoder.decoder.0.bias f4 [16]
-0.07459168 0.08747483 0.10545446 0.03987737 0.065544434 0.09444931 -0.04747409 -0.019974414
-0.02334361 0.098887764 -0.07416526 -0.07961399 0.050673053 0.06736085 0.036703397 0.1143113
00000000: 86c3 98bd 0126 b33d 82f8 d73d 7456 233d
00000010: 293c 863d a46e c13d 3174 42bd 62a1 a3bc
00000020: 193b bfbc ab85 ca3d f5e3 97bd a90c a3bd
00000030: 8c8e 4f3d 7cf4 893d 4d56 163d 0b1c ea3d

decoder.decoder.2.weight f4 [16, 1, 3, 3]
0.3425596 -0.18820983 0.30224264 0.17194724 -0.2121663 -0.028966365 -0.02567301 0.24262094
0.2143857 -0.046744037 0.060587972 0.2050651 0.113948666 -0.37202623 -0.39491037 0.04929354
-0.23574099 -0.1912596 -0.27792606 -0.0065749795 -0.18583478 -0.30515367 -0.37703574 -0.13888936
0.038036067 0.08716982 -0.3632692 -0.024062311 0.032355484 0.2973913 -0.065701105 -0.28855026
0.16178381 -0.015369113 -0.22448978 0.19672549 -0.23689498 -0.2606186 -0.36392546 0.076509215
-0.4541202 0.07813436 -0.1833993 -0.3155069 -0.08167417 -0.04144756 -0.072690286 -0.010881897
-0.14646284 -0.17481643 -0.083637096 -0.31637058 0.12544462 -0.28146297 -0.103368595 0.33382404
0.37430334 0.013479469 -0.050129462 0.27192292 0.27541226 0.36503676 0.46141285 -0.3828694
0.050256148 0.015535903 0.23099862 0.35918528 0.35489273 0.123677514 0.31998017 -0.1242521
-0.13365515 0.074236505 -0.22973995 0.052040935 0.20385474 0.27955747 -0.23912139 0.13824376
0.22361991 -0.3303313 0.0024254308 -0.3076462 -0.010698649 0.00784939 -0.36038524 -0.082589805
-0.4348897 -0.31605354 0.17626755 -0.12698686 0.37966013 -0.14129856 0.23702067 -0.0059826006
0.357937 0.08535081 0.5053439 -0.6611121 0.3041454 -0.30146483 -0.21786153 0.20894985
-0.05807812 -0.2579979 -0.37254366 -0.46844697 0.19799352 0.1444135 0.3109548 -0.31764904
-0.2911802 0.30338177 0.06760794 0.25839052 -0.10373017 0.21074145 -0.38228673 0.28041893
0.09446774 0.10500547 -0.13397747 -0.29710853 -0.30666214 -0.3290716 -0.14026618 0.28030667
-0.261011 -0.18735331 0.26319993 -0.26766074 0.02553221 0.12441553 0.068200395 0.1308928
-0.34476817 -0.20960991 -0.23913473 0.18718153 -0.17083324 -0.023010861 0.0060445988 -0.24375409
00000000: f963 af3e 14ba 40be 8cbf 9a3e f012 303e
00000010: 1f42 59be df4a edbc 3450 d2bc a071 783e
00000020: ed87 5b3e ad76 3fbd 182b 783d 96fc 513e
00000030: eb5d e93d 397a bebe b131 cabe 06e8 493d
00000040: 1666 71be 8ed9 43be 534c 8ebe ed72 d7bb
00000050: 794b 3ebe 1a3d 9cbe d40a c1be 0339 0ebe
00000060: b5cb 1b3d 1786 b23d 6cfe b9be 531e c5bc
00000070: 2f87 043d ac43 983e 4d8e 86bd dcbc 93be
00000080: a8aa 253e bbce 7bbc a6e0 65be 6872 493e
00000090: 9994 72be cd6f 85be 7054 babe ddb0 9c3d
000000a0: 7182 e8be e804 a03d 07cd 3bbe 1f8a a1be
000000b0: ca44 a7bd ebc4 29bd a5de 94bd fc49 32bc
000000c0: 5bfa 15be 1403 33be ed49 abbd 53fb a1be
000000d0: 8e74 003e ea1b 90be eab2 d3bd fcea aa3e
000000e0: b0a4 bf3e fed8 5c3c 8d54 4dbd 7b39 8b3e
000000f0: d602 8d3e 19e6 ba3e 4e3e ec3e 7507 c4be
00000100: 64d9 4d3d 4d8a 7e3c e78a 6c3e 22e7 b73e
00000110: 80b4 b53e a34a fd3d 71d4 a33e e377 febd
00000120: e5dc 08be 4f09 983d f340 6bbe e028 553d
00000130: 4cbf 503e 2822 8f3e 3ddc 74be c68f 0d3e
00000140: 9efc 643e 2f21 a9be faf3 1e3b cd83 9dbe
00000150: 6349 2fbc ba9a 003c 6a84 b8be d824 a9bd
00000160: dda9 debe c5d1 a1be 7b7f 343e d808 02be
00000170: d062 c23e 92b0 10be 8cb5 723e b109 c4bb
00000180: 8543 b73e 68cc ae3d 385e 013f a53e 29bf
00000190: f2b8 9b3e 9959 9abe 1817 5fbe f3f6 553e
000001a0: 53e3 6dbd 4d18 84be 0bbe bebe 48d8 efbe
000001b0: d0be 4a3e 22e1 133e 7835 9f3e e5a2 a2be
000001c0: 9215 95be db54 9b3e 0876 8a3d c34b 843e
000001d0: 7c70 d4bd 9bcc 573e 16bb c3be 1293 8f3e
000001e0: 4d78 c13d 1c0d d73d 6431 09be 9c1e 98be
000001f0: d202 9dbe 137c a8be f0a1 0fbe 5b84 8f3e
00000200: 3ca3 85be 8cd9 3fbe 24c2 863e d40a 89be
00000210: ed28 d13c 92cd fe3d a6ac 8b3d c308 063e
00000220: 7485 b0be fba3 56be bcdf 74be 84ac 3f3e
00000230: e9ee 2ebe 4681 bcbc c511 c63b ac9a 79be
