500_ML/models/weights_5299_10-04_04:16.pt (torch_old, 39980 bytes, 7 tensors)

encoder.encoder.0.weight f4 [16, 1, 3, 3]
000000 49 25 ca bd 13 d9 9e 3d 49 5a 32 be fe 11 b0 3e
       -0.09870393 0.07756247 -0.17417254 0.34388727
000010 fa 64 a2 3e 24 7c c5 3e 24 1a cd 3e c8 23 fa 3d
       0.31717664 0.38571274 0.40059006 0.12213856
000020 1b e9 b1 3e 9c ca 48 3e b0 f2 9d bd c0 ed 2b be
       0.34748158 0.1960854 -0.077123046 -0.16789913
000030 81 7a e2 3e f7 1d e9 3e 09 4d 1c bd 4e cd 69 3e
       0.44234088 0.45530674 -0.038159404 0.22832224
000040 4d 4c 98 3e 59 70 67 3d 11 ff 2d 3e bd 28 32 3e
       0.29745713 0.056503627 0.16991831 0.17398353
000050 c9 21 e1 bc 7c 9b d0 3e b0 4d 38 3e c0 24 99 3e
       -0.02748193 0.40743625 0.17998385 0.2991085
000060 78 54 80 3e 32 c4 a9 3d 63 f6 8f 3e 5a 81 8a be
       0.25064445 0.082893744 0.28117666 -0.27051812
000070 a9 9f 85 3e 5e 69 43 be e0 a8 70 bc 50 c5 8a bc
       0.26098374 -0.19083163 -0.0146887 -0.016939789
000080 70 2b 84 be b2 92 5a 3e 38 39 04 be 2b e5 5c be
       -0.2581439 0.21345022 -0.12912452 -0.21571796
000090 19 12 70 3e 10 f3 80 bd e0 04 d5 bc b2 d1 9c 3e
       0.23444404 -0.062963605 -0.026003301 0.30628735
0000a0 94 8c b0 bc c2 f0 a1 3c 26 d6 f7 3d b6 b7 77 bd
       -0.021551408 0.019768123 0.121013924 -0.060477935
0000b0 d6 d4 ac bd 41 87 59 be 89 fa 86 3d 7f 28 6d 3e
       -0.08439033 -0.21243002 0.065907545 0.2315998
0000c0 30 3e c0 bd 11 9d d6 3e 5c 48 bc 3e 49 06 84 3e
       -0.09386861 0.41916707 0.36773956 0.25786045
0000d0 82 8c a9 3e 14 51 b0 3e 6e e6 f3 3d 6b 79 af bd
       0.3311501 0.34436858 0.11909185 -0.085680805
0000e0 90 ee 8e 3e 5d 14 7b bd e2 8d c4 bc ef 92 7a be
       0.27916384 -0.061298717 -0.023993436 -0.24470113
0000f0 a2 cd 9e 3e c3 fd 09 be 5a 34 4c be 70 54 b1 bd
       0.3101626 -0.13475709 -0.19941846 -0.08658683
000100 00 59 81 bb ba 46 33 3e 8c a6 86 bd 3e 34 47 be
       -0.003947377 0.17507449 -0.06574735 -0.19453523
000110 90 3b 1c be 08 1e 5c bd 7e 53 a6 be 32 64 68 3e
       -0.15257096 -0.053739578 -0.32485574 0.22694471
000120 19 ab 62 be fb 3d 25 be ec 34 21 3e 47 72 cf 3c
       -0.22135581 -0.16136925 0.15742844 0.025323046
000130 34 73 5f b9 c3 78 a6 3d d2 04 40 3e 92 1e 6e 3e
       -0.00021309854 0.08128502 0.18751839 0.23253849
000140 46 ed 5d 3e 0c 18 df 3d a2 82 8f be 80 39 1c bc
       0.21672544 0.108932585 -0.28029352 -0.009535193
000150 e3 f5 2f be 80 b1 7c 3d 8c 0a c2 bd d6 8c d9 bd
       -0.17183642 0.061692715 -0.09474668 -0.106225654
000160 cc 6d 9f be 91 e9 9d 3e e8 99 bb 3e 5e d4 3d 3e
       -0.31138456 0.3084226 0.3664086 0.18538043
000170 62 f9 3f be 3d ae 0c bb d6 86 97 3e f9 2a 40 bc
       -0.18747476 -0.0021466159 0.2959506 -0.0117289955
000180 92 4e bb bd 98 8a 8e 3e 51 19 60 be 7f 0c 74 3c
       -0.091458455 0.27840114 -0.21884657 0.014895557
000190 69 ce 03 be 3c 26 96 3e d2 b0 4e be 73 6c 2a bc
       -0.12871708 0.29326046 -0.20184639 -0.010401833
0001a0 00 79 2f bc 97 30 83 3d 72 24 90 3e ca ea 6f 3d
       -0.010710001 0.06405752 0.28152806 0.05857352
0001b0 44 13 53 be e7 4d 02 be 61 c7 3e 3e 07 e4 5a be
       -0.20612818 -0.1272503 0.18630745 -0.21376048
0001c0 cb 22 4d 3c ef 08 b6 3e de c2 bc 3e 90 d7 40 3e
       0.012520502 0.3555369 0.36867422 0.1883223
0001d0 2d 32 96 3e c0 71 32 3d 10 99 92 3d 58 2e 8a be
       0.29335156 0.04356551 0.071581006 -0.26988482
0001e0 f8 9d 22 bd 20 c4 d5 3d 6c fe 86 be ea d0 28 3e
       -0.039701432 0.104377985 -0.26365983 0.16485944
0001f0 88 b7 2e 3d d0 bd 23 be 10 96 c2 bd f4 ae a0 bd
       0.042655498 -0.15990376 -0.095012784 -0.0784587
000200 36 a9 45 3e fb f1 81 be 74 cb bb 3d 58 4d 6b be
       0.1930283 -0.2537993 0.09169665 -0.22978723
000210 70 43 e2 3d 88 48 1b 3d 0f a1 91 be d5 81 99 3e
       0.11048019 0.037910968 -0.2844319 0.29981866
000220 42 58 a3 3e aa 1a 67 3c cc 07 23 be 59 dd 99 3e
       0.31903273 0.014105478 -0.15920943 0.30051687
000230 b7 43 a4 bc 80 53 49 3e aa f7 ad bb 81 aa 7f 3e
       -0.02005182 0.19660759 -0.005309065 0.24967386

encoder.encoder.0.bias f4 [16]
000000 35 e0 ad 3e 87 89 db bb 92 72 3f bc ca 5e 82 be
       0.3396012 -0.006699744 -0.011685031 -0.25462943
000010 d6 a0 77 3e dc eb 9e bc 6c aa 3d be 8e 02 7f be
       0.24182448 -0.019399576 -0.18522042 -0.24903318
000020 43 f3 70 3e 6b a1 3c be 3a 71 eb 3d ee 71 34 3e
       0.23530297 -0.18420951 0.11496206 0.17621586
000030 38 1f 4b 3e 5b da 42 be 70 98 7b be 24 cc c9 bd
       0.19836128 -0.19028609 -0.24569869 -0.0985339

encoder.encoder.2.weight f4 [32, 16, 3, 3]
000000 74 e4 0f 3e d4 64 1d 3e 1c cc 13 3e d7 c7 6c 3d
       0.14051992 0.15370494 0.1443333 0.05780777
000010 69 f6 18 3d 9c dc 13 3e a5 25 bc 3d ee 60 37 3d
       0.03734437 0.14439625 0.091868676 0.044770174
000020 0e 5b 20 3e 6d 0c a9 bd f3 d2 59 bd f1 d4 c4 bd
       0.15659735 -0.08254323 -0.053179692 -0.09610928
000030 66 09 64 bd 87 c9 d2 bd 24 28 0c be 94 46 2f bd
       -0.055673026 -0.102923445 -0.13687187 -0.042791918
000040 fe 84 b7 bd 3c 61 26 be 4b 3f df bb b7 fb 03 bd
       -0.08960913 -0.1624803 -0.006812965 -0.032222476
000050 47 3e ef bd e1 8d c7 bb 11 0d 16 bc da 07 08 bd
       -0.116818 -0.0060899113 -0.009158389 -0.033210613
000060 ba 09 a3 bd 5f a9 50 bd b6 53 13 be fc 90 e3 bc
       -0.079608396 -0.050942775 -0.14387402 -0.027779095
000070 10 55 be 3c 8c a3 b7 bc 0a 26 a9 bd 7c 5c 94 3c
       0.02323392 -0.022416852 -0.082592085 0.018110506
000080 99 15 94 3d 50 0f ba bc 00 6d 02 3d 13 13 74 bd
       0.07230682 -0.02271238 0.03184223 -0.059588503
000090 2e e8 d5 3d dc 22 dd 3d 3b 3e 35 3d cd ee 7c 3d
       0.104446754 0.107976645 0.0442488 0.061751176
0000a0 be ab 88 3d 2d 86 0d 3e 22 d0 c5 3d 5b 31 71 3d
       0.06673382 0.13820715 0.09658839 0.05888496
0000b0 28 b6 8b 3d d0 6b e0 bd 72 c2 1f bd 4c 35 83 bc
       0.06821853 -0.109580636 -0.039003797 -0.016016625
0000c0 94 4c c9 3b 13 cd 27 bd 0e 54 f2 bd 06 22 17 bd
       0.006143162 -0.04096706 -0.118324384 -0.03689768
0000d0 10 d5 16 be 18 ba 22 be 05 ed b5 bd c9 0f 9c bd
       -0.14729714 -0.15891302 -0.088830985 -0.07620198
0000e0 e6 9c a3 bd 19 8a 88 3d 81 90 c5 bc f5 c2 8d bc
       -0.079889104 0.06666965 -0.024116756 -0.017304877
0000f0 c0 70 9a 3b 5d 21 e6 bc fb 7a 0a bc bc 11 f5 3c
       0.004713148 -0.02809208 -0.008452172 0.029915683
000100 64 6a bd 3c a4 12 8e bd 90 48 b3 3b 48 00 1c 3d
       0.02312202 -0.06937149 0.0054712966 0.038086206
000110 aa e2 56 3d 56 95 85 bd 8b 5b 99 bd 00 f3 ad bc
       0.052462257 -0.06522624 -0.074881636 -0.021234035
000120 b6 6b 06 3e 43 c5 e0 3d 01 14 d0 3d 55 80 d1 3d
       0.13127026 0.10975125 0.101600654 0.102295555
000130 87 6b 2f 3e 52 a1 9d 3d 5c e2 9a 3c 97 a8 83 3c
       0.17130862 0.07696785 0.018906765 0.0160716
000140 e8 1c d1 3d 7b 1f 0c bd b6 01 12 3d 9f ed 99 bd
       0.102105916 -0.03420971 0.035646163 -0.07516026
000150 e6 ec f9 bc 2b 9d 56 bd 3a 27 80 bd 46 df 30 bd
       -0.03050847 -0.05239598 -0.06257482 -0.04318168
000160 e0 8a f0 3c 80 0b c1 3b cc e8 39 3e ed 3b 6e 3d
       0.029363096 0.0058912635 0.18155211 0.05816262
000170 c9 75 04 3e 9a e1 60 3d 98 70 db 3d 98 03 e2 3d
       0.12935556 0.05490265 0.10714835 0.11035842
000180 9e b4 f6 3d 23 e2 2a 3e 84 aa b4 3d 2c b5 f5 3c
       0.12046169 0.16687827 0.08821586 0.029993616
000190 66 ac 1a 3e 52 46 58 3d 5b 45 9d 3c 15 e0 1e 3d
       0.15104827 0.052801438 0.01919811 0.03878792
0001a0 b5 90 2c 3e b2 14 76 3d 20 9d 00 3d 31 4f 84 3c
       0.16852076 0.06007833 0.031399846 0.016151043
0001b0 82 6b 05 3e b4 be 23 3e f7 16 13 3e 85 9a 15 3e
       0.13029292 0.15990716 0.14364229 0.14609726
0001c0 b9 42 97 3d b1 77 2a 3e d0 2c 0b 3e cd 10 8b 3d
       0.07385773 0.16647221 0.13591313 0.06790314
0001d0 a0 70 9d 3d 24 c6 93 3c 68 60 0b bd e2 30 28 3d
       0.07687497 0.018038817 -0.034027487 0.041062243
0001e0 ac e5 95 bc b0 46 26 3d 00 18 1f 3b a4 db e8 3c
       -0.018297993 0.040594757 0.002427578 0.028425045
0001f0 00 6f de b9 40 1b 85 ba 53 16 8a 3d 03 b4 a9 bd
       -0.0004242584 -0.0010155216 0.06742539 -0.08286288
000200 44 d8 e4 3c 78 07 57 bd 36 97 80 bd d8 eb 4c 3c
       0.027935155 -0.052497357 -0.06278841 0.012507401
000210 8e 52 35 3d 00 60 12 bc 41 55 a1 3d e8 d7 46 bd
       0.044268183 -0.008934021 0.07877589 -0.048545748
000220 29 e7 78 bd db 84 1d be d2 9e 4b 3c 3c 91 11 be
       -0.060767327 -0.15382712 0.012428002 -0.14215559
000230 f1 bb 1b bd 50 5c d0 bd f8 8c 87 bd 8c d4 0c be
       -0.03802103 -0.10173857 -0.066186845 -0.13752955
000240 b7 8c 17 bc de 1d 8b b9 3a 7c e9 3d 10 06 3c bc
       -0.009249858 -0.000265344 0.114006475 -0.011476055
000250 eb 06 ca bc 99 f1 41 bc 35 71 7d 3d 65 62 6b 3d
       -0.024661502 -0.0118373865 0.06187554 0.057466883
000260 3f 51 cc 3d b2 95 d6 ba 9e 4c 8d 3d 65 c1 63 bc
       0.09976434 -0.0016371517 0.06899379 -0.013901089
000270 59 f7 39 3d 79 06 ac 3d c5 36 83 3d ae 48 00 3e
       0.045401905 0.08399672 0.06406931 0.12527725
000280 56 cb f1 3d 8d c4 20 3e 99 52 13 bc f6 d7 f9 3d
       0.118063614 0.15699978 -0.008991861 0.121993944
000290 2c 28 d6 3d 7a bf 36 3d 1d 1b 2f 3d 0e ab 24 3e
       0.10456881 0.0446162 0.042750467 0.16080877
0002a0 86 82 4f bc bc d0 c9 3c 60 d0 77 3d 94 38 85 3c
       -0.012665397 0.024635665 0.060501456 0.01626233
0002b0 0e 60 1b 3d 10 e5 d4 3b da 74 a5 bd 1c 23 9b bd
       0.0379334 0.006497033 -0.08078928 -0.07575056
0002c0 7a 76 7e 3d ca 6b 5c 3d 36 22 3b 3d d8 34 05 3d
       0.062124707 0.053813733 0.045686923 0.0325211
0002d0 f9 2e 86 bc a8 5a 94 bd 62 be cb 3c 5d 5b 56 3d
       -0.01637982 -0.07243854 0.024871055 0.052333225
0002e0 9d 1e 6c 3d ce ba 6b bd 29 33 c0 3c ac df 05 bd
       0.057646383 -0.057551198 0.023461895 -0.032684013
0002f0 c7 de d7 bc cc a2 b6 3c c0 32 01 3e 50 5d e5 3d
       -0.026351346 0.022294424 0.12617016 0.111994386
000300 81 80 a5 3d 52 cd 21 3e e0 5c 69 3d f0 65 ed 3b
       0.08081151 0.1580098 0.056973338 0.007244818
000310 78 0a a0 3d c5 88 d6 3d f3 ad 5e bd 60 0d 5d 3c
       0.07814497 0.104753055 -0.05436511 0.013491958
000320 50 ca 0f bd 20 27 0d 3c 70 d1 94 bc 98 c4 4b bb
       -0.03510505 0.008615285 -0.018166274 -0.003109252
000330 1f d6 a1 bd 82 de 88 bd 49 ea 17 3d c8 de 11 3d
       -0.079021685 -0.06683065 0.037088666 0.03561285
000340 80 57 7f 3c c7 74 9f bd 16 57 04 bd 20 c3 f6 3c
       0.0155848265 -0.077859454 -0.032309614 0.03012234
000350 c0 e7 a0 3b cc 4a f9 3c f2 d4 50 3d 7c 12 85 bc
       0.0049104393 0.030431174 0.05098433 -0.016244166
000360 c9 e2 36 bb 79 86 81 3d 98 01 3e 3d 17 4a 96 bd
       -0.002790617 0.06324477 0.04638824 -0.0733835
000370 64 74 e9 3c 86 36 c2 bc d8 5a 78 3c 42 17 ad bc
       0.028497882 -0.02370764 0.015158378 -0.021129254
000380 96 10 bf 3c 68 c9 0e bd 3a 25 2b 3d 03 f4 2e bd
       0.023323338 -0.034860045 0.04178355 -0.042713176
000390 00 fd f7 ba 20 e7 2c bd a0 3c 66 3b 80 e1 34 ba
       -0.0018920004 -0.042212605 0.003513135 -0.0006900057
0003a0 53 8c 2a bd e4 f6 8f bd 44 a2 34 bd a3 71 b2 3c
       -0.04163773 -0.070295125 -0.04410006 0.021782702
0003b0 ee 9d 70 3d 13 d1 80 bc 8b 17 48 3d d1 20 a3 bc
       0.058744363 -0.015724694 0.048850577 -0.019913109
0003c0 aa 27 a4 3d 10 47 33 bd 51 32 34 bc f4 16 28 3d
       0.08015378 -0.043768942 -0.0109983245 0.041037515
0003d0 b1 69 af 3d 29 e4 9d bc a3 ff 24 bd 3a fc 26 bd
       0.08565081 -0.019273834 -0.040282857 -0.040767886
0003e0 4c 0d 3f bd 51 fa 6c 3d e0 56 03 bd 3f 60 10 3d
       -0.04664354 0.057855908 -0.032065272 0.035248037
0003f0 6c bf f1 bb d2 b6 2b 3d ce 9f 47 3d 11 d4 c8 3a
       -0.0073775556 0.041922398 0.048736386 0.001532199

encoder.encoder.2.bias f4 [32]
000000 9c db 11 3d 16 e8 f0 bc dd 68 0d 3e 9b b5 f8 3d
       0.035609826 -0.029407542 0.13809533 0.121440135
000010 19 a7 0c 3e 8f 47 4c bd 6e e1 0c 3e 42 e6 1d 3e
       0.13735618 -0.04987293 0.1375787 0.15419868
000020 a0 ad 16 bc a4 8d b1 3d 20 2b f5 bc 88 09 23 3e
       -0.009196669 0.08669594 -0.02992779 0.15921605
000030 75 f4 2d 3e f7 44 f9 be b3 f1 b3 3d 4e b8 bf bd
       0.16987784 -0.48685429 0.08786335 -0.09361325
000040 81 1a 87 bd 47 69 cb 3c 31 91 b5 bd f5 4b db 3d
       -0.06596852 0.024830474 -0.08865584 0.10707847
000050 18 19 32 3c 6d 50 76 bd 35 d1 39 bd 39 21 22 bd
       0.010870241 -0.060135294 -0.04536553 -0.039582465
000060 41 85 a0 3d 66 81 a5 3d 80 86 02 bd 59 c2 09 3f
       0.07837916 0.080813214 -0.03186655 0.53812176
000070 eb 86 c7 3d 4f 96 dd 3c 11 30 0b 3e 3e 54 1d 3e
       0.097425304 0.027049212 0.13592555 0.15364167

decoder.decoder.0.weight f4 [32, 16, 3, 3]
000000 92 4c a5 3d c7 da bb 3c 08 6b db ba 04 89 0d 3c
       0.08071245 0.02293147 -0.0016740272 0.008638624
000010 ce 14 23 3d d6 98 92 3d 85 bf 1f bc a7 89 d3 3c
       0.039814763 0.071580574 -0.009750252 0.025822474
000020 16 d3 de 3c fe 07 9f 3d f8 a5 69 3d ba 3d 08 3e
       0.027200263 0.07765196 0.057043046 0.13304797
000030 bd fb 07 3d f3 db 29 3e 5f 6d 23 3e f6 c8 74 3d
       0.03319906 0.1658781 0.1595969 0.059761964
000040 5a a3 37 3e 86 33 0d 3e 46 c7 00 3e ce 81 12 3e
       0.17933407 0.13789186 0.12576017 0.14307329
000050 7f 76 11 3e ce 3b f5 3d 17 89 8f 3d 66 58 28 3e
       0.14205359 0.119742975 0.0700857 0.16439971
000060 5d 46 a4 3d 89 11 6f 3d 89 7f b4 3d 2d 58 60 3c
       0.08021233 0.058366332 0.08813388 0.013692898
000070 dc 8a 87 bd a8 bc b8 3c 3d 52 a0 bd 1e e2 79 bd
       -0.06618282 0.022550896 -0.07828186 -0.061006658
000080 e5 58 c4 bc 2a 98 ae bd 2c 51 8d bd 1c 04 d6 bd
       -0.02396817 -0.08525117 -0.06900248 -0.104500026
000090 87 7a 06 3e d8 c0 51 3d 07 93 09 3e 7a 79 1d 3e
       0.13132678 0.0512093 0.13434993 0.15378371
0000a0 da bf 42 3e 5b f7 e0 3c c2 22 7b 3d 6c 0a 93 3d
       0.19018498 0.027461698 0.061312445 0.07179722
0000b0 2a 0f 8d 3d a6 14 b5 3c 4e fd 31 3c 23 c2 85 3c
       0.06887658 0.022104573 0.010863615 0.016327923
0000c0 48 c1 cf 3d 35 e3 fb 3d 47 1a 17 3e 5f 04 82 3d
       0.10144287 0.12299196 0.14756118 0.0634849
0000d0 1d ad 01 3e 95 d2 fb 3c 05 99 93 3d fd 24 d6 3c
       0.12663694 0.030740062 0.072069205 0.026140684
0000e0 ae 81 a6 bd ac a3 d6 bc c0 65 b2 3a 54 d0 2e bd
       -0.08130203 -0.026201092 0.0013610646 -0.042679146
0000f0 b8 25 9f bc 87 e7 86 bd 91 e1 66 3b 7c 38 82 3d
       -0.019427165 -0.06587129 0.0035229663 0.0635843
000100 e1 45 e5 3c 64 15 ae 3d e6 1c 84 3c 6d ab 61 3d
       0.027987422 0.08500174 0.016127061 0.055095125
000110 e0 ba bf 3c b0 58 9b 3c 66 29 ed bb 1e 78 d8 3c
       0.023404539 0.018963188 -0.007237601 0.026424464
000120 58 77 13 bd 8c 4f 10 3c 61 b6 0d 3d e5 15 de 3c
       -0.036002487 0.008808028 0.03459776 0.02711005
000130 e5 03 0a 3d d7 27 dc 3c 61 44 5c bd d8 3b 81 3d
       0.03369512 0.026874466 -0.05377615 0.063102424
000140 7b 47 ac bd 6a 68 06 3e a9 4f 94 bb a0 ec 95 bc
       -0.08412071 0.13125768 -0.004526098 -0.018301308
000150 73 d8 c4 bb 60 bc 98 3c 02 17 2f 3d 5b 21 0f 3e
       -0.006007248 0.018644512 0.04274655 0.13977568
000160 99 62 d5 3d 7a b0 ca 3d 37 3c 91 3d 60 5d 5e 3d
       0.10419197 0.098969415 0.07091563 0.054288268
000170 3f 38 03 3e f7 a6 78 bd 6f 44 27 3d dc e7 82 3d
       0.12814425 -0.060706105 0.040836748 0.0639188
000180 c4 a1 a2 3d af 3d 91 bd 91 ae ce 3d 01 2b 95 3c
       0.079410106 -0.07091843 0.1009189 0.018208982
000190 80 01 ff bb a9 08 38 3d 0b a0 4e bd e1 45 37 bd
       -0.0077821612 0.044930134 -0.050445598 -0.044744376
0001a0 19 10 83 3d 78 ff 26 3d f0 69 81 3c b2 5b e2 bc
       0.06399555 0.040770978 0.015797585 -0.027631614
0001b0 06 b1 a5 bd 43 ae 17 3c c5 a6 5d bd 87 23 55 3d
       -0.08090405 0.009257856 -0.054114122 0.052035835
0001c0 28 b6 95 bd 5c 85 79 bb 00 c1 69 bb d3 8d de bc
       -0.07310134 -0.0038073873 -0.0035668015 -0.027167236
0001d0 30 31 65 bd 9a 1c d9 3d c6 82 e0 3d d7 d4 18 bd
       -0.055955112 0.106011584 0.10962443 -0.037312355
0001e0 e5 e3 f1 3c b3 f2 2a 3d eb 3d 6d bd 56 4b 8f 3d
       0.029527614 0.041735362 -0.057920378 0.06996791
0001f0 52 88 ec 3d 28 4c 73 3c 61 63 69 3d 59 95 47 bd
       0.115494385 0.0148497 0.05697954 -0.048726413
000200 25 8a 26 3d e5 1f e0 3c b2 fa 83 bd 95 10 3c 3c
       0.04065909 0.027358958 -0.06444301 0.011478563
000210 cb da 64 bc 19 ee 45 3d 79 d2 99 bd 3a 4f 00 3d
       -0.01396818 0.04832277 -0.075108476 0.031325556
000220 e2 5d f0 bc 59 06 06 bb 3a 71 21 3e 23 92 5d 3d
       -0.029341642 -0.002045056 0.15765849 0.054094445
000230 76 41 86 3c e1 cf 0a 3e b0 39 b5 3d 8b 23 05 3c
       0.016388636 0.13555862 0.08848894 0.00812615
000240 59 56 a9 3d 62 dc 9c 3d 7e 79 f0 3b b6 5e e3 3d
       0.08268423 0.07659222 0.0073387017 0.11102049
000250 e5 36 e8 bc fd 43 69 3d 5f a5 8d 3d 7d ec 6c 3c
       -0.028346488 0.056949604 0.06916308 0.01446068
000260 41 b5 a0 bc 19 73 0b be 1d ab 6c bc 8e e8 15 be
       -0.019617679 -0.13618125 -0.014445093 -0.14639494
000270 05 f0 ac bd 6b e7 f2 bd fb 8f 10 be 18 8a e7 bd
       -0.084442176 -0.11860546 -0.14117424 -0.11305636
000280 1f 40 5b bd 16 ba 47 bd 33 2e 3d 3b 14 51 e7 bd
       -0.053527948 -0.04876145 0.0028866648 -0.11294761
000290 8c 01 b5 bd a3 58 ba bd 11 2b 07 bd 5c 1b 29 bd
       -0.08838186 -0.09098937 -0.033000056 -0.041285858
0002a0 c6 4f a9 bd e0 52 ae bc c9 0f 02 be b8 4d 07 3d
       -0.08267169 -0.021279752 -0.12701334 0.033033103
0002b0 bd 8e 94 3c 37 a7 80 bd 58 81 46 3d e0 8a 1d bc
       0.01813447 -0.06281894 0.048463196 -0.00961563
0002c0 98 eb 4b bd 10 16 2a bd 0a fb 49 bd e8 72 75 bd
       -0.049785227 -0.041524947 -0.049311675 -0.059924036
0002d0 b0 a1 56 be 80 d3 fc bd a8 b6 f5 bc 94 e5 a3 bd
       -0.20960116 -0.12345028 -0.029994324 -0.08002773
0002e0 d2 54 94 be 3f bc 10 be b0 8b 6f be 50 3d be bc
       -0.28970963 -0.1413431 -0.2339313 -0.023222595
0002f0 7d 2f 32 be 91 af cc bc 2d 68 45 bd 9f 9a 31 bd
       -0.17400928 -0.02498606 -0.048195053 -0.04336035
000300 4d 53 1a be c3 0f 83 bd 5f d0 48 be dd 96 91 bd
       -0.15070839 -0.06399491 -0.19610737 -0.07108853
000310 6e aa 6f bc 39 d9 73 bd d7 12 8a bd c0 19 ad 3d
       -0.014628036 -0.05953333 -0.06741875 0.08452177
000320 88 29 08 3d 1a ff 89 3d 6c 59 b1 3b 3e c6 20 3e
       0.033242732 0.0673811 0.0054122712 0.15700623
000330 39 c8 08 bd cd 46 e7 3d d0 0a 96 3d 86 87 6d 3d
       -0.033394072 0.11292801 0.07326281 0.057990573
000340 5f 40 04 3d 80 24 09 bc 0e f8 08 3e c1 e3 ea 3d
       0.03228795 -0.008370519 0.13375875 0.11469222
000350 05 88 f6 3d 7e 7b dc 3c 20 79 05 3e 15 da 32 3e
       0.120376624 0.026914354 0.13034487 0.17466004
000360 90 76 5b 3d e1 fc 66 bc e8 57 b9 3d e8 2f 82 3d
       0.053579867 -0.014098377 0.0904997 0.06356794
000370 c9 9c f2 3d 7a eb 8c bb 74 b4 af bc 58 5d 8d bd
       0.11846311 -0.004300532 -0.021448351 -0.069025695
000380 a3 98 17 3e dc 81 53 bd 09 cb 37 be 80 2e 5c 3c
       0.1480432 -0.051637515 -0.17948546 0.013438821
000390 52 68 8b bd c7 af d9 bd 95 f8 0e be f9 9d 27 bd
       -0.06807007 -0.1062923 -0.13962014 -0.04092214
0003a0 58 05 0a be c6 36 c1 bd d8 09 f0 bd ff 38 61 3d
       -0.13478601 -0.09434275 -0.117206275 0.054985996
0003b0 43 75 1c 3e a6 e1 6f 3d 72 b4 b6 3d 2b 03 e2 3d
       0.15279107 0.058564804 0.08921136 0.110357605
0003c0 08 aa 9f be 61 b0 7c 3d 66 d0 ae bd ce 54 5e 3d
       -0.3118441 0.061691646 -0.085358426 0.054280095
0003d0 43 ed a5 3d 0c 9d d5 bc d4 dc bb 3c 8b a2 86 3d
       0.08101895 -0.026075862 0.022932447 0.06573971
0003e0 b0 71 7e bd 6e eb 4f bd a5 a0 84 bd a8 ef 7b bd
       -0.06212014 -0.050761633 -0.06475953 -0.06150785
0003f0 84 76 bf 3d 63 5c 78 bd e0 90 ad 3d 65 dd 8f 3d
       0.09348777 -0.06063498 0.08474898 0.070246495

decoder.decoder.0.bias f4 [16]
000000 a2 e6 96 bd 2d d9 b2 3d 34 e6 d7 3d b0 42 23 3d
       -0.073682085 0.08732829 0.10541955 0.03985852
000010 d6 10 86 3d f6 a5 c1 3d 5f 9e 43 bd e4 5e a1 bc
       0.0654618 0.09455483 -0.047758456 -0.019698568
000020 01 3d b5 bc e4 87 ca 3d b0 44 97 bd b9 8e a0 bd
       -0.022123815 0.098892 -0.07386148 -0.07839722
000030 8c 8e 4f 3d 7c 51 8a 3d d7 f4 16 3d c1 4e ea 3d
       0.050673053 0.06753823 0.03685459 0.11440802

decoder.decoder.2.weight f4 [16, 1, 3, 3]
000000 a2 70 b1 3e 98 f7 3e be 82 bf 99 3e b1 b3 37 3e
       0.34656245 -0.18649137 0.3002892 0.1793964
000010 c3 65 55 be b7 65 ef bc c5 02 06 bd 85 d2 7a 3e
       -0.208396 -0.029223306 -0.032717485 0.2449437
000020 48 b8 58 3e d0 cf 47 bd 84 70 79 3d b9 1f 50 3e
       0.21164048 -0.04878217 0.06089832 0.20324601
000030 ae 04 ea 3d 5e 30 be be c9 29 ca be a7 59 43 3d
       0.11426674 -0.37146276 -0.39485005 0.04769292
000040 55 25 70 be 33 d7 44 be da e4 8e be 12 c5 d9 bb
       -0.23451741 -0.19222717 -0.27908975 -0.006645807
000050 0e 48 3f be c0 27 9c be e3 d6 c0 be 5e 72 0e be
       -0.1867983 -0.30499077 -0.37663946 -0.13910815
000060 33 a1 15 3d 43 3b b4 3d 77 4d ba be 33 25 db bc
       0.036530685 0.08800366 -0.36387226 -0.026751136
000070 05 94 2e 3d 07 44 99 3e 90 1f 73 bd 1a 8c 8e be
       0.04262163 0.29934713 -0.059356272 -0.27841264
000080 ef 52 28 3e 45 78 1f bc 9a ef 63 be 4f 6f 4c 3e
       0.16437887 -0.009733264 -0.2225937 0.19964336
000090 57 72 74 be 92 5e 85 be 44 ec ba be f0 c0 9c 3d
       -0.23871742 -0.26048714 -0.3650838 0.076539874
0000a0 38 47 e8 be a6 10 a0 3d 22 4b 3d be e1 10 a1 be
       -0.45366836 0.078156754 -0.18485692 -0.3145819
0000b0 11 db a9 bd 48 ee 25 bd 27 d4 90 bd bc 05 38 bc
       -0.08293737 -0.040510446 -0.07071715 -0.011231836
0000c0 4a c7 15 be 40 4a 32 be 94 7e a7 bd 71 d2 a1 be
       -0.14626804 -0.17411137 -0.0817844 -0.31605867
0000d0 8e 2a 04 3e 19 03 8e be 6e 2b cd bd 25 f2 ac 3e
       0.12906858 -0.27736738 -0.10018049 0.33778492
0000e0 a5 c1 c4 3e a1 0f 1a 3c 8d e8 3d bd 3d ad 87 3e
       0.3842899 0.00940314 -0.046364356 0.26499358
0000f0 d6 31 8e 3e 7a c4 b9 3e 35 99 e9 3e 39 f8 c1 be
       0.27772397 0.36282712 0.456247 -0.3788469
000100 af 9d 50 3d 29 e4 92 3c 02 0c 70 3e cf 3c b6 3e
       0.05093163 0.01793106 0.2344208 0.35593268
000110 b5 e0 b4 3e 22 59 fa 3d e0 08 a1 3e 90 3e 05 be
       0.35327688 0.12224032 0.31452084 -0.13012147
000120 e0 e8 ea bd e4 d6 a1 3d a4 2a 6c be ec 7b 2b 3d
       -0.11470199 0.07902315 -0.23063141 0.041866228
000130 b5 7f 45 3e 56 63 90 3e 98 d2 76 be 05 b5 fc 3d
       0.19286998 0.28200787 -0.24103773 0.12339214
000140 ef c4 5e 3e c0 d9 aa be 99 af 9a 3b c9 b8 9d be
       0.21754812 -0.33369255 0.00472064 -0.30805042
000150 e5 3b 17 bc e2 93 23 3c 21 63 b8 be da 94 a4 bd
       -0.009230589 0.0099839885 -0.3601313 -0.08036204
000160 6c f2 dd be 5f 16 a1 be b6 79 34 3e db 44 05 be
       -0.43349016 -0.3146238 0.17624554 -0.13014548
000170 b1 2a c3 3e a8 84 1d be e9 24 70 3e 40 a1 17 bc
       0.38118508 -0.15382636 0.2345158 -0.009254754
000180 f4 c8 b6 3e d6 46 a6 3d 7a 7a 00 3f 93 e0 0c bf
       0.3570019 0.0811898 0.50186884 -0.55030173
000190 61 ae 79 3e 70 47 a4 be 80 77 9b bc 9e b2 b3 3e
       0.24382927 -0.32085752 -0.01897788 0.35097212
0001a0 45 7a 6f 3e 76 3f 7b be ba e4 66 be 73 9e a8 be
       0.23386486 -0.24535927 -0.2254819 -0.32933387
0001b0 11 19 4a 3e 22 e1 13 3e 78 35 9f 3e e5 a2 a2 be
       0.19736125 0.1444135 0.3109548 -0.31764904
0001c0 62 2b 95 be db 54 9b 3e 08 76 8a 3d c3 4b 84 3e
       -0.2913466 0.30338177 0.06760794 0.25839052
0001d0 7c 70 d4 bd af a8 56 3e bb 48 c3 be 67 13 90 3e
       -0.10373017 0.20962785 -0.38141426 0.28139803
0001e0 39 c8 c4 3d 53 4e da 3d 56 ab 08 be 14 10 98 be
       0.09608502 0.106594704 -0.1334661 -0.29699767
0001f0 b8 e5 9b be 68 df a8 be 23 17 0c be de 08 91 3e
       -0.304487 -0.32982945 -0.13680701 0.28327078
000200 8b 27 85 be 35 11 44 be 72 5d 85 3e 36 3d 87 be
       -0.2600673 -0.19147189 0.26047856 -0.26413888
000210 e3 09 b3 3c 68 77 f8 3d cb 80 89 3d 9a bc 05 3e
       0.0218553 0.1213215 0.067140184 0.13060227
000220 ec 82 b0 be a6 d8 55 be 20 c0 74 be 67 4f 40 3e
       -0.34474885 -0.20883426 -0.23901415 0.1878029
000230 15 53 2e be 9b 30 bf bc 4d 03 e9 3b cd 82 77 be
       -0.17023881 -0.023338607 0.007110989 -0.2417099
